youtube-ppo/tmp/ppo/actor2.pth (torch, 270526 bytes, 5 tensors)

fc1.weight f4 [256, 3]
0	0xbf09d89c	-0.53846145
1	0x3e9330ed	0.28748265
2	0xbe9ba524	-0.3039943
3	0x3e95da7b	0.2926825
4	0xbd76de23	-0.06027044
5	0xbe952a16	-0.29133672
6	0xbefa2ee8	-0.48863912
7	0x3eaff08f	0.3436322
8	0xbe716fa3	-0.23577742
9	0x3f07483f	0.52844614
10	0x3f49de3a	0.78854716
11	0x3e7de979	0.24796094
12	0xbf0c5a05	-0.5482486
13	0xbedb979e	-0.42889112
14	0xbdec56fc	-0.115400285
15	0xbf1ab490	-0.60431767
16	0x3e652fde	0.22381541
17	0xbedbf6f6	-0.42961854
18	0xbee3ad99	-0.44468382
19	0x3e4bba60	0.19895315
20	0xbe7fe724	-0.24990517
21	0x3bc79c33	0.0060916184
22	0x3f05bdf0	0.52242947
23	0xbea6725f	-0.32509133
24	0xbf0d03eb	-0.55084103
25	0xbb79f5b4	-0.0038140835
26	0x3e11fea3	0.14257292
27	0x3ecf0b3e	0.40438265
28	0xbf123d3b	-0.5712468
29	0x3e35f8b4	0.17770654
30	0x3f133ef3	0.5751793
31	0x3ea78096	0.3271529
32	0x3ea607a6	0.3242771
33	0xbeb0a105	-0.34497848
34	0x3ec80f00	0.39073944
35	0x3ea4ebc9	0.3221114
36	0xbf41cd88	-0.7570424
37	0xbebc153f	-0.3673496
38	0x3eefab9f	0.46810624
39	0xbe62f82c	-0.22164983
40	0x3e7d507e	0.24737737
41	0x3edbd5ed	0.4293665
42	0xbf2005bb	-0.62508744
43	0x3f190632	0.5977508
44	0xbef1ac45	-0.47201744
45	0x3f172351	0.59038264
46	0xbf5665d2	-0.83749115
47	0xbe95d59d	-0.29264536
48	0x3cbb1ce3	0.022840923
49	0x3f240da1	0.64083296
50	0xbe94b736	-0.2904603
51	0x3f199b3d	0.600025
52	0x3f0a8f57	0.5412497
53	0x3dbc97f5	0.09208671
54	0x3e7abf1b	0.24486963
55	0x3e044527	0.12917005
56	0xbdd2641b	-0.10273
57	0xbf02d73f	-0.5110969
58	0x3de054e7	0.10953694
59	0x3f00cef0	0.5031576
60	0x3ec09530	0.3761382
61	0xbdb7a98e	-0.08967887
62	0xbea45bdb	-0.3210133
63	0x3ea90883	0.33014306
64	0x3eecd6e1	0.4625769
65	0x3db24ce4	0.08706072
66	0xbe9ffa9e	-0.31245893
67	0x3ee218ae	0.44159454
68	0xbe0a8017	-0.13525425
69	0x3ee61bc6	0.44943064
70	0x3eca575c	0.39519775
71	0xbe246501	-0.16054155
72	0xbdd52ed2	-0.10409321
73	0x3f2e5393	0.68096274
74	0xbd8aae6d	-0.0677155
75	0x3e545d0f	0.20738624
76	0xbede5446	-0.4342367
77	0x3e8ed78c	0.27898824
78	0x3e5824ea	0.21107832
79	0x3f0a2484	0.5396197
80	0x3e932388	0.28738046
81	0x3f19bd62	0.600546
82	0x3f20a595	0.6275266
83	0x3eb12360	0.345973
84	0xbf0d5874	-0.55213094
85	0xbeee30a6	-0.4652149
86	0xbd7c22db	-0.06155668
87	0xbf2c11a4	-0.6721442
88	0xbda28b5f	-0.07936739
89	0x3e2ce7a9	0.16885246
90	0x3ecead39	0.40366533
91	0x3f07bc4f	0.5302171
92	0x3deb74c7	0.11496883
93	0x3f03daca	0.5150572
94	0xbedad764	-0.42742455
95	0x3e76fca2	0.2411981
96	0xbf367c30	-0.71283245
97	0x3edd5321	0.43227485
98	0xbeb37d16	-0.3505637
99	0xbf262edb	-0.64915246
100	0xbe912149	-0.28345707
101	0x3e8b1980	0.27167892
102	0x3d950bab	0.07277616
103	0x3f19029a	0.59769595
104	0xbecad233	-0.39613494
105	0xbea1451c	-0.3149804
106	0x3c9c16c2	0.01905382
107	0x3dbb7a03	0.09154131
108	0x3ef0aac1	0.47005275
109	0xbe66309c	-0.2247948
110	0x3ec9b4e9	0.39395836
111	0x3f204eaf	0.6262006
112	0x3ea1d44d	0.31607285
113	0x3e9267a3	0.28594694
114	0xbf3bd5a7	-0.7337288
115	0xbe1a394b	-0.15060918
116	0xbed3d72b	-0.41375098
117	0xbe9498a1	-0.29022697
118	0x3f01ddcd	0.50729066
119	0xbe89bfc0	-0.26904106
120	0x3e9a3c2e	0.30124038
121	0x3ddaac63	0.106774114
122	0xbdcb3c7c	-0.09923646
123	0xbd6b6a4a	-0.057474412
124	0x3ebd162e	0.36930984
125	0xbe723c2b	-0.23655765
126	0x3f0208bf	0.50794595
127	0x3e5dd493	0.21663122
128	0xbe391a93	-0.18076544
129	0x3f35315c	0.7077844
130	0xbd881c19	-0.06645984
131	0x3d79059a	0.060796358
132	0xbf16dac4	-0.5892756
133	0xbe85088c	-0.25983083
134	0xbeed6c3b	-0.46371636
135	0xbf358c89	-0.70917565
136	0xbe61213e	-0.21985337
137	0x3e3639ee	0.17795536
138	0x3ebfdec8	0.37474656
139	0x3f300a72	0.6876594
140	0x3cb43099	0.02199583
141	0xbe3d6a57	-0.18497597
142	0xbf036cff	-0.5133819
143	0xbe13a5de	-0.14418742
144	0xbe3f5bba	-0.18687335
145	0x3ec874b0	0.39151525
146	0xbec1987e	-0.37811655
147	0x3ed8280d	0.42218056
148	0xbdfe85d1	-0.12427867
149	0x3ec6d813	0.38836727
150	0x3ec7e63b	0.3904284
151	0x3f3d9385	0.7405322
152	0x3eafa213	0.3430334
153	0x3a35322e	0.00069120794
154	0x3d2ef08c	0.042709872
155	0x3e88d0d1	0.26721814
156	0xbefeb36d	-0.49746266
157	0xbe6b7b0c	-0.22996157
158	0xbee6800c	-0.45019567
159	0xbf0f80f8	-0.56056166
160	0x3f433242	0.7624856
161	0x3e624052	0.22094849
162	0x3f1a00b2	0.6015731
163	0xbc142df1	-0.009044156
164	0xbe314327	-0.17310773
165	0xbedb5430	-0.42837667
166	0xbed67feb	-0.4189447
167	0xbe3d0965	-0.18460615
168	0x3f0abfc3	0.54198855
169	0x3d501044	0.050796762
170	0x3e690136	0.22754368
171	0x3c500c50	0.012698248
172	0xbe8497a5	-0.25896946
173	0xbe3fdbb1	-0.1873615
174	0xbe0a2b4c	-0.13493079
175	0x3e854372	0.2602802
176	0xbe94c82c	-0.2905897
177	0xbe5a71b2	-0.21332434
178	0xbee91886	-0.45526522
179	0xbc3d391b	-0.01154926
180	0x3f0a2be3	0.53973216
181	0x3ef31578	0.47477317
182	0xbac0020c	-0.0014649048
183	0x3f1292f5	0.5725549
184	0x3ed810ee	0.42200416
185	0x3e58ae26	0.21160182
186	0x3ec69ef0	0.38793135
187	0xbd47a3c8	-0.04874018
188	0xbe4c85b1	-0.19972874
189	0x3f379958	0.7171836
190	0x3ed290eb	0.4112619
191	0x3e7082b1	0.23487355
192	0xbc686140	-0.014183342
193	0xbe9f9c03	-0.31173715
194	0xbe16ae69	-0.1471497
195	0x3ecd9bf5	0.40158048
196	0x3f30d978	0.6908183
197	0x3d59b753	0.053153347
198	0xbe9d38cb	-0.30707392
199	0x3f05ede8	0.5231614
200	0xbe4ee13d	-0.20203109
201	0xbef5ddeb	-0.48020872
202	0x3ede0630	0.43364096
203	0xbe32ebed	-0.17472811
204	0xbe2f993a	-0.17148295
205	0x3ebc4464	0.36770928
206	0x3ca02378	0.019548163
207	0xbdf7d9b8	-0.121020734
208	0x3ebc126d	0.36732808
209	0xbec302f3	-0.38088188
210	0xbe0af14e	-0.13568613
211	0x3d8481cb	0.064700685
212	0xbee751a3	-0.4517947
213	0x3f20b2ff	0.62773126
214	0x3ec857fd	0.3912963
215	0x3e58ce3e	0.21172425
216	0x3f3a76ef	0.7283773
217	0xbc618b31	-0.013766096
218	0x3e92fce2	0.2870856
219	0xbe33db66	-0.17564163
220	0xbefc7590	-0.49308443
221	0x3edd4142	0.4321385
222	0xbee85a69	-0.45381477
223	0x3f12005d	0.57031804
224	0xbf0def48	-0.5544324
225	0xbeba8408	-0.36428857
226	0xbf1a95d2	-0.6038486
227	0x3f12c0a5	0.573252
228	0x3eebd23f	0.46058843
229	0x3ef0705a	0.46960717
230	0x3ec59888	0.38592935
231	0xbeafbf64	-0.34325707
232	0xbf4152e7	-0.75517124
233	0xbe38a8f6	-0.18033203
234	0xbe871544	-0.26383412
235	0x3c2b6b87	0.010462648
236	0xbea8991f	-0.32929322
237	0x3e9a6cc1	0.30161098
238	0xbea9c23d	-0.33156005
239	0x3e2631ed	0.16229983
240	0xbd8729a2	-0.06599738
241	0x3ea3fca9	0.32028702
242	0xbeda977e	-0.42693704
243	0x3f1587f5	0.5841058
244	0xbed26aac	-0.4109701
245	0x3e57e50f	0.21083473
246	0xbca9e87b	-0.020740738
247	0x3f05e206	0.5229801
248	0xbdf75471	-0.12076653
249	0x3f2b2369	0.66850907
250	0x3f42ab36	0.760425
251	0x3eba549e	0.36392683
252	0xbf04e115	-0.5190595
253	0x3d91e973	0.07124605
254	0x3f04991d	0.5179613
255	0xbe735b97	-0.23765408

fc1.bias f4 [256]
0	0xbec6f44c	-0.3885826
1	0x3ebf5bff	0.37374875
2	0x3e7af70d	0.24508305
3	0x3bfb6bec	0.0076727774
4	0xbecd7253	-0.40126285
5	0x3d6cb20b	0.057786983
6	0x3b9b0c4e	0.0047316914
7	0x3d1c18e7	0.038109686
8	0xbe69e49d	-0.22841115
9	0x3e802df2	0.25035053
10	0xbea49a7f	-0.3214912
11	0x3eecc986	0.462475
12	0xbf042704	-0.51622033
13	0x3f2443b1	0.6416579
14	0xbdeb6cdc	-0.11495373
15	0x3f110dd7	0.5666174
16	0xbe84b0a3	-0.25916013
17	0xbea5d71c	-0.32390678
18	0xbe72342c	-0.23652714
19	0xbde232bd	-0.11044834
20	0xbf2c009d	-0.67188436
21	0xbd7c9a10	-0.061670363
22	0xbb248668	-0.0025104526
23	0xbf16cf1f	-0.5890979
24	0x3ea7669d	0.32695475
25	0x3ec922b1	0.3928428
26	0x3dd454a1	0.10367704
27	0xbeafa592	-0.34306008
28	0x3f31bb9f	0.6942691
29	0xbf073fc8	-0.528317
30	0x3cded670	0.027201861
31	0xbefcf161	-0.49402907
32	0x3e103b05	0.14085014
33	0xbe5c1daa	-0.21495691
34	0xbe4f355c	-0.20235199
35	0xbe88aeda	-0.266959
36	0x3e9117a6	0.28338355
37	0xbe9989a2	-0.29987818
38	0xbeb57b37	-0.35445568
39	0xbdd6f219	-0.10495395
40	0x3ef849fb	0.48493943
41	0x3e2fecda	0.17180195
42	0xbf1f5f4d	-0.6225479
43	0x3eba128a	0.3634227
44	0xbe848a2d	-0.2588667
45	0xbe569afa	-0.20957556
46	0x3be2956e	0.006914786
47	0x3e864a7e	0.26228708
48	0x3e419cbb	0.18907444
49	0xbf1abba7	-0.60442585
50	0xbd8ba30f	-0.0681821
51	0xbf36996a	-0.7132784
52	0xbea42a42	-0.3206349
53	0x3e0e8718	0.13918722
54	0x3d768c34	0.060192302
55	0xbea62cf8	-0.32456183
56	0x3ee077af	0.4384131
57	0x3edeb683	0.4349862
58	0xbe32babe	-0.17454049
59	0x3eb8cca4	0.36093628
60	0x3eb34076	0.35010117
61	0xbe8edada	-0.27901345
62	0xbdce60b4	-0.100770384
63	0xbe83e027	-0.25756952
64	0xbf277e3b	-0.6542699
65	0xbddd8db4	-0.10818043
66	0xbef006bd	-0.4688014
67	0x3abcdcc8	0.001440906
68	0xbf2795cf	-0.65462965
69	0x3dcf39df	0.1011846
70	0xbf23eadd	-0.6403025
71	0xbeb403f2	-0.3515926
72	0xbf0a5b7a	-0.5404583
73	0x3f0bae7c	0.5456312
74	0xbf0bced8	-0.54612494
75	0x3ec7c995	0.39020982
76	0xbe198b40	-0.14994526
77	0x3f0d63aa	0.552302
78	0x3d8ff6f0	0.070295215
79	0xbeb52c85	-0.35385528
80	0xbe56ba49	-0.209695
81	0xbf00d8ef	-0.50331014
82	0x3e785be3	0.24253802
83	0xbe82ab6d	-0.25521412
84	0x3e070fc1	0.13189603
85	0x3d585178	0.05281207
86	0x3f108cc0	0.5646477
87	0xbdcba0fa	-0.09942813
88	0x3f20f794	0.62877774
89	0x3e0702c6	0.13184652
90	0xbe601699	-0.2188362
91	0xbe363db7	-0.1779698
92	0xbdb849e5	-0.08998469
93	0xbcaa47ef	-0.020786254
94	0xbed2c77d	-0.41167822
95	0xbe8a2cca	-0.26987296
96	0x3e5e0b85	0.21684082
97	0x3e5a02d3	0.2129014
98	0x3ec5427c	0.38527286
99	0xbea434d1	-0.32071546
100	0x3cd00f2e	0.025397863
101	0xbdcb363f	-0.09922456
102	0x3eec306e	0.461307
103	0x3f0db584	0.55355096
104	0xbf02584d	-0.50915986
105	0xbeec6a85	-0.46175018
106	0xbd0c9167	-0.034318354
107	0x3ea67444	0.3251058
108	0xbf11b10c	-0.5691078
109	0x3e83a0d2	0.25708634
110	0x3da8f7dc	0.082504004
111	0xbe88c32d	-0.26711407
112	0xbedc8a5b	-0.43074307
113	0x3df6df46	0.12054305
114	0xbc9ecb10	-0.019383937
115	0x3dc13a85	0.0943499
116	0xbee00ee6	-0.43761367
117	0x3dae21af	0.085025184
118	0xbe8f36c2	-0.27971464
119	0xbda9620c	-0.08270654
120	0x3eed8eda	0.4639805
121	0x3dc041e9	0.09387571
122	0xbda5ca93	-0.080952786
123	0x3ed6df8f	0.41967437
124	0x3ed9f944	0.42572987
125	0xbd65b1ae	-0.05607765
126	0xbf101171	-0.56276613
127	0xbecc1a9c	-0.3986405
128	0x3f203272	0.62576973
129	0xbd27d2a3	-0.040972363
130	0xbefe9a3d	-0.4972705
131	0xbf293d41	-0.6610909
132	0xbeea3d59	-0.4574993
133	0x3e9219a6	0.28535193
134	0x3dc3ab77	0.09554189
135	0x3f275ab7	0.65372795
136	0x3f081161	0.5315152
137	0x3c36a971	0.011148796
138	0x3e322230	0.17395854
139	0x3dc53646	0.096294925
140	0xbf00e190	-0.5034418
141	0xbe71c240	-0.23609257
142	0x3f203c18	0.62591696
143	0x3cd986c9	0.026553528
144	0xbe8dbb3a	-0.27681905
145	0x3eb695d7	0.35661194
146	0xbf2cc85e	-0.67493236
147	0x3efd06cc	0.49419248
148	0x3ea16605	0.31523147
149	0x3d81cc17	0.06337755
150	0x3e15fd43	0.14647393
151	0xbef3ba83	-0.47603235
152	0xbf0c2e77	-0.547584
153	0xbe6c0a0f	-0.23050712
154	0x3ec39c40	0.38205147
155	0xbe254f75	-0.16143592
156	0x3edabe5c	0.42723358
157	0xbe9d3644	-0.30705464
158	0xbda01b36	-0.0781769
159	0xbf25befb	-0.6474454
160	0x3ea06475	0.31326643
161	0x3e1fbc5e	0.155992
162	0x3f079f0d	0.5297707
163	0xbedb128b	-0.42787585
164	0x3e427561	0.18990089
165	0xbef9b796	-0.48772877
166	0x3eef66a2	0.4675799
167	0xbeb75477	-0.3580663
168	0x3eb4b144	0.35291493
169	0xbef1d0e5	-0.47229686
170	0x3edd83cb	0.43264613
171	0xbf015510	-0.5052042
172	0xbdf2cb3c	-0.1185517
173	0x3e57edad	0.2108676
174	0xbc14a30f	-0.009072079
175	0x3eae1ca5	0.3400623
176	0xbe9f880f	-0.31158492
177	0x3d6ef857	0.058342304
178	0x3eb9d039	0.36291674
179	0x3f1f4b71	0.6222449
180	0xbe86987c	-0.2628821
181	0x3f021f83	0.50829333
182	0xbefefb7a	-0.49801236
183	0xbd3a17b4	-0.04543276
184	0x3ec403f2	0.3828426
185	0xbe56cb25	-0.20975931
186	0x3e52e379	0.20594586
187	0xbefa4894	-0.48883498
188	0xbf372f7e	-0.7155684
189	0xbe28853d	-0.16457076
190	0x3d99d488	0.0751124
191	0xbe05220e	-0.13001272
192	0xbe5cbd9a	-0.21556702
193	0x3e4a9d81	0.19786645
194	0x3ec4ee6d	0.38463154
195	0x3e991bfb	0.2990416
196	0xbe3f7427	-0.18696652
197	0xbd50d1cc	-0.050981328
198	0xbede9e94	-0.4348036
199	0x3e5ee703	0.21767811
200	0xbdaf07fc	-0.08546445
201	0xbe88e768	-0.2673905
202	0xbdd24f0b	-0.102689825
203	0xbf0a881a	-0.54113925
204	0xbec41c6b	-0.3830293
205	0xbf2cc3a9	-0.67486054
206	0xbf1f51e8	-0.62234354
207	0xbd862fad	-0.06552062
208	0x3e0f1272	0.1397188
209	0x3dfbfc89	0.12304027
210	0x3f0aad54	0.5417073
211	0x3e8dfc45	0.2773153
212	0xbec6a06b	-0.38794264
213	0xbdf94bb0	-0.12172639
214	0x3e48f6db	0.19625418
215	0xbc3cbb97	-0.011519334
216	0xbe9a9712	-0.30193383
217	0xbdaff554	-0.085917145
218	0xbebad3d8	-0.3648975
219	0xbeace455	-0.33767954
220	0xbea5a3a4	-0.3235141
221	0x3f2fbbb2	0.68645775
222	0x3ec5b29c	0.3861283
223	0x3f0e72d3	0.5564396
224	0xbe992404	-0.2991029
225	0xbdf47507	-0.11936384
226	0xbe990590	-0.29887056
227	0xbeafb0a0	-0.34314442
228	0x3e2a4be3	0.16630511
229	0xbb46d529	-0.0030339456
230	0xbe983b1b	-0.29732594
231	0x3c9b626f	0.018967835
232	0x3e203180	0.15643883
233	0x3ea48551	0.32132962
234	0x3ebf0f4e	0.37316364
235	0xbe98475a	-0.29741937
236	0x3dfa6864	0.12226942
237	0x3e65138c	0.22370738
238	0xbef749d2	-0.48298508
239	0x3ebf8b2c	0.37410867
240	0x3e035d8a	0.12828651
241	0xbe7142c1	-0.23560621
242	0xbe5bf320	-0.21479464
243	0x3c55937c	0.013035651
244	0x3bd6ae64	0.0065515507
245	0x3dc70477	0.097176485
246	0xbeb80e56	-0.35948437
247	0x3db25c9a	0.087090686
248	0x3e1c86c8	0.1528579
249	0x3eb83b63	0.35982808
250	0x3e2bbb6d	0.16770716
251	0x3d009f56	0.031401955
252	0xbe631e91	-0.22179629
253	0xbe379621	-0.17928363
254	0x3dd767b9	0.105178304
255	0x3ee0c861	0.43902877

fc2.weight f4 [256, 256]
0	0xbcf0a8e4	-0.029377408
1	0x3b9e3dcd	0.0048291446
2	0xba23c6e7	-0.00062475953
3	0x3d7944d4	0.060856655
4	0x3c2bf1eb	0.010494689
5	0x3cfac32a	0.03061064
6	0x3d2f82b0	0.042849243
7	0x3d022f22	0.03178323
8	0xba747af9	-0.00093261857
9	0x3c8611cc	0.016365908
10	0xbd72ddb3	-0.05929346
11	0x3d0789a2	0.03309024
12	0xbbaf92e6	-0.005358088
13	0xbc92a112	-0.01789907
14	0xbcadf8bf	-0.021236775
15	0xbd6a9942	-0.057275064
16	0x3d267a59	0.040644024
17	0xbd067865	-0.03282966
18	0xbb3c9246	-0.002877371
19	0xbc96ccdb	-0.01840823
20	0xbba94fc7	-0.005166981
21	0xbcabf991	-0.020993026
22	0xbc516892	-0.012781279
23	0x3bea5e64	0.0071523655
24	0xbd3031a6	-0.0430161
25	0x3d17ccc4	0.037060514
26	0x3c855195	0.016274253
27	0x3d6df591	0.05809552
28	0x3cbb1f75	0.022842148
29	0x3c611e4c	0.0137401335
30	0xbd49ef4a	-0.04930047
31	0x3b25ef6e	0.0025319713
32	0x3c9668e0	0.018360555
33	0xbcb5702e	-0.022148218
34	0x3d04cb4f	0.032420453
35	0xbcc7f70d	-0.024409795
36	0xbd36940a	-0.044574775
37	0xbd00c8c9	-0.031441484
38	0x3d542db2	0.05180139
39	0xbd8884d4	-0.0666596
40	0x3cf4bd06	0.02987529
41	0xbd341a2a	-0.043970264
42	0xbd0e69e2	-0.034768946
43	0xbd21b0cd	-0.03947525
44	0x3d2d94e4	0.04237832
45	0x3cbe9115	0.02326254
46	0xbc372ae4	-0.0111796595
47	0x3c4c25e5	0.012460207
48	0xbc9a6bad	-0.018850172
49	0x3c54415d	0.012955037
50	0x3d2b2142	0.041779764
51	0x3cdc9bc7	0.02692975
52	0xbca08435	-0.019594291
53	0x3cb8c1f5	0.022553423
54	0xbb75baa7	-0.0037495287
55	0xbc99b619	-0.018763589
56	0xbb12abbc	-0.0022380194
57	0xbd0fabb7	-0.03507587
58	0xbca3dd88	-0.020003095
59	0x3d403508	0.046925575
60	0x3d7a193f	0.061059233
61	0x3bac5dbc	0.0052601974
62	0xbceb27bf	-0.028705476
63	0xbd0dc0ef	-0.034607824
64	0x3c9a3e26	0.018828463
65	0x3c9fbe3b	0.019499889
66	0xbd02927f	-0.03187799
67	0xbcb4f369	-0.022088723
68	0x3c5f0d07	0.013613946
69	0xbb868589	-0.004105274
70	0x3d115ca9	0.03548876
71	0x3c3e8be4	0.011630032
72	0xbb16fe8d	-0.0023039908
73	0xbc99efe6	-0.01879115
74	0x3d1afce5	0.037838835
75	0xbd88a4c3	-0.06672051
76	0x3d4f2bd7	0.05057892
77	0xbd2c9583	-0.042134773
78	0xbc2b10d8	-0.010441028
79	0x3d6488d0	0.055794537
80	0x3d645ae6	0.05575075
81	0x3d87ccb6	0.066308424
82	0x3c19dafe	0.009390591
83	0x3d12251f	0.035679933
84	0xbca80c4e	-0.02051368
85	0xbc91bace	-0.01778927
86	0xbc0d7389	-0.008633503
87	0x3cbfe2eb	0.023423633
88	0x3b25ec8a	0.002531799
89	0xb8bbf260	-8.962001e-05
90	0x3c970327	0.01843412
91	0xbc8abc0a	-0.016935367
92	0xbd20eacb	-0.039286416
93	0xbb8417ee	-0.004031173
94	0xbd0b350b	-0.033986133
95	0xbcf152d8	-0.029458448
96	0xbd332db6	-0.043744765
97	0x3d06393f	0.032769438
98	0xbd87ba79	-0.06627364
99	0x3d24aecc	0.04020576
100	0xbd74f8bb	-0.05980752
101	0x3d4ce303	0.050021183
102	0xbc867afb	-0.016416064
103	0x3d40f4c1	0.047108416
104	0x3d71ef7a	0.059066273
105	0x3d78fb6c	0.06078665
106	0xbcadf549	-0.021235125
107	0xbd7a6652	-0.061132737
108	0x3d452148	0.048127443
109	0xbb9c920d	-0.004778153
110	0x3cd1ab80	0.025594473
111	0x3c98b019	0.018638657
112	0xbd5430b2	-0.051804252
113	0xbd77826c	-0.060427114
114	0xbcb779f1	-0.022397013
115	0x3c86dc2f	0.016462414
116	0xbca3d5cd	-0.01999941
117	0x3cc2c5c9	0.023775952
118	0x3d69780b	0.056999248
119	0xbc286058	-0.010276876
120	0xbd24faae	-0.04027813
121	0xbd94e7f8	-0.07270807
122	0x3b92782f	0.0044698934
123	0xbd5fd3ac	-0.054645225
124	0xbd127910	-0.035759985
125	0xbcca7e7c	-0.024718516
126	0x3c078dbb	0.008273537
127	0x3d132e33	0.03593273
128	0xbd4cd86e	-0.05001109
129	0xbd6fa440	-0.05850625
130	0x3d40a3f4	0.047031358
131	0x3d3cbdaa	0.046079315
132	0xbd62363c	-0.055227503
133	0x3caf397f	0.021389721
134	0xbd1220bb	-0.035675745
135	0xbb1e6fdd	-0.0024175562
136	0x3d46c377	0.048526254
137	0x3d539639	0.051656935
138	0xbc188c49	-0.00931079
139	0xbd29fc03	-0.041500103
140	0xbbdbe19a	-0.0067102434
141	0x3c8acca5	0.016943285
142	0x3d2e06dd	0.042487014
143	0xbcdca454	-0.026933827
144	0xbd78cc35	-0.060741622
145	0xbd550bf5	-0.052013356
146	0x3cf4c774	0.029880263
147	0xbbd4359f	-0.0064761187
148	0x3d021b0d	0.03176408
149	0x3c86206c	0.016372882
150	0xbd03dac0	-0.032191038
151	0xbd3c33f0	-0.04594797
152	0xbc89f104	-0.016838558
153	0xbd19963c	-0.03749679
154	0xbd2a839b	-0.041629415
155	0xbd3f3d35	-0.04668923
156	0x3b072622	0.0020622094
157	0xbd0e7575	-0.034779985
158	0xbcd91e5d	-0.026503736
159	0x3d47589b	0.048668485
160	0xbd7061ae	-0.058686905
161	0x3cecd3dc	0.028909616
162	0x3cbe0471	0.023195477
163	0x3c0bc4e4	0.008530829
164	0xbca294cb	-0.01984634
165	0xbc687a62	-0.014189335
166	0xbca9dd0e	-0.02073529
167	0x3cfe04c4	0.031008132
168	0xbd68d798	-0.05684623
169	0x3ca6b537	0.020350082
170	0xbd06f37d	-0.032947052
171	0xbd0206c7	-0.031744745
172	0x3ca2c423	0.019868916
173	0xbd516d4a	-0.051129617
174	0x3d33f0c8	0.0439308
175	0xbca78210	-0.02044776
176	0xbd1f9287	-0.0389581
177	0x3bcfac35	0.0063376673
178	0xbd215ef2	-0.039397188
179	0x3d01e79e	0.031715028
180	0x3aa70276	0.0012741822
181	0xbba8e33c	-0.0051540416
182	0x3c2a350f	0.010388627
183	0xbd3acdfb	-0.045606595
184	0x3d242a7a	0.04007957
185	0x3d35e985	0.044412155
186	0x3b008cb2	0.001961511
187	0xbcbb04b6	-0.022829395
188	0x3c37e19f	0.011223226
189	0x3ce3f51a	0.027826834
190	0x3c49b7d8	0.012311898
191	0xbcc5556d	-0.024088586
192	0x3d632c79	0.055462334
193	0x3cbfa517	0.02339415
194	0x3cee88a1	0.029117884
195	0xbd71bf9d	-0.059020627
196	0x3ce3c047	0.027801646
197	0xbd2f21ce	-0.042756848
198	0x3d04434b	0.032290738
199	0xbc85ee8f	-0.016349105
200	0x3d61daba	0.055140235
201	0xbd24bf7c	-0.040221676
202	0xbcdfd0b9	-0.027321206
203	0x3a0f90f7	0.00054766185
204	0xbd22d2da	-0.039751865
205	0x3d549d4f	0.051907834
206	0x3bae06a1	0.005310849
207	0x3d44cd7e	0.048047535
208	0x3cc350b2	0.02384219
209	0xbd495c02	-0.04916001
210	0x3d4ea9a7	0.05045476
211	0x3c7ddee8	0.0154950395
212	0x3d53c0c2	0.0516975
213	0xbc98b0dc	-0.01863902
214	0xbc87af0f	-0.016562967
215	0xbd4a785c	-0.04943119
216	0x3ccdf39e	0.02514058
217	0xbcfc9c5f	-0.030836282
218	0xbd42a11c	-0.047516927
219	0x3cf41409	0.02979471
220	0x3c92f188	0.017937437
221	0xbd5c2b17	-0.05375203
222	0x3d14208e	0.03616386
223	0x3caf1f52	0.02137724
224	0xbd7e5b7f	-0.062098976
225	0xbd3cc265	-0.046083827
226	0x3c95f4ac	0.018305145
227	0x3d210497	0.039311018
228	0xba3c0a28	-0.0007173144
229	0xbbc367b6	-0.005963291
230	0xbce6107d	-0.028084034
231	0x3d29b8e3	0.041436087
232	0xbd329f8b	-0.043609183
233	0xbd32fc68	-0.043697745
234	0xbccb81b1	-0.024842115
235	0xbc730c25	-0.014834438
236	0xbd74361a	-0.059621908
237	0x3d3cc581	0.046086792
238	0x3d61b0da	0.0551003
239	0x3d1993f0	0.0374946
240	0x3cc16808	0.023609176
241	0x3c017679	0.007901781
242	0xbcb55bca	-0.022138495
243	0x3cdf1d3a	0.027235616
244	0xbb06c000	-0.0020561218
245	0x3d2270f2	0.039658494
246	0xbd76e482	-0.060276516
247	0xbc10c39f	-0.008835702
248	0xbca7ee84	-0.020499475
249	0xbd75f5e9	-0.06004897
250	0x3d0754c4	0.033039823
251	0xbd7110e4	-0.058854
252	0x3d2207b6	0.039558135
253	0xbc57a3ab	-0.01316158
254	0xbd5006d0	-0.050787747
255	0x3d0a46c9	0.033758912

fc2.bias f4 [256]
0	0x3d0e789b	0.034782987
1	0x3c4ea8d5	0.012613495
2	0x3da6e202	0.08148576
3	0xbd05e6a2	-0.03269065
4	0xbd86c436	-0.06580393
5	0x3d06ecf4	0.03294082
6	0xbcf885a8	-0.03033717
7	0xbda8144e	-0.08206998
8	0xbd9edfb5	-0.077575125
9	0x38e1c4ed	0.00010765516
10	0xbd77815e	-0.06042611
11	0xbdac8163	-0.08423116
12	0x3c61eb05	0.013788943
13	0xbd0a3dfa	-0.03375051
14	0x3dc61016	0.09671037
15	0x3cdbea32	0.026845071
16	0x3e349039	0.17633142
17	0xbdce08fa	-0.10060306
18	0x3ceab11d	0.028648907
19	0xbd0806f3	-0.033209752
20	0x3da71405	0.08158115
21	0xbd74b9c1	-0.05974746
22	0x3b728d98	0.0037010666
23	0x3c5ac40d	0.013352406
24	0xbb516270	-0.0031949542
25	0xbd6bd2b7	-0.057574
26	0xbb6ea2e0	-0.0036413
27	0x3cc2afb7	0.023765428
28	0x3d09ccea	0.033642687
29	0x3e1a39fd	0.15061183
30	0xbd576222	-0.05258382
31	0x3dbe13d5	0.092811264
32	0x3d161601	0.03664208
33	0x3c4cfb04	0.012511019
34	0xbd943cc1	-0.072381504
35	0x3d18bdf5	0.037290532
36	0x3d1c5019	0.038162325
37	0xbd03c7f9	-0.03217313
38	0x3cdd561a	0.027018595
39	0xbd523224	-0.05131735
40	0xbd55e54c	-0.052220628
41	0x3c066ec8	0.008205123
42	0x3c64b58c	0.0139593
43	0xbce5c87a	-0.028049696
44	0x3be4e8aa	0.0069857435
45	0xbc885154	-0.016640343
46	0xbc623a78	-0.013807885
47	0x3d55049c	0.05200635
48	0xbb695804	-0.003560544
49	0x3d79a044	0.060943857
50	0xbd31b3ae	-0.043384247
51	0x3d335edd	0.04379164
52	0xbb9e03a7	-0.0048222127
53	0xbd2ff459	-0.042957637
54	0xbd312e21	-0.043256883
55	0x3cb59cc7	0.022169484
56	0x3c974dd0	0.018469721
57	0xbd4ad443	-0.049518835
58	0xbc01a767	-0.007913447
59	0xbcf9bd47	-0.030485762
60	0xbc5fb019	-0.013652825
61	0x3d0239a8	0.031793267
62	0x3d5afbc4	0.05346276
63	0xbb96f7fe	-0.0046071997
64	0xbd4fe67d	-0.05075692
65	0x3d33769b	0.043814283
66	0xbdac3168	-0.08407861
67	0xbd0b38f5	-0.033989865
68	0x3c39b53b	0.011334713
69	0xbd82cfce	-0.06387292
70	0x3c9b8d44	0.01898826
71	0xbcae341c	-0.021265082
72	0x3cce09e8	0.025151208
73	0xbd16aa0b	-0.03678326
74	0x3d940f8e	0.07229529
75	0xbccc76e5	-0.024959037
76	0xbd431ce7	-0.047634985
77	0x3daf0325	0.08545522
78	0x3d156999	0.03647766
79	0x3d2b79fe	0.041864388
80	0x3e04e431	0.12977673
81	0x3c512ef2	0.01276754
82	0x3c8e7a48	0.017392293
83	0xbd1179b6	-0.035516463
84	0xbcc2e830	-0.023792356
85	0xbd8cc986	-0.06874375
86	0xbcd7bd28	-0.026335314
87	0x3cf098ef	0.0293698
88	0xbd89d593	-0.06730189
89	0xbd8982a0	-0.06714368
90	0xbd90073f	-0.07032632
91	0xbc9a702d	-0.018852318
92	0xbd0e2cd5	-0.034710724
93	0x3c8f8f8d	0.017524505
94	0x3c48de6d	0.012260062
95	0xbb1d67a2	-0.0024018069
96	0x3dcdccff	0.100488655
97	0x3d203666	0.03911438
98	0x3c854e8b	0.016272804
99	0xbd3d9356	-0.04628309
100	0xbc827da5	-0.015929053
101	0xbda8e09e	-0.08245967
102	0xbc872302	-0.016496185
103	0xbc85b6d9	-0.01632254
104	0xbd16f213	-0.036851954
105	0x3ca65996	0.02030639
106	0x3cf2dbe2	0.029645864
107	0x3e36598d	0.17807598
108	0xbd412043	-0.047149908
109	0x3d508f53	0.050917935
110	0xbd291f10	-0.04128939
111	0xbd1b9c79	-0.03799102
112	0xbda07845	-0.078354396
113	0xbcc1acd8	-0.023641989
114	0xbd53bde2	-0.05169476
115	0x3c91a7f6	0.017780285
116	0x3df0d067	0.117584996
117	0xbd282305	-0.041049022
118	0x3cb7c357	0.022432012
119	0xbd6594cd	-0.05605011
120	0xbd44fc37	-0.048092093
121	0x3d2f8dd6	0.042859875
122	0x3c1a22c9	0.0094077075
123	0xbcbedf80	-0.023299932
124	0xbd07ebf6	-0.033184014
125	0x3c3b7c7d	0.011443255
126	0xbc8cd025	-0.017189095
127	0x3b8fdefb	0.004390595
128	0x3e444fc5	0.19171055
129	0xbd787809	-0.06066135
130	0x3d323d2a	0.04351536
131	0xbd8a8be8	-0.06764966
132	0xbceff808	-0.029293075
133	0xbbdd1cce	-0.0067478186
134	0x3c896886	0.016773473
135	0x3b997c13	0.0046839803
136	0x3d30b9c7	0.04314592
137	0xbd3a82f7	-0.045535054
138	0x3d305d07	0.043057468
139	0xbd8e6762	-0.069533125
140	0xbda51317	-0.08060282
141	0xbd9a4c88	-0.075341284
142	0x3d60292b	0.05472676
143	0xbcc05286	-0.02347685
144	0xbd23c41a	-0.03998194
145	0xbd1b33b6	-0.037891112
146	0x3cd01c57	0.025404138
147	0xbcfb390c	-0.03066685
148	0xbcc6e31d	-0.024278218
149	0x3c84de7a	0.016219366
150	0x3ce7b1f0	0.02828309
151	0x3cc1c7ee	0.023654904
152	0x3d81bb33	0.063345335
153	0xbd3ea802	-0.046546943
154	0xbd1a6e58	-0.03770289
155	0xbc15cf59	-0.009143674
156	0x3e2ebe75	0.17064841
157	0xbc80da13	-0.015728986
158	0x3d6c6fbc	0.057723746
159	0x3c0b5c4a	0.00850589
160	0xbcfe2c7c	-0.031027071
161	0xbcd87816	-0.026424449
162	0xbc2d8a66	-0.010592079
163	0x3c891d8f	0.016737727
164	0x3d47e001	0.04879761
165	0x3d3a5c43	0.045498144
166	0xbc9b147c	-0.018930666
167	0xbd5bdb55	-0.05367597
168	0xbc68e548	-0.014214821
169	0xbc5f4ef3	-0.013629663
170	0xbd2c961a	-0.042135336
171	0xbc15c192	-0.009140389
172	0x3c292475	0.010323633
173	0x3cbe0522	0.023195807
174	0xbd89476c	-0.06703076
175	0x3e2c79e3	0.16843371
176	0xbd7761ce	-0.06039601
177	0x3d647b4a	0.05578164
178	0xbb9b8c7d	-0.004746972
179	0x3c83398a	0.016018648
180	0xbca38b88	-0.019963995
181	0x3cd05ae5	0.025433967
182	0xb8ac90fb	-8.228604e-05
183	0x3e301998	0.17197263
184	0x3d3124fd	0.043248165
185	0xbd4a5bd2	-0.049403973
186	0xbd90a6d8	-0.07063073
187	0x3d24309a	0.040085413
188	0x3dc09b46	0.09404616
189	0xbd635f94	-0.055511072
190	0xbcb37d2b	-0.02191027
191	0x3d775f88	0.06039384
192	0xbca7ab1f	-0.02046734
193	0x3c7ffc2c	0.015624087
194	0x3d58ef4d	0.05296259
195	0x3b443446	0.0029938384
196	0xbd5a1dea	-0.053251185
197	0x3d308d49	0.04310349
198	0x3e0b325b	0.13593428
199	0xbd7609d1	-0.060067955
200	0x3bd38dba	0.006456104
201	0xbc8744e4	-0.016512342
202	0x3cf0c294	0.029389657
203	0x3d27620a	0.04086498
204	0x3d1f0334	0.038821414
205	0xbc0ec803	-0.008714679
206	0x3d65cff3	0.05610652
207	0xbc22709b	-0.009914543
208	0xbca1d620	-0.019755423
209	0xbd04d47a	-0.032429196
210	0xba846169	-0.0010099831
211	0xbcdc323e	-0.026879426
212	0xbd19f024	-0.03758253
213	0x3c1ee971	0.009699211
214	0x3db395fd	0.08768842
215	0xbd81e1ec	-0.06341919
216	0xbd043c5e	-0.032284133
217	0xbd852119	-0.065004535
218	0xbcfb74e5	-0.030695388
219	0x3d2fb285	0.04289486
220	0xbd5d52b6	-0.054033957
221	0x3e282662	0.16420892
222	0x3c9de0df	0.019272266
223	0xbce5c8cb	-0.028049847
224	0x3d1ca991	0.03824765
225	0x3c443b81	0.011977077
226	0xbd4bdf5f	-0.04977357
227	0xbd26e3db	-0.040744644
228	0xbd533efb	-0.051573735
229	0x3c5f00b5	0.013611008
230	0x3cd0ae2f	0.025473682
231	0xbcfa14ae	-0.030527439
232	0xbd7d73ee	-0.061878137
233	0xbd6183d9	-0.05505738
234	0xbd96f6b7	-0.07371276
235	0xbb981841	-0.004641563
236	0xbdaca54c	-0.084299654
237	0xbc2c00ae	-0.010498209
238	0xbd8d7804	-0.06907657
239	0x3d4783ea	0.048709787
240	0xbcf3fcaf	-0.029783575
241	0x3dc31d5a	0.09527083
242	0x3c41fec7	0.011840529
243	0x3d4ab29b	0.049486738
244	0xbd31a29e	-0.043367974
245	0x3d6dd48b	0.058064025
246	0x3b859d19	0.0040775654
247	0x3b1c70a5	0.0023870852
248	0x3da60b05	0.081075706
249	0xbd82783a	-0.06370588
250	0xbc285083	-0.010273102
251	0x3cbf7410	0.023370773
252	0xbd605c8e	-0.054775767
253	0x3c7eb86d	0.0155469
254	0xbc87c5cb	-0.016573807
255	0x3d013acb	0.03155021

mu.weight f4 [1, 256]
0	0xbce91b95	-0.028455535
1	0xbcf13d87	-0.029448284
2	0xbe4457e4	-0.19174153
3	0xbb8e7d61	-0.0043484424
4	0xbd163f71	-0.036681596
5	0xbbb9706a	-0.0056591528
6	0x3d30ca18	0.04316148
7	0x3c2edc58	0.010672651
8	0xbcbe2e61	-0.023215475
9	0xbb5c15fc	-0.003358244
10	0xbbfe34e0	-0.007757768
11	0xbbec5417	-0.0072121727
12	0x3d0a044f	0.033695515
13	0x3bc96057	0.006145518
14	0x3e35b22b	0.17743747
15	0x3b39c44e	0.0028345766
16	0x3da79d7d	0.081843354
17	0x3d142a94	0.03617342
18	0x3d328f2a	0.043593563
19	0x3b5d2bf2	0.0033748117
20	0xbde7188b	-0.11283978
21	0x3c751cb1	0.014960454
22	0xbce56ca0	-0.028005898
23	0x3d170e88	0.036879092
24	0x3dd53f23	0.10412433
25	0x3b069273	0.0020534068
26	0x3d6942c3	0.056948435
27	0xbd15700f	-0.03648382
28	0xbca48ab5	-0.020085672
29	0x3e32e7f4	0.17471296
30	0x3ccc3844	0.024929173
31	0x3e0f287d	0.13980289
32	0x3ae78585	0.0017663693
33	0xbd385c18	-0.045009702
34	0xbc7719ee	-0.015081866
35	0x3dabce61	0.08388973
36	0xbcb23be8	-0.021757081
37	0xbb7622ac	-0.0037557287
38	0xbdacd73c	-0.0843949
39	0xbc90d2ab	-0.01767858
40	0xbd601f45	-0.05471732
41	0xbbae4a52	-0.0053189183
42	0xbddf145d	-0.10892556
43	0x3d22283c	0.03958915
44	0xbd9df01f	-0.07711815
45	0x3c314de7	0.010821796
46	0xbcb30c17	-0.02185635
47	0xbdd0cab2	-0.10194911
48	0xbd0d89b7	-0.034555163
49	0x3d442d56	0.0478948
50	0x3d414f09	0.047194514
51	0x3c8c66ac	0.017138802
52	0x3a927ae1	0.0011175537
53	0x3d54b491	0.051930014
54	0xbd60f599	-0.05492172
55	0x3cf82605	0.030291567
56	0x3d2bbd2e	0.041928463
57	0xbaf532a8	-0.0018707113
58	0x3b9d73b5	0.004805053
59	0xbd520b31	-0.051280204
60	0xbcf9cc13	-0.030492818
61	0xbcb5c821	-0.022190155
62	0xbd202846	-0.039100908
63	0xbbba18ff	-0.0056792493
64	0xbd4eab6f	-0.05045646
65	0xbd168ece	-0.036757283
66	0xbc178215	-0.009247323
67	0x3c8a5313	0.016885316
68	0x3ce51aae	0.027966823
69	0xbae0ca2b	-0.0017150094
70	0x3c81fe4c	0.015868329
71	0x3a9222b8	0.0011149263
72	0xbd11b77f	-0.035575386
73	0x3cd7801c	0.026306204
74	0x3d25687c	0.040382847
75	0xbcd7286f	-0.026264397
76	0x3bdd1953	0.0067474036
77	0x3d959d33	0.07305374
78	0x3d085391	0.03328282
79	0x3d37226c	0.04471056
80	0x3e5312d8	0.20612657
81	0xbc15703f	-0.009121
82	0xbb66839d	-0.0035173662
83	0xba197f87	-0.000585549
84	0xb9d1a673	-0.000399876
85	0xbcc3c622	-0.023898188
86	0xbd7c364e	-0.061575226
87	0xbbaf3134	-0.0053464416
88	0x3cd9ba33	0.026578045
89	0x3b94aa54	0.0045369063
90	0xbc83e17e	-0.016098734
91	0x3abab705	0.0014245218
92	0x3c81f60f	0.0158644
93	0xbc0c1421	-0.008549721
94	0x3c3fc7a7	0.011705316
95	0xbc0a087c	-0.008424874
96	0x3e26bb5e	0.16282412
97	0x3cb5f49a	0.022211362
98	0xbd22e892	-0.039772578
99	0x39bcf792	0.0003604261
100	0x3ce2d99f	0.02769166
101	0xbadfc74a	-0.0017072943
102	0x3c45f4f0	0.012082323
103	0xbb6d292b	-0.0036187868
104	0xbcc514b9	-0.024057733
105	0x3d39592c	0.045251057
106	0x3d5b1bb9	0.053493235
107	0x3de95c60	0.11394572
108	0x3ca96e72	0.020682547
109	0x3dfa826e	0.12231909
110	0xbc9f4166	-0.019440364
111	0x3b8bdbcf	0.0042681466
112	0xbcd2f199	-0.025749968
113	0x3c937f9c	0.018005185
114	0xbd36f052	-0.04466278
115	0xbca2373e	-0.019801732
116	0x3dab7613	0.0837213
117	0xb99d5c88	-0.00030014315
118	0x3ccc8417	0.02496533
119	0x3cf900ac	0.030395828
120	0x3ba86383	0.005138816
121	0xbc135c36	-0.008994153
122	0x3d3e0d1f	0.046399232
123	0xbcba1a58	-0.02271764
124	0x3d446103	0.04794408
125	0xbdea8c34	-0.11452523
126	0xbd16a94c	-0.036782548
127	0xbbf5e932	-0.0075046057
128	0x3de9331f	0.11386704
129	0xbd00a37b	-0.031405907
130	0xbb304e4e	-0.0026902142
131	0x3a75b8d7	0.00093735516
132	0xbe095786	-0.13412294
133	0x3d1c71aa	0.038194336
134	0xbb8d5f88	-0.0043143667
135	0xbd1e20a5	-0.03860535
136	0x3d9db4f1	0.077005275
137	0x3d1d1552	0.03835041
138	0x3bd730bc	0.006567089
139	0xb8baf09a	-8.913987e-05
140	0xbd040342	-0.03222967
141	0x3d1aa228	0.0377523
142	0xbcef47b4	-0.029208995
143	0xbe3c3db6	-0.18382916
144	0x3c9c18a8	0.019054726
145	0x3b9933a9	0.004675348
146	0xbd6c496a	-0.0576872
147	0x3aeecdb8	0.0018219268
148	0x3d505544	0.050862566
149	0xbbaaf1a8	-0.005216796
150	0xbdc95352	-0.09830345
151	0xbba981e3	-0.0051729544
152	0x3d11c8f1	0.035592023
153	0x3bab3a35	0.0052254447
154	0xbd9abf4b	-0.075560175
155	0xbc5a33a5	-0.013317977
156	0x3db5e5f7	0.08881753
157	0xbb809e54	-0.003925124
158	0x3d596d0e	0.05308252
159	0xbd729699	-0.059225652
160	0xbd2df36a	-0.042468466
161	0x3ca52ff2	0.020164464
162	0xbc3ced07	-0.011531121
163	0xbd2792d6	-0.040911518
164	0xbd337777	-0.043815102
165	0x3d253042	0.040329225
166	0x3d140ace	0.036143117
167	0xbc2cf81d	-0.010557202
168	0x3d3663ca	0.04452876
169	0xbb373dc0	-0.002796039
170	0xbca24c42	-0.019811753
171	0xba8a8d43	-0.0010570664
172	0x3c3761ec	0.01119278
173	0x3bc492e6	0.005998957
174	0x3d3d530e	0.046221785
175	0x3e2a0109	0.16601957
176	0xbb1fb426	-0.0024368851
177	0xbd2273c1	-0.039661173
178	0x3a4e9844	0.0007880966
179	0x3acca54b	0.0015613226
180	0x3acb9ad3	0.0015533812
181	0x38d98f75	0.00010374087
182	0x3d01e744	0.031714693
183	0x3dba5cf3	0.0909976
184	0xbded705b	-0.11593696
185	0xbb7e7281	-0.0038825574
186	0xbc139500	-0.009007692
187	0xb9e36152	-0.00043369323
188	0x3daf7185	0.08566574
189	0x3cc8f6a9	0.02453168
190	0x3c310021	0.010803253
191	0xbbd79c50	-0.006579913
192	0x3d7515ea	0.059835352
193	0xbd07f010	-0.033187926
194	0x39345296	0.00017196903
195	0xbc496820	-0.012292892
196	0xba5edc89	-0.000850149
197	0xbca2fe49	-0.019896643
198	0x3d97ca5f	0.07411646
199	0xbcb3c410	-0.021944076
200	0x3b4d2e3b	0.0031308073
201	0xbd2725ae	-0.04080742
202	0xbd36d700	-0.044638634
203	0xbc7024ab	-0.01465718
204	0x3e5ac716	0.21365008
205	0x3beec665	0.007286834
206	0x3d828f9e	0.06375049
207	0xbc02948d	-0.007969988
208	0xbb28f1ad	-0.0025778816
209	0xbc9cd85b	-0.019146135
210	0xbce597ea	-0.02802654
211	0xbccab426	-0.024744105
212	0xbd22944c	-0.03969221
213	0xbe128213	-0.14307432
214	0x3d33e858	0.043922752
215	0x3a0e1043	0.00054192933
216	0xbd001685	-0.031271476
217	0xbba621fa	-0.0050699683
218	0x3cbd8557	0.02313487
219	0xbd875392	-0.06607737
220	0xbc793fa3	-0.015212926
221	0x3e0d6cb8	0.13811004
222	0xbd306fce	-0.043075375
223	0xbc9f132b	-0.01941832
224	0x3c099cd4	0.008399207
225	0x3d452841	0.048134092
226	0xbd296d5c	-0.04136406
227	0x3c06abaa	0.008219639
228	0xbc0864f6	-0.008324852
229	0xb9ebd251	-0.0004497939
230	0x3c71e161	0.014763207
231	0xbc0680d2	-0.008209424
232	0x3ac76429	0.0015212345
233	0xbbe78168	-0.007064987
234	0xbc6a327f	-0.014294266
235	0x3d0132f2	0.031542726
236	0x3b9ab18e	0.004720873
237	0xbc81a0c9	-0.015823739
238	0x3a7b8bbe	0.00095957133
239	0xbc0f3668	-0.008740999
240	0x3bbb4361	0.0057148193
241	0x3e59bc39	0.21263207
242	0xbd5e8d01	-0.05433369
243	0x3cacbc6d	0.021085942
244	0x3d2a9d5f	0.041653987
245	0x3de091cf	0.10965311
246	0xbcb7028c	-0.022340082
247	0xbbe7053e	-0.0070501855
248	0xbe3316af	-0.17489122
249	0xbd18701b	-0.037216287
250	0x3cf60b8f	0.030034808
251	0xbd5d90ca	-0.05409316
252	0xbc89cac1	-0.016820313
253	0xbc215ebe	-0.009849248
254	0x3b166847	0.0022950338
255	0xbbb1c9fd	-0.00542569
