youtube-ppo/tmp/ppo/actor2-batch.pth (torch, 270970 bytes, 5 tensors)

fc1.weight f4 [256, 3]
000000 69 97 90 3e f4 0a 97 3e e0 a0 d3 3e 41 b0 1b 3f
       0.28240517 0.29500544 0.41333675 0.6081582
000010 04 dc b8 3d 85 e9 33 3e d8 a1 0c 3e 7c 6d f2 3d
       0.0902634 0.1756955 0.13733613 0.11837289
000020 e0 7b 74 3d b5 77 15 3e 96 50 be 3d 0d 60 9c be
       0.05968845 0.14596446 0.09292714 -0.3054203
000030 b4 b7 f0 3d 1e 05 e2 be 1f fe 5a bc a4 18 bd 3e
       0.117537886 -0.4414453 -0.013366251 0.36932862
000040 18 5e 5b 3e e6 2b 7e be 1f 7c a2 3e 8f 73 ca bc
       0.21422613 -0.24821433 0.31735322 -0.024713306
000050 d6 e3 c9 3e e9 47 e4 bd 7f 45 75 3e bf 47 bf 3e
       0.39431638 -0.11146528 0.23952292 0.37359425
000060 bd 9b fe be 0c 7d 9c be 86 fd c5 be ee 75 06 3f
       -0.49728194 -0.30564153 -0.38669986 0.52523696
000070 75 37 2b bf 03 9e c2 3e d6 4f ef be e0 56 38 be
       -0.66881496 0.38011178 -0.46740597 -0.1800189
000080 8d 80 4f bd 6c d5 2e bf 56 e7 01 bf 5e 13 c2 bd
       -0.050659705 -0.68294406 -0.50743616 -0.0947635
000090 18 e3 a9 3e d9 f6 ba be 32 64 3e 3e 3d dc 12 be
       0.3318107 -0.36516455 0.18592909 -0.14341827
0000a0 23 a1 25 3e 76 e0 b3 3d 83 d7 9a 3e 9d c7 bd 3e
       0.1617475 0.08783047 0.30242547 0.37066355
0000b0 12 0c ef 3e d7 0a 31 3e 71 d4 dd 3d 99 6f 32 3e
       0.46688896 0.17289291 0.108315356 0.17425384
0000c0 00 e4 08 3f 6c 21 b3 3e 77 72 f5 be b8 f2 15 3f
       0.534729 0.34986436 -0.47938892 0.58573484
0000d0 3c e7 a6 3d d8 18 43 3e 01 6f c6 be 4e f7 a0 3e
       0.08149573 0.19052446 -0.38756564 0.31438679
0000e0 f6 f7 f7 3d 42 13 dd bc 3b c5 19 3d 4a 33 9b 3e
       0.12107842 -0.026986722 0.03754161 0.30312568
0000f0 87 c5 0e 3e 14 5e 04 bf b8 5d e7 bd 06 82 d4 3e
       0.13942538 -0.5170605 -0.11297172 0.4150545
000100 e6 c9 23 bf 17 fa 4e be 94 50 1d bf 25 ab 81 3e
       -0.6397995 -0.20212589 -0.6145108 0.25325885
000110 f3 5e 9d be 61 1d 1f bf fa f1 2b bc 9b 20 52 3e
       -0.30736503 -0.62154204 -0.010494703 0.2052025
000120 73 ee 11 3f 9e 56 9e 3e 37 38 09 3f 78 0d e5 be
       0.5700447 0.3092546 0.536014 -0.44736838
000130 f0 3b cd be 6a fc 4a 3e 23 33 12 be 46 67 c8 bd
       -0.4008479 0.19822851 -0.1427732 -0.09785323
000140 c1 a0 c8 be 9a d7 c4 3e c7 72 1c bf c3 41 c0 be
       -0.39185145 0.3844574 -0.61112636 -0.37550172
000150 06 b1 13 3f b1 51 06 be 6c c0 93 3e 17 50 ce be
       0.5769199 -0.131171 0.28857744 -0.4029548
000160 37 dc 87 be a7 eb 85 be 50 72 1a 3e 01 25 23 3f
       -0.26535198 -0.2615635 0.1508267 0.6372834
000170 b3 87 e3 3e 89 f8 bf 3e d1 a0 12 3e a6 d6 e7 be
       0.44439468 0.37494305 0.14319159 -0.4528095
000180 ca 16 d5 be 09 9b e3 bd c2 ed d8 bd 58 6e ef be
       -0.4161895 -0.11113555 -0.10592224 -0.46763873
000190 d2 80 93 be 1c 66 ae 3e 2f 1b be 3e 62 36 1c 3f
       -0.2880922 0.34062278 0.37130114 0.6102048
0001a0 51 2d d8 be 12 c2 47 3e b2 16 c1 3e 78 56 b6 3e
       -0.42222074 0.19507626 0.37712628 0.35612845
0001b0 16 8d 03 bf 09 41 af 3e c9 30 56 3c 63 45 1e 3e
       -0.51387155 0.34229305 0.013073155 0.15456156
0001c0 00 58 bd 3e 31 bf d4 be 6b 98 bf 3e 25 7a 5f 3e
       0.369812 -0.41552117 0.37420973 0.21823938
0001d0 98 bb 49 bd 10 4d 9a be 6e 4b 91 be ab e6 dc 3e
       -0.04925117 -0.3013692 -0.2837786 0.43144736
0001e0 4f 39 ac 3e 99 a2 cf be 90 5f ed be 67 87 df 3e
       0.33637473 -0.4055374 -0.4636197 0.4365799
0001f0 64 15 30 3f c2 a6 12 be 6b ff e1 3e f1 43 47 be
       0.6878264 -0.14321426 0.4414018 -0.19459511
000200 16 c6 7a bd 89 f3 e8 3e fa 1a e0 be 58 df 6d bd
       -0.061224066 0.45498303 -0.4377058 -0.058074325
000210 5c b3 31 bf 29 cd 42 3e 21 e0 00 be 3e 69 92 be
       -0.69414306 0.19023575 -0.12585498 -0.28595918
000220 a3 89 90 3e ed 4b e6 3e 0d 47 27 bf 20 25 09 bf
       0.28230008 0.44979802 -0.6534279 -0.53572273
000230 a7 32 75 bd 5e 13 07 3f 94 b5 04 3f 1c d9 fd be
       -0.05986276 0.52763927 0.51839566 -0.49579704
000240 a9 54 19 3f 81 3c 1f be 70 55 5d be 8a f5 45 be
       0.59894806 -0.15550424 -0.21614623 -0.19331947
000250 0d d0 d4 3d 98 0e ea be a3 88 a3 3e 61 35 24 be
       0.10391245 -0.4571426 0.31940183 -0.16035987
000260 5b b9 41 bb 91 cd 12 3f d3 1e d5 be 8a 72 0f be
       -0.0029559943 0.5734492 -0.4162508 -0.14008537
000270 29 8b 96 3e e1 89 05 3f 95 55 aa be 08 1b 52 ba
       0.29403046 0.5216351 -0.3326842 -0.0008014892
000280 aa e2 e6 be b3 e6 97 3c 76 7d 06 bf 3a a5 26 bf
       -0.45094806 0.018542623 -0.5253519 -0.65095866
000290 13 02 f6 be 26 34 0f bf 81 40 27 3f 64 03 05 3e
       -0.48048458 -0.5593895 0.653328 0.12989575
0002a0 c8 92 03 be 2d b2 06 3f 4b b8 8c be e8 83 d3 3e
       -0.12848961 0.52615625 -0.27484354 0.41311574
0002b0 28 01 79 3e 59 86 1d be e9 33 25 3e af e2 67 bc
       0.24316847 -0.15383281 0.16133083 -0.014153167
0002c0 ca 8a 04 bf bd 6f 82 be 8a 50 d3 3e ea fa af 3e
       -0.51774275 -0.25475875 0.41272384 0.3437112
0002d0 4b c3 3e be cf c4 7c be 88 87 73 be 89 5c 17 bf
       -0.18629186 -0.24684452 -0.2378217 -0.5912557
0002e0 e2 ea a6 3e 28 de 01 3f 59 97 d7 be b1 cb 8e be
       0.32601076 0.5072961 -0.42107657 -0.2788978
0002f0 34 f5 a5 bd 37 81 59 be 29 36 ce be 7a 4f 6b be
       -0.081034094 -0.21240698 -0.40275696 -0.22979537
000300 e1 29 b5 be 43 21 e3 be 4d fc ef be 8a 54 d7 be
       -0.35383514 -0.44361314 -0.46872178 -0.42056686
000310 99 1b 42 bc 0b 0d a3 3e 03 a2 1b 3f c6 ef a6 be
       -0.0118474 0.31845888 0.60794085 -0.32604808
000320 24 7a 71 be 49 1e d7 bd 2a 78 0a 3f c4 8a 78 be
       -0.23581749 -0.10503823 0.54089606 -0.24271685
000330 02 a7 5f bd b2 96 32 bf 4d be 5e be aa 24 bc 3e
       -0.05460263 -0.6976119 -0.21752281 0.36746722
000340 f3 18 ec be 05 e3 82 be 82 59 ca bb 00 b1 9a 3e
       -0.46112785 -0.25563827 -0.006175221 0.30213165
000350 92 1b 65 3d 7f 67 1f bf 85 cc 13 3f 06 93 1f 3e
       0.055934496 -0.622673 0.5773395 0.15583429
000360 3b 8e 33 3d 35 94 b3 be bc f3 1a be 2d 98 00 bf
       0.043836813 -0.3507401 -0.1513204 -0.502322
000370 be 88 bb be 8c a7 b0 be ac ef 89 3d 1b 2c f2 3e
       -0.36627764 -0.34502828 0.06735167 0.47299275
000380 0c a7 86 3e 63 7d fc be cd b5 b6 be 45 95 a3 be
       0.26299322 -0.49314412 -0.35685578 -0.3194982
000390 17 37 e9 3e 3c 8d 28 bf 35 2f 3e be b5 27 13 bf
       0.45549843 -0.65840507 -0.18572696 -0.57482463
0003a0 8a 9c 22 bf d7 80 9f 3e 46 32 1a 3f bc 05 34 be
       -0.6352011 0.31152984 0.6023296 -0.17580312
0003b0 99 3f 86 3e 5d f8 3f be 71 41 1e bf 2b ae 29 be
       0.26220396 -0.18747087 -0.61818606 -0.16570346
0003c0 2a 58 d9 3e 4f 48 26 bf 4a 11 93 3d 0b 31 21 be
       0.42450076 -0.64954084 0.07181032 -0.15741365
0003d0 7e 86 1f 3e 02 3a d4 be 34 c7 db 3b 85 fa a0 bd
       0.15578648 -0.41450506 0.0067070965 -0.07860283
0003e0 40 73 e4 3e 78 49 4a 3e ee f9 39 3f 58 69 94 bd
       0.4461918 0.19754589 0.7264699 -0.07246655
0003f0 56 bd 45 3e 67 8d 0f be bb ac ad be 41 d1 78 be
       0.19310507 -0.14018784 -0.33920845 -0.24298574

fc1.bias f4 [256]
000000 d6 1a f7 bd cf 61 fd 3e 3a 62 12 bf 02 37 ec 3e
       -0.120656654 0.49488685 -0.5718113 0.46135718
000010 3c f9 8c 3c e8 38 9e be 13 85 a9 be f4 72 96 3e
       0.017208688 -0.3090279 -0.3310934 0.29384577
000020 2b 10 f8 bc f0 a9 86 bd 94 8d 04 3f 54 85 8d be
       -0.030281147 -0.06575382 0.5177853 -0.27640784
000030 30 d8 f9 be 56 c1 9c 3d a6 be 89 be af 4b 0d 3f
       -0.4879775 0.076540634 -0.26903266 0.5519361
000040 53 22 0b bf f0 e6 98 be 4d 5f f6 3e 13 04 05 3f
       -0.5434925 -0.2986369 0.48119584 0.5195934
000050 12 44 13 3f f5 5c fc 3b be d3 1c bd fe a1 f9 be
       0.5752574 0.007701511 -0.03828787 -0.48756403
000060 9f b6 ad be 8a 68 22 3d 4f d3 92 be 5c 0a 3c be
       -0.3392839 0.039650477 -0.2867684 -0.18363327
000070 27 4f 1d 3d 9b df 2c 3e 37 27 ec be 33 4a 27 bf
       0.038405564 0.16882174 -0.4612367 -0.65347594
000080 15 ab 12 bf 59 6d b9 bd 37 d1 fb 3c 08 63 80 be
       -0.572923 -0.090540595 0.03073941 -0.25075555
000090 0c 6e fe 3e 52 7c e6 3e 9b 17 ee 3d 22 7c e1 3d
       0.49693334 0.45016724 0.11625596 0.110100046
0000a0 ca 2e 21 be b8 5a 02 bf f2 e1 23 be 0d c4 a1 3e
       -0.15740505 -0.50919676 -0.1600416 0.31594887
0000b0 57 06 db be 96 c2 e7 bd 13 6c a5 be 67 53 b7 bd
       -0.42778274 -0.11316411 -0.32309017 -0.089514546
0000c0 02 55 fc be 17 0d 91 be 99 a2 07 3f 12 1e ec 3e
       -0.49283606 -0.283303 0.5298248 0.46116692
0000d0 b1 bc cf 3e 28 e1 0d 3f 40 27 78 3e 1e 58 ca be
       0.40573648 0.55421686 0.24233723 -0.39520353
0000e0 e0 cd 1e bf f5 00 02 be 05 2a 00 3f 1d 41 f6 bd
       -0.6203289 -0.12695678 0.50064117 -0.12024138
0000f0 20 01 66 3d 49 0f c3 3e 98 17 ae 3e af c3 fb 3e
       0.056153417 0.380976 0.34002376 0.49172732
000100 cc ba a4 3e ce 9a 71 bd 42 06 1b 3e d0 cc 97 3e
       0.32173765 -0.058985524 0.15139106 0.29648447
000110 e6 30 c0 3e 2a c0 00 bf 2b 23 cd 3e 42 95 16 3f
       0.37537307 -0.5029322 0.40065894 0.588215
000120 9f bd 92 3d cc 9b 0d bf 80 6a 5f be 57 77 4a 3e
       0.071650736 -0.5531585 -0.2181797 0.19772087
000130 03 b5 b4 3e 79 2f 07 bf 45 61 bf be b8 d5 e2 3e
       0.3529435 -0.5280681 -0.37378898 0.4430368
000140 60 4c 51 be 32 ac de 3d d8 ea 8b bc ac 0f 61 bd
       -0.20439291 0.108726874 -0.017079756 -0.054946586
000150 af 0b a7 be 7a 4c 5d 3c 5b b0 af 3e 66 fd 0e bd
       -0.326261 0.013507003 0.34314236 -0.03490963
000160 f4 34 e6 be dc 51 cc 3e 91 cb 01 3e 61 38 03 bf
       -0.44962275 0.39906204 0.1267531 -0.512579
000170 fc 5a a8 3c 91 6a b2 3e e3 02 12 bf 8c ab 0a bf
       0.020551197 0.3484693 -0.57035655 -0.5416801
000180 bd 92 d1 3e 13 ec 5d bd ce 30 16 3c 79 b9 ac 3e
       0.40932265 -0.054180216 0.009166909 0.33735254
000190 9f 86 37 3e b3 99 18 3d cb be ad be ce 2b 96 3d
       0.17922448 0.037255954 -0.33934626 0.07332574
0001a0 39 04 12 3f 5d de f4 be 55 d4 8e 3d cb b8 cd be
       0.57037693 -0.478259 0.06974093 -0.40180048
0001b0 51 a6 b0 3d 26 74 0b 3e 81 aa 9b 3e 47 f4 05 bf
       0.08625472 0.13618526 0.30403522 -0.5232586
0001c0 0c 2c c0 be 3f 9c d0 be 51 de 03 bf fb 9a bf 3b
       -0.37533605 -0.40744206 -0.515111 0.0058473325
0001d0 a7 15 e3 3e ae 47 81 be 60 42 d0 3e 57 af e1 be
       0.44352457 -0.2525 0.4067564 -0.44079086
0001e0 a1 fe 34 3e 89 5e 31 be f3 19 c0 3d c7 2c eb be
       0.17675258 -0.17321219 0.093799494 -0.459326
0001f0 5f f4 2f 3e d4 7e 02 bd 5d e7 93 bd 91 6d 0d 3e
       0.17183064 -0.031859234 -0.072218634 0.13811328
000200 48 65 af bd 60 8e a7 3e 61 31 9f 3e 00 87 0b bf
       -0.0856424 0.3272581 0.3109236 -0.5450287
000210 9d 47 b4 3e 73 15 c5 be 6c 8f 46 3d 63 a8 cb 3e
       0.35210887 -0.38492927 0.04847662 0.39776906
000220 c6 51 d7 be 0e 89 69 be dd f7 f4 3e 53 6c e0 bb
       -0.42054576 -0.22806188 0.47845355 -0.0068488508
000230 06 e9 00 bf 9f 6c 7b be 73 ce 3e 3e 36 e6 dc 3e
       -0.50355566 -0.24553154 0.18633442 0.43144387
000240 21 c5 15 bf 28 2d e1 be ea 76 0c bf e6 a8 25 3e
       -0.5850392 -0.43979764 -0.5486895 0.16177711
000250 4c 33 f9 bb 71 f8 be 3c 2f 9f 00 3e 5c 8f c8 be
       -0.007604992 0.023311825 0.12560724 -0.39171875
000260 d3 4b ab bc 90 98 1c 3f f7 00 94 be 77 2d 0a bf
       -0.02091018 0.6117029 -0.28906986 -0.53975624
000270 df e7 9f 3e 68 ed 9c 3e ce eb ea be da e7 16 3f
       0.3123159 0.30649877 -0.4588303 0.5894753
000280 c0 75 12 3f 4c df d9 be 26 58 12 3f 38 94 80 be
       0.5721092 -0.42553174 0.57165754 -0.25113082
000290 18 c2 8d 3e 1e 13 fa 3e b8 bf da 3e 82 0b 8e 3e
       0.27687144 0.4884271 0.42724395 0.27743155
0002a0 b4 bd f7 bc 42 0a f5 be 9c a0 05 3c df 36 0c be
       -0.030241825 -0.4785939 0.008155968 -0.13692807
0002b0 44 f4 08 be ae b4 16 bf 9e 98 2b 3e f1 3c 21 bf
       -0.1337443 -0.58869445 0.16757438 -0.62983614
0002c0 29 63 ab bd 48 9d b1 be f9 1e fa 3e b6 30 0d bf
       -0.08368523 -0.3469031 0.48851755 -0.5515245
0002d0 19 dc 5b 3e a6 bc 3d be ee 09 98 3e 7a 69 2a 3e
       0.2147068 -0.18528995 0.29695076 0.16641799
0002e0 75 36 d6 bd 5f 8d ed 3d 3a 6f 0b bf d5 51 86 be
       -0.104596056 0.1159923 -0.54466593 -0.26234308
0002f0 5f 45 d0 3e 5d 59 e0 bd 91 51 00 bf 2f 82 f2 3e
       0.40677926 -0.10954545 -0.5012446 0.47364947
000300 90 99 66 bc 49 36 2c be f3 fe 9a 3e 25 4a 1f 3d
       -0.014074698 -0.16817583 0.30272636 0.03888907
000310 0b 89 8a 3e b5 4d bb 3e c5 7a a0 3d b6 9a c7 be
       0.2705768 0.36582723 0.078359164 -0.38985223
000320 0a 10 4f 3e 36 f8 e9 3e a4 8f 01 bf d4 4e 84 3e
       0.20220962 0.45697182 -0.50609803 0.2584139
000330 8b 10 e7 be 04 0f 89 be ff 9f e4 be 04 07 4c be
       -0.4512981 -0.2676927 -0.44653317 -0.19924551
000340 f6 a5 fc be 69 68 e3 3c df 44 e4 3e ed 42 09 bf
       -0.49345368 0.027759748 0.44583794 -0.53617746
000350 48 90 e4 3e 01 49 0f be 74 94 0c 3f 8b 6f e2 be
       0.44641328 -0.13992693 0.5491402 -0.44225726
000360 2e 98 80 be 80 03 cf 3c be b4 0a 3f 86 1c 05 3f
       -0.25116104 0.025270224 0.5418204 0.5199665
000370 8b 91 a0 be 0a 42 ea be 42 9d 13 be da 87 b7 3c
       -0.3136104 -0.4575351 -0.14415458 0.022403646
000380 dc ca 03 bf 34 71 de 3e 88 42 09 bf 46 04 18 bf
       -0.51481414 0.43445742 -0.53617144 -0.5938152
000390 59 db ab be c6 f4 8f 3e ca 3b 82 be b2 c9 e3 3e
       -0.33565786 0.28116435 -0.2543624 0.4448982
0003a0 45 bb 0f be 48 e4 c7 3d 41 34 34 3d d5 81 c9 be
       -0.14036281 0.09760338 0.043995146 -0.39356866
0003b0 f4 28 97 3e f4 2c 21 be 11 96 e6 bc 85 ae fc ba
       0.29523432 -0.15739805 -0.02814773 -0.0019278085
0003c0 b8 03 a2 3e 8e 52 bb bd e6 a8 4e 3e dc cc e4 be
       0.31643462 -0.091466054 0.20181617 -0.44687545
0003d0 38 8d da 3e 2e 61 d6 be 79 32 f1 3e 91 ed a5 3e
       0.42685866 -0.41871017 0.4710882 0.3240781
0003e0 d8 65 94 be 28 f4 8e 3e 6f e3 01 bf a7 9b 91 3c
       -0.2898395 0.2792065 -0.5073766 0.017774416
0003f0 6f 1d 11 be 84 13 cf be ce 95 e1 be 83 28 bd be
       -0.14171384 -0.40444577 -0.44059604 -0.3694497

fc2.weight f4 [256, 256]
000000 53 8d 86 bc cc dd c7 3c d8 bc 6a bd 31 2d ec 3c
       -0.01642481 0.024397753 -0.057309 0.028830143
000010 b4 11 88 3d fe 7a 29 bc 74 e7 66 bb e1 fd 57 3c
       0.066440016 -0.010344265 -0.0035233172 0.013183088
000020 6d f5 46 bc ac d5 8c 3b cb ed 31 bd a8 9b 12 bc
       -0.012143475 0.0042979326 -0.043439668 -0.008948244
000030 1b 90 f7 bc 71 5c 62 bd a1 0a 09 3c fd fc 39 3c
       -0.030220082 -0.05526394 0.008364351 0.011351821
000040 97 7c 85 3d df c3 da 3c 75 6e 4d bd 68 97 7f bc
       0.06517904 0.026704727 -0.05015417 -0.015600063
000050 5d ec 83 bd b5 a6 4d bd 1c e9 46 3c ae be 2b bd
       -0.06441567 -0.050207812 0.012140539 -0.041929893
000060 6e 82 78 bd 18 c9 0a bd 1b 8b 16 3d 3c 8d 95 bc
       -0.060671262 -0.033883184 0.036753755 -0.018255822
000070 8d 4a 42 bd 36 8f 3a 3d a2 f2 fc bc d3 a8 0b bd
       -0.04743438 0.045546733 -0.030877415 -0.03409655
000080 5b 0a dc bd 33 a9 ac ba ff 9c 15 bd df 0e c7 3b
       -0.10744163 -0.0013172984 -0.036526676 0.006074771
000090 08 77 48 bd f4 af 02 bd eb 2b 81 3a ad 39 09 3d
       -0.048941642 -0.031906083 0.0009855008 0.03350227
0000a0 d1 98 49 3c bd 1d 4f bc ca 30 4e bd cb 3f 31 bd
       0.012304501 -0.0126413675 -0.050339498 -0.04327373
0000b0 a6 10 4a bd 27 0f 11 3d 19 e1 97 3c f8 a0 54 bc
       -0.049332283 0.03541484 0.018539952 -0.012977831
0000c0 31 7c 8d bd 3d b3 15 bd 3e 7c 13 3d 52 8c 0d bb
       -0.06908453 -0.036547888 0.03600716 -0.002159853
0000d0 08 01 b8 3d 91 b5 86 bd d6 7f 27 bc e2 21 6c bb
       0.08984572 -0.065776 -0.01022335 -0.0036030938
0000e0 15 b6 a4 bc d6 6c 00 bc 6d f6 2d 3c c0 05 a2 3c
       -0.020106355 -0.0078384485 0.0106178345 0.019778132
0000f0 b0 bc 37 3b a5 93 3b bd f6 d6 93 bd 14 30 1b 3d
       0.002803605 -0.0457951 -0.07218735 0.037887648
000100 ce 39 6a 3c d4 4a c0 3c f3 9c 21 bd 7f 79 11 3d
       0.014296008 0.02347318 -0.03945632 0.03551626
000110 e0 3c cd bd a2 93 55 bd b2 29 74 bd a5 28 a3 bd
       -0.100213766 -0.052142747 -0.059610076 -0.07966737
000120 70 0b 89 bd b5 f7 c6 bc 17 d3 0b bc 20 bf 97 bc
       -0.06691635 -0.024288038 -0.008534214 -0.018523753
000130 09 b0 02 3d 85 0d 0e bd 28 d2 f9 3c c4 05 ee bd
       0.03190616 -0.034680862 0.030495718 -0.116221935
000140 9c 23 7e bc d4 73 21 bc 74 72 43 3d ce 76 98 3c
       -0.01551142 -0.009854276 0.047716573 0.018611338
000150 3e eb 03 3d 24 af 50 bd 71 0b 50 3c 0b 09 3a bd
       0.032206766 -0.050948277 0.01269804 -0.04541878
000160 2a 7b 3b bd f5 c4 97 bd 8b 17 7d 3d 19 b3 7d bd
       -0.045771755 -0.074106134 0.06179003 -0.06193838
000170 a3 64 e1 3c 3f a6 40 3d 10 8a cf bc e6 d4 6c 3b
       0.027513808 0.047033545 -0.025334388 0.003613764
000180 7b 59 59 bc e2 5a 73 3d ac cd 2e bd 06 52 46 3d
       -0.013265963 0.059412844 -0.042676613 0.048418067
000190 12 75 08 bc 67 0c 4d 3d 5d e5 5a 3d 2c 40 ea bb
       -0.008328693 0.050060656 0.053441394 -0.007148763
0001a0 c7 36 98 bd ec 4e 14 3d d4 e7 6f 3c 1a 4a aa bc
       -0.07432323 0.03620808 0.0146426745 -0.020787288
0001b0 3e f9 ce bc f8 49 c2 bd 4f 1e 89 bd 57 73 01 3d
       -0.025265332 -0.09486765 -0.06695234 0.031604137
0001c0 c8 13 e1 bc 1c 64 dd 3c ed ec c8 3c b2 71 44 bd
       -0.027475253 0.027025275 0.024527038 -0.04795999
0001d0 ef fd bd 3c 99 67 a8 bc 8a 19 af ba 17 c8 80 3c
       0.023192374 -0.020557212 -0.0013359052 0.01572041
0001e0 f3 c2 d6 bc 62 f6 cb ba a1 30 81 3c 2b 25 11 3d
       -0.026216006 -0.0015561099 0.015770258 0.035435837
0001f0 df fd 86 3d dc ca 43 bd d3 9c a6 3d 68 af 04 3d
       0.06591391 -0.047800884 0.081353806 0.032393843
000200 d1 6e 88 bc 71 a2 43 3c d6 6a 97 3c 29 0c a9 3c
       -0.016654404 0.0119405845 0.01848356 0.020635681
000210 71 a5 57 3c 51 f5 89 3c c2 75 cd bc 74 67 90 bc
       0.013162003 0.016840609 -0.025080565 -0.017627455
000220 69 76 80 3d 6b c4 bc bd 40 91 fd 3c 1c 28 d3 bc
       0.06272585 -0.09217151 0.03095305 -0.025775962
000230 76 3d f0 bc 5c fb 32 3c 61 4e a2 bc 8d 0f 3c 3d
       -0.029326182 0.010924187 -0.019812765 0.045913268
000240 f4 25 61 3b 01 75 a8 3c 55 10 df 3c 08 d1 3d bd
       0.0034354897 0.020563604 0.027229467 -0.046341926
000250 e7 85 a9 3c 11 56 5f 3d 53 54 9d bc ae 91 96 3b
       0.020693732 0.05452544 -0.019205248 0.004595003
000260 aa 8a 8d bc 13 90 34 bd a8 5b 0a 3d 0b 51 1f bd
       -0.017278034 -0.044082712 0.033778816 -0.038895648
000270 6d 0c 69 3c d4 c8 2a bd cb 74 46 3d 1a 2f a0 3d
       0.014224154 -0.04169543 0.048451226 0.07821484
000280 9e db 87 bd 0b a1 9d bc 6a 87 27 bd fb ef 03 3d
       -0.066336855 -0.01924183 -0.040900625 0.032211285
000290 e6 3d ad 3a f8 da d1 3b f9 04 e1 3a 52 18 55 bd
       0.00132173 0.006404277 0.001716762 -0.052025147
0002a0 ba a8 92 39 eb d7 b1 bb 99 a5 fd 3c 1d d1 0d bb
       0.00027973 -0.0054273508 0.030962752 -0.0021639534
0002b0 d2 b5 09 bb c0 32 95 bd a6 40 9c 3b 8e 06 59 3b
       -0.0021012914 -0.072850704 0.004768449 0.003311548
0002c0 4f 36 a7 bc 7f 69 12 bd 98 d9 a9 3c 22 9f eb bc
       -0.020411639 -0.03574514 0.02073364 -0.028762404
0002d0 2a ff 87 3c 89 4a cc 3b 97 80 e5 bb 60 5c 09 bd
       0.016601164 0.006234471 -0.0070038545 -0.03353536
0002e0 34 6e ed 3c f1 4b b1 3a 0d 23 1b bd 27 3c 16 bd
       0.028983213 0.0013526661 -0.037875224 -0.03667846
0002f0 a2 b0 bf bd d6 68 7a bd 5a 47 c7 3c b0 11 fd bc
       -0.09359862 -0.061135136 0.024326015 -0.030892223
000300 dc 82 b0 bc 14 b8 d1 bd a1 0b aa 3b 14 cc 7c bb
       -0.021546774 -0.10240188 0.0051893746 -0.0038573788
000310 4b ff 35 bd b1 02 9a 3d de e9 04 bc 6b 57 bd 3c
       -0.04443292 0.075200446 -0.008112399 0.023112973
000320 0a b2 79 bd fd e0 45 3c 5c 25 84 3d e5 50 80 bc
       -0.060960807 0.012077567 0.06452438 -0.015663574
000330 b3 73 36 3d 19 2f 9b bd 86 87 0b bd 99 57 96 bd
       0.044543933 -0.075773425 -0.034064792 -0.07340927
000340 18 9e 21 3c 4b c3 56 bc 99 84 f5 bc 3f 2c 71 bc
       0.009864353 -0.013108085 -0.029970454 -0.014720022
000350 fb 29 63 3c 25 21 13 3d c9 19 14 bd ac 48 4d 3c
       0.013864989 0.03592028 -0.036157403 0.012529533
000360 3f cd 41 bd b1 31 80 3d 83 bd 79 3d 70 09 2a 3d
       -0.04731488 0.06259478 0.060971748 0.041512907
000370 f4 25 af 3d e1 d6 b8 3c 32 a9 a2 bc 3d 94 27 bd
       0.08552161 0.0225634 -0.01985607 -0.040912855
000380 55 f3 69 bc 9e 62 0b bd 17 0b 0b bd 0d 80 75 3d
       -0.014279206 -0.034029596 -0.033946123 0.059936572
000390 5e 21 d3 bd 6c 9b 48 bd 10 bc 09 bc 8f 7a a9 3c
       -0.10309099 -0.048976347 -0.008406654 0.020688323
0003a0 f4 f9 38 bd 7b 0e 81 3c 7e 54 e2 3c 2d 42 bb bd
       -0.04516025 0.015753975 0.02762818 -0.091434814
0003b0 e0 aa a8 3c 0f b0 b0 bc 1a 01 d7 3c d2 93 9c bb
       0.020589292 -0.021568326 0.026245642 -0.0047783637
0003c0 ff 33 4e 3c 72 9e c8 bc be 0a 33 3d 44 47 48 3d
       0.012585639 -0.024489615 0.043711416 0.04889609
0003d0 3c 99 e3 bc c5 e4 8e 3c 54 88 26 3d e4 13 35 bd
       -0.027783029 0.01744307 0.040657356 -0.044208422
0003e0 b4 21 16 bd a2 82 fa bc ae 90 e1 bc 3d a4 83 3b
       -0.036653236 -0.030579869 -0.027534809 0.0040173815
0003f0 9b e2 60 bd 1b 01 0c bd 09 ee 16 bb c9 f3 72 bb
       -0.054903608 -0.03418074 -0.0023030064 -0.0037071577

fc2.bias f4 [256]
000000 97 b0 5a 3c be 5e 18 3c f6 1d 7f 3c 36 9f 6f bd
       0.013347766 0.009299932 0.015571108 -0.058501445
000010 cd 17 98 3d f0 8a 79 3d da 8e 87 bb d2 74 ff 3c
       0.07426415 0.060923517 -0.0041369023 0.031183634
000020 e3 64 1c 3d 97 4b 91 3d 06 28 c0 3a 4c d4 9d 3d
       0.03818215 0.07094496 0.0014660365 0.07706508
000030 3c 06 4d 3d cb 48 51 3c a2 d4 a5 bc 0f 5f 19 3d
       0.050054774 0.012773703 -0.020242993 0.03744417
000040 3f 71 83 3c e2 ce c6 3d ab 29 6b bd c9 b6 7f bd
       0.01604521 0.097074285 -0.057412785 -0.062430177
000050 da 7a 17 bd 3c 3d 87 bd 37 18 64 bd e5 f9 ee 3c
       -0.036982395 -0.066034764 -0.055687156 0.029171893
000060 42 38 31 bd 2f 33 15 bd ab 75 7c 3d b1 7e 4e bd
       -0.043266542 -0.036425766 0.061635654 -0.05041379
000070 5c 59 ba 3d 20 d3 50 bb 23 43 16 bd ba 99 a3 bb
       0.09099075 -0.0031864122 -0.03668512 -0.004992691
000080 08 a3 0c bd d5 dd ca 3c 67 c9 55 bd d1 48 4a 3d
       -0.034335166 0.02476398 -0.052194025 0.04938585
000090 c8 81 44 bd 53 5a 69 3b 05 7c 08 3c 23 bc 2a bd
       -0.04797533 0.0035606816 0.00833035 -0.041683327
0000a0 c0 35 c0 3d 73 d3 15 3c 12 a4 53 3d df db bf 3c
       0.09385252 0.009144652 0.05167014 0.023420272
0000b0 d5 56 c5 3c 59 ff 09 3c d9 b4 51 bd 69 43 24 3d
       0.024089256 0.008422696 -0.05119786 0.04010335
0000c0 c7 37 bc 3d 7c af 4a bd ca fe 47 bd 92 56 01 3d
       0.09190326 -0.04948376 -0.04882697 0.0315767
0000d0 11 1b ee bc 56 f8 01 3d d0 6f 26 bc 53 d3 3d bd
       -0.02906564 0.031730972 -0.010158494 -0.046344113
0000e0 78 72 99 3c e1 56 3b 3d 9c 12 e7 3c 19 f2 dd 3c
       0.01873134 0.04573715 0.028207116 0.02709298
0000f0 c2 35 df 3b db 69 28 bd cd fc 81 bd 14 35 0b bd
       0.0068118284 -0.041116577 -0.06347046 -0.033986166
000100 a7 32 77 bd db 8c 0a bd 98 fe d1 3c d4 fd 02 3d
       -0.06035104 -0.033825736 0.025634095 0.03198035
000110 2d 7b fd 3c c9 f8 d8 bc a5 bb 9c bc 5f e9 82 bd
       0.030942524 -0.026485818 -0.019132445 -0.06392168
000120 58 66 90 3c 77 00 23 3c 26 64 48 3d 4c ac ee 3c
       0.017626926 0.009948841 0.048923634 0.029134892
000130 67 6f e1 bc 08 55 1e bd 9c dd d3 3d da 4f 3c 3d
       -0.027518941 -0.03865531 0.10345003 0.04597459
000140 f2 37 37 bd 03 0f 40 3d 0d 32 0a 3e 6c c3 a4 bc
       -0.044731088 0.046889316 0.13495655 -0.020112716
000150 80 b5 80 39 e2 a8 44 bc 03 fc f1 3c 58 e0 61 bd
       0.0002454929 -0.012003155 0.029539114 -0.05514559
000160 ec fd 22 bd 4c a5 45 3c c2 7b 2d 3d 22 0f 74 bc
       -0.03979294 0.012063336 0.042354353 -0.014896186
000170 d1 04 06 bd 69 36 98 bc 38 0b 91 3c dd 11 1d 3d
       -0.032719437 -0.018580632 0.017705545 0.038347114
000180 f5 9c b7 bc da 57 70 3b ef 0e af 3b 4c ff 4d 3d
       -0.02241371 0.0036673457 0.0053423564 0.0502923
000190 92 f5 34 bd bf 27 c4 bb 4c 13 70 bd a4 6e 4c bb
       -0.044179507 -0.0059861834 -0.058612153 -0.0031193877
0001a0 cf 4e 04 bd ff c8 a7 3c 42 86 29 3d 16 e7 23 bd
       -0.03230172 0.020481585 0.041387804 -0.040015303
0001b0 8c fd 19 bd 5a c4 5d bd 09 7c 27 3d 16 8a 82 bd
       -0.037595317 -0.054142334 0.040889774 -0.06373994
0001c0 77 4d 5e 3b e9 02 d0 bc dd 5a 9a 3c 27 21 85 3d
       0.0033920684 -0.025392013 0.018842155 0.06500464
0001d0 11 67 00 bd b4 4b 9b 3d 21 4d b4 3c 5e cb 72 bd
       -0.03134829 0.075827986 0.022009434 -0.059275977
0001e0 88 a4 be bc 30 34 d9 bc fe ee a2 bc 2d 94 96 bd
       -0.023271814 -0.026514143 -0.019889351 -0.07352481
0001f0 c1 0d 4a 3d dc dc 5c 3d 00 87 95 ba 7c dd 21 bd
       0.049329523 0.053921565 -0.0011408031 -0.039517865
000200 b4 bd 97 3d 3d 2c cf 3c a7 b9 59 bd 16 a3 dd 3c
       0.0740923 0.02528965 -0.053155567 0.027055304
000210 7a 4c 58 bb 29 5f f2 bb 64 78 a5 bc 48 6a 9b 3b
       -0.0033004568 -0.007396598 -0.020199008 0.0047428943
000220 ec 88 9e 3d 81 8a d2 3c 55 41 ed bc e3 ba 7b 3d
       0.077409595 0.02570081 -0.028961817 0.061457526
000230 aa 22 38 3d 4d 07 04 3d 93 d2 29 3c 43 18 83 3b
       0.044954933 0.032233525 0.010365146 0.004000695
000240 51 5c 04 bd fc dc be 3b 9e 46 0e bc ec df b8 3c
       -0.032314602 0.0058246832 -0.008683829 0.022567712
000250 dc d1 ac 3c 7d e0 0e bd d8 75 7f bb 1b fa 14 bd
       0.021096162 -0.034882057 -0.0038980152 -0.03637133
000260 64 1a b2 3d 06 2b fc bc b4 6f 90 3d 32 65 44 bc
       0.0869644 -0.030782234 0.07052556 -0.0119870175
000270 b9 cf 17 3d d6 fe 04 3d d5 d6 4d bd ae a9 58 bd
       0.037063334 0.032469593 -0.050253708 -0.052896194
000280 2e 1b 12 bd 2f 7f 0c bc 88 54 6d bd 23 21 b8 3c
       -0.03567045 -0.008575245 -0.057941943 0.022476738
000290 62 4e 2b 3c 97 fe 82 bc bd a1 56 bd a8 66 3e bd
       0.0104557 -0.015990539 -0.05240034 -0.04648462
0002a0 36 de 80 bc 14 33 c6 bc 7c 0d 81 3c 30 d8 6f 3d
       -0.015730958 -0.024194278 0.0157535 0.05855578
0002b0 30 ba 68 bd be c0 37 3d e4 b4 ac 3c 36 4e 75 3d
       -0.056818187 0.044861548 0.02108235 0.05988904
0002c0 65 bc 24 3d 17 17 8d 3d 73 38 01 3d 7c 62 e5 bc
       0.04021873 0.0688917 0.031547975 -0.028001063
0002d0 7a 91 69 bd eb 22 3e bb 76 05 a8 3d 83 fe 96 bc
       -0.057023503 -0.0029012512 0.082041666 -0.018431908
0002e0 6d 54 64 3d 0b 90 15 bc 5d 6f 60 bd b2 09 76 bd
       0.055744577 -0.009128581 -0.054793704 -0.06006784
0002f0 d2 3d 9a 3d 53 48 7a 3c ba 5e 86 3d b1 39 66 3d
       0.075313225 0.0152760325 0.065610364 0.056207363
000300 a0 3d 1a 39 d7 c7 63 3d f2 e1 84 3d 80 df af 3d
       0.00014709542 0.055610504 0.06488408 0.08587551
000310 ec 28 56 3c 80 e2 dc 3c d8 f7 67 bd 5d 20 82 bd
       0.01307128 0.026963472 -0.056632847 -0.06353829
000320 57 69 ba ba 2a b4 6f bc 80 98 1a bd 64 55 64 bd
       -0.0014222068 -0.014630357 -0.03774309 -0.055745497
000330 7d a9 d2 3c 53 01 15 bd f8 37 c4 bc 49 c6 54 3c
       0.025715584 -0.036378216 -0.02395247 0.012986728
000340 67 2a 64 3c 58 21 f1 bc a0 56 2b 3c b6 92 d9 bc
       0.013926125 -0.029434845 0.010457665 -0.026559215
000350 98 bf 2e 3d c8 85 b1 bd 87 2e a9 bd 9a 2a 67 bc
       0.042663187 -0.08668095 -0.082608275 -0.014109278
000360 cf 69 f8 bc e6 f6 21 bd e0 c6 4e bd 81 71 19 3d
       -0.030323891 -0.0395421 -0.05048263 0.03746176
000370 49 f2 16 bc c5 fc 2f 3d 01 0b 1d bd 85 bd ca 3c
       -0.009213039 0.04296567 -0.038340572 0.024748573
000380 ee 53 1a 3c be 9f d0 3b 7a 63 a9 bb f5 7a 82 3d
       0.009419424 0.006366699 -0.0051693292 0.063711084
000390 b3 ea 7d bd 02 47 6d bd 60 56 6d 3b 76 e9 3d 3d
       -0.061991405 -0.057929046 0.0036214814 0.046365224
0003a0 e7 e6 be bc 63 2f 66 bd 3e f3 9b 3d a1 21 da 3c
       -0.023303462 -0.056197535 0.07614754 0.026627364
0003b0 c5 a9 e7 bc 46 bb 61 bd 6c b6 17 bd 68 2f 20 bd
       -0.028279195 -0.05511024 -0.037039205 -0.03910771
0003c0 8d a7 bf 3d 11 aa a1 3d bb bc 28 bb 8f ef d6 bb
       0.0935813 0.07893766 -0.0025747258 -0.0065593193
0003d0 64 0b 52 3d 07 ee e0 3d a0 7d a2 3d 1e a0 d1 bc
       0.051280394 0.109829 0.07934117 -0.025589045
0003e0 4e 09 54 bd 18 54 5b bd 66 16 c4 3d 38 5f 4a 3d
       -0.051766686 -0.053546995 0.09574585 0.049407214
0003f0 a9 2a 9a 3b 52 2d 23 3d e3 d9 0d bd a9 7f 63 3d
       0.0047047925 0.039838143 -0.03463162 0.055541668

mu.weight f4 [1, 256]
000000 5a d1 86 bb d7 0b 3c 3e d7 51 33 bd 52 a7 83 3c
       -0.004114312 0.18363892 -0.04377922 0.016070995
000010 76 15 f2 3d 95 5a 96 3d 83 0b 1d 3c 85 ea f8 bc
       0.118204996 0.07341496 0.009585264 -0.030385265
000020 8f ae 32 bb bd 85 41 3e 88 cf c4 bd 26 42 27 3c
       -0.002726469 0.18898673 -0.09609896 0.010208642
000030 96 e1 56 bd 06 a4 82 3d 8c e7 6e 3d 47 c6 a4 bb
       -0.05246123 0.06378941 0.05832629 -0.0050285193
000040 08 6e b8 bc c0 ee 01 be 22 b9 13 bc da 0f ad 3c
       -0.022513404 -0.12688732 -0.009016307 0.021125723
000050 a6 42 dd bd 7d 2d 69 bc b9 72 48 bc 67 49 fe 3c
       -0.10803728 -0.014232037 -0.012234383 0.03104086
000060 e1 55 15 bd 9a 54 2d 3d c2 3d 5d 3d f0 fa 5d 3b
       -0.036458854 0.04231701 0.054013975 0.0033871494
000070 26 46 a0 bd 38 73 40 bc 9d b3 e3 b9 5a c4 24 3d
       -0.0782588 -0.01174622 -0.00043430636 0.040226318
000080 e7 41 01 bd 9f 3d 73 3b be 6d 87 3b ff fd 7a 3a
       -0.03155699 0.0037115586 0.0041329553 0.00095745915
000090 51 a4 01 3e de d5 19 bd c6 6b a0 3d 34 93 b7 bb
       0.12660338 -0.037557475 0.07833056 -0.005602265
0000a0 c8 06 a4 3c b3 71 fb 38 52 f5 42 3c 95 f4 00 3e
       0.020022765 0.00011989791 0.011899309 0.125933
0000b0 6d d6 a0 3d 72 b1 a3 bd 30 4f 42 bd d7 de fa bc
       0.078533985 -0.079928294 -0.0474388 -0.030623836
0000c0 d2 64 a7 3d eb b1 e2 3a ea 7b 04 bd 25 a2 53 bd
       0.08173527 0.0017295455 -0.032344736 -0.051668305
0000d0 9c 47 a7 3c fc 4d b5 bc c2 f9 a6 3d 0c 6e 38 bd
       0.020419888 -0.022131912 0.08153106 -0.045026824
0000e0 44 b3 c3 3c ce eb 6f 3b e6 17 0e bd 98 89 db 38
       0.023889191 0.0036609056 -0.03469076 0.000104683626
0000f0 04 b4 a0 bd 36 5b 2a bb fa da ef bb cf 26 97 bb
       -0.07846835 -0.0025994307 -0.007319805 -0.0046127806
000100 98 36 0e 3d 4d 76 f0 bc 25 85 de 3d ed 97 0e bd
       0.034720033 -0.029353285 0.10865239 -0.034812856
000110 ea e0 80 be ac 42 3f 39 cd be 62 bd ae 9a 2f bd
       -0.25171596 0.00018240017 -0.055357743 -0.042872123
000120 11 38 23 bd 4e 9b 19 3c a6 82 a4 bd cf 24 b7 bc
       -0.03984839 0.009375406 -0.08032732 -0.022356419
000130 14 55 30 3e 48 b7 5f bb 25 f6 ac bd d8 9d 2e bd
       0.17219955 -0.0034136344 -0.08445386 -0.042631
000140 ee 5a 82 3a d9 82 7f bc 4d 0e cc bd 9a ea 73 bc
       0.0009945312 -0.015595161 -0.09963665 -0.014887476
000150 44 f6 37 bd 72 76 0a bb ad ed 43 3d 62 00 b3 bb
       -0.04491259 -0.0021127728 0.047834087 -0.005462692
000160 70 45 f3 bb 82 a5 b5 bb 25 59 28 bd 77 d6 45 3a
       -0.007424049 -0.0055434117 -0.04110064 0.00075469114
000170 f6 a1 b9 bc 9f 93 62 bd 03 4f c0 bb 3a 29 7b 3c
       -0.022660237 -0.055316564 -0.005868794 0.015329653
000180 00 5e 09 3d ee a3 c4 3a 96 56 36 bc bb f7 70 bd
       0.03353691 0.0015002468 -0.011129042 -0.058830004
000190 20 16 c1 bc 7f 17 da 3a c0 21 1d bc 83 f9 5d bc
       -0.02357012 0.0016639082 -0.009590566 -0.013548258
0001a0 60 dd a0 bc 77 a1 4a bc f5 5d 38 bd 3e 99 4d 3d
       -0.01963681 -0.012367598 -0.04501148 0.05019497
0001b0 a1 14 fa ba 6d 76 9a 3a 35 3e 49 3c 6e 5d 95 3a
       -0.0019079634 0.0011784561 0.012282898 0.0011395642
0001c0 9a 42 5b bc de 5f 86 b9 3c 17 18 bd 16 54 83 3d
       -0.013382578 -0.00025629898 -0.037131533 0.064125225
0001d0 c3 68 77 bb 24 1d f1 bd 72 d6 4b 3d f0 92 7e bc
       -0.0037751652 -0.11773136 0.049765058 -0.015537962
0001e0 00 18 8e 38 4a 2e d8 3c 28 4f a4 3c d7 f1 1e bd
       6.775558e-05 0.02638926 0.020057276 -0.038804855
0001f0 52 df 90 3d 41 49 1e 3d 38 39 df 3c 1f 69 33 bd
       0.07073845 0.03864408 0.027248964 -0.043801423
000200 26 a4 aa 3c 2b 5a 86 bd 61 61 00 3a dc 29 4f bd
       0.020830225 -0.06560167 0.0004897323 -0.05057703
000210 a6 c1 07 bc 61 61 40 3a e4 ab a4 3c 2d dc b4 bc
       -0.0082859155 0.00073387293 0.020101495 -0.022077644
000220 ec 9e 1e bd 7a 5d ae 3c 17 37 1b 3c ac ca eb 3d
       -0.03872578 0.021284807 0.009473584 0.11513266
000230 2c 6f 53 bd 55 ca fb bc 1f dd ab 3c 4a e5 83 3d
       -0.051619694 -0.030736128 0.020979462 0.06440218
000240 d3 57 70 bb 3b 2c 9a 3d 76 3e 4a 3c ea bc 3c bd
       -0.003667344 0.075279675 0.012343993 -0.0460786
000250 b5 20 81 bb 42 74 e9 3c 29 3a 27 b9 82 fb 27 bd
       -0.0039406666 0.028497819 -0.00015948027 -0.04101134
000260 ec 6b 2f be f3 02 ab bb fd 43 d5 bd 5a 10 49 bd
       -0.17131013 -0.0052188574 -0.10413358 -0.04908786
000270 67 f6 17 3b 96 db 86 bd 48 a3 0f 3d 7e 0e e2 3c
       0.0023187639 -0.065848514 0.035067827 0.027594801
000280 39 00 4f 3b 2d 0d 5a bd 87 57 27 3b 2d f8 f5 3c
       0.0031585826 -0.05323522 0.0025534348 0.030025566
000290 eb 8e 14 ba 3f cd e5 bc 23 28 92 3b 48 7a 74 3c
       -0.00056670484 -0.02805197 0.004460351 0.014921732
0002a0 c9 39 82 3d ee ec 95 bd 5f c4 2d bd 7c 8f 2f 3e
       0.06358678 -0.073205814 -0.042423602 0.17144579
0002b0 9c 4e 84 bc 23 00 72 3c a9 2d 5b 3b aa b8 a0 3a
       -0.016150765 0.01477054 0.0033443964 0.0012262065
0002c0 97 39 59 3c 6d 53 ec bc b4 b1 1e bd 78 89 6c 3b
       0.013258359 -0.028848374 -0.03874369 0.003609268
0002d0 eb e6 36 3c 62 40 c4 bb 73 5d 8c bd 15 c0 fa bc
       0.011163454 -0.0059891203 -0.068537615 -0.03060917
0002e0 12 74 29 bd 31 e7 e0 3c 19 47 fe bc aa 5b 15 bc
       -0.04137046 0.02745399 -0.031039761 -0.009116093
0002f0 c5 cc 39 3d 65 17 e8 bc a3 11 c8 3c d3 44 25 3d
       0.0453613 -0.028331468 0.024422472 0.04034884
000300 57 d5 04 bc a1 0e 4a bd 57 00 a4 bc 05 97 b2 bd
       -0.008107505 -0.049330357 -0.020019693 -0.08720211
000310 e3 ea bd b9 b3 77 91 3d 3e 34 6a bc d0 56 35 3c
       -0.00036223893 0.07102909 -0.014294682 0.011068061
000320 b1 b9 1b bd 65 52 6a 3d b4 e0 20 3e eb c3 a7 3b
       -0.038018886 0.057207484 0.15710717 0.005119791
000330 27 50 3b bd cf 15 b2 39 8c cc d3 bd fd 09 08 bd
       -0.045730736 0.00033967054 -0.103417486 -0.03321265
000340 a1 7d 0f bd 3c ed 88 3c 16 f2 5c bd 11 64 b8 bc
       -0.03503192 0.016714685 -0.05394181 -0.022508653
000350 2e 3e 83 bc 79 84 07 bd f5 95 e7 3c 32 98 33 bd
       -0.01602086 -0.03308532 0.028269747 -0.043846317
000360 1f 78 1c bd 8a ce 71 3d 15 dd 29 3d ee 78 bb bc
       -0.038200494 0.05903486 0.041470606 -0.022884812
000370 c3 64 8b 3d 86 ab 00 3d 8f 86 86 3c a0 0e cd 3c
       0.06806328 0.031413577 0.016421584 0.025031388
000380 56 ff 01 3d fa 1d 15 bc d8 08 d3 bb 9f c5 70 3d
       0.031737648 -0.009101385 -0.0064402632 0.058782216
000390 54 c2 00 3c 40 87 78 bb cd ed f4 bc b1 e5 a7 bc
       0.007858831 -0.0037922412 -0.029898548 -0.020495268
0003a0 0b b7 40 bc 11 9d a7 bc dd c0 9c bd 44 f3 cf bb
       -0.011762391 -0.020460637 -0.07653973 -0.006346138
0003b0 a2 94 ca 3b c2 60 1c bc 87 7d 3d bd 94 40 68 bd
       0.006182269 -0.009544553 -0.04626229 -0.05670221
0003c0 80 77 9d bd 2c c7 60 bd 2c dd 01 bd 4a d2 9d 3c
       -0.076888084 -0.054877445 -0.031705067 0.019265313
0003d0 37 c8 59 be ca 3b 90 3d d4 cd ee bd bc 55 46 3d
       -0.21267782 0.07042654 -0.11660352 0.048421606
0003e0 65 d2 91 3b e8 79 18 3d 27 55 f4 3d ff 61 50 bd
       0.00445013 0.037225634 0.11930304 -0.050874706
0003f0 1f f2 13 3d 2a f9 70 3d 81 35 2e ba 1c cb b5 3c
       0.036119577 0.05883137 -0.0006645546 0.022191577
