youtube-ppo/tmp/ppo/actor2-dt.pth (torch, 270876 bytes, 5 tensors)

fc1.weight f4 [256, 3]
-0.16749153 -0.43643436 -0.40380883 0.4411509 0.33933744 0.22840792 0.18603325 -0.14020392
-0.018790731 -0.15113781 0.17866609 -0.104872786 0.43047035 0.33716616 -0.117249005 0.2941974
0.17752731 -0.05262602 0.26837748 0.34243056 0.16778557 0.4816375 0.11000295 0.38612446
0.094681635 0.3573738 0.0050129257 0.61445856 0.4366624 0.24751572 0.040151957 0.280888
0.1844054 -0.043681603 0.44769862 0.32775345 0.037676994 0.21356173 -0.07156868 0.50216526
0.28736612 -0.20464337 -0.38974705 -0.30768213 0.27105215 0.40369907 -0.4432303 -0.2668997
-0.09509548 0.023467205 0.27533132 -0.5276939 -0.5004268 0.4278973 -0.40844387 0.030486468
-0.1454963 0.148269 0.25388953 0.09475813 0.41736296 -0.15387586 -0.20019168 0.32773757
0.5221656 -0.3777113 0.03550016 0.16230671 -0.4684962 0.5795227 -0.253269 -0.089820996
0.1904802 0.3989619 -0.103253365 -0.14558929 0.055185486 0.3744761 -0.043698084 0.43001089
-0.2275823 -0.61192405 0.104980916 -0.4016853 -0.11463534 0.2709356 -0.3100096 0.4458058
0.49923977 -0.33067772 -0.21483919 -0.35895026 0.3795659 0.3849677 0.37088832 -0.35946065
0.16806448 0.32680142 -0.4970756 0.2486972 0.42852136 -0.5388372 0.39270705 -0.273623
-0.23600398 0.24281195 0.38064674 0.2857513 -0.023394344 0.541766 0.29864275 0.057936747
-0.24256724 0.049858738 -0.18882757 -0.6839917 0.030377567 -0.42817467 -0.14863008 0.49243706
0.0077477344 0.3659835 0.43230617 -0.5566432 -0.56837565 0.28386006 -0.1025302 -0.0044376724
0.3523173 -0.3127403 0.45421368 -0.2216921 0.21959518 -0.29117128 -0.20005198 0.10680587
0.21454991 0.36650595 0.079945154 -0.027381051 0.3480742 0.12533557 0.20900653 -0.1738333
-0.030075781 -0.024688886 0.020857004 -0.38769644 -0.21287678 -0.17928916 -0.37519085 -0.034117866
0.55130386 -0.45523167 0.5052194 0.10127774 0.09959275 -0.062266074 -0.3580526 0.13950102
-0.08553623 0.29125887 0.5372421 -0.5086784 -0.34299925 -0.08609342 -0.7346235 0.01262986
0.35855308 0.3649303 -0.469607 0.26310307 0.690561 0.03244867 0.5565915 0.6693538
0.39654467 -0.010756983 -0.57605094 -0.37997457 0.7427533 0.35891193 0.4634311 -0.42058095
0.24651875 -0.44242182 0.116881065 0.57268906 0.17844656 -0.2689195 0.043945488 0.048762236
0.2859307 0.50437105 0.46381423 0.64654386 0.57734287 0.13326278 0.023686364 0.532139
-0.10717184 -0.37472996 -0.49935928 -0.12639868 0.45094678 0.51648474 -0.13071756 0.36813024
0.35752174 -0.41125572 0.08627479 -0.074904256 0.2394213 -0.4671075 -0.6207453 0.31958163
-0.08191363 0.41988337 0.20546909 0.21199471 0.69438964 0.052080363 0.128408 0.66034657
0.3470645 0.3911404 0.21970099 -0.44035074 0.0048736595 0.3416055 -0.29679966 0.5265703
0.72929317 0.26790327 0.50543195 -0.44639385 -0.5538638 0.10844523 -0.45617533 -0.2377145
0.36698225 -0.22453597 0.36735144 -0.45581946 -0.10174534 0.2747895 -0.3725032 -0.28986624
0.16325374 0.23689435 -0.07393777 -0.3457585 0.5868811 -0.34145373 0.28220144 0.4096447
00000000: e682 2bbe 5374 dfbe 08c0 cebe 88de e13e
00000010: a3bd ad3e c4e3 693e 807f 3e3e 9e91 0fbe
00000020: 05ef 99bc dfc3 1abe 3ef4 363e 8bc7 d6bd
00000030: 9c66 dc3e 0ba1 ac3e 3f20 f0bd 0ba1 963e
00000040: b8c9 353e 628e 57bd c668 893e 0f53 af3e
00000050: fbcf 2b3e 3199 f63e 3a49 e13d 1bb2 c53e
00000060: 72e8 c13d b3f9 b63e 7843 a43b 284d 1d3f
00000070: 3792 df3e c374 7d3e 6176 243d 8dd0 8f3e
00000080: c5d4 3c3e 7beb 32bd c138 e53e 4dcf a73e
00000090: 3153 1a3d edaf 5a3e 9a92 92bd e78d 003f
000000a0: a721 933e 088e 51be ed8c c7be 8388 9dbe
000000b0: 59c7 8a3e a5b1 ce3e 15ef e2be 14a7 88be
000000c0: 6bc1 c2bd 4c3e c03c 3af8 8c3e f316 07bf
000000d0: f91b 00bf 5b15 db3e 8e1f d1be c2be f93c
000000e0: fbfc 14be d4d3 173e cffd 813e 8d10 c23d
000000f0: 99b0 d53e a291 1dbe 0cff 4cbe 38cd a73e
00000100: a5ac 053f 6063 c1be 9e68 113d bb33 263e
00000110: bcde efbe 9a5b 143f 79ac 81be 12f4 b7bd
00000120: 3e0d 433e bc44 cc3e 8076 d3bd 5c15 15be
00000130: 2d0a 623d 55bb bf3e c3fc 32bd 632a dc3e
00000140: 560b 69be 0ea7 1cbf 3c00 d73d b2a9 cdbe
00000150: efc5 eabd 12b8 8a3e 94b9 9ebe a840 e43e
00000160: 5b9c ff3e 974e a9be cefe 5bbe 54c8 b7be
00000170: 7656 c23e 7d1a c53e 13e5 bd3e 3a0b b8be
00000180: 1819 2c3e 8452 a73e b180 febe 7baa 7e3e
00000190: 2767 db3e 3cf1 09bf e610 c93e 5018 8cbe
000001a0: 07ab 71be b2a3 783e 21e4 c23e ff4d 923e
000001b0: 7fa5 bfbc 2db1 0a3f b4e7 983e 154f 6d3d
000001c0: 8c63 78be ad38 4c3d 045c 41be 141a 2fbf
000001d0: 60da f83c b639 dbbe 7c32 18be b620 fc3e
000001e0: b5e0 fd3b 3062 bb3e 3c57 dd3e 2b80 0ebf
000001f0: 1181 11bf 1b56 913e 5afb d1bd e569 91bb
00000200: ef62 b43e 7f1f a0be b28e e83e 4103 63be
00000210: 8fdd 603e 6714 95be 6dda 4cbe 09bd da3d
00000220: f9b2 5b3e aba6 bb3e 49ba a33d 3a4e e0bc
00000230: c836 b23e f857 003e cf05 563e 5b01 32be
00000240: 7c61 f6bc 5940 cabc 4fdc aa3c 2680 c6be
00000250: 5ffc 59be 9497 37be 0419 c0be 2dbf 0bbd
00000260: 4022 0d3f 2014 e9be 0f56 013f b46a cf3d
00000270: 49f7 cb3d b60a 7fbd ac52 b7be 5bd9 0e3e
00000280: 9e2d afbd e21f 953e b388 093f bf38 02bf
00000290: 999d afbe bf51 b0bd 4910 3cbf 79ed 4e3c
000002a0: 4594 b73e 25d8 ba3e 5470 f0be 72b5 863e
000002b0: 9bc8 303f e6e8 043d c87c 0e3f c55a 2b3f
000002c0: e707 cb3e 0f3e 30bc 1378 13bf 078c c2be
000002d0: 1525 3e3f 4ec3 b73e d746 ed3e 6356 d7be
000002e0: 696f 7c3e 1d85 e2be 575f ef3d c09b 123f
000002f0: b2ba 363e d1af 89be 2f00 343d e9ba 473d
00000300: 8265 923e 761e 013f 0f79 ed3e e683 253f
00000310: becc 133f 0a76 083e e809 c23c 433a 083f
00000320: e97c dbbd 9bdc bfbe 05ac ffbe a86e 01be
00000330: 7fe2 e63e 5838 043f d3da 05be 917b bc3e
00000340: 170d b73e 1c90 d2be d6b0 b03d 6767 99bd
00000350: db2a 753e b728 efbe 2ae9 1ebf 34a0 a33e
00000360: 55c2 a7bd f4fa d63e 7d66 523e 2415 593e
00000370: 85c3 313f 3852 553d 637d 033e 790c 293f
00000380: 70b2 b13e 8e43 c83e 4cf9 603e a775 e1be
00000390: 38b3 9f3b ebe6 ae3e 20f6 97be 50cd 063f
000003a0: f5b2 3a3f 9e2a 893e fd63 013f bc8d e4be
000003b0: 05ca 0dbf 8818 de3d d08f e9be 6e6b 73be
000003c0: 19e5 bb3e c2ec 65be 7d15 bc3e 2b61 e9be
000003d0: dc5f d0bd 36b1 8c3e bdb8 bebe 5969 94be
000003e0: fd2b 273e 6f94 723e b06c 97bd 4207 b1be
000003f0: d73d 163f 06d3 aebe b57c 903e f3bc d13e

fc1.bias f4 [256]
0.46298197 -0.24550238 -0.4667392 -0.43574232 -0.37454695 -0.5055664 -0.42458135 -0.22361441
0.03287916 -0.47082347 0.2924539 -0.17559473 -0.5352362 -0.6361939 0.6575469 -0.20828317
-0.69181424 -0.100073986 0.7605376 -0.114086404 -0.28909168 -0.48539716 -0.15689048 0.1656378
-0.39698923 0.20779072 0.161993 0.007865481 -0.53027487 -0.59788257 0.253573 -0.1924564
-0.27425405 0.5138492 -0.22489406 -0.22120532 -0.22975495 -0.5383454 0.24482189 0.46520406
-0.3363265 -0.110963024 -0.71084726 -0.089656934 -0.20492858 0.28741527 -0.62580186 -0.43638217
0.41971666 0.66206896 0.43845955 -0.61713225 0.57658494 -0.618466 -0.29734692 0.41688037
-0.41417885 -0.15358073 0.5052836 -0.10843224 -0.46840852 0.2382362 0.34575355 0.47109458
-0.424569 -0.20356855 -0.3513891 0.6545263 0.20637198 0.5052202 -0.5662181 0.5511275
-0.2347203 0.024292069 0.40103805 0.31967494 -0.25656262 0.15391377 0.010753166 -0.14524177
-0.4966776 0.3447757 0.4228026 0.20195743 -0.34862262 -0.6106527 -0.3650649 -0.25230396
-0.48499855 0.07076335 0.0471216 0.26810053 -0.28578863 0.089912556 0.18134657 0.58724266
-0.20854346 -0.28038433 -0.4080975 0.3489208 0.22675543 -0.2687856 -0.39135748 0.1989731
-0.018574113 -0.72309995 0.28194204 0.1918738 -0.07190417 0.18348666 0.33555433 0.56050396
0.52282333 -0.39446992 0.054213714 -0.1877781 0.4630773 0.62261415 -0.55843234 0.5266648
-0.07013159 -0.46600795 0.16298538 -0.15025409 0.45556355 -0.51021147 -0.48676455 -0.20432387
-0.5401049 -0.4395063 0.0052268435 0.2890145 -0.24284373 0.47216928 0.54644376 0.514292
-0.25133896 -0.21470177 -0.39314756 -0.11515367 0.44247606 0.028601907 0.55803883 -0.49659774
-0.24805568 0.112706006 -0.32327572 -0.46692413 0.5176546 0.42631847 -0.25622556 0.24115913
0.3446116 -0.3056117 -0.51624155 -0.465462 -0.20029391 0.3162069 0.028162709 0.06666232
-0.26526898 -0.5871184 0.21767685 -0.23372142 -0.18436094 -0.38464072 -0.3493049 0.40045828
0.12621762 -0.095932834 0.36156347 -0.30361927 0.4570779 0.4338256 -0.21981221 -0.09533007
0.26529136 0.44392926 0.10919749 0.1812993 0.4510263 -0.43432522 -0.471848 0.6756653
-0.19291669 0.43117902 0.6128195 -0.1699702 0.084454134 0.34414634 -0.57934904 -0.25390634
0.31825128 -0.0042382358 0.46228442 -0.047762692 0.28884575 -0.44746798 -0.5108695 -0.13123791
0.28001437 0.27384606 0.41061822 0.22244535 0.72015536 -0.19375242 0.7311943 0.6355667
0.10285376 0.023595504 0.29301965 0.09106502 0.5451915 -0.09673332 -0.5465303 -0.6037628
-0.49642384 0.22505188 -0.8280471 -0.25428867 0.15069664 -0.29744187 0.35673112 0.28984943
0.30537498 -0.05674134 0.40945876 -0.26642027 -0.36845756 -0.0062686577 0.22877705 0.4184856
0.011005179 -0.5912379 -0.19829763 0.43272075 0.029851042 0.35699204 -0.54409087 -0.20705524
0.37146795 0.52686393 0.49787188 -0.47060347 0.41936305 0.15941976 -0.25790247 0.44280156
-0.4020193 0.0074473624 -0.30027425 -0.16654316 -0.28426445 0.7244466 0.6243339 -0.4925096
00000000: f90b ed3e fa64 7bbe 71f8 eebe 9e19 dfbe
00000010: 9ec4 bfbe cd6c 01bf ba62 d9be 2dfb 64be
00000020: 4cac 063d c60f f1be 85bc 953e 1bcf 33be
00000030: 3d05 09bf 9add 22bf fe54 283f 2f48 55be
00000040: bd1a 31bf 97f3 ccbd 98b2 423f 22a6 e9bd
00000050: d303 94be fa85 f8be e6a7 20be f59c 293e
00000060: 2c42 cbbe 17c7 543e 7ee1 253e 38de 003c
00000070: 18c0 07bf d50e 19bf 52d4 813e 4a13 45be
00000080: 076b 8cbe 9f8b 033f a14a 66be a683 62be
00000090: e244 6bbe 01d1 09bf 97b2 7a3e 3a2f ee3e
000000a0: fd32 acbe 9540 e3bd 16fa 35bf 0e9e b7bd
000000b0: ccd8 51be 1828 933e 8d34 20bf 7c6d dfbe
000000c0: 1ae5 d63e 5a7d 293f c57d e03e 61fc 1dbf
000000d0: 129b 133f ca53 1ebf db3d 98be 5871 d53e
000000e0: 400f d4be 4444 1dbe 445a 013f b911 debd
000000f0: 3ed3 efbe 31f4 733e 9c06 b13e 4f33 f13e
00000100: 1c61 d9be 4674 50be 46e9 b3be 098f 273f
00000110: 2d53 533e 1c56 013f abf3 10bf b116 0d3f
00000120: 855a 70be 2900 c73c dc54 cd3e 6fac a33e
00000130: 2d5c 83be 929b 1d3e 0c2e 303c 42ba 14be
00000140: 874c febe 7186 b03e 9579 d83e eecd 4e3e
00000150: aa7e b2be bc53 1cbf c9e9 babe fc2d 81be
00000160: bb51 f8be 60ec 903d 9402 413d 7944 893e
00000170: e352 92be 1324 b83d eab2 393e 8955 163f
00000180: 6b8c 55be 898e 8fbe 28f2 d0be bfa5 b23e
00000190: 9332 683e 449e 89be 0260 c8be 9bbf 4b3e
000001a0: bd28 98bc 141d 39bf b55a 903e 917a 443e
000001b0: 7e42 93bd ede3 3b3e c7cd ab3e 307d 0f3f
000001c0: c0d7 053f f6f7 c9be 330f 5e3d e748 40be
000001d0: 7818 ed3e a463 1f3f 6cf5 0ebf 81d3 063f
000001e0: 27a1 8fbd 9898 eebe a4e5 263e 35dc 19be
000001f0: a03f e93e 389d 02bf 3439 f9be 473a 51be
00000200: 5144 0abf f806 e1be f145 ab3b b5f9 933e
00000210: 07ac 78be 2cc0 f13e bde3 0b3f a4a8 033f
00000220: 80af 80be c8da 5bbe a34a c9be b0d5 ebbd
00000230: 398c e23e 8c4e ea3c a2db 0e3f 0f42 febe
00000240: 4f02 7ebe 68d2 e63d 6584 a5be ae10 efbe
00000250: 0385 043f 6a46 da3e ff2f 83be 6bf2 763e
00000260: ee70 b03e 2379 9cbe 6828 04bf 0951 eebe
00000270: d919 4dbe dfe5 a13e 7bb5 e63c 4186 883d
00000280: 56d1 87be 644d 16bf aee6 5e3e ab54 6fbe
00000290: 1dc9 3cbe a1ef c4be 18d8 b2be de08 cd3e
000002a0: 313f 013e 6f78 c4bd d91e b93e fc73 9bbe
000002b0: 1d06 ea3e 641e de3e 7416 61be 693c c3bd
000002c0: 45d4 873e b24a e33e efa2 df3d 86a6 393e
000002d0: ebec e63e e05f debe 1096 f1be 67f8 2c3f
000002e0: f48b 45be 7fc3 dc3e bde1 1c3f ab0c 2ebe
000002f0: 4af6 ac3d f333 b03e 3850 14bf 0300 82be
00000300: d5f1 a23e e6e0 8abb 8bb0 ec3e d0a2 43bd
00000310: 97e3 933e 861a e5be 58c8 02bf 3b63 06be
00000320: 0b5e 8f3e 8d35 8c3e 8d3c d23e b7c8 633e
00000330: 1a5c 383f 0967 46be 8d2f 3b3f 80b4 223f
00000340: fea4 d23d 5c4b c13c ac06 963e 4c80 ba3d
00000350: ac91 0b3f 1e1c c6bd 69e9 0bbf 3390 1abf
00000360: 442b febe 0074 663e e5fa 53bf 2032 82be
00000370: 3850 1a3e 4d4a 98be 76a5 b63e 2567 943e
00000380: 1c5a 9c3e 9b69 68bd 94a4 d13e 3d68 88be
00000390: 78a6 bcbe 5069 cdbb 8844 6a3e bf43 d63e
000003a0: 114f 343c 5e5b 17bf 890e 4bbe 938d dd3e
000003b0: 2c8a f43c a9c7 b63e 8a49 0bbf 4a06 54be
000003c0: 0c31 be3e 8ee0 063f 10e9 fe3e f0f2 f0be
000003d0: c1b6 d63e ef3e 233e cb0b 84be e3b6 e23e
000003e0: 79d5 cdbe 0109 f43b 8cbd 99be 4a8a 2abe
000003f0: 1c8b 91be 5575 393f 59d4 1f3f 382a fcbe

fc2.weight f4 [256, 256]
0.19865687 -0.15424845 0.04457732 -0.05476168 -0.0577339 0.04224456 -0.07500813 -0.071839646
0.0343407 -0.07151721 -0.017375674 0.029804546 0.006415232 0.075799145 0.12957564 0.112196684
-0.024396786 0.01156923 0.13550848 -0.0423737 0.121932216 0.059565682 0.06577604 -0.035486344
0.09971573 -0.006615404 0.004106512 0.043537658 0.108529694 0.0119855115 -0.0052559613 0.01612044
0.037797824 0.07083631 0.1437734 -0.11018713 -0.09599309 0.02296006 0.09427823 0.0010912042
-0.066024326 0.059234522 -0.016948506 -0.024641898 0.029464066 -0.056291103 -0.042218313 -0.009368001
0.016825287 0.16285044 -0.0070690485 -0.030017404 0.1446345 0.05077374 0.11847277 0.10092477
0.086417824 -0.079577886 -0.0924166 0.11632925 -0.055137467 0.10488799 -0.018720118 0.104117826
-0.019452006 -0.08753895 -0.035563037 0.1407367 0.05377804 0.10093752 -0.039583996 0.11963414
-0.019557653 -0.06484961 -0.016562961 0.10073005 0.001814341 -0.104257174 0.060702953 0.04721097
-0.0689747 0.09125893 0.03501119 0.09569043 -0.00223113 -0.01813892 -0.15177645 0.044102162
-0.05614191 0.015711812 -0.05319154 0.025746595 0.039588008 0.071106225 0.09428753 0.057349645
0.04697729 -0.051563866 0.02733022 0.037616715 0.007947397 -0.01915425 0.011222003 0.04965963
0.2525615 -0.034556277 0.055371933 0.11673551 0.0057456717 0.024097841 0.057197016 0.07230885
0.20536262 0.022030443 0.20096952 -0.049309716 0.11808474 0.24004802 -0.016423574 0.10001283
0.041169763 -0.061634555 -0.12135539 0.0017725244 0.11005028 0.10502507 0.06765526 0.114081495
-0.019806674 -0.111937724 -0.07777713 0.16302171 0.062387537 0.14446366 0.083475076 0.111709505
-0.051796146 0.092190355 -0.08908776 -0.04033656 0.11740586 0.010891982 0.05777999 0.034903836
0.03141095 0.10179587 -0.043532822 0.0015815743 0.19186893 0.08633139 -0.0008853574 -0.0059861867
-0.035571415 0.09277764 -0.13964614 -0.13935901 -0.029317796 0.13200285 0.05971062 -0.06565996
0.07971214 -0.05089764 0.0051789354 -0.05683839 -0.03469622 0.030218 0.12005621 0.031359553
0.1194215 0.18831524 0.121109135 -0.017888222 0.063342884 0.15716563 -0.09980888 -0.06576662
-0.10386105 0.07652649 -0.033192277 -0.022865688 0.044789948 0.02336045 -0.04946161 0.10857888
0.12116592 0.2504573 0.22526634 0.08945164 0.04880347 0.057889234 0.05223282 0.09477551
0.009797822 -0.02211121 0.07679353 -0.028483596 0.10066024 0.0018883573 -0.010325476 0.09062553
-0.036309827 0.115283504 0.15723626 -0.009277566 0.15344724 -0.012623223 0.14084263 0.109041505
-0.024280127 -0.049719352 -0.0485856 -0.04862733 0.095915966 0.13291195 0.10519065 -0.043147925
0.078583404 -0.000651151 0.03125327 -0.014215957 0.13187276 -0.04761696 0.0056252647 0.07998292
0.12749837 -0.107914194 0.07717154 0.0024975655 -0.071390994 0.17664209 0.13469377 0.11876847
0.17816551 0.08210488 0.013005063 0.09299015 -0.0962617 0.11580002 -0.1089575 0.07759262
0.13987026 0.030008454 0.2481418 -0.05240437 0.029424785 -0.02881465 0.10585983 0.124334514
-0.009092182 -0.0030101652 -0.11516302 -0.058047365 -0.034240395 0.26084772 0.20655891 -0.07235431
00000000: b56c 4b3e 4ef3 1dbe b596 363d c94d 60bd
00000010: 627a 6cbd a208 2d3d dd9d 99bd aa20 93bd
00000020: d5a8 0c3d 9d77 92bd 6e57 8ebc aa28 f43c
00000030: de36 d23b 953c 9b3d 7aaf 043e 60c7 e53d
00000040: c5db c7bc de8c 3d3c bcc2 0a3e 0b90 2dbd
00000050: 99b7 f93d 25fb 733d 97b5 863d 215a 11bd
00000060: c337 cc3d 08c6 d8bb eb8f 863b 8b54 323d
00000070: d144 de3d e15e 443c 333a acbb 030f 843c
00000080: e4d1 1a3d a112 913d 5639 133e caa9 e1bd
00000090: 0698 c4bd bc16 bc3c f214 c13d bd06 8f3a
000000a0: c337 87bd e69f 723d 98d7 8abc cedd c9bc
000000b0: a05e f13c 8091 66bd 1ced 2cbd 3e7c 19bc
000000c0: 2fd5 893c 44c2 263e 7aa3 e7bb 0fe7 f5bc
000000d0: 111b 143e 20f8 4f3d daa1 f23d a5b1 ce3d
000000e0: d4fb b03d bbf9 a2bd ea44 bdbd 083e ee3d
000000f0: d3d7 61bd 84cf d63d ef5a 99bc ba3b d53d
00000100: d059 9fbc 9f47 b3bd 8caa 11bd 481d 103e
00000110: 5d46 5c3d 55b8 ce3d d422 22bd be02 f53d
00000120: 5f37 a0bc dfcf 84bd 0caf 87bc 8e4b ce3d
00000130: 2fcf ed3a c984 d5bd a9a3 783d 4a60 413d
00000140: 9c42 8dbd f6e5 ba3d e567 0f3d 58f9 c33d
00000150: 2638 12bb 1398 94bc 496b 1bbe 78a4 343d
00000160: 0ff5 65bd 0fb6 803c 5fdf 59bd 86ea d23c
00000170: 0927 223d 24a0 913d d219 c13d 76e7 6a3d
00000180: 426b 403d a234 53bd a0e3 df3c fc13 1a3d
00000190: cd35 023c 60e9 9cbc 7edc 373c e567 4b3d
000001a0: be4f 813e e28a 0dbd aecd 623d 0713 ef3d
000001b0: 3046 bc3b d668 c53c 6b47 6a3d aa16 943d
000001c0: 944a 523e 3079 b43c f4ca 4d3e fcf8 49bd
000001d0: 6ad6 f13d 26cf 753e bb8a 86bc 87d3 cc3d
000001e0: a0a1 283d 8474 7cbd 2d89 f8bd 0d54 e83a
000001f0: 0b62 e13d 6217 d73d d78e 8a3d 8fa3 e93d
00000200: 9b41 a2bc 9b3f e5bd 9e49 9fbd 2aef 263e
00000210: 138a 7f3d 48ee 133e fbf4 aa3d f4c7 e43d
00000220: 3228 54bd 4cce bc3d a573 b6bd f337 25bd
00000230: 7c72 f03d 4974 323c b6aa 6c3d 53f7 0e3d
00000240: c5a8 003d 5a7a d03d 794f 32bd d44c cf3a
00000250: 4a79 443e 83ce b03d 5417 68ba c627 c4bb
00000260: 55b3 11bd 3402 be3d 66ff 0ebe 21b4 0ebe
00000270: e02b f0bc c12b 073e 2093 743d bb78 86bd
00000280: 1e40 a33d 0b7a 50bd 0fb4 a93b 5fcf 68bd
00000290: a01d 0ebd bd8b f73c 08e0 f53d e072 003d
000002a0: 4293 f43d b6d5 403e 1108 f83d 528a 92bc
000002b0: eab9 813d 07f0 203e 9968 ccbd a6b0 86bd
000002c0: 1ab5 d4bd ecb9 9c3d a0f4 07bd d350 bbbc
000002d0: aa75 373d 6a5e bf3c 4298 4abd 9b5e de3d
000002e0: d625 f83d f03b 803e 38ac 663e 6c32 b73d
000002f0: 26e6 473d 431d 6d3d 15f2 553d aa19 c23d
00000300: 0b87 203c 9122 b5bc ed45 9d3d 6e56 e9bc
00000310: f526 ce3d c282 f73a 2f2c 29bc e199 b93d
00000320: 9db9 14bd c219 ec3d 8b02 213e ef00 18bc
00000330: 4621 1d3e a2d1 4ebc 0d39 103e 2751 df3d
00000340: 1ee7 c6bc 85a6 4bbd b201 47bd 742d 47bd
00000350: 976f c43d 121a 083e 326e d73d e1bb 30bd
00000360: 56f0 a03d 01b2 2aba 6e03 003d 0cea 68bc
00000370: a709 073e 000a 43bd 2454 b83b 16ce a33d
00000380: ef8e 023e 1e02 ddbd 1d0c 9e3d 32ae 233b
00000390: 7135 92bd aae1 343e 2aed 093e e23c f33d
000003a0: 0571 363e 9a26 a83d 3013 553c 9f71 be3d
000003b0: db24 c5bd 9028 ed3d 1c25 dfbd e1e8 9e3d
000003c0: 263a 0f3e 4ad4 f53c e218 7e3e f7a5 56bd
000003d0: 3f0c f13c b30c ecbc 0acd d83d 18a3 fe3d
000003e0: 60f7 14bc 3146 45bb 97da ebbd 13c3 6dbd
000003f0: a83f 0cbd d58d 853e 2e84 533e 7f2e 94bd

fc2.bias f4 [256]
0.13537489 -0.0419216 -0.01089196 0.028491782 -0.025566887 -0.05328536 -0.007870521 -0.04237022
0.18921287 0.008788099 -0.013006968 0.029890276 0.013241939 -5.3584452e-05 0.023610419 0.007702604
0.014730624 -0.0557923 -0.048943877 0.030558135 -0.041024867 0.16317983 0.08513761 -0.026717748
0.017899377 -0.005497855 0.00032813704 0.013690905 0.10600904 -0.055657595 -0.000250989 -0.009632669
0.03990215 0.015113453 0.013914544 0.05820701 0.038140967 -0.043968063 0.03237666 -0.004574113
-0.020418497 -0.018210972 -0.009355237 0.1077887 -0.052890986 -0.04575079 -0.022354843 -0.008466282
0.028651161 0.070647426 -0.046708293 0.060433615 0.16203706 -0.054898974 0.024215983 0.03891748
0.102319434 0.051690456 0.024964208 -0.027050922 -0.0069702803 0.020617291 0.043716013 0.11290474
-0.023238197 -0.04243433 -0.018124618 -0.039065175 0.041240796 0.07939374 0.14553712 -0.043816235
0.07171243 0.01263122 0.085567094 0.020023437 0.1021898 -0.033644095 0.10235616 0.05250723
-0.061752003 -0.05720536 0.042500485 -0.046279844 0.08170563 -0.06365223 0.18702167 -0.06861076
0.04809056 0.06272987 0.03555137 0.035428245 -0.067372166 0.011659394 -0.065572634 -0.0044961665
0.017634049 0.0051366263 -0.023315508 -0.054838307 0.051853925 0.0005142987 -0.010175366 0.17375605
-0.012190422 0.035548646 0.04192281 -0.058684155 -0.014454079 0.07845784 -0.031673457 -0.046329353
-0.011386045 0.009127243 -0.017178046 0.03647234 0.0089830905 -0.05176418 -0.045893982 0.053753834
0.0003641232 -0.01527331 -0.011611959 0.001949741 0.07180745 -0.013801999 -0.015704198 -0.015759848
-0.015263938 0.04688686 0.11390785 -0.092867404 0.1378611 -0.056329485 0.029234365 -0.040022224
-0.0026705994 0.01664383 0.14179161 -0.00096667366 0.047582656 -0.032690905 -0.022660857 -0.007526552
0.017630532 0.16885912 -0.059152704 -0.035872795 0.13402876 -0.059627198 -0.0150692575 -0.03210524
-0.0078694215 -0.003010532 0.0065198964 -0.08794777 -0.062031925 -0.028952688 0.17779218 -7.624175e-05
0.14703147 -0.015962739 0.039993484 0.053122558 0.040952623 0.07490193 0.048087716 0.033956703
-0.03742543 -0.017976033 0.009268298 0.012254851 0.18207924 -0.051001232 0.0037202134 -0.021010641
0.02937045 -0.045581058 -0.06257928 0.033781 0.18966365 0.030880313 0.015335308 0.041349415
0.0018216732 0.029582676 0.019844167 0.10615386 -0.017728021 -0.054147344 0.010367576 -0.042270586
0.10648165 0.064610235 0.14574046 0.16189705 0.01558309 -0.06669295 0.048022613 0.077351205
0.005282163 -0.004336928 0.0042780763 0.0067216605 0.034867927 -0.0057696505 0.02754591 0.013072108
-0.031692915 -0.07367404 0.0024680474 -0.00021407215 0.025746115 -0.022496477 -0.010487303 -0.060114343
-0.032181572 0.037443593 -0.0015994483 -0.028432388 0.14607412 -0.072982505 0.043322656 -0.024741216
0.09846586 -0.06451784 -0.048771717 -0.021115605 0.1573016 0.0050868224 0.04224165 0.028266987
0.11925921 0.043472227 -0.021695063 0.067940384 0.07300154 -0.019702591 0.047607396 0.08882359
0.01848994 -0.004999418 -0.02184916 -0.050220825 0.13350894 -0.051834337 -0.029136123 -0.037993237
0.056247618 0.05581735 0.037565358 0.10208623 0.02126087 0.11809115 0.031308614 -0.014799681
00000000: b79f 0a3e fcb5 2bbd 3174 32bc 9967 e93c
00000010: a671 d1bc c041 5abd 5cf3 00bc 658c 2dbd
00000020: 05c1 413e f5fb 0f3c 2e1b 55bc 74dc f43c
00000030: b8f4 583c debf 60b8 a36a c13c 2066 fc3b
00000040: b758 713c 7786 64bd 6079 48bd 0e55 fa3c
00000050: b109 28bd 9d18 273e a15c ae3d 2edf dabc
00000060: b7a1 923c 5a27 b4bb cf09 ac39 d14f 603c
00000070: 441b d93d 38f9 63bd 2c97 83b9 58d2 1dbc
00000080: 7070 233d 6b9e 773c d4f9 633c 796a 6e3d
00000090: b439 1c3d db17 34bd 639d 043d 71e2 95bb
000000a0: b144 a7bc 2d2f 95bc b546 19bc 52c0 dc3d
000000b0: 38a4 58bd 2e65 3bbd 8121 b7bc 29b6 0abc
000000c0: d7b5 ea3c 99af 903d 3251 3fbd 3d89 773d
000000d0: 0bed 253e bfdd 60bd 9960 c63c ef67 1f3d
000000e0: da8c d13d 5fb9 533d bd81 cc3c e599 ddbc
000000f0: f366 e4bb 98e5 a83c 900f 333d 9a3a e73d
00000100: 085e bebc 9fcf 2dbd 147a 94bc ce02 20bd
00000110: 1cec 283d 2f99 a23d af07 153e a778 33bd
00000120: f7dd 923d 2df3 4e3c cd3d af3d 3108 a43c
00000130: e348 d13d 64ce 09bd 1ba0 d13d d211 573d
00000140: abef 7cbd 2b50 6abd fd14 2e3d ef8f 3dbd
00000150: 4855 a73d 1a5c 82bd 9c82 3f3e cc83 8cbd
00000160: 9bfa 443d 8578 803d 509e 113d 351d 113d
00000170: 6bfa 89bd 0b07 3f3c f24a 86bd 9454 93bb
00000180: 4875 903c 2551 a83b 2a00 bfbc 229e 60bd
00000190: c864 543d 00d2 063a 94b6 26bc 1bed 313e
000001a0: 56ba 47bc 759b 113d 41b7 2b3d cc5e 70bd
000001b0: cdd0 6cbc 81ae a03d 07bc 01bd d9c3 3dbd
000001c0: 898c 3abc 6f8a 153c f9b8 8cbc 0564 153d
000001d0: d02d 133c ad06 54bd 54fb 3bbd fb2c 5c3d
000001e0: cae7 be39 e83c 7abc 1640 3ebc 748e ff3a
000001f0: c90f 933d c821 62bc 17a6 80bc cc1a 81bc
00000200: 9915 7abc 700c 403d 8548 e93d 4431 bebd
00000210: 762b 0d3e bfb9 66bd e87c ef3c 58ee 23bd
00000220: 3905 2fbb a458 883c d231 113e 5f68 7dba
00000230: 08e6 423d e6e6 05bd 43a3 b9bc 4ba1 f6bb
00000240: e86d 903c 68e9 2c3e 1b4a 72bd 5aef 12bd
00000250: d63e 093e a63b 74bd 0ce5 76bc c980 03bd
00000260: bfee 00bc 584c 45bb dba4 d53b f61d b4bd
00000270: 3015 7ebd 302e edbc 270f 363e fae3 9fb8
00000280: 6b8f 163e 4ac4 82bc 35d0 233d 0a97 593d
00000290: f0bd 273d 2f66 993d a0f7 443d 2f16 0b3d
000002a0: 684b 19bd 7942 93bc 0fda 173c 92c8 483c
000002b0: fb72 3a3e abe6 50bd d3ce 733b 821e acbc
000002c0: 4c9a f03c 34b3 3abd 9129 80bd f25d 0a3d
000002d0: 3037 423e b6f8 fc3c f240 7b3c 015e 293d
000002e0: 36c5 ee3a 5e57 f23c 3c90 a23c 3267 d93d
000002f0: 5b3a 91bc 9bc9 5dbd c4dc 293c ec23 2dbd
00000300: 0d13 da3d 5f52 843d fd3c 153e 57c8 253e
00000310: 3750 7f3c 5096 88bd 5cb3 443d 4f6a 9e3d
00000320: ff15 ad3b ca1c 8ebb 1b2f 8c3b 6041 dc3b
00000330: acd1 0e3d 560f bdbb f6a7 e13c 652c 563c
00000340: 6ed0 01bd 6ae2 96bd f7be 213b 8e78 60b9
00000350: 84e9 d23c 884a b8bc f0d2 2bbc 753a 76bd
00000360: d3d0 03bd 745e 193d 94a4 d1ba 0aeb e8bc
00000370: 7494 153e da77 95bd 1973 313d 17ae cabc
00000380: 78a8 c93d ee21 84bd dac4 47bd a2fa acbc
00000390: ac13 213e 5caf a63b 9505 2d3d 2b90 e73c
000003a0: 2c3e f43d ef0f 323d d8b9 b1bc 5424 8b3d
000003b0: d581 953d 5467 a1bc f9ff 423d 24e9 b53d
000003c0: 3778 973c 28d2 a3bb 02fd b2bc 5ab4 4dbd
000003d0: 91b6 083e 3e50 54bd e1ae eebc cc9e 1bbd
000003e0: e763 663d bca0 643d 22de 193d 9612 d13d
000003f0: 472b ae3c c6d9 f13d 763d 003d 5c7a 72bc

mu.weight f4 [1, 256]
0.077529706 -0.038280655 0.008189173 0.009099508 0.021728363 0.03617469 -0.015528794 -0.014809005
0.10749942 -0.013558057 -0.0020953934 0.025782457 0.022451315 0.040155124 0.024885481 -0.058661837
0.025124297 0.0070918333 -0.03721729 0.0035729227 0.026905185 0.10349136 0.11993453 -0.012957278
0.04885647 0.00056337763 -0.035027046 -0.038610164 0.12959205 -0.00473714 -0.0638382 -0.03708785
0.0019376532 0.0046557314 0.003269272 -0.014732129 -0.13923565 -0.00042777913 -0.0043903054 -0.04420601
-0.05233966 -0.03709065 0.015636956 0.11287127 0.05311496 0.0050928653 -0.023512231 1.5027209e-05
-0.017567776 0.108278155 -0.019195694 -0.17783192 0.11477739 0.0006127242 0.008021203 -0.0047338638
0.12095505 0.016123712 0.00916531 0.048436254 0.009032858 0.0031337421 0.01093391 0.121576145
-0.054602895 -0.03461732 0.05914598 -0.059543423 -0.05424111 -0.063154 0.11103285 0.034418073
-0.075589344 0.025323797 0.020649796 -0.030788576 0.08800857 0.018744487 -0.08875911 0.023890385
0.036188435 0.034551803 0.029103244 -0.043773785 -0.09366036 -0.038159635 0.09287105 -0.0044951662
-0.024831604 -0.08074879 -0.011500707 0.026653545 -0.039166193 -0.014641184 -0.018118987 0.00082551636
0.012200614 0.04700144 0.011652617 0.026551615 -0.05579866 -0.014284808 0.038146436 0.1005741
-0.029953467 0.011167883 -0.002945464 0.044884793 0.03900845 0.075832844 0.009303694 -0.036271855
-0.029318022 -0.09116783 0.034958784 -0.0025025965 -0.020129964 -0.006066157 0.0022139328 0.01560816
-0.04798513 0.05498784 -0.030484343 0.0024155101 0.13215153 0.050509393 -0.008139169 -0.019711323
0.026689243 0.02801841 -0.11401957 -0.026573153 0.12734453 -0.030125357 0.05053285 -0.007329116
-0.017744878 0.011819847 0.1246959 0.044322565 -0.056164317 -0.0022387593 -0.018703517 -0.001277938
-0.05168371 0.11996697 -0.020619297 -0.025299273 0.1563463 0.008581653 -0.02021254 -0.18248498
0.007716846 -0.012209585 0.014776266 -0.056686226 0.023205793 -0.000107735395 0.11571942 0.02907906
0.13363384 -0.03802687 -0.021016445 -0.0010153151 -0.00068517274 0.10392921 0.031004366 0.05034415
-9.8443736e-05 -0.021208191 -0.034531277 0.0104672415 0.13376075 -0.00939183 -0.043238625 -0.006338234
0.057885714 -0.044340316 0.030646 0.02309168 0.1565639 -0.079100735 0.045121312 0.045533784
-0.02714361 0.025241494 0.030516468 0.041354176 -0.036431868 -0.056190077 -0.042128686 -0.032458134
0.12108773 0.101531394 0.112415105 0.10182239 -0.03469507 -0.034060337 0.025124986 0.1372907
0.012259169 -0.0022838481 -0.060281582 -0.0451193 -0.011015734 -0.002813591 0.03883557 0.000512181
0.0028927028 -0.0025164345 -0.047600683 -0.023238393 0.0055712373 -0.036825713 0.028906316 0.0015378003
-0.068462044 0.029082634 -0.020579325 -0.0016701729 0.12911221 0.0044574426 0.00026523398 -0.001075942
-0.035829023 -0.00033505147 0.015120676 0.04545468 0.11870528 0.04411832 -0.00028277058 0.0042709303
0.10642258 0.05313375 -0.068912216 -0.12404733 0.05429173 -0.009989785 0.029432558 0.018346207
-0.05258177 0.0012055585 -0.01344928 0.0036796993 0.11818268 0.036908776 -0.017015342 0.0525888
0.020136828 -0.087132916 0.03082586 0.074693866 0.002095096 0.1123674 -0.034737553 0.0024961955
00000000: e5c7 9e3d 2dcc 1cbd e22b 063c 1a16 153c
00000010: aeff b13c e92b 143d 7c6c 7ebc 78a1 72bc
00000020: a828 dc3d 9d22 5ebc de52 09bb bb35 d33c
00000030: d2eb b73c b379 243d a3dc cb3c 6547 70bd
00000040: 78d1 cd3c 9c62 e83b 2871 18bd b227 6a3b
00000050: 4368 dc3c 47f3 d33d 3ca0 f53d c34a 54bc
00000060: b91d 483d a2af 133a 8578 0fbd b125 1ebd
00000070: c7b3 043e 033a 9bbb 9abd 82bd 6ee9 17bd
00000080: daf8 fd3a 1b8f 983b 4841 563b 075f 71bc
00000090: ca93 0ebe 8b47 e0b9 8ddc 8fbb 5c11 35bd
000000a0: 1c62 56bd 5eec 17bd 1319 803c 0d29 e73d
000000b0: 138f 593d 0de2 a63b b99c c0bc 5f1d 7c37
000000c0: 4cea 8fbc f0c0 dd3d 4a40 9dbc 9219 36be
000000d0: 6910 eb3d 3a9f 203a 5d6b 033c 871e 9bbb
000000e0: 48b7 f73d e015 843c 192a 163c 1865 463d
000000f0: 8dfe 133c 785f 4d3b 2424 333c eafc f83d
00000100: 49a7 5fbd e4ca 0dbd 0e43 723d cee3 73bd
00000110: ed2b 5ebd e256 81bd 3165 e33d f7f9 0c3d
00000120: 96ce 9abd da73 cf3c c329 a93c 5338 fcbc
00000130: d63d b43d 0a8e 993c 56c7 b5bd c5b5 c33c
00000140: 533a 143d 3186 0d3d ed69 ee3c 244c 33bd
00000150: 01d1 bfbd 474d 1cbd 2d33 be3d 304c 93bb
00000160: a66b cbbc 9f5f a5bd 766d 3cbc 8958 da3c
00000170: bb6c 20bd 94e1 6fbc 456e 94bc 7767 583a
00000180: 16e5 473c 9584 403d 9eea 3e3c c682 d93c
00000190: 238d 64bd d40a 6abc 703f 1c3d cbf9 cd3d
000001a0: f960 f5bc 7ff9 363c b008 41bb 1ed9 373d
000001b0: 53c7 1f3d 404e 9b3d 856e 183c cc91 14bd
000001c0: 592c f0bc 33b6 babd f130 0f3d 9a02 24bb
000001d0: 98e7 a4bc 9dc6 c6bb a117 113b 5eb9 7f3c
000001e0: 0e8c 44bd ee3a 613d 4dba f9bc 894d 1e3b
000001f0: bb52 073e f0e2 4e3d 265a 05bc a479 a1bc
00000200: 66a3 da3c dd86 e53c 1883 e9bd f1af d9bc
00000210: 9b66 023e 74c9 f6bc 89fb 4e3d 1529 f0bb
00000220: b55d 91bc 08a8 413c 9060 ff3d 948b 353d
00000230: 8e0c 66bd 26b8 12bb 1e38 99bc 7c80 a7ba
00000240: 4cb2 53bd 3eb1 f53d cde9 a8bc 6c40 cfbc
00000250: 3f19 203e 109a 0c3c c594 a5bc 58dd 3abe
00000260: 99dd fc3b b60a 48bc 2718 723c d12f 68bd
00000270: 131a be3c 00f0 e1b8 4efe ec3d 3537 ee3c
00000280: 4fd7 083e 10c2 1bbd ae2a acbc 5214 85ba
00000290: 2a9d 33ba d6d8 d43d defc fd3c ab35 4e3d
000002a0: 9473 ceb8 cdbc adbc ab70 0dbd cb7e 2b3c
000002b0: 94f8 083e 31e0 19bc fc1a 31bd f6b0 cfbb
000002c0: 9219 6d3d 319e 35bd 520d fb3c c32a bd3c
000002d0: 4952 203e 91ff a1bd 20d1 383d a281 3a3d
000002e0: 475c debc 40c7 ce3c acfd f93c ff62 293d
000002f0: 9539 15bd 9127 66bd 218f 2cbd d2f2 04bd
00000300: d8fc f73d b1ef cf3d e439 e63d 4288 d03d
00000310: 6b1c 0ebd da82 0bbd ead2 cd3c ef95 0c3e
00000320: aeda 483c 9dac 15bb d2e9 76bd 04cf 38bd
00000330: 567b 34bc 3964 38bb 0c12 1f3d e343 063a
00000340: 8093 3d3b c4ea 24bb eff8 42bd 715e bebc
00000350: ed8e b63b 8fd6 16bd f0cc ec3c 0490 c93a
00000360: d435 8cbd b43e ee3c f995 a8bc b4e9 daba
00000370: fe35 043e bd0f 923b 1a0f 8b39 9f06 8dba
00000380: 74c1 12bd d9a9 afb9 b6bc 773c b02e 3a3d
00000390: c11b f33d 69b5 343d d340 94b9 29f3 8b3b
000003a0: 15f4 d93d c6a2 593d d921 8dbd 870c febd
000003b0: 0161 5e3d 32ac 23bc 8c1c f13c c94a 963c
000003c0: fb5f 57bd d503 9e3a 5e5a 5cbc 1c27 713b
000003d0: c309 f23d a82d 173d c263 8bbc 5b67 573d
000003e0: fdf5 a43c be72 b2bd 8486 fc3c 19f9 983d
000003f0: e14d 093b e120 e63d f748 0ebd 3697 233b
