youtube-ppo/tmp/ppo/actor2-batch.pth (torch, 270970 bytes, 5 tensors)

fc1.weight f4 [256, 3]
0	0x3efcce97	0.49376366
1	0x3ead4faf	0.33849856
2	0xbe4de9b4	-0.20108682
3	0xbeabf459	-0.3358486
4	0x3f147c84	0.58002496
5	0x3bcddf88	0.0062827505
6	0xbe6d1dfe	-0.23155972
7	0xbe664586	-0.22487459
8	0xbe8ca805	-0.2747194
9	0x3ce40252	0.027833138
10	0x3c3638eb	0.011121969
11	0xbe8076eb	-0.25090727
12	0xbefa7172	-0.48914677
13	0x3e3085db	0.17238562
14	0x3e49077f	0.19631766
15	0xbf069ea8	-0.5258584
16	0xbe71aaf3	-0.23600368
17	0xbe5e84a1	-0.21730281
18	0x3f0222f5	0.5083459
19	0x3f062278	0.52396345
20	0x3e4e5f13	0.20153455
21	0x3e5e16e4	0.2168842
22	0x3e4d0204	0.200203
23	0xbefc0a75	-0.49226728
24	0xbed8e021	-0.42358497
25	0xbe21f3d7	-0.15815674
26	0x3e833a61	0.25630477
27	0x3eb7e29e	0.35915083
28	0x3f144b1b	0.579271
29	0x3ec39e40	0.38206673
30	0x3eab51be	0.33460802
31	0xbef85a8a	-0.48506576
32	0xbe9752e3	-0.29555425
33	0x3e80ca1d	0.251542
34	0xbe4ee881	-0.2020588
35	0xbee69441	-0.45034984
36	0xbecca4fe	-0.3996963
37	0xbeaf2efd	-0.34215537
38	0xbe67bfbe	-0.22631738
39	0xbeb4349a	-0.35196382
40	0xbeb299f5	-0.34883085
41	0x3e885428	0.26626706
42	0xbee8cc8b	-0.45468554
43	0xbb81af64	-0.003957676
44	0xbdfe495c	-0.12416336
45	0x3f0c9c3c	0.54925895
46	0x3d74ff68	0.059813887
47	0xbe8cdb7a	-0.27511197
48	0xbe53c973	-0.20682316
49	0x3d10ee07	0.03538325
50	0x3e786840	0.24258518
51	0xbf306dec	-0.6891773
52	0x3eadc702	0.33940893
53	0xbdf4e8e7	-0.11958485
54	0x3f0558bb	0.52088517
55	0xbeae61bc	-0.3405894
56	0xbe56d2ce	-0.20978853
57	0x3eb1d8cd	0.34735718
58	0x3ea74765	0.32671657
59	0xbeb89942	-0.36054426
60	0xbe3255aa	-0.17415491
61	0x3e5b01a5	0.21387346
62	0x3dc744ae	0.097298965
63	0x3e8478da	0.25873452
64	0x3f071951	0.52773005
65	0xbea2d7e7	-0.31805345
66	0x3de5a70f	0.112135045
67	0x3ef15aae	0.47139496
68	0x3d9f945c	0.07791969
69	0xbecedade	-0.40401357
70	0x3e3875e3	0.1801372
71	0x3e33de13	0.17565183
72	0xbf1ed2bd	-0.6204031
73	0x3eac55d4	0.33659232
74	0x3f01740c	0.505677
75	0x3ed34db3	0.41270217
76	0xbe663a4d	-0.22483177
77	0xbddc8dd6	-0.107692406
78	0xbe0a3ea0	-0.13500452
79	0xbbd45474	-0.006479794
80	0xbedaafef	-0.42712352
81	0xbdd92f70	-0.10604751
82	0x3ddf2eec	0.108976215
83	0x3e8ae6ab	0.2712911
84	0x3eafcd40	0.3433628
85	0xbf127d20	-0.57222176
86	0xbe883172	-0.26600224
87	0xbe9bb7c0	-0.30413628
88	0xbf30a39c	-0.6899965
89	0xbef4b335	-0.47792974
90	0xbe9ad6ce	-0.30242008
91	0xbf0570e4	-0.5212538
92	0xbda849d3	-0.08217206
93	0xbf346726	-0.7046989
94	0x3ed7ca99	0.42146757
95	0xbe12e980	-0.14346886
96	0xbf26932e	-0.6506833
97	0xbe91efdc	-0.2850331
98	0x3e763f3b	0.24047558
99	0x3c2e6c0b	0.010645877
100	0xbe78a43f	-0.24281405
101	0xbeb0d7da	-0.34539682
102	0x3d189f0e	0.03726106
103	0x3ee8d315	0.45473543
104	0xbe6270e3	-0.22113375
105	0xbeafdb1d	-0.34346858
106	0xbcbc5ce3	-0.02299351
107	0xbf0861df	-0.5327434
108	0xbe3af29e	-0.18256614
109	0xbe19036c	-0.14942712
110	0xbd329c3b	-0.043606024
111	0xbe372be6	-0.1788784
112	0x3eee3bb5	0.46529928
113	0x3ee8f3cc	0.45498502
114	0x3abc08a2	0.0014345834
115	0x3f1e9899	0.61951596
116	0x3e9ca6a5	0.3059589
117	0xbe1d9f27	-0.15392743
118	0xbeb2f02b	-0.3494886
119	0xbe66903d	-0.2251596
120	0x3def48f6	0.11683838
121	0x3edaf35d	0.42763796
122	0xbe64b754	-0.22335559
123	0xbeec1f59	-0.46117666
124	0xbd2eb03d	-0.042648543
125	0xbdb85db4	-0.090022475
126	0xbe89f860	-0.26947308
127	0xbf2fc4be	-0.6865958
128	0x3c944b9c	0.01810246
129	0xbf1b08af	-0.60560125
130	0xbf08207c	-0.5317457
131	0x3cd34645	0.025790343
132	0xbc3d8dfd	-0.011569497
133	0x3f152368	0.5825715
134	0xbebe032e	-0.371118
135	0xbf0ac299	-0.5420318
136	0x3eb678dc	0.35639083
137	0x3ce89564	0.028391548
138	0xbed7bb3b	-0.42135033
139	0xbebc82a3	-0.36818418
140	0xbe9a146d	-0.3009371
141	0xbecd66ee	-0.40117592
142	0xbf0d429e	-0.55179775
143	0x3e481dc7	0.19542609
144	0x3e8b0709	0.27153805
145	0xbf0b2847	-0.54358333
146	0x3ec1320a	0.3773349
147	0xbf28a504	-0.65876794
148	0x3e56b3d5	0.20967038
149	0x3e16b9b1	0.14719273
150	0xbf00fdce	-0.50387275
151	0x3e1d82db	0.15381949
152	0xbe85b3b0	-0.26113653
153	0xbe8ac82d	-0.27105847
154	0x3e9879c7	0.2978041
155	0xbea94ba9	-0.33065537
156	0xbc95628d	-0.01823547
157	0x3ec56e28	0.38560605
158	0xbe95db79	-0.29269007
159	0x3e8b750e	0.27237743
160	0x3f0dc293	0.5537502
161	0xbeac7f39	-0.33690813
162	0x3f12721e	0.5720538
163	0x3e8f79d6	0.2802264
164	0x3e17cb7e	0.1482372
165	0xbe4be248	-0.19910538
166	0x3f097d60	0.5370693
167	0x3ef0fa79	0.47066095
168	0xbc02340f	-0.007946982
169	0xbe82c42c	-0.25540292
170	0xbeea143b	-0.4571856
171	0x3e8844db	0.26615033
172	0xbf10964a	-0.5647932
173	0x3eb2050e	0.3476948
174	0x3d9fbc24	0.07799557
175	0xbe623729	-0.22091354
176	0x3db4fe43	0.08837559
177	0xbee4bf9e	-0.44677442
178	0x3da02019	0.07818622
179	0xbe90c3bd	-0.28274336
180	0xbecc090c	-0.39850652
181	0x3f0d1d68	0.55122995
182	0x3e04803b	0.12939541
183	0xbf156c33	-0.58368224
184	0x3eb372a1	0.35048392
185	0x3d1d2488	0.038364917
186	0xbec52330	-0.38503408
187	0x3eead1eb	0.4586328
188	0x3d563b15	0.05230244
189	0x3f1cfbf1	0.6132193
190	0x3d859b21	0.06523729
191	0x3e61ac72	0.22038439
192	0x3f170de2	0.5900556
193	0x3efe452e	0.49662155
194	0xbe3ccf87	-0.1843854
195	0x3f115a77	0.56778663
196	0xbe0261e5	-0.12732656
197	0x3e861f67	0.26195833
198	0x3f1d1f01	0.61375433
199	0x3dee0d83	0.11623671
200	0xbe05c2cf	-0.13062595
201	0x3e048e3a	0.1294488
202	0xbeadc5f5	-0.33940092
203	0x3d7821ce	0.060579114
204	0xbe920cb6	-0.28525323
205	0x3f0a8a39	0.5411716
206	0x3d18ea21	0.037332658
207	0x3d8c70d1	0.068574555
208	0xbedc7b5a	-0.4306286
209	0xbedc2268	-0.42995
210	0x3ed2f606	0.41203326
211	0xbf057f18	-0.52147055
212	0x3eda4ea6	0.4263813
213	0xbc3b17a5	-0.0114192115
214	0x3ea83f70	0.328609
215	0xbdb9e0ae	-0.090760574
216	0x3eae129c	0.33998573
217	0x3ef5af26	0.4798519
218	0xbe9dbbce	-0.30807346
219	0x3d9df5f8	0.077129304
220	0xbd9ee074	-0.07757655
221	0xbbbb8c80	-0.005723536
222	0xbee40a9a	-0.44539338
223	0xbebddfd3	-0.37084827
224	0xbeeec11e	-0.46631712
225	0x3ea535ed	0.32267705
226	0xbf11170a	-0.5667578
227	0x3f0631ee	0.52419937
228	0x3ec30d8d	0.38096276
229	0x3da772b7	0.08176177
230	0xbd618af8	-0.05506417
231	0x3e5517d3	0.2080987
232	0x3f16dbfc	0.5892942
233	0xbe8a80ba	-0.27051336
234	0xbe4c6ad0	-0.1996262
235	0x3ebee0c1	0.3728085
236	0x3eb8e2cf	0.3611054
237	0xbf18906e	-0.5959538
238	0xbf07c4fa	-0.5303494
239	0xbe3d7e36	-0.18505177
240	0x3f142fd3	0.57885474
241	0x3f1187b8	0.56847715
242	0x3e954975	0.29157606
243	0xbead17ec	-0.33807313
244	0xbf205671	-0.626319
245	0xbdb737ca	-0.08946188
246	0x3eaa47f3	0.33258018
247	0x3f2da384	0.6782763
248	0xbe58a732	-0.2115753
249	0xbc6a727e	-0.014309524
250	0xbeec06c3	-0.4609891
251	0xbe2c0dd2	-0.16802147
252	0x3df6f2eb	0.12058052
253	0x3df2b6f2	0.118513
254	0x3e88cfa6	0.26720923
255	0x3f1c7fb5	0.61132365

fc1.bias f4 [256]
0	0x3cd263ab	0.025682291
1	0x3f084bcc	0.53240657
2	0x3f016b34	0.50554204
3	0x3b79ffdb	0.0038146887
4	0x3d8ad03c	0.06777999
5	0xbef5f6df	-0.4803991
6	0xbe9d925a	-0.3077572
7	0x3e9842d0	0.29738474
8	0x3ecfb987	0.40571234
9	0x3eefa15a	0.4680279
10	0xbdad2d41	-0.08455897
11	0xbe6fdbc1	-0.23423673
12	0x3e2c3efc	0.16820902
13	0x3ed8502c	0.42248666
14	0xbe7f5ed7	-0.24938522
15	0x3eab2b8e	0.33431667
16	0xbdd7d761	-0.10539127
17	0xbe8568e4	-0.26056588
18	0x3ee44e95	0.44591203
19	0x3e5729c0	0.2101202
20	0xbef47c42	-0.4775105
21	0x3e8365fb	0.25663742
22	0xbc193812	-0.009351747
23	0xbdbdb227	-0.092624955
24	0x3ee046a2	0.4380389
25	0x3d6d6f76	0.057967626
26	0x3eba7b18	0.36422038
27	0x3d5930b9	0.05302498
28	0x3e5124c8	0.20424187
29	0x3edd3cae	0.43210357
30	0xbe84d7cf	-0.259459
31	0x3ed38f01	0.4132004
32	0x3cda8f2c	0.026679598
33	0xbf0e41ed	-0.55569345
34	0x3da9f389	0.08298404
35	0x3e8ee224	0.27906907
36	0x3f0618e4	0.5238173
37	0xbc12cf3c	-0.008960541
38	0xbef0ba3f	-0.47017094
39	0x3ec31a00	0.38105774
40	0x3ec4a7fa	0.38409406
41	0xbd8dca6d	-0.06923375
42	0x3d48b53b	0.04900096
43	0x3dfba728	0.12287742
44	0x3ecf1158	0.4044292
45	0x3ecd38d3	0.40082416
46	0xbeaaf905	-0.33393112
47	0xbf0213fe	-0.50811756
48	0xbe10c1a6	-0.14136371
49	0x3f02bfdd	0.5107401
50	0xbf188cfd	-0.5959013
51	0x3e487f1e	0.19579741
52	0xbddc1947	-0.10747009
53	0xbe64dcb2	-0.22349814
54	0xbe64a054	-0.22326785
55	0x3ea84d14	0.32871306
56	0xbf1c7c74	-0.611274
57	0xbec59b7a	-0.38595182
58	0x3ed5cf48	0.41759706
59	0x3ecef359	0.40420035
60	0x3e4688f8	0.19388187
61	0xbe6176a0	-0.22017908
62	0x3e6bc169	0.23022999
63	0xbd388a60	-0.04505384
64	0x3ef10051	0.47070554
65	0xbefd5448	-0.49478364
66	0xbe34abcb	-0.17643659
67	0xbda8fb76	-0.08251087
68	0x3dee6c8a	0.11641796
69	0x3e96d18c	0.29456747
70	0xbea4960e	-0.32145733
71	0x3d94066e	0.07227789
72	0xbef3b3e7	-0.47598192
73	0xbeb3121c	-0.34974754
74	0x3d84c174	0.06482211
75	0xbed7f8b2	-0.42181927
76	0x3e736e61	0.23772575
77	0xbebcde62	-0.36888415
78	0xbe383a70	-0.17991042
79	0x3d8d4f3a	0.06899877
80	0xbeffe813	-0.49981746
81	0x3e530ec8	0.20611107
82	0xbe07c8af	-0.13260148
83	0x3e9e3a6b	0.30903944
84	0xbf0b4568	-0.5440278
85	0xbe82f066	-0.25574034
86	0xbdfe351e	-0.12412475
87	0x3e0ea34d	0.13929482
88	0x3e8a00a5	0.26953617
89	0xbee448b5	-0.4458672
90	0xbe5192a6	-0.20466098
91	0x3d34e248	0.04416111
92	0x3ee8c921	0.4546595
93	0xbecf663c	-0.40507686
94	0x3f0d3c61	0.55170256
95	0xbe962e28	-0.2933209
96	0xbe1bf70d	-0.15230961
97	0x3e1b2480	0.15150642
98	0x3e5e3c3a	0.21702662
99	0x3d8103b9	0.06299538
100	0xbdf9e1d8	-0.122012794
101	0xbf10c61d	-0.56552297
102	0x3f0ca474	0.54938436
103	0xbe9f4572	-0.3110767
104	0xbe93c21b	-0.28859028
105	0x3e987299	0.2977493
106	0xbe3495a6	-0.17635211
107	0xbed0cdc7	-0.40781996
108	0x3e5d60d5	0.2161897
109	0xbed616bd	-0.41814223
110	0xbdbb6dfa	-0.09151836
111	0x3dbb0b8f	0.09133064
112	0x3f022f0c	0.5085304
113	0x3e7aaa8b	0.2447912
114	0xbe5423d3	-0.20716791
115	0x3e3c2449	0.18373217
116	0xbf1f9650	-0.62338734
117	0xbec6bcb1	-0.38815835
118	0xbe5a1940	-0.21298695
119	0xbf0ba4b6	-0.54548204
120	0xbe7cdef4	-0.24694425
121	0x3e75df3a	0.24010935
122	0xbeb13547	-0.3461096
123	0x3dc8a07d	0.09796236
124	0xbe8dfc70	-0.27731657
125	0xbf0e8f92	-0.5568782
126	0xbe7af08a	-0.24505821
127	0x3ebf5772	0.37371403
128	0xbcb49244	-0.022042401
129	0x3ea8aaca	0.32942802
130	0xbee466d0	-0.4460969
131	0xbed3a7e9	-0.41339043
132	0x3ec4826e	0.3838076
133	0x3e914c40	0.28378487
134	0x3eec8985	0.4619867
135	0xbe067520	-0.13130617
136	0x3eb8d571	0.36100343
137	0xbf140d2d	-0.57832605
138	0x3ee88815	0.45416322
139	0xbf031f17	-0.51219314
140	0xbed25750	-0.4108224
141	0xbdea429c	-0.11438486
142	0xbcb73be1	-0.02236742
143	0x3d2c6629	0.042089615
144	0xbe71adb7	-0.23601423
145	0xbef76ddf	-0.48326012
146	0xbf107a50	-0.56436634
147	0xbe873448	-0.26407075
148	0xbe31a6ed	-0.17348833
149	0xbdf027f1	-0.11726368
150	0xbeb8eb5d	-0.36117068
151	0xbef89ca6	-0.48557013
152	0xbbfd3fde	-0.007728561
153	0xbe397f25	-0.18114908
154	0x3ee6b1b1	0.45057443
155	0x3e6d4a98	0.23172987
156	0x3d3c10b2	0.04591436
157	0xbe1e2401	-0.15443422
158	0xbd1580fc	-0.036499962
159	0x3dbdc04d	0.09265194
160	0xbeaa4fbb	-0.33263955
161	0xbead1b5f	-0.33809945
162	0xbe7a0ddc	-0.2441935
163	0xbe8b5d07	-0.27219412
164	0x3e986cb8	0.29770446
165	0xbb197fe1	-0.002342217
166	0xbf11918b	-0.56862706
167	0xbe1aa8c4	-0.15103441
168	0x3bc74b0c	0.0060819443
169	0x3ea315c8	0.31852555
170	0x3ea8fec0	0.3300686
171	0xbda2062c	-0.079113334
172	0x3eb97002	0.36218268
173	0xbf006d9d	-0.50167257
174	0xbf1a8ed4	-0.6037419
175	0x3e895312	0.2682119
176	0x3db024d3	0.08600774
177	0x3eb6cb26	0.35701865
178	0x3e2df79d	0.16988988
179	0x3dc901f1	0.098148234
180	0xbd5e25c3	-0.05423523
181	0xbedb9805	-0.4288942
182	0xbed22602	-0.41044623
183	0x3e842832	0.25811917
184	0x3e3c2e24	0.18376976
185	0xbdfef72b	-0.12449487
186	0x3e7a133e	0.24421403
187	0x3e0c7aa0	0.13718653
188	0xbec1e26f	-0.37868068
189	0x3f08f168	0.53493357
190	0xbf04c06a	-0.518561
191	0x3ea5ad77	0.32358906
192	0x3e196e47	0.14983474
193	0x3ecb032c	0.39650857
194	0xbef620fb	-0.48072037
195	0x3e804ae4	0.25057137
196	0xbe18cc90	-0.14921784
197	0xbdcddc1c	-0.10051748
198	0x3e54e036	0.20788655
199	0x3e970c7f	0.2950172
200	0x3eac6f1d	0.33678523
201	0xbd747091	-0.059677664
202	0xbe8165a8	-0.2527287
203	0x3db2920a	0.08719261
204	0x3bc725e8	0.006077517
205	0xbe35bc15	-0.17747529
206	0xbec0626e	-0.37575096
207	0xbe1b25f5	-0.15151198
208	0xbece9e86	-0.4035532
209	0xbd98ffc9	-0.07470662
210	0x3dcccc4b	0.09999903
211	0x3e82af81	0.25524524
212	0xbef1c01e	-0.47216886
213	0x3e607437	0.21919332
214	0xbdff5c62	-0.124687925
215	0xbeef2d9b	-0.46714482
216	0xbe54c508	-0.20778286
217	0x3ed1c393	0.40969524
218	0xbde5bbcb	-0.11217459
219	0xbeaa8caf	-0.33310458
220	0xbed768bc	-0.42072093
221	0xbea9d7db	-0.33172497
222	0xbe461393	-0.19343404
223	0xbcd82645	-0.026385436
224	0x3ee028f3	0.43781242
225	0xbe672d5d	-0.22575898
226	0x3e6be9d5	0.23038419
227	0xbed56751	-0.41680387
228	0xbec2c05c	-0.38037384
229	0xbe0b150b	-0.13582246
230	0x3e27bb9f	0.16380166
231	0xbde12bbe	-0.10994671
232	0x3e38905d	0.1802382
233	0x3ed049da	0.40681344
234	0x3e99aa57	0.3001277
235	0x3e4b10da	0.19830647
236	0x3d50ee5b	0.051008563
237	0x3ea909e3	0.33015355
238	0xbf220211	-0.63284403
239	0x3a0cfdc3	0.00053783896
240	0xbdfc9fa0	-0.123351336
241	0xbdbe717d	-0.0929899
242	0x3c30bd9a	0.010787392
243	0x3e9c78ba	0.30560857
244	0x3db861a3	0.09002998
245	0xbeeb599b	-0.459668
246	0xbe96ac33	-0.29428253
247	0xbe847dd9	-0.25877264
248	0x3ebb4754	0.36577857
249	0xbe99a3d9	-0.30007818
250	0x3e3f5a67	0.1868683
251	0xbe45041d	-0.1923985
252	0xbefd16ca	-0.4943145
253	0x3e91bbfb	0.2846373
254	0xbe641432	-0.22273329
255	0xbdd96dc6	-0.10616641

fc2.weight f4 [256, 256]
0	0xbd6e5bab	-0.05819289
1	0x3d177ec3	0.036986124
2	0xbcdfc1bd	-0.027314061
3	0xbd4d63e5	-0.050144095
4	0xbdb6a074	-0.08917323
5	0x3c0e6b5d	0.00869259
6	0x3d7f2193	0.06228788
7	0xbd8a392d	-0.06749187
8	0xbdf24828	-0.11830169
9	0xbcb8f2f4	-0.022576787
10	0xbd0135e3	-0.03154553
11	0xbd3e3606	-0.04643824
12	0xbd581989	-0.052758727
13	0xbe2553b0	-0.16145205
14	0xbcd36f52	-0.025809918
15	0xbbf34df8	-0.007425066
16	0xbce9fa2d	-0.028561676
17	0xbdf4dccf	-0.119561784
18	0x3c3221c6	0.01087231
19	0xbd7bccd1	-0.061474625
20	0xbcd33a07	-0.025784506
21	0x3ca7bb45	0.02047504
22	0x3d275d64	0.04086055
23	0xbda7795c	-0.08177444
24	0xbdb78463	-0.08960798
25	0x3d3701c2	0.04467941
26	0x3cf335b0	0.029688686
27	0xbd520068	-0.05126992
28	0xbc416b18	-0.011805318
29	0xbcf0d1a0	-0.029396832
30	0x3bcbcad9	0.0062192497
31	0x3c31919d	0.01083794
32	0xbd0bc3cf	-0.034122285
33	0xbc6d69d2	-0.014490562
34	0xbd3fd563	-0.04683436
35	0x3b272b43	0.0025507964
36	0x3cabe17f	0.020981548
37	0xbc775f5a	-0.015098417
38	0xbddcd833	-0.10783424
39	0xbc8f21a7	-0.017472101
40	0x3d203822	0.039116032
41	0xbd15e46d	-0.036594797
42	0xbda137f7	-0.078720026
43	0x3caa3e3a	0.020781625
44	0x3c8f37a5	0.017482588
45	0xbdbaa753	-0.09113946
46	0xbcfc825b	-0.030823877
47	0xbcc3981f	-0.023876248
48	0xbc98ab7e	-0.018636461
49	0xbd843fe9	-0.064575024
50	0xbd92cdcf	-0.07168161
51	0xbd95a8eb	-0.07307609
52	0xbcf78642	-0.030215386
53	0xbcc6f8e7	-0.024288608
54	0x3d8baa1c	0.06819555
55	0x3d516645	0.051122922
56	0xbd8f67df	-0.07002234
57	0xbdfab026	-0.12240629
58	0xbd0d91ea	-0.034562983
59	0x3d368a7d	0.044565666
60	0xbd80c5eb	-0.0628775
61	0x3ca0dfac	0.019637905
62	0xbd8305e3	-0.06397607
63	0xbd82eedb	-0.06393214
64	0xbd3a3933	-0.045464706
65	0xbb90ab10	-0.0044149235
66	0x3da6d347	0.08145767
67	0xbda59722	-0.08085467
68	0xbd9002be	-0.07031773
69	0x3d027ac5	0.031855363
70	0xbe0b1c7d	-0.13585086
71	0xbcf8db1f	-0.030377923
72	0xbd218f75	-0.039443452
73	0x3c1e2090	0.009651318
74	0x3cb44f07	0.02201034
75	0xbdd93964	-0.106066495
76	0x3cdaff6e	0.026733126
77	0x3cd99d56	0.026564281
78	0xbce71f8d	-0.028213287
79	0xbd567e0d	-0.052366305
80	0xbcecff71	-0.028930398
81	0x3da38a1e	0.07985328
82	0xbd0d2301	-0.03445721
83	0xbb6c48b4	-0.0036054077
84	0xbdddb84d	-0.10826168
85	0xbc87d79f	-0.016582308
86	0xbb81c3b4	-0.003960097
87	0x3c788c15	0.015170117
88	0xbb61a203	-0.0034428842
89	0xbbd674a8	-0.006544668
90	0xbd0c7295	-0.03428896
91	0xbd756eb7	-0.05992004
92	0x3d499416	0.04921349
93	0xbd1b0535	-0.037846763
94	0xbd30c286	-0.043154262
95	0xbde8fd9b	-0.113764964
96	0xbdc84b59	-0.097799964
97	0xbdca18ea	-0.09868033
98	0x3a97e8f5	0.0011589812
99	0x3d7356f7	0.059409108
100	0xbd6e97ad	-0.058250118
101	0xbd7a1c69	-0.06106225
102	0xbd373531	-0.04472846
103	0xbdaa3307	-0.08310514
104	0xbd0ed4ea	-0.03487102
105	0x3d0d86c4	0.03455235
106	0xbd7d9c92	-0.061916895
107	0x3d6ce6a9	0.057837162
108	0xbb1a3009	-0.0023527166
109	0x3d78640d	0.06064229
110	0xbd0373be	-0.032092802
111	0x3978a376	0.00023712017
112	0x3bfed48f	0.007776804
113	0xbb776321	-0.0037748294
114	0xbdbacfe0	-0.0912168
115	0x3c814e8d	0.015784526
116	0xbdbd207a	-0.0923471
117	0xbc3c1443	-0.01147944
118	0xbc844404	-0.016145714
119	0x3d183cfd	0.037167538
120	0x3cb79e7f	0.022414444
121	0xbc9da2a4	-0.019242592
122	0x3bfbb0b7	0.007680978
123	0xbd32089e	-0.04346525
124	0xbd8bbf7e	-0.068236336
125	0x3d5687e4	0.05237569
126	0xbc8a0012	-0.016845737
127	0x3d19aa28	0.03751579
128	0xbd2c05f2	-0.041997857
129	0x3c82dd62	0.015974704
130	0xbdf269be	-0.11836575
131	0xbd9b6a77	-0.07588666
132	0xbde7822e	-0.11304127
133	0xbcf96227	-0.03044231
134	0x3b48f69f	0.0030664576
135	0x3c17de38	0.00926929
136	0x3c2c7e06	0.010528093
137	0xbd86f53a	-0.06589742
138	0xbd7a01c6	-0.061036848
139	0xbd3a971e	-0.045554273
140	0xbd78d6e3	-0.060751807
141	0xbcabd8e8	-0.020977452
142	0xbc52849e	-0.012849001
143	0xbdcd81cb	-0.10034522
144	0x3c98b374	0.018640257
145	0x3caf8570	0.021425933
146	0xbdb30b68	-0.0874241
147	0xbc54e6b7	-0.01299446
148	0x3b374c9d	0.002796925
149	0xbdf25ee5	-0.11834506
150	0x3c8af391	0.016961845
151	0xbd80c573	-0.062876604
152	0xbd914aed	-0.07094369
153	0xbd586711	-0.052832667
154	0x3bc55187	0.0060216817
155	0xbcd6673b	-0.026172271
156	0xbccbcc43	-0.024877673
157	0xbd433636	-0.04765912
158	0xbd21edb4	-0.039533332
159	0x3d474aec	0.048655435
160	0xbc19711c	-0.009365346
161	0xbd7300d9	-0.05932698
162	0xbce9137b	-0.028451672
163	0xbd93c9c5	-0.07216219
164	0xbdcca9a1	-0.09993292
165	0x3cc69410	0.024240524
166	0xbd863bd8	-0.06554383
167	0x3da12e7b	0.078701936
168	0x3cd59868	0.02607365
169	0x3d1b4506	0.037907623
170	0x3c840345	0.01611484
171	0xbdc24b60	-0.09487033
172	0xbd0aaf5f	-0.033858653
173	0xbda3901a	-0.079864696
174	0xbdc4c619	-0.09608097
175	0x3cf67103	0.030083185
176	0xbc07a6a3	-0.008279475
177	0x3d40b727	0.047049668
178	0xbddea597	-0.108714275
179	0xbc0b5100	-0.008503199
180	0xbda551f4	-0.08072272
181	0xbcbd3a6f	-0.023099152
182	0x3c51f2dd	0.012814251
183	0xbd342fdd	-0.04399096
184	0xbb2f3d12	-0.0026739282
185	0xbcac87a2	-0.021060769
186	0xbae36197	-0.001734781
187	0xbaeb5cb1	-0.0017956701
188	0x3cddfc43	0.027097827
189	0x3c582fef	0.013195022
190	0xba606200	-0.0008559525
191	0xbd8575e0	-0.065166235
192	0x3cbf7d4f	0.023375181
193	0xbd32b84a	-0.043632783
194	0xbd2023ca	-0.03909663
195	0x3d1960fa	0.037446
196	0x3d5ecd60	0.05439508
197	0x3ccd2824	0.025043555
198	0xbd67e30f	-0.056613024
199	0xbdc077a3	-0.09397819
200	0xbcb94ff0	-0.022621125
201	0xbbf9e16c	-0.0076257493
202	0x3d6b081d	0.057380784
203	0xbcc546a8	-0.024081543
204	0x3b5be276	0.003355173
205	0x3d284173	0.041078042
206	0x3cbed8c3	0.02329672
207	0xbd31d76f	-0.043418344
208	0x3c42d4ff	0.011891603
209	0x3c8f5c89	0.017500179
210	0xbcb78565	-0.022402475
211	0xbc3f7da1	-0.011687667
212	0xbd96668d	-0.07343779
213	0xbd742e2c	-0.059614345
214	0x3c88efd0	0.016715914
215	0x3c9ee4bd	0.01939618
216	0xbd9d55cd	-0.07682381
217	0xbcab8c8e	-0.020941045
218	0x3d99fe1b	0.0751917
219	0xbd07a18e	-0.033113055
220	0xbd72c2cf	-0.059267815
221	0x3cdc7296	0.026910108
222	0xbdcb4c8a	-0.09926708
223	0xbd93a15c	-0.07208511
224	0x3c4e7b86	0.0126026925
225	0x3cb656a1	0.022258105
226	0x3c3c4f88	0.011493571
227	0xbcdd80d9	-0.027038978
228	0xbcfa5a72	-0.030560706
229	0x3c79c2ef	0.01524423
230	0x3be975d4	0.007124642
231	0xbde18ddd	-0.110133864
232	0xbd4b8117	-0.049683657
233	0x3d12446f	0.035709795
234	0x3cb09859	0.02155702
235	0xbd553a55	-0.052057583
236	0xbc5ccf41	-0.013477148
237	0xbbbca477	-0.0057569104
238	0xbd39e168	-0.04538098
239	0x3ce7362f	0.028224079
240	0x3d8d3635	0.06895105
241	0xbd29366c	-0.041311666
242	0x3c25ffe7	0.010131813
243	0x3d2af35b	0.041735988
244	0xbbfdce98	-0.007745575
245	0xbc0a5d32	-0.008445071
246	0xbd4801c8	-0.048829824
247	0x3cb068e0	0.021534383
248	0x3d1de45c	0.03854786
249	0xbd2985ab	-0.04138724
250	0xbd8b4e8f	-0.06802093
251	0xbcc347b2	-0.023837898
252	0x3c0aed05	0.008479361
253	0xbc9fc132	-0.019501302
254	0x3bad8548	0.0052954294
255	0xba4676bc	-0.00075707934

fc2.bias f4 [256]
0	0x39623ae3	0.00021574977
1	0x3d5a70ad	0.053330112
2	0xbb3c4f0c	-0.002873364
3	0x3d232f5f	0.0398401
4	0x3d4f3fe8	0.050598055
5	0x3d804655	0.06263415
6	0x3d512e66	0.05106964
7	0x3cb80aa1	0.022466006
8	0x3d0dca48	0.03461674
9	0x3c68369c	0.014173176
10	0xbd64eb46	-0.055888437
11	0x3c94a523	0.01814515
12	0x3da43a01	0.08018876
13	0xbd6e6e1b	-0.058210474
14	0xbd80e83e	-0.06294297
15	0x3bfbe7c7	0.007687542
16	0xbd292fee	-0.041305475
17	0x3cb3a0bd	0.021927232
18	0x3d7cb303	0.061694156
19	0x3b64ead3	0.0034930005
20	0xbb335749	-0.0027365258
21	0xbc6bcfaf	-0.014392777
22	0xbd72c9b0	-0.059274375
23	0x3b22447c	0.0024760058
24	0x3cc43152	0.023949299
25	0x3d6aeb80	0.057353497
26	0xbd0aea31	-0.03391475
27	0xbd8f5ca8	-0.07000095
28	0xbd0e832d	-0.034793068
29	0xbd34a0ea	-0.044098772
30	0xbd8f1d61	-0.069880255
31	0xbd24d4fa	-0.040242173
32	0xbc6cb89a	-0.014448309
33	0xbcfc2df7	-0.030783636
34	0x3d06e1bd	0.032930125
35	0x3b0f91ae	0.00219069
36	0xbd5cab1c	-0.05387412
37	0x3d0ab8c1	0.0338676
38	0xbd6b7a65	-0.05748977
39	0xbbc995d1	-0.0061518927
40	0x3d53217a	0.051545598
41	0xbd8b4732	-0.06800689
42	0x3d3069cb	0.043069642
43	0xbcd900e6	-0.026489686
44	0x3d0de718	0.034644216
45	0xbbbaa67d	-0.0056961165
46	0x3c40858e	0.011750592
47	0x3d215bd2	0.039394207
48	0x3d26639f	0.04062235
49	0x3d76a5f2	0.06021685
50	0xbcbd684d	-0.023121024
51	0x3d2f5e0d	0.042814303
52	0x3c00b23a	0.0078549925
53	0x3db9a773	0.090651415
54	0xbca5cead	-0.020240152
55	0xbc5f8196	-0.013641736
56	0xbde3b2b6	-0.11118071
57	0x3a42f0a4	0.0007436371
58	0xbc8192e8	-0.01581712
59	0x3c93b66d	0.018031323
60	0x3d2f3b54	0.04278119
61	0x3c8c735e	0.017144855
62	0xbd9bf98c	-0.07615957
63	0x3c77ba06	0.015120035
64	0xbc0ece64	-0.0087162
65	0x3c07fc8d	0.008299959
66	0x3cc15c2a	0.023603518
67	0xbcc66a81	-0.024220707
68	0x3c0e20ac	0.008674782
69	0xbc24c055	-0.010055621
70	0x3d6aad61	0.057294253
71	0xbd044ae0	-0.03229797
72	0xbc941612	-0.01807693
73	0x3bc4aae8	0.006001819
74	0xbd0cb9a0	-0.034356713
75	0x3d7ea304	0.062167183
76	0x3d87d3a0	0.06632161
77	0x3c938d0a	0.018011589
78	0xbd217c96	-0.039425455
79	0xbb0b38f4	-0.0021243664
80	0x3d6e5d72	0.058194585
81	0x3d220801	0.039558414
82	0x3cc28403	0.023744589
83	0xbd455634	-0.048177913
84	0xbc75733b	-0.014981086
85	0xbba79620	-0.005114332
86	0x3dd36609	0.10322196
87	0x3c0569ed	0.00814293
88	0x3d1469f3	0.036233854
89	0xbcf2e04e	-0.029647972
90	0xbd0ccf66	-0.034377478
91	0x3da8acbb	0.08236071
92	0xbd9288c1	-0.0715499
93	0xbce24efa	-0.02762555
94	0x3d27356b	0.040822428
95	0x3c94b98f	0.018154887
96	0x3b893325	0.004187005
97	0x3d596e65	0.053083796
98	0x3cd20bf2	0.025640462
99	0xbc82b0ba	-0.01595341
100	0x3dd4ef5a	0.10397215
101	0xbd6ef202	-0.058336265
102	0x3b2788b3	0.0025563657
103	0x3db7193c	0.0894036
104	0xbce20c5b	-0.027593782
105	0xbcec1bc6	-0.028821837
106	0x3d77945c	0.06044422
107	0xbd29191e	-0.04128372
108	0xbc73b2ea	-0.014874199
109	0x3d9c187f	0.0762186
110	0xbcce1d23	-0.025160378
111	0x3d2eb3c5	0.04265191
112	0xbd591c68	-0.053005606
113	0x3d4335db	0.047658782
114	0x3d612aab	0.054972332
115	0xbbfb029b	-0.0076602227
116	0x3da2c92f	0.07948529
117	0x3d23d72a	0.04000012
118	0x3d65b74d	0.056083012
119	0xbd831176	-0.06399815
120	0xbdb58101	-0.08862496
121	0xbd0cb29a	-0.034350015
122	0xbd14c169	-0.036317263
123	0x3dbe9c43	0.09307148
124	0x3d2b29e0	0.041787982
125	0x3dbd2033	0.09234657
126	0x3d426146	0.04745605
127	0xbcdf3903	-0.027248865
128	0x3ca780f3	0.02044723
129	0x3c315a4e	0.010824753
130	0xbd0d9aa3	-0.0345713
131	0x3cc5e858	0.024158642
132	0x3ceeb924	0.029141016
133	0xbd3c9d17	-0.04604825
134	0x3d4d6d65	0.050153155
135	0x3cb32d84	0.02187229
136	0xbccddedf	-0.025130687
137	0xbd2c889d	-0.042122472
138	0xbd1be3f6	-0.038059197
139	0x3c9c42b5	0.019074777
140	0x3ced0d40	0.028936982
141	0x3d159fdf	0.036529418
142	0xbc1e7373	-0.00967108
143	0x3c822dab	0.015890917
144	0x3d6835f3	0.056692075
145	0x3c2bd953	0.010488826
146	0x3d888fca	0.066680506
147	0xbbbf4795	-0.0058373907
148	0xbbed5b64	-0.0072435606
149	0xbd770d88	-0.06031564
150	0xbd1ec953	-0.038766216
151	0x3c82ef99	0.01598339
152	0xbce587b0	-0.028018802
153	0xbd384a1a	-0.044992544
154	0x3cc4cdf9	0.024023997
155	0x3ccc547c	0.024942629
156	0xbc28b775	-0.010297646
157	0xbd895116	-0.06704919
158	0x3dcaba02	0.098987594
159	0x3d30deaf	0.043181118
160	0xbc939f39	-0.01802026
161	0xbce147d3	-0.027500069
162	0xbd362e59	-0.044477794
163	0xbd82d718	-0.06388682
164	0x3d8d4aab	0.068990074
165	0xbacb0c64	-0.0015491364
166	0xbd219e18	-0.03945741
167	0x3d4395c4	0.04775025
168	0x3d9e1ba9	0.077201195
169	0x3d606aed	0.054789472
170	0xbc91216c	-0.017716132
171	0x3c092376	0.008370271
172	0x3d4dce03	0.050245296
173	0x3c8cacbc	0.01717221
174	0xbcf7ef97	-0.030265613
175	0x3ceb12e7	0.028695537
176	0x3c79a6f8	0.015237562
177	0xbbf81440	-0.0075707734
178	0xbd0e0b78	-0.034678906
179	0xbc68a1ff	-0.014198779
180	0xbc6ebefe	-0.014571903
181	0x3d02a522	0.031895764
182	0xbcd8f852	-0.026485596
183	0xbb50acf6	-0.0031841374
184	0xbc35606b	-0.011070351
185	0x3c0f4976	0.008745542
186	0xbc08eb96	-0.008356949
187	0x3d3b9d51	0.045804325
188	0xbd02d205	-0.03193857
189	0xbc80c45f	-0.015718637
190	0xbc8ef50f	-0.017450837
191	0x3d5de02f	0.054168876
192	0xbd3dec02	-0.046367653
193	0xbd198e09	-0.03748897
194	0xbd4a01de	-0.049318187
195	0x3d4e2d7c	0.050336346
196	0x3dc8d4d7	0.09806221
197	0x3d59bc97	0.05315837
198	0xbce4c4df	-0.027925907
199	0xbc674363	-0.014115187
200	0xbd94857e	-0.07252024
201	0xbd661352	-0.05617077
202	0x3d23d132	0.039994426
203	0x3c7aed22	0.015315326
204	0xbd4af344	-0.049548402
205	0x3d1144b8	0.035465926
206	0xbd72e3fb	-0.05929945
207	0xbc7f44d0	-0.015580371
208	0xbd6cb155	-0.057786305
209	0x3d3b98c4	0.045799986
210	0xbcc0b26c	-0.023522578
211	0x3d53cb83	0.051707756
212	0x3d130f1f	0.035903092
213	0x3d35a3e8	0.044345766
214	0x3d5ea2ce	0.05435448
215	0xbc732a41	-0.014841617
216	0xbd836350	-0.06415427
217	0x3ce0b331	0.027429195
218	0x3d73f23c	0.059557185
219	0xbd59befa	-0.053160645
220	0x3d465a7f	0.048426148
221	0xbcb38bda	-0.021917272
222	0x3ac0c0a0	0.0014705844
223	0xbd85332c	-0.06503901
224	0xbbce16bf	-0.0062893326
225	0x3c4541c6	0.012039607
226	0x3d73edeb	0.059553068
227	0x3d3fcf78	0.046828717
228	0xbd6bd455	-0.057575542
229	0xbd2043e3	-0.03912724
230	0x3bd406b7	0.006470527
231	0x3b831a4c	0.0040009376
232	0xbbd3772b	-0.006453415
233	0xbd021e15	-0.03176697
234	0xbc2388e0	-0.009981364
235	0xbcc2a48a	-0.023760099
236	0x3abafc87	0.0014265933
237	0x3cfe7606	0.031062137
238	0x3d416ab6	0.047220908
239	0x3d66bbfb	0.056331616
240	0x3d00ecc5	0.0314758
241	0x3dfaf92b	0.12254556
242	0xbd016cdd	-0.03159796
243	0x3d9973da	0.074928
244	0xbc918f95	-0.01776866
245	0x3d243ef6	0.040099107
246	0x3d58f1a0	0.052964807
247	0x3b3fe58d	0.002928111
248	0xbb5bee99	-0.0033558963
249	0x3d50bc1b	0.05096064
250	0xbd398e04	-0.045301452
251	0x3cbb24b4	0.02284465
252	0xbcc17ad0	-0.023618132
253	0xbd80ded6	-0.062925026
254	0x3d765454	0.060139015
255	0xbcd8eab6	-0.026479106

mu.weight f4 [1, 256]
0	0xbb5df6f1	-0.0033869112
1	0x3d175887	0.03694966
2	0x3da9c0d1	0.0828873
3	0xbd6b0ea6	-0.057387017
4	0xbda4cfbf	-0.08047437
5	0xbdd692f8	-0.10477251
6	0xbd9588de	-0.07301496
7	0xbbb9c383	-0.0056690588
8	0x3c8a4c5d	0.016882116
9	0xbd74d040	-0.059768915
10	0xbd1aceb0	-0.03779477
11	0xb9193594	-0.00014611176
12	0xbe075291	-0.1321509
13	0xb94d2886	-0.0001956542
14	0xbd1d38ce	-0.03838425
15	0x3d4abfb6	0.049499236
16	0xbccdfffb	-0.025146475
17	0xbc4a7e4d	-0.012359214
18	0xbdb8188d	-0.08989058
19	0x3c390433	0.011292505
20	0x3bcdc175	0.0062791654
21	0x3cc66c53	0.024221575
22	0x3b549e3d	0.003244295
23	0x3d1bac50	0.038006127
24	0xbd991982	-0.07475568
25	0x3c990113	0.01867727
26	0xbb329651	-0.002725024
27	0x3bc149cd	0.0058986903
28	0x3ccae669	0.024768071
29	0x3d1df3a6	0.03856244
30	0x3ba93d84	0.005164804
31	0x3b2692f4	0.002541718
32	0x3e25c3cd	0.16187973
33	0x3c0ac48f	0.008469715
34	0x3b123f11	0.0022315423
35	0x3ba62c5c	0.005071206
36	0x3d9c44a7	0.07630282
37	0xbbdf4240	-0.0068133175
38	0x3d0f835d	0.035037387
39	0xbba84447	-0.0051350924
40	0xbc944c55	-0.018102804
41	0xbbe107eb	-0.006867399
42	0xbb38f8af	-0.00282244
43	0xbcae4135	-0.021271328
44	0xbad6e5d9	-0.0016395404
45	0xbb799498	-0.0038082954
46	0x3bb43307	0.005499247
47	0xbdb3eab3	-0.08785
48	0x3d5185ab	0.051152866
49	0x3d1a7b78	0.037715405
50	0x3b8676b9	0.0041035083
51	0x3d6f1998	0.058374017
52	0xbd1b05e7	-0.037847426
53	0x3e30beb1	0.17260243
54	0xbd49a468	-0.049229056
55	0xbd3dae9e	-0.046309106
56	0x3b7d3a05	0.0038639319
57	0x3d45cd03	0.048291218
58	0x3ca853c3	0.020547753
59	0xbc854563	-0.016268438
60	0x3d0c128d	0.03419738
61	0x3b4699b9	0.0030304028
62	0xbd29ec8f	-0.041485365
63	0xbd146bd4	-0.036235645
64	0xbc81a143	-0.015823966
65	0xbacce977	-0.0015633543
66	0xbd93a46b	-0.072090946
67	0x3a1e8798	0.0006047427
68	0x3c9d7b5a	0.019223858
69	0x3a63a648	0.00086841406
70	0xbb6135d8	-0.0034364369
71	0x3c7f0df7	0.015567294
72	0x3a477bf0	0.00076097157
73	0x3db4cc47	0.08828025
74	0xbc055ec5	-0.008140271
75	0xbbfc51f8	-0.007700201
76	0x3d96b3f0	0.07358539
77	0x3c2d95a3	0.010594758
78	0xbb0a2e51	-0.0021084736
79	0xbd61f5dc	-0.05516611
80	0x3d809492	0.062783375
81	0x3ceddc69	0.029035764
82	0xbd61c909	-0.055123363
83	0xbd52b25a	-0.05143962
84	0xbc564a7b	-0.013079281
85	0xbc2e17f3	-0.010625827
86	0x3e57eab9	0.21085633
87	0xbcf4c0a3	-0.029877013
88	0xbc0c6698	-0.008569382
89	0xbd07f9e5	-0.033197302
90	0xb9d16fe2	-0.00039946946
91	0xbdc28038	-0.09497112
92	0x3c0e615d	0.008690205
93	0xbbf88580	-0.007584274
94	0xbdb528a0	-0.08845639
95	0x3cea82dc	0.028626852
96	0xbbd44c7b	-0.0064788437
97	0x3de7f855	0.113266625
98	0xbdbc9ce8	-0.09209615
99	0xbe182531	-0.14857937
100	0x3e5e97ba	0.21737567
101	0xba2963a1	-0.0006461684
102	0xbe4c1436	-0.19929585
103	0xbdd839d6	-0.10557906
104	0x3cf6c60c	0.030123733
105	0xbd169f1b	-0.03677283
106	0xbc8d150c	-0.01722195
107	0x3d42f3e8	0.04759589
108	0xbb650a35	-0.003494871
109	0x3d1a21bd	0.03762983
110	0x3c413420	0.011792213
111	0xb7df1ea2	-2.6597936e-05
112	0x3c156b30	0.009119794
113	0xbe049d0a	-0.1295053
114	0x3c8375d4	0.016047396
115	0xbe4977d3	-0.19674616
116	0x3d053be6	0.032527827
117	0xbc05d558	-0.008168541
118	0xbe01a885	-0.12661941
119	0xbb2b09b8	-0.0026098322
120	0x3c2e0878	0.010622136
121	0x3d5abc68	0.053402334
122	0xbd44f459	-0.04808459
123	0xbd907a37	-0.07054561
124	0xbdde6277	-0.108586244
125	0xbda3329e	-0.07968639
126	0x3b2c45e7	0.0026286782
127	0x3d4c1066	0.049820326
128	0x3d1c831c	0.038210973
129	0x3e186229	0.14881195
130	0xbcc7b9a1	-0.024380507
131	0x3d2750c4	0.04084851
132	0xbad9ac4d	-0.0016607136
133	0xbbf53005	-0.007482531
134	0xbbeb9c27	-0.0071902457
135	0xbae4f019	-0.0017466574
136	0x3c94ca7c	0.018162958
137	0xbb228f0a	-0.0024804496
138	0x3e470171	0.19434144
139	0xbdada98d	-0.08479605
140	0xbd1d55b7	-0.038411822
141	0x3c35a6dc	0.011087146
142	0x3e64c6df	0.22341488
143	0xbb89d05d	-0.004205747
144	0x3d2d3d75	0.042294938
145	0xbdd11a65	-0.102101125
146	0xbd5119bf	-0.051049944
147	0xbd7a3b0c	-0.061091468
148	0xba2de533	-0.00066335796
149	0x3c9e1f42	0.019302014
150	0xb9e6f5b8	-0.00044052093
151	0x3b6cbdb5	0.0036123816
152	0xbc561080	-0.013065457
153	0xba9f4fb7	-0.0012154494
154	0xbd012370	-0.031527936
155	0x3ce21890	0.027599603
156	0x3bbce58e	0.0057646697
157	0x3d5dab4e	0.054118447
158	0xbdd6a887	-0.10481363
159	0x3dbb9b06	0.09160428
160	0xbaf9c131	-0.0019054768
161	0xbe447414	-0.19184905
162	0x3ca481c7	0.020081414
163	0xbd166ef1	-0.036726896
164	0xbddeb2be	-0.10873936
165	0xbe33e202	-0.17566684
166	0xbcc74d0f	-0.024328737
167	0xbcf8aa7d	-0.030354733
168	0xbd66f409	-0.056385074
169	0x3dc96802	0.09834291
170	0xbd96745c	-0.073464125
171	0x3cd62b81	0.026143791
172	0xbe3d299b	-0.18472902
173	0xbdc70fd5	-0.097198166
174	0x3d254791	0.040351454
175	0xbbebf922	-0.00720133
176	0x3c426b88	0.011866458
177	0xbaf1f208	-0.0018458972
178	0xbd40abf4	-0.047038987
179	0xb9ad61f0	-0.000330701
180	0xbc4f96d4	-0.012670238
181	0x3e296570	0.16542602
182	0xbcad992e	-0.021191206
183	0x3ce1bfb7	0.027557237
184	0xbbf9c909	-0.007622842
185	0xbcad1d22	-0.021132056
186	0xbd1df3d9	-0.03856263
187	0xbb252b4a	-0.0025202804
188	0xbce6201c	-0.028091483
189	0xbc81cf50	-0.015845925
190	0x3be4b492	0.0069795335
191	0x3cf83ba6	0.03030188
192	0x3d27b8b1	0.04094762
193	0xbb3a1b78	-0.002839772
194	0x3d3a2e79	0.045454476
195	0x3b4f09ea	0.0031591603
196	0x3d855f2c	0.06512293
197	0x3c80cd87	0.015723003
198	0xbe0e206c	-0.13879555
199	0x3ca6c5e9	0.020358043
200	0x3a80b9a7	0.0009820954
201	0x3d12ff2c	0.035887882
202	0x3c1de9d0	0.009638265
203	0x3b75e924	0.0037522996
204	0xbb8f3e37	-0.0043714303
205	0x3cad82e8	0.021180585
206	0xbcbd756c	-0.02312728
207	0x3ac6de2d	0.0015172415
208	0xbb7a704c	-0.0038213907
209	0x3e4c8738	0.19973457
210	0x3cb90924	0.022587366
211	0xbe713983	-0.23557095
212	0xbb8c263a	-0.004277018
213	0x3d20f4cc	0.039295956
214	0x3e47f53d	0.19527145
215	0x3ca6687b	0.020313492
216	0xbbc16743	-0.0059022023
217	0xbd45fb8a	-0.04833559
218	0xbc6ffbea	-0.014647463
219	0xbb0c9078	-0.0021448415
220	0x3de9c782	0.11415006
221	0xbbb75f59	-0.005596083
222	0xb8bbe8b4	-8.960199e-05
223	0x3c1abbad	0.009444159
224	0x3ca9a9fe	0.020710941
225	0x3a981436	0.0011602703
226	0x3d78aa1b	0.0607091
227	0x3c93a118	0.018021151
228	0x3d031862	0.032005675
229	0x3d0e07c2	0.034675367
230	0xbd03bd30	-0.032162845
231	0xbc87dd6b	-0.016585073
232	0x3ac28360	0.0014840178
233	0x3cd3bbd2	0.025846396
234	0x3d39c407	0.045352962
235	0xbd99e6a2	-0.07514693
236	0x3d065ca9	0.03280321
237	0x3d08a723	0.03336252
238	0x3d0cfc8b	0.03442053
239	0x3a28e84b	0.0006443306
240	0x3c0ab731	0.008466528
241	0x3df50e1d	0.119655825
242	0xb94971ed	-0.00019211294
243	0x3e3c5854	0.1839307
244	0x3bb1bd5b	0.0054241843
245	0x3d86fbdd	0.06591008
246	0x3d0f68e7	0.035012152
247	0xbc8358f1	-0.016033622
248	0xbd13861c	-0.03601657
249	0x3cc52385	0.024064789
250	0x3ca25acc	0.019818686
251	0xbe0c3b47	-0.13694488
252	0x3cbdb092	0.023155484
253	0x3d4916af	0.0490939
254	0xbe1ddb9f	-0.1541581
255	0xbda0d38e	-0.07852851
