youtube-ppo/tmp/ppo/critic2-batch.pth (torch, 271108 bytes, 5 tensors)

critic.0.weight f4 [256, 3]
0	0xbf0bbaba	-0.545818
1	0xbf552de7	-0.83273166
2	0xbd22d603	-0.03975488
3	0xbf39f406	-0.72637975
4	0xbf8649bb	-1.0491251
5	0xbedf4729	-0.43608978
6	0xbeb21a68	-0.3478577
7	0x3f51f54e	0.8201493
8	0x3cfd573c	0.030925386
9	0xbebc1b59	-0.36739615
10	0xbee03dd1	-0.43797162
11	0xbeb92337	-0.3615968
12	0x3f7c047d	0.9844435
13	0xbee29f43	-0.44262132
14	0xbd5b143b	-0.05348609
15	0xbeb32b59	-0.3499401
16	0x3e2c2e42	0.16814521
17	0x3ec7ac70	0.38998747
18	0xbe27c8ef	-0.16385244
19	0x3efa418f	0.48878142
20	0xbea80014	-0.3281256
21	0xbf36d759	-0.71422344
22	0xbe720c5f	-0.23637532
23	0x3de641aa	0.11242993
24	0x3d6f4ae6	0.058421038
25	0xbe362d4f	-0.17790721
26	0x3e2de2f9	0.16981114
27	0xbdb6a5f0	-0.08918369
28	0x3eab8170	0.3349719
29	0xbf180aba	-0.5939137
30	0xbf0aac8b	-0.5416953
31	0xbf137336	-0.5759767
32	0xbe2633bb	-0.16230671
33	0xbea4a492	-0.32156807
34	0xbf04b8e0	-0.51844597
35	0x3f006e2e	0.5016812
36	0xbef0d826	-0.47039908
37	0x3f76ebbb	0.96453446
38	0xbdf6e76d	-0.1205586
39	0xbf13d80a	-0.57751524
40	0xbebf991e	-0.37421507
41	0x3e8ed68d	0.27898064
42	0xbc726e0d	-0.014796746
43	0xbf1f8cf3	-0.62324446
44	0xbd8f78bb	-0.070054494
45	0xbf46eb3e	-0.777027
46	0x3f35a497	0.7095427
47	0xbe32ffa8	-0.17480338
48	0xbf1a5162	-0.6028043
49	0x3f1fe806	0.62463415
50	0x3eea27a7	0.45733377
51	0xbf54ad87	-0.8307728
52	0x3e4ec497	0.2019218
53	0xbd89e04d	-0.06732235
54	0x3f05dcb0	0.5228987
55	0x3f44a915	0.768205
56	0x3e9b3672	0.30314976
57	0xbf1bb4c4	-0.608227
58	0xbf5f9504	-0.87336755
59	0xbe805838	-0.25067306
60	0xbf8687a4	-1.0510144
61	0x3f2ad9ee	0.66738784
62	0xbe50c12d	-0.2038619
63	0xbdbee0e3	-0.093202375
64	0x3e1118cf	0.1416962
65	0x3d9e334a	0.07724626
66	0x3e285a84	0.16440779
67	0x3f2d1e03	0.6762392
68	0x3a554b7e	0.00081365544
69	0xbeb0decf	-0.3454499
70	0xbf04bf35	-0.5185426
71	0x3c907dc9	0.017638104
72	0xbe38cf22	-0.18047765
73	0x3e51c6bd	0.20485969
74	0x3efa320e	0.48866314
75	0x3f78050d	0.96882707
76	0xbf841a43	-1.0320514
77	0xbe8bed4d	-0.27329484
78	0x3d02cff2	0.031936593
79	0xbf30859b	-0.68953866
80	0x3d7efc41	0.062252287
81	0xbe87c905	-0.26520553
82	0xbe241a07	-0.16025554
83	0x3e98fc9d	0.2988023
84	0xbf7450e2	-0.9543592
85	0xbf574b03	-0.84098834
86	0xbe988269	-0.29786995
87	0xbf048c86	-0.5177692
88	0x3f658ec3	0.8967096
89	0x3e49a125	0.19690378
90	0xbebd4ce2	-0.3697272
91	0xbf060839	-0.52356297
92	0xbf2a73dd	-0.66583043
93	0xbf29f201	-0.66384894
94	0x3f28ca76	0.6593393
95	0x3e2348fc	0.1594581
96	0x3f1267fa	0.57189906
97	0xbe0b2cd1	-0.13591315
98	0xbefe63d5	-0.4968554
99	0xbecb25a2	-0.3967715
100	0xbf4e00f8	-0.8047023
101	0xbe33dff3	-0.17565899
102	0xbed95167	-0.42444918
103	0xbf091c42	-0.53558743
104	0xbe0cd42b	-0.1375281
105	0x3f07e267	0.5307984
106	0xbfae1c96	-1.3602474
107	0xbead54b6	-0.33853692
108	0xbe32e661	-0.17470695
109	0xbf17f2bb	-0.5935475
110	0xbde366a1	-0.11103559
111	0xbf237754	-0.63853955
112	0x3f60eb40	0.87858963
113	0x3f00b778	0.5027995
114	0x3dccf6b0	0.100079894
115	0xbf41b58a	-0.7566763
116	0xbebc2225	-0.367448
117	0xbf12ddab	-0.5736949
118	0x3f564f19	0.83714443
119	0x3e2d2149	0.16907229
120	0x3f01fd4e	0.5077714
121	0xbf3e0910	-0.7423258
122	0x3ea44acb	0.32088313
123	0xbec2293a	-0.37922078
124	0x3c6fcd6e	0.014636381
125	0x3eb05d95	0.34446397
126	0x3ed273f8	0.41104102
127	0xbf692c09	-0.9108282
128	0xbd237b10	-0.039912283
129	0xbe15ac01	-0.14616396
130	0xbe7fb943	-0.24973015
131	0xbe862316	-0.26198643
132	0xbea59f2a	-0.32347995
133	0x3f3e32cf	0.7429628
134	0x3e380b2e	0.17973015
135	0xbeb75426	-0.35806388
136	0x3ce82bea	0.028341252
137	0x3ee65a15	0.44990602
138	0x3f7124ba	0.94196665
139	0x3f1aa7b3	0.6041214
140	0x3ddc5229	0.10757858
141	0xbdf01ba1	-0.1172402
142	0x3e43bc18	0.19114721
143	0x3dcb0a59	0.09914083
144	0x3f415a68	0.75528574
145	0xbf142b7c	-0.5787885
146	0x3cf7694b	0.030201575
147	0xbf000b64	-0.5001738
148	0xbf3d7ff4	-0.74023366
149	0xbf07e856	-0.5308889
150	0xbf39a8f1	-0.7252341
151	0xbf16270d	-0.58653337
152	0xbe85785c	-0.2606839
153	0xbf0f0aae	-0.5587567
154	0x3f39a7cd	0.7252167
155	0x3e2c4c51	0.16825987
156	0xbf040622	-0.5157186
157	0x3ed5791a	0.41693956
158	0x3eeccd31	0.462503
159	0xbef3d9fc	-0.47627246
160	0x3f437fca	0.76366866
161	0x3e2fec26	0.17179927
162	0xbe8aca16	-0.27107304
163	0xbee3897a	-0.44440824
164	0x3a384d13	0.0007030528
165	0xbeed64a0	-0.46365833
166	0xbe892b79	-0.2679098
167	0x3e8ec4ec	0.27884614
168	0xbf191688	-0.59800005
169	0x3f6ee98c	0.93325114
170	0xbec60fd8	-0.38683963
171	0xbf0df949	-0.55458504
172	0xbe274b5a	-0.16337338
173	0x3f02f827	0.511599
174	0xbf8359ed	-1.0261818
175	0xbe28bfc0	-0.16479397
176	0xbefd5637	-0.4947984
177	0xbe8b5836	-0.27215737
178	0x3fc115cc	1.5084777
179	0x3ecbf3ad	0.39834347
180	0xbeeba128	-0.4602139
181	0xbf37ec3e	-0.7184485
182	0x3e308b14	0.17240554
183	0xbe2e6d17	-0.17033802
184	0xbd420101	-0.04736424
185	0x3ce5fb97	0.028074069
186	0xbce44918	-0.027866885
187	0xbee0acfc	-0.43881977
188	0x3f11bd70	0.56929684
189	0xbec16b7e	-0.37777323
190	0x3f828b65	1.019879
191	0x3e4daf78	0.20086467
192	0xbf3a9cb5	-0.72895366
193	0xbea13837	-0.314882
194	0xbe5a4de9	-0.21318783
195	0xbe66f2fe	-0.22553632
196	0x3f69f227	0.9138512
197	0xbf0c0ef8	-0.5471034
198	0xbee738e2	-0.45160586
199	0x3f7e3545	0.9930003
200	0x3ee04487	0.43802282
201	0x3e42e6f5	0.19033416
202	0xbf5b965a	-0.85776293
203	0xbe7292c6	-0.23688802
204	0xbf391020	-0.7229023
205	0xbf2c302e	-0.67261016
206	0x3efeb9da	0.49751168
207	0xbf09522f	-0.5364103
208	0xbee30930	-0.44342947
209	0xbe5fde61	-0.21862175
210	0x3e9452e7	0.289695
211	0x3e582791	0.21108843
212	0xbeb547bc	-0.3540629
213	0xbf1e6198	-0.61867666
214	0xbecf68bd	-0.40509596
215	0xbe366185	-0.17810638
216	0xbf1e57ac	-0.61852527
217	0x3e1aa420	0.15101671
218	0xbe26cd84	-0.16289335
219	0xbece1966	-0.40253752
220	0xbf1a01df	-0.60159105
221	0x3e2127c8	0.15737832
222	0xbf20ae8e	-0.6276635
223	0x3efed15c	0.49769104
224	0xbec8f47a	-0.3924902
225	0x3f7f5855	0.9974416
226	0xbeb44eeb	-0.3521646
227	0x3dd43015	0.103607334
228	0xbebbe2d9	-0.3669651
229	0xbe654546	-0.22389707
230	0x3ecf1fac	0.4045385
231	0x3eb82dba	0.35972387
232	0x3f64e6c7	0.8941464
233	0x3eb282d1	0.3486543
234	0xbcc5fa91	-0.024167331
235	0x3e079338	0.13239753
236	0xbf1e23fc	-0.6177366
237	0x3e13d97e	0.14438435
238	0xbf14909a	-0.58033144
239	0xbd43e428	-0.04782501
240	0xbe1e8f94	-0.15484458
241	0x3f3644e7	0.71198887
242	0xbe7c1880	-0.24618721
243	0x3ee9b131	0.45643
244	0xbefbe135	-0.49195257
245	0x3ea5c449	0.32376316
246	0xbe9dda6e	-0.3083071
247	0x3f1a13b7	0.6018633
248	0x3cb352fa	0.021890152
249	0xbc286120	-0.010277063
250	0x3ef9fa48	0.48823762
251	0xbf0f0f54	-0.55882764
252	0x3f111e5e	0.5668696
253	0xbdbcd1ca	-0.092197016
254	0xbedf10c5	-0.43567482
255	0xbf438c9c	-0.7638643

critic.0.bias f4 [256]
0	0xbd4348d0	-0.04767686
1	0xbeda7b2c	-0.42672098
2	0x3d7c4dbb	0.061597567
3	0xbe933f44	-0.28759205
4	0x3e7f094e	0.24905893
5	0x3f12c257	0.5732779
6	0xbe34f38c	-0.17671031
7	0x3de64bcf	0.11244928
8	0xbdeaf66b	-0.11472782
9	0xbf03250b	-0.512284
10	0x3e88d5c6	0.26725596
11	0x3ec706be	0.3887233
12	0x3d9b310d	0.07577715
13	0x3ef15dce	0.4714188
14	0x3f771132	0.9651061
15	0x3ecacee9	0.39610985
16	0x3ee6fb18	0.45113444
17	0x3cd33289	0.025780933
18	0xbf37f283	-0.7185442
19	0xbe1bd60b	-0.1521837
20	0x3f2b471c	0.6690538
21	0x3f2c8ecc	0.6740539
22	0x3f04f935	0.5194276
23	0x3eef11e7	0.46693346
24	0xbdfec9de	-0.12440847
25	0xbe8a8c4b	-0.2706016
26	0x3e374dd9	0.1790079
27	0xbf2d240a	-0.67633116
28	0x3f1d345b	0.61408013
29	0x3ea007dc	0.31255996
30	0xbf032e13	-0.5124218
31	0x3ef9fcb8	0.48825622
32	0x3f6c971d	0.9241808
33	0x3de30802	0.11085512
34	0x3e394c18	0.18095434
35	0x3eb42588	0.35184884
36	0x3edb5267	0.42836305
37	0xbe8f2250	-0.27955866
38	0x3f82bc4a	1.0213711
39	0x3ecedf67	0.40404817
40	0x3e33297e	0.17496297
41	0x3f09e91d	0.5387133
42	0xbe6745e5	-0.22585256
43	0x3f1ecc12	0.62030137
44	0x3ef1e0e1	0.4724188
45	0xbf2c574f	-0.6732072
46	0x3d46a06d	0.048492838
47	0x3f505200	0.8137512
48	0x3ce542e7	0.027986003
49	0xbf0c77c2	-0.54870236
50	0x3f67066b	0.9024417
51	0x3ec6814c	0.3877052
52	0x3ee6e798	0.45098567
53	0x3e983865	0.29730526
54	0x3f3ee811	0.74572855
55	0x3eb55ce0	0.3542242
56	0x3d206ad6	0.039164387
57	0xbda4ee31	-0.08053244
58	0x3e9cd30d	0.3062977
59	0xbd89666d	-0.06708989
60	0x3f379f4c	0.7172744
61	0x3eb9a30c	0.36257207
62	0xbf21ff43	-0.63280123
63	0x3e1c1e60	0.15245962
64	0x3f11a914	0.5689862
65	0x3e7398b5	0.23788722
66	0xbe21fedf	-0.15819882
67	0xbee0ff2f	-0.4394469
68	0x3f15b2ef	0.58476156
69	0x3f461d4a	0.7738844
70	0x3f2f1565	0.6839202
71	0x3ed83069	0.42224434
72	0x3f5f7a12	0.8729564
73	0x3f094726	0.5362419
74	0xbe4a49e9	-0.19754757
75	0xbcf9ce34	-0.030493833
76	0xbf40b7bf	-0.75280374
77	0xbe89f3b5	-0.26943746
78	0xbf03447d	-0.5127638
79	0x3f0b0036	0.54297197
80	0x3f01e52b	0.5074031
81	0xbf02c483	-0.51081103
82	0x3c19d611	0.009389416
83	0xbf0dacfb	-0.5534207
84	0x3f03d88c	0.515023
85	0x3eb3dfdd	0.35131732
86	0x3d8273fa	0.06369777
87	0x3d9a1008	0.07522589
88	0x3f22ef50	0.6364641
89	0xbef4d7e1	-0.47820953
90	0xbe219a48	-0.1578151
91	0xbda66d4a	-0.08126314
92	0xbf17b906	-0.592667
93	0xbeec2f7c	-0.46129978
94	0x3f4cecea	0.80049
95	0xbc80bc3c	-0.015714757
96	0x3e2b362e	0.16719887
97	0x3f142c06	0.57879674
98	0x3ec84edd	0.39122668
99	0xbdc287db	-0.094985686
100	0x3f011aff	0.5043182
101	0x3f44a52f	0.7681455
102	0xbeaa40dd	-0.33252612
103	0x3e76afd6	0.24090514
104	0xbf0448ae	-0.516734
105	0x3e562f52	0.20916489
106	0xbf1e4a3b	-0.61832017
107	0xbf2a2000	-0.6645508
108	0x3f23bf2f	0.639636
109	0x3f229acd	0.6351746
110	0x3eb93e0f	0.3618016
111	0x3f007f1d	0.5019396
112	0xbf01e957	-0.50746673
113	0xbd8000ae	-0.0625013
114	0x3dd751f1	0.10513676
115	0xbf075126	-0.528582
116	0x3f55800b	0.83398503
117	0x3f39526a	0.7239138
118	0x3e998594	0.29984725
119	0xbe9f156b	-0.31071028
120	0xbe4998d5	-0.19687207
121	0x3edfd33a	0.4371584
122	0x3cd2ebba	0.025747169
123	0x3e3c9a17	0.18418156
124	0xbea3de3a	-0.32005483
125	0xbf263892	-0.6493007
126	0x3f4fbe25	0.8114951
127	0x3eac6b5b	0.33675656
128	0x3eff7a6a	0.49898082
129	0x3e5471e7	0.20746575
130	0x3f373f45	0.71580917
131	0xbf0452c1	-0.5168877
132	0x3f119029	0.56860596
133	0x3f477472	0.77912056
134	0x3f1be921	0.609026
135	0x3f0636ce	0.52427375
136	0x3ddae956	0.106890365
137	0x3f0ca11d	0.5493334
138	0x3f560cd0	0.836133
139	0x3e85fa56	0.26167554
140	0x3cbf9f8e	0.023391511
141	0x3e611dd5	0.21984036
142	0x3f011ed7	0.5043768
143	0x3dadcb74	0.08486071
144	0xbd47f28c	-0.048815295
145	0x3e8f53c7	0.27993605
146	0x3e2d2eb6	0.1691235
147	0xbee12642	-0.439745
148	0x3eb11c03	0.34591684
149	0xbea20b81	-0.31649402
150	0x3f2e7e4b	0.6816146
151	0x3e5c6cb4	0.21525842
152	0x3e986e5c	0.29771698
153	0xbee69434	-0.45034945
154	0x3ec00698	0.3750503
155	0x3f153c9a	0.58295596
156	0x3eee5485	0.46548858
157	0xbf1507a1	-0.58214766
158	0x3efbf578	0.49210715
159	0x3ee2975f	0.44256112
160	0xbd64cdbd	-0.05586027
161	0xbe2ccb23	-0.16874366
162	0x3da3c6d9	0.079969116
163	0x3eebb685	0.4603769
164	0xbf08158d	-0.53157884
165	0x3f4220e2	0.75831425
166	0x3c9c0f6d	0.019050324
167	0xbf053854	-0.52039075
168	0x3c32906a	0.010898689
169	0x3ed5e570	0.4177661
170	0xbead8c85	-0.3389627
171	0xbbef251b	-0.0072981245
172	0x3eb4f0e1	0.35340026
173	0x3df7c57d	0.12098215
174	0xbe59cb8d	-0.21269055
175	0x3ec2d821	0.38055518
176	0xbf102696	-0.5630888
177	0x3f38430c	0.71977305
178	0x3e688b10	0.22709298
179	0xbedca1e9	-0.43092278
180	0xbeb51478	-0.3536718
181	0xbe1d1fb6	-0.15344128
182	0xbf0b205c	-0.5434625
183	0x3ed805db	0.42191967
184	0xbd67573a	-0.05647967
185	0x3d9f985a	0.07792731
186	0x3f29a0b6	0.6626085
187	0x3ef6101c	0.48059165
188	0xbe8a296d	-0.2698473
189	0xbee6061e	-0.44926542
190	0x3ee96b35	0.45589605
191	0x3dc08774	0.09400836
192	0xbe30acc9	-0.17253412
193	0xbe2a922a	-0.1665732
194	0xbe319fe1	-0.17346145
195	0x3e89caa7	0.26912424
196	0xbe527f06	-0.20556268
197	0x3f257729	0.6463495
198	0x3deab724	0.114607126
199	0xbf04e21a	-0.51907504
200	0x3f3678ba	0.71277964
201	0x3d22de63	0.039762866
202	0x3f34f391	0.7068415
203	0x3f0b1617	0.5433058
204	0x3d1c159c	0.038106546
205	0x3d4dec54	0.05027421
206	0xbea48483	-0.32132348
207	0x3f5cae27	0.86203235
208	0x3da81257	0.08206623
209	0x3ee75f33	0.4518982
210	0xbe95aa8a	-0.29231673
211	0xbf2cc1e3	-0.6748335
212	0x3e254f2c	0.16143483
213	0x3f1de0c6	0.616711
214	0x3eecf568	0.4628098
215	0x3eb1d231	0.34730676
216	0xbeb24c6e	-0.34823936
217	0x3ea442fa	0.3208235
218	0xbe473aa6	-0.19455966
219	0x3f1d5437	0.61456627
220	0x3eedf081	0.46472552
221	0xbf15e337	-0.5854983
222	0x3ef143f0	0.47122145
223	0xbf3cfcaf	-0.73823065
224	0x3f4559c3	0.7709009
225	0x3f59adf0	0.8503103
226	0xbee484e6	-0.44632643
227	0xbf3409ab	-0.7032725
228	0x3ddbee2b	0.10738786
229	0x3f044e8d	0.5168236
230	0x3d11bfa6	0.03558316
231	0x3e2e60df	0.17029141
232	0xbd9ad71d	-0.07560561
233	0x3e7b036f	0.24513029
234	0x3ea2404b	0.31689677
235	0x3f11b676	0.5691904
236	0x3f16bb76	0.5887979
237	0x3f281a3e	0.6566504
238	0x3ec261c9	0.3796523
239	0xbefe8d92	-0.49717385
240	0x3e12174e	0.14266703
241	0x3ec05460	0.37564373
242	0x3ea2cd7f	0.31797406
243	0x3ec8b3c3	0.39199647
244	0x3ecf8b21	0.40535834
245	0x3f070c43	0.52753085
246	0xbe419e19	-0.18907966
247	0x3f7e5260	0.99344444
248	0xbe141ea2	-0.1446481
249	0xbdc12509	-0.09430892
250	0x3ebeeed3	0.37291583
251	0x3f4c1884	0.7972491
252	0x3f02545c	0.5090997
253	0x3f0fa0e0	0.5610485
254	0x3be23e81	0.0069044237
255	0x3dd663ac	0.1046823

critic.2.weight f4 [256, 256]
0	0xbe96fa24	-0.29487717
1	0xbe9ac46c	-0.30227983
2	0x3d0eae91	0.03483445
3	0xbea18742	-0.31548506
4	0x3e8fe817	0.28106758
5	0x3c016cb2	0.00789945
6	0xbe140472	-0.14454821
7	0x3e44369e	0.1916146
8	0xbe2c2bd7	-0.16813599
9	0xbe02c52b	-0.12770526
10	0x3e15b005	0.14617927
11	0xbd230b4f	-0.039805707
12	0xbe0d0522	-0.1377149
13	0x3d093e9c	0.033506975
14	0xbd197177	-0.037461724
15	0x3e986875	0.29767194
16	0xbc888cc5	-0.016668687
17	0x3e8ac7a5	0.27105442
18	0xbdb3b551	-0.08774818
19	0xbee2a860	-0.44269085
20	0x3e426306	0.18983087
21	0x3dd616ed	0.104535915
22	0x3e0e7f8d	0.13915844
23	0x3e2f6d6e	0.17131588
24	0xbdd8283e	-0.105545506
25	0xbea54d22	-0.3228541
26	0x3e9f468f	0.3110852
27	0xbea2fdd6	-0.31834286
28	0x3ed5eb81	0.41781238
29	0x3dc492e1	0.095983274
30	0xbe2029af	-0.15640901
31	0x3db98fcd	0.09060631
32	0xbe16675e	-0.14687869
33	0x3f0261b7	0.5093035
34	0x3e8f3e66	0.27977294
35	0xbeec9b3e	-0.4621219
36	0xbe0ef914	-0.13962203
37	0xbdfa0f75	-0.122099794
38	0xbe0476fd	-0.12936015
39	0x3e4b589d	0.19858022
40	0x378c0ebc	1.6696162e-05
41	0x3d862eb7	0.06551879
42	0x3d952a2d	0.07283435
43	0xbbecfeda	-0.007232529
44	0x3d88c2a1	0.066777475
45	0xbda99b5e	-0.08281587
46	0xbd4dec2d	-0.050274063
47	0x3d82f70e	0.06394778
48	0x3e36b7cf	0.17843555
49	0xbeaeae16	-0.34117192
50	0x3ec8ec29	0.39242676
51	0x3e0da492	0.1383231
52	0xbcf562a4	-0.029954262
53	0x3dd89411	0.105751164
54	0x3e398771	0.18118073
55	0x3cf7e7e4	0.030261941
56	0xbe69d148	-0.2283374
57	0xbc833713	-0.016017472
58	0xbe28f446	-0.16499433
59	0x3a9dd24c	0.0012040823
60	0x3e0a5a41	0.13510992
61	0x3dcf9492	0.101357594
62	0xbe0ebc62	-0.1393905
63	0xbc9c8856	-0.019107979
64	0x3e9a8d92	0.30186135
65	0x3b830e3a	0.0039994987
66	0xbe1df4c5	-0.15425403
67	0x3f16f0ca	0.58961165
68	0x3d570232	0.052492328
69	0x3ed325d8	0.4123981
70	0xbd741993	-0.059594702
71	0x3ee1b286	0.44081515
72	0x3e8c0afb	0.27352127
73	0x3dbf6a6a	0.09346469
74	0xbe2a1945	-0.16611202
75	0x3e87256f	0.26395747
76	0xbe209999	-0.15683593
77	0xbe188692	-0.14895085
78	0xbdf54f4a	-0.11978014
79	0x3e2b4f32	0.1672943
80	0xbe1b310b	-0.15155427
81	0xbdd76aa7	-0.10518389
82	0x3d2f9f9b	0.04287682
83	0xbe57379d	-0.21017309
84	0xbe41fd94	-0.18944389
85	0x3e62c83a	0.22146693
86	0xbe0733a5	-0.13203295
87	0xbe7efd6c	-0.2490136
88	0x3ece095a	0.4024151
89	0x3ef507e6	0.4785759
90	0xbe0a6b44	-0.13517481
91	0x3e3d4593	0.18483572
92	0xbdfad933	-0.12248459
93	0xbe7a3550	-0.244344
94	0x3e55ce48	0.20879471
95	0x3dae9927	0.08525305
96	0x3ea5499f	0.3228273
97	0x3e08f038	0.13372886
98	0x3d0d785b	0.034538608
99	0xbe862c83	-0.26205835
100	0xbd7f9d25	-0.062405724
101	0x3ee9eebb	0.4568995
102	0x3d9bcc1c	0.0760729
103	0x3e0ba72c	0.1363799
104	0xbe865b2c	-0.26241434
105	0x3d7e3eb8	0.062071532
106	0xbdcfdfc9	-0.101501055
107	0xbd99b3b7	-0.07504981
108	0x3eb237d6	0.34808224
109	0x3e510337	0.20411383
110	0x3e225096	0.15851054
111	0x3e8021f8	0.25025916
112	0xbe20a017	-0.1568607
113	0x3ce29d2a	0.027662832
114	0xbe0c5e59	-0.13707866
115	0xbe10e1c6	-0.14148626
116	0x3e6c79b6	0.23093304
117	0x3e7b0ad9	0.24515857
118	0x3ecf36f7	0.40471622
119	0x3d78937c	0.060687527
120	0xbc2089d5	-0.009798487
121	0x3e451b5d	0.1924872
122	0x3e7789a0	0.24173594
123	0x3e33424a	0.17505756
124	0xbce29b65	-0.027661989
125	0xbe6e3493	-0.23262243
126	0x3dc2a40a	0.09503944
127	0xbd769068	-0.06019631
128	0x3e961e72	0.29320103
129	0xbd177c53	-0.0369838
130	0xbd2a542b	-0.041584175
131	0xbe854a61	-0.2603331
132	0x3cf13f93	0.02944926
133	0x3ddc8eb5	0.10769407
134	0xbe4f08a1	-0.20218135
135	0x3c61d887	0.013784534
136	0x3e2322b9	0.15931214
137	0x3dd3cfc6	0.10342364
138	0x3ef1245f	0.4709806
139	0x3e48ccb2	0.19609335
140	0xbd65960f	-0.05605131
141	0x3e240402	0.16017154
142	0x3e290894	0.16507179
143	0x3e11c401	0.14234926
144	0x3b1fb7f8	0.0024371129
145	0x3e821dc9	0.2541335
146	0x3dfcdaf0	0.123464465
147	0xbe65a31c	-0.22425503
148	0x3dc95b84	0.09831908
149	0xbe4934b9	-0.19649018
150	0x3c669c19	0.0140753025
151	0x3e8b592a	0.27216464
152	0xbc0bf313	-0.00854184
153	0xbdb29dfa	-0.08721538
154	0x3dca4bae	0.09877716
155	0x3ea4e471	0.32205537
156	0x3e187652	0.14888886
157	0xbde2ce19	-0.11074466
158	0x3c9f8b38	0.019475564
159	0x3d8092a6	0.06277971
160	0xbd81fabd	-0.06346653
161	0xbe73ccbf	-0.23808573
162	0x3e9b1d7b	0.3029593
163	0x3d88c949	0.06679017
164	0xbd2c9d7a	-0.04214237
165	0x3e9294d7	0.2862918
166	0xbccdd928	-0.025127962
167	0xbc053030	-0.008129165
168	0xbde9e621	-0.11420847
169	0x3d2983bd	0.0413854
170	0xbe3f1882	-0.18661693
171	0xbda17b91	-0.078848965
172	0x3ec455a0	0.38346577
173	0x3e31b4db	0.17354147
174	0xbbdc79c4	-0.006728383
175	0x3ea93314	0.33046782
176	0xbe186957	-0.14883934
177	0x3e9acd18	0.302346
178	0xbe6a5ede	-0.22887751
179	0xbdc3be27	-0.09557753
180	0xbd8325f7	-0.064037256
181	0xbea9f6ab	-0.33196005
182	0xbe4c5246	-0.1995326
183	0xbb8e5ba9	-0.004344423
184	0x3e55736f	0.20844816
185	0x3c6828ec	0.014169913
186	0x3d6fe47a	0.0585675
187	0x3d1d6d62	0.038434394
188	0xbd9b9c63	-0.07598188
189	0x3f6b6e22	0.91964924
190	0x3dc83437	0.09775584
191	0xbda5697c	-0.0807676
192	0xbeeb6272	-0.45973545
193	0xbea7a92c	-0.32746255
194	0x3e3ff200	0.1874466
195	0xbd0d6002	-0.03451539
196	0xbdf510e8	-0.11966115
197	0x3dbcb060	0.09213328
198	0x3ed22d21	0.41050056
199	0xbe775012	-0.24151638
200	0x3e5bdaab	0.21470134
201	0x3e8c8429	0.2744458
202	0x3dd176a8	0.1022771
203	0x3e12a771	0.14321686
204	0xbd8263c7	-0.06366687
205	0x3e6d1270	0.23151565
206	0x3e7b6759	0.24551143
207	0x3ea4e447	0.32205412
208	0xbd66661c	-0.056249723
209	0x3c6197a5	0.013769065
210	0xbd9cfe44	-0.07665685
211	0xbe70ec55	-0.23527654
212	0xbd9a4a2c	-0.075336784
213	0x3dc16c2e	0.09444462
214	0x3deeec3f	0.11666154
215	0x3de94b9e	0.11391376
216	0xbcbebc21	-0.023283066
217	0x3dcb29b3	0.09920063
218	0x3de513f1	0.11185444
219	0x3e6f1efa	0.2335166
220	0xbe6dfa12	-0.23239926
221	0xbe0962ec	-0.13416642
222	0xbd23a080	-0.039947987
223	0xbdd2a456	-0.10285251
224	0xbe802e42	-0.25035292
225	0x3ecf0185	0.40430847
226	0xbe82ecbd	-0.25571242
227	0x3e88f57e	0.26749796
228	0xbde8afb9	-0.113616414
229	0xbee9fcbb	-0.4570063
230	0xbbdd6fb2	-0.0067577
231	0x3e08c25b	0.1335539
232	0xbe69aee2	-0.22820619
233	0x3ecdf509	0.4022601
234	0x3e1ba69a	0.15200272
235	0x3e40c8a9	0.18826546
236	0x3cf81fe6	0.030288648
237	0x3e34ed72	0.17668703
238	0xbf072521	-0.5279103
239	0xbe95e168	-0.29273534
240	0x3d0cb872	0.03435559
241	0x3dfa2f9a	0.122161105
242	0x3e8d60a6	0.276128
243	0x3c843a9d	0.01614123
244	0x3ead86d2	0.33891922
245	0x3e2805ec	0.16408509
246	0xbcf3f7ba	-0.029781211
247	0xbdd288de	-0.102800116
248	0xbe64cf59	-0.22344722
249	0xbdb48cd2	-0.08815922
250	0x3df396de	0.1189401
251	0x3cd02bbd	0.025411481
252	0x3d5aa134	0.05337639
253	0x3ea408ef	0.32038066
254	0xbda64330	-0.08118284
255	0x3de9198f	0.11381828

critic.2.bias f4 [256]
0	0x3e05af9d	0.13055272
1	0xbd828528	-0.06373054
2	0x3d8cb4eb	0.06870445
3	0x3e0354a6	0.1282526
4	0x3d0b75c3	0.034047853
5	0x3c9b84a1	0.01898414
6	0xbd0e487b	-0.03473709
7	0x3e40fa3f	0.18845461
8	0x3e3798c4	0.17929369
9	0x3d602741	0.054724935
10	0x3e00b608	0.1256944
11	0xbc23282e	-0.00995831
12	0x3e6b7d54	0.22997028
13	0x3e1ea7b4	0.15493661
14	0x3df6f61d	0.12058661
15	0x3de0bf7e	0.10974024
16	0x3c0d9224	0.0086408
17	0xbd926177	-0.07147496
18	0x3e71cb9f	0.23612832
19	0x3e17c657	0.14821754
20	0x3e4c055e	0.19923922
21	0xbd632ba9	-0.05546156
22	0x3a9c3bcf	0.001191968
23	0x3e011b86	0.12608156
24	0xbcaf8c09	-0.021429079
25	0x3d2652d8	0.04060635
26	0x3e3a7a7e	0.1821079
27	0x3e080595	0.1328338
28	0x3e2e1b3b	0.17002575
29	0x3e25ae2d	0.16179724
30	0x3d9d9862	0.0769508
31	0x3d26f905	0.040764827
32	0x3e595260	0.2122283
33	0x3e3e98c4	0.18612963
34	0xbc1386dd	-0.009004322
35	0x3dd6b7cd	0.10484276
36	0x3db002f9	0.08594317
37	0x3e0caae7	0.13737069
38	0x3eebeda9	0.46079758
39	0x3d1660f7	0.036713567
40	0x3d26cb96	0.0407215
41	0x3d5b387f	0.053520676
42	0x3d9e2e06	0.07723622
43	0x3e7c3436	0.24629292
44	0x3dd02ae3	0.1016443
45	0x3deef1b9	0.11667199
46	0x3e293cf8	0.16527164
47	0x3d7e8bb7	0.06214496
48	0xbd7076ee	-0.05870717
49	0x3d898f35	0.06716768
50	0x3e1a7f52	0.15087631
51	0x3de58f3d	0.11208961
52	0x3e1225e3	0.14272265
53	0xbc183081	-0.009288908
54	0x3e2aea02	0.1669083
55	0x3e1904ca	0.14943233
56	0x3e06119d	0.13092656
57	0x3d3aeee5	0.045637984
58	0x3de052f2	0.109533206
59	0x3e1abdae	0.1511142
60	0x3e65ac52	0.22429016
61	0x3cda2ff1	0.026634188
62	0x3e03517b	0.12824051
63	0x3db27dc5	0.08715395
64	0x3e006728	0.12539351
65	0x3e1fa556	0.15590414
66	0x3c960436	0.018312555
67	0x3e1814d0	0.1485169
68	0x3c91beb3	0.017791128
69	0x3d4a6ed0	0.049422085
70	0xbd443ae3	-0.04790772
71	0x3dd42810	0.10359204
72	0xbd53cd47	-0.05170944
73	0x3d3a97dd	0.045554984
74	0x3db1cf81	0.08682156
75	0xbd626f2f	-0.055281814
76	0x3b92de30	0.004482053
77	0x3ca22d09	0.019796865
78	0xbd8208d1	-0.06349338
79	0x3e5583ce	0.20851061
80	0xbd1d6984	-0.038430706
81	0x3e18be20	0.14916277
82	0x3cb00cf4	0.021490552
83	0xbca983fd	-0.02069282
84	0x3e2fb5b6	0.17159161
85	0x3dc9a151	0.09845222
86	0xbce5469f	-0.027987776
87	0x3e244760	0.16042852
88	0x3db68042	0.08911182
89	0xbd50c906	-0.05097296
90	0x3d6d7cf5	0.057980496
91	0xbd1aca85	-0.037790794
92	0x3cf5ec5e	0.030019935
93	0xbd2d41b0	-0.042298973
94	0x3d086395	0.033298094
95	0xbcb3187c	-0.021862261
96	0x3d20c25f	0.039247867
97	0xbc35bc60	-0.011092275
98	0xbd81706c	-0.06320271
99	0xbd8d16f1	-0.06889141
100	0x3e0e35e8	0.13887751
101	0xbce3f6c9	-0.027827637
102	0x3e101f0e	0.14074346
103	0x3e771fca	0.2413322
104	0xbcb4174f	-0.02198377
105	0x3dcde9a2	0.100543275
106	0x3da33a14	0.07970062
107	0xbc89b3a3	-0.01680929
108	0xbb587b8d	-0.0033032626
109	0x3c8d2252	0.01722828
110	0x3e0844bd	0.13307472
111	0x3e2226cb	0.15835111
112	0x3dbbbdee	0.091670856
113	0x3e62b9c3	0.22141175
114	0x3e2a62c6	0.16639242
115	0x3b695c95	0.0035608162
116	0x3d64902e	0.055801563
117	0xbd73c221	-0.059511308
118	0xbcece6a0	-0.028918564
119	0x3de11ea2	0.10992171
120	0x3d7f9b53	0.062403988
121	0xbc6775a0	-0.014127165
122	0x3da113d8	0.07865113
123	0x3dd2a66d	0.102856494
124	0x3d56d38e	0.052447848
125	0xbe4b2b32	-0.19840696
126	0x3e2091cd	0.15680619
127	0xbd51c568	-0.051213652
128	0xbb9b49a3	-0.004739003
129	0xbc6db8b4	-0.014509369
130	0xbcf72ba7	-0.030172182
131	0x3de8aba5	0.113608636
132	0x3d1b469e	0.037909143
133	0x3daa90fe	0.08328436
134	0x3e28e4b4	0.16493493
135	0x3e38d4cd	0.18049927
136	0x3c0becc7	0.008540339
137	0x3b93debe	0.004512637
138	0x3d480d5d	0.04884087
139	0x3e05be14	0.1306079
140	0xba345f00	-0.0006880611
141	0x3d39987c	0.045311436
142	0x3d2e7853	0.04259522
143	0xbd5fba58	-0.05462107
144	0x3deaa8b6	0.1145796
145	0x3e4a693a	0.19766703
146	0x3be18c77	0.0068832
147	0x3e4df81b	0.20114176
148	0xbd34981f	-0.044090386
149	0xbbf81a5d	-0.007571502
150	0x3e400f60	0.18755865
151	0x3e336814	0.17520171
152	0xbce7e8e8	-0.0283093
153	0x3c1d8475	0.0096141
154	0x3e1aa519	0.15102042
155	0x3d187b74	0.03722711
156	0x3d4f68f9	0.05063722
157	0x3d9e1100	0.07718086
158	0x3d45c425	0.04828276
159	0xbce0c0b5	-0.02743564
160	0x3e0a66c2	0.13515761
161	0x3e144c52	0.14482239
162	0x3cec492f	0.02884349
163	0x3da98b72	0.0827855
164	0x3ce9424d	0.028473997
165	0x3c11f2c1	0.008907975
166	0x3ea9fc11	0.33200124
167	0x3c321514	0.010869283
168	0x3d20a581	0.039220337
169	0x3d23473e	0.039862864
170	0x3c6cefca	0.014461467
171	0x3da211a5	0.07913522
172	0x3e89c94c	0.2691139
173	0xbc619d52	-0.013770418
174	0x3d4eec6a	0.05051843
175	0x3e044ad7	0.12919174
176	0xbcc05b1c	-0.023480944
177	0xbd206824	-0.039161816
178	0x3e2acd75	0.16679938
179	0x3dee080c	0.116226286
180	0x3e0de854	0.13858157
181	0x3dd43e8a	0.10363491
182	0xbd379e7e	-0.044828884
183	0x3e16f311	0.1474116
184	0x3e2442ca	0.16041103
185	0x3e2da752	0.16958359
186	0x3ce271ac	0.027642094
187	0x3e0aa585	0.13539703
188	0x3dfbba86	0.12291436
189	0x3ca33196	0.019921105
190	0x3cd5c6de	0.026095804
191	0x3d117bac	0.035518333
192	0xbc9be7fb	-0.019031515
193	0x3d6e9447	0.058246877
194	0x3dc9a3d9	0.098457046
195	0x3c576748	0.013147183
196	0x3d4aa160	0.049470305
197	0x3df5bb61	0.1199863
198	0x3dcac29f	0.09900402
199	0xbc4de10b	-0.012565861
200	0x3db93532	0.09043349
201	0xbd32267c	-0.043493733
202	0x3c923dd2	0.017851744
203	0x3c8c1df9	0.017104136
204	0x3d3830a8	0.044968277
205	0x3e42b20c	0.19013232
206	0x3e2925d3	0.16518335
207	0x3a93171a	0.0011222095
208	0x3db1b34e	0.08676778
209	0x3ea7f80d	0.32806435
210	0x3e24b94a	0.16086307
211	0x3b2569aa	0.0025239983
212	0x3dad7b2f	0.08470761
213	0x3d6bee8e	0.05760055
214	0x3e2f6d73	0.17131595
215	0x3de9e08b	0.11419781
216	0x3dc39eb0	0.095517516
217	0x3d9745a4	0.0738633
218	0xbd126d37	-0.035748687
219	0x3d79b001	0.060958866
220	0x3da514dc	0.08060619
221	0x3d62e71c	0.055396184
222	0x3db0ad7c	0.086268395
223	0xbc31f34e	-0.010861231
224	0x3d24533f	0.040118452
225	0xbc5c25b4	-0.0134367235
226	0x3bd833ea	0.0065979855
227	0x3e496447	0.19667159
228	0x3e0cfafd	0.1376762
229	0x3d65c683	0.05609752
230	0x3cd029d9	0.02541058
231	0x3ba23231	0.004949831
232	0x3e20b6db	0.15694754
233	0xbcad3893	-0.02114514
234	0x3dd9b4f4	0.10630217
235	0x3da4ec92	0.08052935
236	0x3cbedd96	0.02329902
237	0xbb55898c	-0.0032583205
238	0x3e2aeb71	0.16691376
239	0xbd454fb1	-0.048171703
240	0x3e2af3e2	0.16694596
241	0x3d95876a	0.07301219
242	0x3db0a956	0.08626048
243	0x3d929420	0.07157159
244	0xbd392beb	-0.0452079
245	0x3dbe2588	0.09284502
246	0x3da2e7c5	0.07954363
247	0x3db084be	0.086190686
248	0xbd3a62d6	-0.045504414
249	0x3cb413f9	0.02198218
250	0x3d5db6fe	0.054129593
251	0x3e1f2376	0.15540871
252	0x3cb1b238	0.021691427
253	0xbca78539	-0.020449268
254	0xbd623cab	-0.05523364
255	0x3d364e12	0.044508047

critic.4.weight f4 [1, 256]
0	0xbea4c5a2	-0.32182032
1	0x3cdde156	0.027084988
2	0xbe35f8e9	-0.17770733
3	0xbe1c8b12	-0.15287426
4	0x3c0f80ba	0.008758718
5	0x3d420aa0	0.047373414
6	0x3d25d133	0.04048271
7	0xbe3ceda0	-0.18450022
8	0xbe432251	-0.1905606
9	0x3d6287a8	0.055305153
10	0xbe543351	-0.207227
11	0x3cf844ee	0.030306306
12	0xbe305b1f	-0.1722226
13	0xbe4b55c2	-0.19856933
14	0xbe2f4d6f	-0.17119382
15	0xbe4eac41	-0.20182897
16	0x3ae1ad95	0.0017217869
17	0x3cf0b7c6	0.029384505
18	0x3f9bdece	1.217737
19	0xbe4ba6a3	-0.19887786
20	0xbe1cadbb	-0.15300648
21	0x3ce86aa0	0.028371155
22	0x3cc31460	0.023813426
23	0xbe3bd086	-0.18341264
24	0x3d3e3e32	0.046446033
25	0xbe4d6bc9	-0.20060648
26	0x3ecc3ad8	0.39888644
27	0xbe5f4cc7	-0.21806632
28	0xbe25bbf2	-0.16184977
29	0xbe491b12	-0.19639233
30	0xbe384fbc	-0.17999166
31	0xbe5537d0	-0.20822072
32	0xbe3c63ff	-0.1839752
33	0xbe2b276d	-0.16714258
34	0x3d594a86	0.053049587
35	0xbe35faec	-0.177715
36	0xbe37c6a6	-0.17946872
37	0xbe1c19f4	-0.15244275
38	0x3f97b750	1.1852818
39	0x3bf93740	0.0076054633
40	0x3cbe5e35	0.02323828
41	0x3cf2fa7f	0.029660461
42	0xbe24a847	-0.16079818
43	0xbee6349c	-0.44962013
44	0xbe5f7cf6	-0.21825013
45	0xbe607bfe	-0.219223
46	0xbe4f5734	-0.20248109
47	0xbe584adf	-0.21122311
48	0x3c5330f1	0.0128900865
49	0xbe5c2109	-0.21496977
50	0xbe463179	-0.1935481
51	0xbe1cebbc	-0.153243
52	0x3eb01cab	0.34396872
53	0x3cfe49c3	0.031041032
54	0xbe4309be	-0.19046685
55	0xbe6362e6	-0.22205696
56	0xbe200f41	-0.15630819
57	0x3ae690c9	0.0017590757
58	0xbe2cc325	-0.16871317
59	0xbe45e0fa	-0.19324103
60	0xbe4d3f55	-0.2004369
61	0x3d4106a9	0.047125492
62	0xbe2e4293	-0.17017584
63	0xbe357f62	-0.17724374
64	0xbe5277f2	-0.20553568
65	0xbe432eea	-0.19060865
66	0x3ba931d6	0.0051634116
67	0xbe5c94be	-0.21541116
68	0x3d040756	0.03223356
69	0x3c624aa9	0.013811746
70	0x3cafbb5b	0.021451643
71	0xbe3f8c7e	-0.18705937
72	0x3d037ad4	0.03209956
73	0x3c5afe65	0.013366316
74	0xbe4d6a85	-0.20060165
75	0x3c11dc11	0.008902566
76	0xbd4f8726	-0.050665997
77	0x3bfcc38c	0.0077137407
78	0x3d409a23	0.047021996
79	0xbe289138	-0.16461647
80	0x3d6f3a2e	0.058405094
81	0xbe7fac69	-0.24968113
82	0x3bdd3d36	0.0067516817
83	0x3d0b2e31	0.0339796
84	0xbe26b121	-0.16278507
85	0xbe47b8f6	-0.19504151
86	0x3d634b5b	0.055491786
87	0xbe5e62c6	-0.21717367
88	0xbe488726	-0.19582805
89	0xbd172cb6	-0.036907874
90	0xbe47bd3f	-0.19505785
91	0x3d23ac1a	0.03995905
92	0x3bf500b3	0.00747689
93	0x3d15c634	0.036565974
94	0xbe562c16	-0.20915255
95	0x3ada9ccb	0.0016678808
96	0x3ca1f81d	0.01977163
97	0x3ca5507d	0.020179981
98	0xb9ee0d0a	-0.00045404612
99	0x3d45bb5f	0.048274394
100	0xbe5592f1	-0.20856835
101	0x3c62a341	0.013832868
102	0xbe3940f0	-0.18091178
103	0xbebc4cf1	-0.36777452
104	0x3ca748fc	0.020420544
105	0xbe480caf	-0.19536088
106	0xbe497248	-0.19672501
107	0x3d1bd52a	0.038045086
108	0x3d56ee64	0.05247344
109	0x3c65dd7d	0.014029858
110	0xbe5ac6a4	-0.21364838
111	0xbe3491b9	-0.17633714
112	0xbe5c78ac	-0.21530408
113	0xbe278cac	-0.16362256
114	0xbe41e296	-0.18934092
115	0x3cdfa5f5	0.027300814
116	0xbe34ed70	-0.176687
117	0x3c277048	0.010219641
118	0x3d4308df	0.047615882
119	0xbe467fc2	-0.19384673
120	0xbe4ddde4	-0.20104176
121	0x3d263072	0.040573545
122	0xbe4691e5	-0.19391592
123	0xbe2f10af	-0.17096208
124	0x3baba6eb	0.005238404
125	0x3f06eb21	0.5270253
126	0xbe460a80	-0.19339943
127	0xb9ad4b1c	-0.00033053092
128	0x3d5c2b8d	0.05375247
129	0x3cc75322	0.024331633
130	0x3af91daa	0.0019006033
131	0xbe219176	-0.15778145
132	0x3d0d7b54	0.034541443
133	0xbe43ea15	-0.19132264
134	0x3f827350	1.019144
135	0xbe36797b	-0.17819779
136	0x3c1473c7	0.009060807
137	0x3ca655dd	0.020304615
138	0xbe5b52a4	-0.21418244
139	0xbe5455dc	-0.20735878
140	0xbd397494	-0.045277193
141	0x3d3721c9	0.044709954
142	0x3d585b36	0.05282136
143	0x3cd6d33b	0.02622377
144	0xbe4648ac	-0.1936366
145	0xbe2b36f7	-0.16720186
146	0xbab27301	-0.0013614596
147	0xbe358651	-0.17727019
148	0x3cccdc8c	0.025007509
149	0xbd261d44	-0.040555254
150	0xbe4fa722	-0.202786
151	0xbe2c7892	-0.16842869
152	0x3d65294e	0.055947594
153	0xbc08a010	-0.008338943
154	0xbe41b0be	-0.18915078
155	0x3d60dd00	0.054898262
156	0x3d3bd844	0.045860544
157	0xbe37f16a	-0.17963186
158	0x3ca138a5	0.01968033
159	0x3cc7e8b4	0.024402954
160	0xbe586105	-0.2113076
161	0xbe5a27fa	-0.21304312
162	0x3bffb7b7	0.007803883
163	0xbe33626b	-0.17518012
164	0x3c114eac	0.0088688545
165	0x3d17085d	0.03687321
166	0x3fc6c511	1.552889
167	0x3ca6c94e	0.020359661
168	0x3d0311ef	0.031999525
169	0x3d183a72	0.037165113
170	0x3d497322	0.049182065
171	0xbe56e6c8	-0.20986474
172	0x3f9b399e	1.2126958
173	0x3d3b135f	0.04567277
174	0x3c7c3f4a	0.015395949
175	0xbe457ebe	-0.1928663
176	0x3d1c3ae7	0.03814211
177	0x3cff050e	0.03113034
178	0xbe49c81e	-0.19705245
179	0xbe3e61bf	-0.18591975
180	0xbe5f7e61	-0.21825553
181	0xbe672fb5	-0.22576793
182	0x3cb9d9ad	0.022686804
183	0xbe392723	-0.18081336
184	0xbe52b080	-0.20575142
185	0xbe30d166	-0.17267379
186	0x3d41bc15	0.04729851
187	0xbe550e9c	-0.20806354
188	0xbe2165de	-0.15761515
189	0x3d2ce62a	0.04221169
190	0xbe4d1f77	-0.20031534
191	0x3d1ff730	0.039054096
192	0x3cfc9f69	0.030837731
193	0xbe393202	-0.18085483
194	0xbe4233da	-0.18965092
195	0x3ba33df5	0.004981751
196	0x3ca08ca0	0.019598305
197	0xbe27b599	-0.16377868
198	0xbe6f360c	-0.23360461
199	0x3d5996cb	0.053122323
200	0xbe25df53	-0.16198473
201	0xbc416839	-0.011804634
202	0x3d455e73	0.048185777
203	0x3d34eea7	0.04417291
204	0x3c83268a	0.016009588
205	0x3f8d26bc	1.1027446
206	0xbe2e312a	-0.17010942
207	0x3c48b77d	0.012250778
208	0xbe351710	-0.17684579
209	0x3fc32615	1.5245997
210	0xbe321ea2	-0.17394498
211	0x3d52172c	0.05129163
212	0xbe34c48f	-0.17653106
213	0xbe3c73b4	-0.18403512
214	0xbefff88e	-0.4999432
215	0xbe3cf2ca	-0.18451992
216	0xbe464665	-0.19362791
217	0xbe467e99	-0.1938423
218	0x3b6dc137	0.0036278495
219	0xbe49ecb2	-0.19719198
220	0xbe5c56ac	-0.21517438
221	0xbe51de58	-0.20494974
222	0xbe6c4195	-0.23071893
223	0x3c2197f5	0.00986289
224	0xbe645e69	-0.2230164
225	0x3c97f7d0	0.018550783
226	0x3cd638db	0.026150158
227	0xbe1b4d22	-0.15166143
228	0xbe1a4090	-0.15063691
229	0xbe39a891	-0.18130709
230	0x3d09f5c0	0.03368163
231	0x3d0063ed	0.031345297
232	0xbe4477fe	-0.19186398
233	0x3c4c7e67	0.012481309
234	0x3ebcd134	0.3687836
235	0xbe54f75a	-0.20797482
236	0x3d125772	0.035727926
237	0x3cd9cd54	0.026587166
238	0xbe3b2faa	-0.18279901
239	0x3d2e50d9	0.04255757
240	0xbe388134	-0.18018037
241	0xbe4a5e16	-0.19762453
242	0xbe40a627	-0.18813382
243	0xbe5a98d8	-0.21347368
244	0x3d4a4fdc	0.049392566
245	0xbe494b0b	-0.19657533
246	0xbe50297c	-0.20328325
247	0xbe3edf2e	-0.18639824
248	0x3d517b92	0.051143236
249	0x3ad8d53b	0.001654304
250	0xbe3aa448	-0.18226731
251	0xbe5a105e	-0.21295306
252	0x3d345848	0.044029504
253	0x3ce9ee10	0.0285559
254	0x3cd8adfb	0.026450148
255	0xbe4b0d3c	-0.19829267
