youtube-ppo/tmp/ppo/critic2.pth (torch, 270664 bytes, 5 tensors)

critic.0.weight f4 [256, 3]
000000 91 e9 1f 3f 72 e2 20 bf 96 f0 85 be 4b 99 68 be
       0.6246577 -0.6284553 -0.26160115 -0.22714727
000010 6a a8 51 bf 4f af a5 bd ae c5 0e 3f 59 4c ab 3e
       -0.81897604 -0.08090078 0.55770385 0.33456686
000020 c6 6b 96 be 58 85 26 bf 3e 00 ef be 83 dd 83 be
       -0.293791 -0.65047216 -0.46679872 -0.25754938
000030 f1 cd 5f be 75 24 bb 3e 31 77 29 be a3 6a 75 3e
       -0.21855904 0.36551252 -0.16549374 0.2396646
000040 7e 18 c2 3e 94 45 ee bd 5a 51 0a 3f a9 fe 40 3e
       0.3790931 -0.11634365 0.5403038 0.18847145
000050 d0 a8 17 bd e7 50 13 3f e9 fa 18 bf 01 64 79 be
       -0.037026227 0.5754532 -0.5975786 -0.24354555
000060 00 3d 27 bf 8d 22 ab 3f 96 65 81 3d 2c a3 bb bd
       -0.65327454 1.3369919 0.06318204 -0.09161982
000070 7d 26 93 3e a2 f4 83 3e 3a 56 29 3f 97 35 81 bf
       0.28740302 0.25772578 0.66147196 -1.0094479
000080 71 c6 4e be c8 9f 04 bf e3 66 81 bf 20 3c a4 be
       -0.20192887 -0.51806307 -1.0109524 -0.32077122
000090 c3 77 13 be 7b 9b 21 bf 31 e6 2e 3e 49 d8 99 be
       -0.14401154 -0.6312787 0.17079999 -0.30047825
0000a0 6b 89 d4 3e 05 f2 78 3e 63 61 b7 be 29 f5 c0 3e
       0.41511092 0.24311073 -0.35816488 0.37687042
0000b0 87 0c 10 3e 0f 52 a1 3e 7e bf 9d 3b a3 b7 b1 bd
       0.14067279 0.31507918 0.0048140874 -0.08677604
0000c0 33 ec 97 be 25 e2 be 3e f4 e7 ed 3d 6b 55 00 bd
       -0.29672393 0.3728191 0.11616507 -0.03133146
0000d0 72 c5 82 bf e3 9e 8c be be b6 7a 3e dc 1a 22 3e
       -1.0216506 -0.2746497 0.24483773 0.15830559
0000e0 dd d8 f8 be 71 e6 39 3f 58 aa ad 3b f2 16 f8 3d
       -0.48602954 0.7261725 0.0052998476 0.121137515
0000f0 ea 7a 34 3f f6 18 7c 3f a9 ce 61 3e ae 49 1c 3f
       0.7050005 0.9847559 0.22051491 0.61049926
000100 de 1e 61 3f b3 3a 43 3e 85 fe 01 3f b7 7f 4e bf
       0.87937725 0.1906536 0.5077899 -0.8066363
000110 52 63 0d be 67 5b ae 3e d5 f1 1f bf 1f 26 53 3c
       -0.13807419 0.3405411 -0.6247838 0.012887507
000120 86 eb 26 3f 04 be 87 3d 31 0a a4 bd 3d 9a e1 be
       0.6520313 0.066280395 -0.08009756 -0.44062987
000130 dd 17 73 bf d3 0f 8b be 47 c3 74 3f 99 9d 73 3e
       -0.9495829 -0.2716051 0.9561047 0.23790587
000140 e5 59 48 be a5 3a 47 3f 0a 0b 2c 3f 1f f5 5b 3e
       -0.19565542 0.7782386 0.67204344 0.21480225
000150 57 4c 10 bf 9c ae f2 3e 5e 1f 3c be 46 1d 94 bd
       -0.56366485 0.4739884 -0.1837134 -0.07232146
000160 7c 45 b0 3e ac c3 24 be 3d c3 02 bf 4c 9f 4f 3f
       0.34428012 -0.16090268 -0.5107916 0.8110244
000170 a4 74 98 3e a7 d7 0e bf d6 8b 73 bf d8 47 93 be
       0.2977649 -0.5579781 -0.9513525 -0.2876575
000180 3d 95 97 3f 5c 4b 2d 3e c3 e0 90 bc 29 15 12 3f
       1.1842419 0.16923279 -0.0176853 0.5706354
000190 5d 4a 24 3f 05 a3 2c 3e e2 e2 06 3f 5a 4c 21 bc
       0.6417597 0.16859062 0.52689946 -0.009844864
0001a0 f3 cc 5c 3e 3d e3 42 bf 2f 86 db 3e cc 2d 18 bf
       0.21562557 -0.7612799 0.4287581 -0.5944488
0001b0 00 e7 8a 3d 39 f4 13 bf a4 e7 28 3e 0a 27 f2 be
       0.06782341 -0.5779453 0.16494614 -0.4729541
0001c0 e1 e4 a4 bf fc 3a bb be eb 98 16 3f 74 90 05 bf
       -1.2882348 -0.3656844 0.58827084 -0.5217354
0001d0 1e 79 ef be c1 bd 5f bf f8 d1 2d bf 4e 11 a1 be
       -0.46772093 -0.87398916 -0.6789851 -0.31458515
0001e0 d6 bf 29 3f 17 f3 b7 3e df 75 10 bf 26 d5 b5 3e
       0.66308343 0.3592765 -0.56429857 0.35514182
0001f0 02 c7 26 3e c5 d5 8a 3d f5 09 c2 be df e0 0b 3f
       0.16286853 0.067790546 -0.37898222 0.5464
000200 f9 de 5a 3e 48 40 35 bf c1 c7 ce be f3 61 68 be
       0.2137412 -0.7080121 -0.40386775 -0.22693615
000210 f6 7d 97 be c4 72 8b bf 2e 3e 9c be 88 89 02 bf
       -0.29588288 -1.0894399 -0.3051619 -0.50991106
000220 06 6e 43 3d 04 b2 ca be 80 2a 39 bf d2 bc 4f 3f
       0.04771235 -0.3958894 -0.72330475 0.8114749
000230 55 c6 cc 3e 1c a3 66 3c 8a 77 96 be ad b9 5f 3e
       0.39995065 0.014076974 -0.29388076 0.21848173
000240 ee ac 95 3f 59 c2 35 be c1 5d 33 bd f5 e8 55 3f
       1.1693399 -0.17749919 -0.043790583 0.8355859
000250 be 68 31 3f d3 a3 67 3e 7d cb 2a 3e 4e 64 20 3e
       0.6930045 0.22621088 0.16679187 0.15663263
000260 bc 93 85 be c9 a2 86 3f aa a6 83 bb 15 14 9b bc
       -0.26089275 1.0518428 -0.0040176706 -0.018930474
000270 cc ab 0e bf 67 89 ed 3e af 39 8d be eb bb f8 be
       -0.5573089 0.46393892 -0.27583072 -0.4858087
000280 db 8e 41 3f cf 93 8f 3e 0f 26 35 bf 4d 8f 87 3f
       0.75608605 0.28042457 -0.707612 1.0590607
000290 3d ad d2 3e be a7 3e bf 86 11 a4 3f b8 a0 94 3e
       0.41147795 -0.74474704 1.2817848 0.2902887
0002a0 a8 cb 5a 3f 4b cc 08 3f 22 ad c4 be 0e 93 8a 3e
       0.85467005 0.53436726 -0.3841334 0.2706532
0002b0 08 ae 83 3e a5 4a e5 bd d5 49 15 bd 73 7d eb be
       0.25718713 -0.11195878 -0.036447365 -0.45994148
0002c0 b7 02 19 3e a0 f8 13 bf de e4 35 3f 7a 16 a8 3e
       0.14942442 -0.57801247 0.7105235 0.32829648
0002d0 6e 76 94 3e a4 84 77 3e 87 cf f4 bc 89 b7 90 3d
       0.28996605 0.24171692 -0.029884113 0.070662566
0002e0 99 d1 32 3e 8e 6b 2b be f4 b3 42 3f ab c9 80 3f
       0.17462768 -0.16740248 0.76055837 1.0061544
0002f0 ab ab 6b 3e 22 70 4c 3f d3 da 47 bf 02 4b 9a be
       0.23014705 0.798586 -0.78068274 -0.3013535
000300 94 1e 64 3e a1 d1 01 bf 75 00 11 3e 12 f4 b3 be
       0.2227729 -0.50710493 0.1416033 -0.35147148
000310 25 17 7c bf 84 5f 8d be 09 39 11 3f 70 35 89 be
       -0.98472816 -0.27611935 0.56727654 -0.26798582
000320 19 07 bc be 2c a1 3e 3f 6d 68 4c 3f d5 e5 f2 bd
       -0.36724165 0.7446468 0.7984684 -0.11860243
000330 b7 d9 c6 be 88 d0 2b 3f ef d9 13 be ed 9d c6 be
       -0.38837978 0.6711507 -0.14438604 -0.38792363
000340 7e 2b d4 3e 25 7a 21 be e3 2e b4 bd ef dc 81 bf
       0.41439432 -0.1576925 -0.087980054 -1.0145549
000350 79 be 8b be 2a ab f1 be 1b 47 60 bf 19 b4 bb be
       -0.27293757 -0.472009 -0.876085 -0.3666084
000360 06 1f 4a bf fa 9f 8e 3b 60 a5 dc 3d 21 25 1b 3f
       -0.7895359 0.004352567 0.1077373 0.6060353
000370 71 94 8a 3f aa 1f 87 3e b4 ce 13 3f ef 4c 7a be
       1.0826551 0.26391345 0.5773728 -0.2444341
000380 49 42 9f bd 9a 21 82 bf 4f db 76 bf 9f d6 9e be
       -0.07776315 -1.0166504 -0.9642839 -0.31023118
000390 43 a8 9a be 31 b6 33 bf 9d 70 cd bd 42 02 f6 be
       -0.30206499 -0.7019988 -0.10031245 -0.48048598
0003a0 0d 2e 12 3f 08 0e c8 3e 41 c8 9a 3f 7f af b4 be
       0.5710152 0.39073205 1.2092363 -0.35290143
0003b0 79 ac 30 3d 83 60 1d 3e a5 59 63 3f 7a ec 63 be
       0.043133233 0.15368848 0.8880866 -0.22258177
0003c0 b8 36 5c 3e 2e 86 95 3e ce 51 37 3d a5 92 48 3e
       0.21505249 0.29203933 0.04475575 0.1958719
0003d0 2b 1c 83 3d 0f 97 23 3f 1a 4e 03 bf 00 8e f8 be
       0.06401857 0.6390237 -0.5129105 -0.48545837
0003e0 eb 37 3e be 8d 02 43 bf 8d e9 aa bf 2e 85 8c be
       -0.18576019 -0.7617577 -1.3352524 -0.27445358
0003f0 62 66 5f 3f 4d 47 4b 3f 18 43 81 3e f1 7e 5b bf
       0.872656 0.7940567 0.252465 -0.8574057

critic.0.bias f4 [256]
000000 2e 3f dd be fd 59 c3 3d 8e 38 6f 3f a2 18 39 3f
       -0.43212265 0.09538648 0.9344567 0.7230321
000010 a8 45 75 3f 95 79 75 3f f0 2c 3d 3f e8 af cc be
       0.9580941 0.95888644 0.73896694 -0.39977956
000020 d9 9e 39 be ab 95 ec be 23 fe d9 3e 6c 05 d2 3e
       -0.18127002 -0.46207938 0.42576703 0.41019762
000030 82 1b 5d 3e f3 6d d4 3e da 1c 79 3f 30 ca 2c 3f
       0.21592525 0.41490135 0.9730965 0.67496014
000040 df 27 28 3f 9f 2a 1f 3d 55 4c 8a 3e 6e a0 1c 3f
       0.6568584 0.038859006 0.27011362 0.61182296
000050 59 2c d0 3e 89 58 b2 3e aa 9f 9e 3e d5 3f 8d 3e
       0.40658835 0.34833172 0.3098119 0.27587762
000060 b8 d3 68 3f bb 8c 6e 3e a1 ff 40 3e 0d 0d 12 bf
       0.9094806 0.23295872 0.18847515 -0.57051164
000070 04 1b 59 3f 38 3f 7b 3f 90 c4 ac 3e c1 46 ad 3e
       0.8480685 0.9814334 0.33743715 0.33843043
000080 74 2f ac 3e 85 e0 47 3e ff 1b 6b 3f 9b 1b f8 be
       0.33629954 0.19519241 0.91839594 -0.4845856
000090 58 53 fe 3e 16 10 8a 3e 10 69 43 3d 3c c9 40 3f
       0.4967296 0.26965398 0.047707617 0.7530706
0000a0 29 5b 0c 3f b2 dc f8 3e d9 18 7b 3e eb 3b 12 3f
       0.548266 0.48605877 0.24521197 0.5712268
0000b0 65 bf 74 3e e4 ab 03 bf 37 38 1b 3f a1 92 5c 3f
       0.23901136 -0.5143416 0.6063265 0.8616124
0000c0 3f 41 a3 3e f1 1b 1f bf 3e 5c b2 be e6 e6 64 3e
       0.31885716 -0.6215201 -0.34836 0.22353706
0000d0 36 51 af be 15 f8 a2 3e 7f b9 08 3f 20 44 07 bf
       -0.34241647 0.31829897 0.53408045 -0.52838326
0000e0 ed a1 26 bd ff 53 6a 3f e2 90 b6 3e 84 b1 e7 3e
       -0.04068177 0.9153442 0.35657412 0.4525262
0000f0 04 a6 6f 3f 3b a0 48 3f 6a f6 be 3e c5 5c 09 3f
       0.93612695 0.7836949 0.37297374 0.5365718
000100 7d e8 b5 bd 88 58 19 3e 52 0e 4d bf 8e 1c dc be
       -0.08882234 0.14975178 -0.80099976 -0.42990535
000110 76 09 6d 3e 04 bc 55 3f 49 bc a5 3d 24 c2 1d bf
       0.2314814 0.83490014 0.08092553 -0.6162436
000120 d5 e1 df be b6 8a c7 be 74 63 4c 3f 80 eb 14 be
       -0.43726984 -0.38973016 0.79839253 -0.14542961
000130 e4 ab 1f 3f 28 b1 29 3f 21 fc 00 3e dd ea b5 be
       0.6237166 0.66285944 0.1259618 -0.3553075
000140 36 5b 39 3f 07 a9 3d bf cb 09 bc 3e ed 98 f4 be
       0.724048 -0.7408604 0.3672622 -0.47772923
000150 8a 5a 23 bf 70 b7 3b 3f 44 91 f0 be 5d 83 6e 3e
       -0.63810027 0.7332678 -0.4698583 0.23292299
000160 30 40 3d be d2 38 86 be 16 b3 1d 3f 38 92 65 3f
       -0.18481517 -0.26215225 0.6160139 0.8967624
000170 34 16 5e 3f 2c fa 08 be a3 38 b5 3e 8b 13 38 3f
       0.8675263 -0.13376683 0.35394773 0.7190482
000180 7b 3c 3b 3f cd 1b fe be bd ef 68 3f 90 c9 b6 3e
       0.7313916 -0.49630585 0.9099081 0.35700655
000190 b1 9a 05 3f 7b 7c f0 3e 2a 10 17 3f f7 09 99 be
       0.52189165 0.4696997 0.5900904 -0.29890415
0001a0 f8 94 cf 3e b5 16 09 bf c3 67 3d 3f 8c f9 20 3f
       0.40543342 -0.53550273 0.7398645 0.6288078
0001b0 de 27 14 be 2f bf 42 3f 48 3b f0 3e a3 ad 2e 3f
       -0.14468333 0.76072973 0.46920228 0.682337
0001c0 03 0e b5 be 87 8a fa be 11 54 79 3f a6 a0 35 3f
       -0.35362253 -0.48933813 0.973939 0.70948255
0001d0 cb 89 02 3e 5e 56 09 3e 7d a0 60 3e c5 92 6d 3f
       0.12747876 0.13411853 0.21936221 0.9280208
0001e0 45 e4 f4 3e 43 f8 4d be 03 44 32 bf 88 21 fb be
       0.47830406 -0.20114236 -0.6963503 -0.4904902
0001f0 32 0c 84 3f 08 ce bd 3e ff e4 28 3f 35 8e 5e 3e
       1.0316222 0.37071252 0.6597442 0.21733935
000200 4a 42 f5 3e 72 d9 21 3e 81 12 54 3f a2 10 02 bf
       0.47902137 0.15805605 0.82840735 -0.5080663
000210 81 60 4c 3e b0 35 c9 3e 42 97 3c 3f a2 c6 48 3f
       0.19958688 0.39298773 0.736683 0.7842809
000220 8b ac 4f 3e ce b6 bf 3e ea ab 0b 3f 79 1c 33 3f
       0.20280664 0.37444156 0.54559195 0.6996532
000230 d6 61 85 3f 4f ee 5d 3f cd ff dc 3e 51 02 83 be
       1.0420482 0.86691755 0.4316391 -0.25587705
000240 4b 27 03 bf ff 3e 13 bf 21 c3 76 3f e5 5b 26 bf
       -0.5123183 -0.57518 0.96391493 -0.6498397
000250 02 01 c8 3e b6 bb 98 be 26 2a 9d 3e 7f 56 b2 3e
       0.3906327 -0.29830712 0.3069622 0.34831616
000260 94 84 00 3f 7f e7 12 bf 78 92 da 3d 7e ac 0b 3f
       0.502023 -0.57384485 0.10672468 0.5456008
000270 1b 6c 92 3e c2 a3 d9 be 81 6b f3 be de ba 7a 3f
       0.28598103 -0.4250775 -0.47542956 0.97941387
000280 d5 6d 3e 3f 84 2e 0f 3f ba ea 54 3e 47 9d 5e 3f
       0.7438634 0.5593035 0.20792666 0.86958736
000290 d1 3b eb be 83 eb 9e 3e 81 a4 d4 3e d6 87 49 3f
       -0.45944074 0.31039056 0.41531757 0.78722894
0002a0 31 8b f1 3e 6d b8 5e 3e 85 76 0a 3f 1d 49 a7 3e
       0.47176507 0.2175004 0.54087096 0.32672969
0002b0 94 52 01 3f 50 81 ff be c7 ba 3b 3f d8 4f 04 3e
       0.5051663 -0.49903345 0.73331875 0.12921083
0002c0 bd c5 e9 be 5e 25 30 3f 53 15 6f 3f ef 10 69 3f
       -0.45658675 0.6880702 0.93391913 0.91041464
0002d0 dc 59 a1 3e 00 69 d5 3e de 2d a1 be fd 4f 40 3e
       0.3151387 0.4168167 -0.31480306 0.18780513
0002e0 52 04 76 3f ac cf 73 3f e4 12 51 3f ba ce 2f 3f
       0.9610034 0.9523876 0.8166945 0.68674815
0002f0 b4 b6 43 3f 8b 71 92 be 2c c6 ea 3e da 81 c2 3d
       0.7645066 -0.2860225 0.45854318 0.094974235
000300 fc b4 e7 3e 04 52 15 3f af 1b 2c 3d 12 61 2c be
       0.45255268 0.5832827 0.04201859 -0.16833904
000310 17 f5 80 3f 6d 0c f2 3e 2c b1 89 be 7c 8d 1f bf
       1.0074795 0.47275105 -0.26892984 -0.62325263
000320 de 7d 11 be 2d e3 b3 3e 14 9d 9c bd 77 f4 0d 3f
       -0.14208171 0.3513426 -0.07647148 0.5545115
000330 f3 a2 7a 3e d7 9e 22 bf 61 1d 05 3f 54 a4 13 bf
       0.24476223 -0.6352362 0.51997954 -0.5767262
000340 a6 a8 d3 be 90 3a 9c 3e d6 fd 23 3f 2d c8 03 3f
       -0.41339606 0.3051343 0.640592 0.5147732
000350 80 01 7e 3e 77 af e3 3e 9c d0 b8 be 81 92 47 3f
       0.2480526 0.44469807 -0.36096656 0.7795792
000360 bd 37 1c bd cc 51 0f 3f dd c4 fa 3e c8 e6 35 3e
       -0.038139094 0.5598419 0.4897832 0.17763817
000370 a8 da 29 3f 96 f9 38 3f 2b dd 92 be c7 8c 5a 3f
       0.6634927 0.7225584 -0.28684363 0.8537106
000380 77 aa a3 3e 40 54 82 3f b1 fb ed be 3a db 09 3f
       0.31965992 1.0181961 -0.46481088 0.5385014
000390 08 d9 5b 3f 3d 14 99 3e 4e e0 e1 3e 65 95 02 3f
       0.8587804 0.29898253 0.44116443 0.5100921
0003a0 d5 77 f3 3e cb 68 01 3f d0 d4 ed 3e 68 21 b2 3e
       0.47552362 0.50550526 0.46451426 0.34791112
0003b0 e7 1e ab 3e 8b d2 96 3b 18 23 2d 3f 9d a6 78 be
       0.33422014 0.0046027354 0.67631674 -0.24282308
0003c0 df be 9b 3e d7 da 4b 3e d4 54 c4 be 21 cf 1f 3f
       0.3041906 0.199077 -0.3834597 0.6242543
0003d0 b4 71 e2 be e3 a2 e2 be 28 b0 48 3f 94 13 40 3f
       -0.44227374 -0.44264898 0.78393793 0.75029874
0003e0 45 bf 34 3f 0b f7 2a 3e 2a a9 0c 3f 5c 35 65 3e
       0.70604354 0.16695802 0.54945624 0.22383636
0003f0 37 e8 60 3f bf c9 02 bf bb a6 13 bf 2c ef 14 bf
       0.8785433 -0.5108909 -0.57676286 -0.5817745

critic.2.weight f4 [256, 256]
000000 64 6b b4 3e 26 18 af 3c 30 8e 3f be 2b cb 60 3e
       0.35238183 0.02137382 -0.18706584 0.21952502
000010 72 22 29 3e 7a 26 e3 3c 57 b0 76 3d a0 b8 01 3f
       0.16517046 0.027728308 0.060226765 0.5067234
000020 5c aa 10 bf 87 26 33 be 55 6c 7b be 03 f6 81 3e
       -0.5650995 -0.17495166 -0.24553044 0.25383005
000030 2c dc 64 3e c4 94 33 3e 94 5b cb bd 1d f7 20 3e
       0.22349614 0.17537218 -0.099295765 0.15719266
000040 85 91 60 bd 00 c9 f6 3d 01 43 e6 bd 44 a6 b0 3e
       -0.05482628 0.120500565 -0.11243249 0.3450185
000050 92 b4 c7 be 32 a4 c2 be ab 06 29 be 6b b8 2f bd
       -0.39004952 -0.38015896 -0.1650645 -0.042900484
000060 6b 7f 8d 3e 44 ce 86 3e 86 44 e8 3e 47 82 4c 3f
       0.27636275 0.26329243 0.4536478 0.7988629
000070 10 f3 37 3e 8c 24 65 3e 45 0f 82 3e 6f 54 93 3e
       0.17963815 0.22377223 0.25402275 0.28775355
000080 83 c5 ce 3e c0 cb bf be 77 77 0d 3e 37 76 49 be
       0.40385064 -0.37460136 0.13815103 -0.19674002
000090 e0 cd e8 3d 81 32 87 3e 1b ab 81 bd 35 e5 8b 3e
       0.113673925 0.2640572 -0.06331464 0.2732331
0000a0 d8 c0 8a bd c4 2e 10 3e 90 6b 12 3e 05 6e 8c 3e
       -0.06775063 0.1408034 0.14298844 0.27427688
0000b0 4e 16 b6 3d 97 55 e5 be 23 50 90 3e 7e 29 c3 3d
       0.08890973 -0.44791862 0.2818614 0.095293984
0000c0 5e bb 96 3e b6 91 34 3f d7 2c 68 3e a5 3a 37 3e
       0.29439825 0.7053484 0.22673355 0.17893465
0000d0 a0 78 28 be 26 c2 83 3e c4 99 84 3e 1e 06 3a be
       -0.16452265 0.2573406 0.25898564 -0.18166396
0000e0 69 8d 7d 3e ab 99 05 3e 85 fd c8 3d 0f a6 7a 3e
       0.24760975 0.13046901 0.0981398 0.24477409
0000f0 aa 56 80 bc de 7c f7 bd a8 26 bc be 17 05 3a be
       -0.015666325 -0.120843634 -0.36748242 -0.18166004
000100 72 af 9b 3d 3b ab b9 3e 12 85 c6 3e c7 78 d0 3e
       0.07601823 0.3626345 0.387734 0.40717146
000110 4d 9f 7d 3e e4 32 6d 3e 1a 94 15 3e de 55 af be
       0.247678 0.23163944 0.14607278 -0.342452
000120 df bb fc 3e c2 a0 dc 3e fc ef d2 3d c2 7b 90 be
       0.49362084 0.43091398 0.1029968 -0.2821942
000130 1a 9c 1e bc 27 31 cb 3d 3b 7b 91 3e 07 27 54 3e
       -0.009680772 0.099214844 0.2841433 0.20718013
000140 f2 3b 87 bd 69 da 6d be b8 4d 56 3e 2e a5 ce be
       -0.066032305 -0.23227848 0.20928085 -0.40360397
000150 d2 c7 2e 3f cc 79 76 3e e4 48 07 3d b4 df ac 3e
       0.6827365 0.240699 0.0330285 0.33764422
000160 d7 95 db 3d cf a2 22 be 6c c6 96 bd 5b 35 9b 3d
       0.10721939 -0.15882419 -0.07362065 0.07578536
000170 4b 64 26 3e 8d 5b 11 bf b6 f7 75 3e 70 0b a4 3d
       0.16249196 -0.5678032 0.24020275 0.08009994
000180 8d a1 62 3e 41 1a 25 3f c3 54 82 3c ba d2 d8 3d
       0.22131939 0.64493185 0.015909558 0.10587068
000190 6e 05 4e 3e 23 de d6 bd 36 0c 73 3e dc 96 81 3e
       0.20119259 -0.10491588 0.23735127 0.2531041
0001a0 8c 91 45 3e 47 12 a2 be 16 72 32 be bb 47 89 3d
       0.19293803 -0.3165457 -0.17426333 0.067031346
0001b0 c9 c4 60 be 40 e8 6d 3d 91 90 bc 3e 85 90 01 3e
       -0.21950068 0.05808282 0.36829045 0.12652786
0001c0 5e c0 c5 bd c4 4c 47 be a5 9a 0c 3e 8d 5f 14 3e
       -0.09655832 -0.19462878 0.13730867 0.14489575
0001d0 ee 6c b7 3d a3 8b 33 3e ba 1f 63 3e d6 e9 30 3b
       0.089563236 0.17533736 0.22180071 0.0026994846
0001e0 a4 6e b7 3e c7 78 0c be be 5a c0 be 30 8a f1 3e
       0.358266 -0.13717948 -0.3756923 0.4717574
0001f0 23 97 a7 3b 49 d2 d6 bc dd 25 47 3e 5a 35 c4 bc
       0.0051144524 -0.026223319 0.19448037 -0.023951221
000200 7d 01 dd 3a c4 63 8f 3e cc c7 eb bc e4 f4 d8 bc
       0.0016861405 0.28005803 -0.028781794 -0.02648396
000210 1e e0 14 3e 28 e5 00 be c6 d3 fd 3c b6 45 d9 bd
       0.14538619 -0.12587416 0.03098477 -0.106089994
000220 f7 69 7e bd 56 d9 ac 3c 60 db 12 3d 3f 05 56 3e
       -0.062112775 0.021099728 0.035853744 0.20900439
000230 30 7c 95 3d 46 1b 95 3d da 54 2e 3e 63 3e fd bd
       0.072990775 0.072805926 0.17024556 -0.12365415
000240 98 53 d5 be 6c 04 7d be 58 8d c6 bd 5a f3 85 be
       -0.4166534 -0.24708718 -0.09694928 -0.26162225
000250 33 6d 26 3d ca 45 bd 3d cc 5c e0 bc df d6 bd 3e
       0.040631484 0.09241827 -0.027387999 0.37077996
000260 99 c9 9d 3d ff df c9 3e 8f 58 2e 3e da 7a 0a 3e
       0.07704467 0.39428708 0.1702597 0.13523427
000270 0f e7 02 be a4 e2 de be 3c 1d f1 3e c5 02 3d 3e
       -0.12783454 -0.43532288 0.47092617 0.18458088
000280 12 79 de bc 98 5c 41 3d 40 0b 3b 3e fa bf df 3d
       -0.02715734 0.047207445 0.1826601 0.109252885
000290 31 a5 45 3f 71 9e 1e 3e 5e 0e 92 be a1 1d c4 3d
       0.7720519 0.15490128 -0.28526586 0.09575964
0002a0 dd 88 9a 3e c0 38 1f be b7 f2 52 be 35 f6 64 bd
       0.30182543 -0.15548992 -0.20600401 -0.055898864
0002b0 66 bb 7e 3e 3f 8f 8d be 35 88 98 3b 09 58 29 be
       0.24876174 -0.2764835 0.004654909 -0.16537489
0002c0 09 62 09 3f c3 16 48 3d 15 5e dc bc c3 a2 14 3e
       0.53665215 0.048849832 -0.02690033 0.14515214
0002d0 7d d8 c9 be 20 aa 55 3d e6 84 b3 3e 56 0d c9 be
       -0.3942298 0.052164197 0.3506233 -0.39267987
0002e0 af de 56 3e 3b ba 08 3e a3 4f 4e 3e 95 1b 19 3e
       0.20983385 0.13352291 0.20147566 0.14951928
0002f0 31 98 29 3e 86 b3 bf be fd 42 91 be 59 74 88 3d
       0.16561963 -0.37441653 -0.2837142 0.066628166
000300 0e 4d 8d 3e dd 20 e1 3d fa 27 70 be cf d7 33 be
       0.2759785 0.10992596 -0.2345275 -0.17562793
000310 36 26 e1 3d 46 5d 86 3d 4c 9b 7c 3e 79 93 12 3f
       0.10993616 0.06560759 0.24668616 0.57256275
000320 96 f4 9c be ef 13 a6 3d 77 59 01 be ad 27 21 be
       -0.30655354 0.08109271 -0.12631784 -0.15737791
000330 82 db 3d 3e 71 5f 2b 3f a0 d1 ab 3d 7c 03 bf 3e
       0.18540767 0.6694251 0.08389592 0.37307346
000340 46 95 64 be 3c f7 d1 3d ea 3c 8f bd 8b 4d a8 3e
       -0.22322568 0.10252234 -0.0699404 0.3287166
000350 50 96 61 3e c4 7d 23 be 6f 27 26 be 5c 5e 8f bc
       0.22029996 -0.15965945 -0.1622598 -0.017501049
000360 69 3c 7c 3e 57 b4 28 3e ce f8 50 bc ee 7c 8b 3e
       0.2463242 0.16475044 -0.012754632 0.2724375
000370 4b 8a 36 be 10 93 a2 bd 0c 5b aa 3e 9e 55 51 bb
       -0.17826192 -0.07938206 0.33272588 -0.00319419
000380 82 30 0b 3e ef 07 06 3e 6c 75 06 3f 16 38 7a 3e
       0.13592723 0.13088964 0.5252292 0.24435458
000390 4b c8 2c 3e 23 5f 3c 3e 47 c5 d0 bd 00 f4 b7 3e
       0.1687328 0.18395667 -0.10193878 0.35928345
0003a0 d7 bb 86 bd e9 52 91 3e bf 95 6c bd 0e 4a 3b 3e
       -0.06578796 0.28383568 -0.057759997 0.18289968
0003b0 7a 3c 7d 3e 7e dd e1 3d a7 52 05 be 53 37 a3 3e
       0.24730101 0.110285744 -0.1301981 0.31878147
0003c0 92 d1 94 bd d7 97 74 3e 54 5b 8a 3e bb e8 02 be
       -0.07266535 0.23886047 0.27022803 -0.12784092
0003d0 88 73 25 3f 38 f7 92 be 3d 5e c4 bc a8 ea cb bd
       0.6462941 -0.28704238 -0.023970718 -0.099568665
0003e0 fe 1b f8 bd fd 85 b3 be e1 9e 30 3e 6c 60 83 3e
       -0.12114714 -0.35063162 0.17248107 0.25659502
0003f0 a3 dc 67 3e 70 c3 1c 3f 28 98 77 bd ae c9 1f be
       0.2264276 0.61235714 -0.060447842 -0.15604278

critic.2.bias f4 [256]
000000 58 4c 80 3e 9b 50 c4 3c 2e c0 45 3e c8 5b 0f 3e
       0.25058246 0.023964217 0.19311592 0.13999856
000010 e2 c4 1a bd da 8e 4e 3e c5 7a 85 bc 8c 73 8f bc
       -0.03778542 0.20171681 -0.016293893 -0.017511152
000020 e7 4d 93 3e bc 22 92 3e 71 a5 44 3e 4b a7 18 3d
       0.28770372 0.28542125 0.19203736 0.037268918
000030 e7 4b 40 3e f9 20 5e 3e e3 fa 23 3e 84 e7 cd 3b
       0.18778954 0.21692266 0.16013674 0.0062837023
000040 4f 81 72 3e e0 84 80 3e f6 0a 8c 3e 9b 6d fa 39
       0.2368214 0.25101376 0.27352113 0.00047765378
000050 34 52 ed 3d dc 25 99 3c b1 b7 e0 3d f4 e3 8b 3e
       0.115879446 0.01869481 0.10972536 0.27322352
000060 5c 34 1f bd 62 09 36 3d 69 2f 4f 3e 39 20 29 3e
       -0.038868293 0.044442542 0.2023293 0.16516198
000070 89 85 c9 bc 8d 1f fe 3c a1 13 7c 3e dc af 95 3e
       -0.024599807 0.031020904 0.24616863 0.29235733
000080 54 f7 94 3e 7a e8 1f 3e 48 7e 39 3d 81 c9 70 3e
       0.29094946 0.15616027 0.045286447 0.23514368
000090 9b 87 56 3e 70 56 24 bd aa 10 5a 3e fa 8c 32 3e
       0.20950167 -0.040121496 0.2129542 0.17436591
0000a0 05 9a 90 3e 2d dc 7f 3e 7d 00 6e 3e c7 8c 92 3e
       0.28242508 0.24986334 0.23242374 0.2862303
0000b0 47 ef c1 bc 81 1e 22 bc 53 04 7f bd 0c 81 5b 3e
       -0.023673667 -0.009894968 -0.062259983 0.21435946
0000c0 de 98 67 3e 55 82 71 3e 26 52 1d 3d 75 c8 b9 3c
       0.22616908 0.23584874 0.03840842 0.022678593
0000d0 68 17 7b 3e a2 9b b5 3c 17 48 ed 3c 41 0f 55 3e
       0.24520648 0.022168938 0.02896504 0.208066
0000e0 17 1e 6b 3e 00 d2 6e 3e 9f 91 a3 3c ce f0 21 3e
       0.22960697 0.23322296 0.019966898 0.15814516
0000f0 f7 e2 30 3e 3c d3 46 3e e5 a9 88 3e b2 c5 17 3e
       0.1727408 0.19416517 0.2669212 0.14821509
000100 5e e3 2e 3e 7e 17 86 3e 5e 03 b3 3e 96 fb 4c bd
       0.17078921 0.26189798 0.34963506 -0.05004462
000110 08 1f 10 3d bb 11 8d 3e 76 33 14 3d cd 53 84 3e
       0.035185844 0.2755259 0.03618189 0.25845185
000120 de 39 74 3e 19 42 37 3e b9 77 30 bd 59 97 99 3e
       0.238502 0.17896308 -0.043082926 0.29998282
000130 10 24 52 3e b3 61 1e 3e 53 55 51 3e c9 8b 9d 3e
       0.20521569 0.15466957 0.20442705 0.3077071
000140 75 68 bc 3d 61 15 f8 3c 7c b8 1a 3d cf 78 82 3e
       0.09199611 0.030283632 0.037773594 0.25482795
000150 a6 b2 41 3e 25 2f 6b 3e 55 e6 2a 3e c0 bf 73 3e
       0.18915805 0.22967203 0.16689427 0.23803616
000160 60 38 6b 3e 88 1e 93 3e a8 0d c6 3d 83 43 76 3e
       0.22970724 0.2873423 0.096705735 0.24049191
000170 56 a3 25 bd fb e0 50 3e 82 c4 61 3e ee 9c 87 3e
       -0.040438972 0.20398323 0.22047618 0.26486915
000180 75 b7 5b bd 31 36 18 bd 9e f7 67 bc 38 6c 29 bd
       -0.053641755 -0.037161056 -0.014158158 -0.04136297
000190 17 63 37 3e b1 31 54 bd 7b 9b 51 bc de 08 0e bd
       0.17908894 -0.051805202 -0.012793417 -0.034676425
0001a0 b1 ef 07 3e ae 8c fe 3c f0 d8 80 3c cf 6a 87 bc
       0.13275029 0.03107294 0.015728444 -0.016530422
0001b0 cf 81 44 3e 7d ff 44 3e d4 c6 23 3e da 34 99 bc
       0.19190143 0.19238086 0.15993816 -0.01870196
0001c0 ff 23 58 3e 9d 03 51 bd 97 a7 2e 3e ee b0 96 3e
       0.21107481 -0.051028837 0.17056118 0.29431862
0001d0 a9 06 82 bd d1 3f 8c 3e 40 df 64 3e 2c 3a 9f 3c
       -0.063489266 0.27392438 0.22350788 0.019436918
0001e0 c3 54 14 3e 67 86 6a 3e 44 14 89 3e b2 ca 4e 3e
       0.14485459 0.22902833 0.26773274 0.2019451
0001f0 da a5 40 3e b9 62 8a 3e 46 f0 3e 3e 69 9b 6f 3e
       0.18813267 0.27028444 0.18646345 0.23399128
000200 68 87 35 3e e4 9d 38 3e a2 dd 85 3e 8e 18 a2 3b
       0.17727435 0.1802898 0.26145655 0.004946775
000210 9c 53 40 3e f1 b1 2e 3e 0d bc 27 3e 81 07 41 bc
       0.18781894 0.17060067 0.1638033 -0.011781574
000220 d9 a2 02 3d 88 22 a3 bc d8 e1 37 3e e5 fb 13 3e
       0.031893585 -0.019913927 0.17957246 0.14451559
000230 28 4d 89 bc 5c 05 b5 bc 59 08 00 3e 72 c8 97 bd
       -0.016760424 -0.022097282 0.12503184 -0.07411279
000240 18 46 a2 bd 1a 0f 2e 3e 11 ea 87 3e 2c 79 8b bd
       -0.079235256 0.16997948 0.26545766 -0.06810221
000250 52 d3 6f bd d4 63 24 3e 89 3d 5a 3c e3 87 9c 3c
       -0.05855114 0.16053706 0.013320335 0.019107765
000260 2e c9 83 3e 88 58 0d bd 35 ec 43 bd 44 b1 2b 3e
       0.25739425 -0.034508258 -0.047832686 0.1676684
000270 24 ef 86 3e 62 b2 53 3e 20 8d c4 3b 42 7b 78 3e
       0.26354325 0.20673516 0.0059982687 0.24265769
000280 d8 2b 39 3e be bb 74 3e 80 de 68 3e 67 9d 39 3e
       0.18083131 0.23899743 0.22741127 0.1812645
000290 85 8e 19 3e a8 52 06 bd 84 66 50 3d 25 3d 83 bd
       0.14995773 -0.03279367 0.050879017 -0.06408147
0002a0 00 12 64 3e 3f 6e b0 3d 79 a7 7e 3e d2 81 6e 3d
       0.22272491 0.08614778 0.24868573 0.058229275
0002b0 06 03 78 bd 2c f7 08 3e 66 b8 7d 3d 67 98 e8 bc
       -0.06054976 0.13375539 0.061943434 -0.028392984
0002c0 3a ae 6b 3e 94 59 d3 bc 7f 21 1d 3e fc cb 80 3e
       0.23015681 -0.02579955 0.15344809 0.25155628
0002d0 b0 37 d8 3c 90 1e 9a 3c bb 48 44 3e c9 af 08 3d
       0.026393741 0.018813401 0.1916837 0.033370767
0002e0 bd 84 c0 bc f3 d7 55 3e 27 4e 8c 3e 6c 3b 84 bd
       -0.023500795 0.2088316 0.27403376 -0.06456646
0002f0 6b bb 1c bd b5 93 00 bd e5 b4 30 3e 18 f7 74 3c
       -0.038264673 -0.031390864 0.17256506 0.01495149
000300 a7 27 49 3e 1e 85 6e 3e eb f8 27 3e a8 60 11 bd
       0.19644032 0.23292968 0.16403548 -0.03549257
000310 65 b1 52 3d 77 9b 88 bd a8 b3 32 3a 76 ae 91 bb
       0.051438708 -0.066702776 0.0006816932 -0.004445846
000320 92 9b 3c 3c 08 46 30 3e 18 20 8f 3e e8 70 6f bb
       0.0115117 0.17214215 0.27954173 -0.0036535803
000330 90 d8 87 3e 00 90 0c 3d bb 0b d1 3d 5e 85 56 bd
       0.26532412 0.034317017 0.102073155 -0.052373283
000340 c5 b3 4f 3e 8b 06 81 3e 80 6d 59 3e cf 51 5f 3e
       0.2028342 0.25200304 0.21233177 0.21808551
000350 bb 5b 37 3e d1 05 44 3d e0 b5 4e bd 5d 7e 8a 3e
       0.17906086 0.04785711 -0.05046642 0.27049533
000360 f7 e7 70 3e b7 f9 3f bb a1 53 8d ba a0 2d 6b 3e
       0.23525988 -0.0029293129 -0.001078237 0.22966623
000370 7d 09 51 3c c5 ef 96 b8 09 e9 f2 bb 51 33 3f 3e
       0.01275861 -7.197218e-05 -0.007413034 0.1867192
000380 76 29 24 3e 1c 15 1f 3d 37 9f 9f 3e 02 e5 82 3c
       0.16031441 0.03883849 0.3117616 0.01597834
000390 e7 6b 2f bd 7e 77 b3 3d 76 e7 0d bd 24 fc 78 bd
       -0.042827513 0.08763026 -0.034644566 -0.060787335
0003a0 c4 6a 2d 3e 3c cc 82 bc 94 d1 86 3e 3f c0 53 3e
       0.16935259 -0.015966527 0.2633177 0.20678805
0003b0 22 c6 09 3e 82 34 62 bd fd 7d 1f 3e fe bd 47 3d
       0.13454488 -0.055225857 0.15575404 0.048765175
0003c0 e0 10 53 3d 08 2c 81 3e 80 b7 3c 3a 69 51 69 3c
       0.051529765 0.25228906 0.00071989745 0.014240601
0003d0 fd 7c 73 3e 75 07 f7 bc 83 43 81 bd 22 aa 0d 3e
       0.23778148 -0.030154923 -0.06311705 0.13834432
0003e0 13 8e 19 3c 5c f2 f9 bc bc bf 88 3e b6 98 11 3d
       0.009372252 -0.030511074 0.26708782 0.035546027
0003f0 47 69 95 bd d5 1a 51 3e b5 6e 54 3e 48 10 50 3e
       -0.07295471 0.20420392 0.20745356 0.20318711

critic.4.weight f4 [1, 256]
000000 16 8a 4e be e1 f9 39 3b 61 38 43 be cb 7f 5d be
       -0.20169863 0.00283777 -0.19064476 -0.2163078
000010 ea 82 43 3d 2a 21 98 be fe 81 51 3d 80 d7 a3 3a
       0.04773227 -0.29712802 0.05114936 0.0012500137
000020 ee d9 32 be 76 a9 87 3e 9f 01 9b be a2 c9 ed 3c
       -0.17465946 0.26496476 -0.30274674 0.02902681
000030 09 84 6d be 3d f3 17 bf cf 35 71 be 4d 46 66 3d
       -0.23194899 -0.5935553 -0.23555683 0.056219388
000040 54 c5 4d be e1 96 34 be 08 f8 3f be a5 d2 61 3d
       -0.20094806 -0.1763568 -0.1874696 0.055132527
000050 5c 05 6d be 90 67 f8 3c ba 86 88 be a1 d1 46 be
       -0.23146576 0.03032282 -0.26665288 -0.19415905
000060 68 30 bf 3c 88 ac 3a 3d 1c 17 35 be 88 b3 53 be
       0.023338512 0.045574695 -0.17684597 -0.20673954
000070 4f 2e d4 3b ab ac dd bb 0a 5e 40 be 4f c9 22 be
       0.006475247 -0.0067649684 -0.18785873 -0.15897106
000080 bf 60 31 be 9f 07 ac be 86 b6 65 bd c1 29 85 3e
       -0.17322062 -0.33599564 -0.05608227 0.26008418
000090 a5 80 2a be aa 9d 27 3d 18 13 65 be de b2 24 be
       -0.16650636 0.040921845 -0.22370565 -0.16083857
0000a0 65 98 33 be 10 3a 3f be d3 5e 3e be aa 0f 2e be
       -0.17538603 -0.18674493 -0.1859086 -0.16998163
0000b0 ae b7 ee 3c 9a 9c 86 3b 42 74 29 3b 59 94 43 be
       0.02914032 0.004108024 0.0025856649 -0.19099559
0000c0 1c d5 48 be c0 79 49 be d8 5e 0a 3d 92 f4 e3 3c
       -0.19612545 -0.1967535 0.033781856 0.027826581
0000d0 b1 bd 4a be 91 42 fa bb c4 60 ff 3c ff f8 47 be
       -0.19798924 -0.00763733 0.031174071 -0.19528578
0000e0 c9 dd 40 be 8b 2f 5d be 5b 03 c3 3c b3 96 4d be
       -0.18834604 -0.21600167 0.023805311 -0.20077018
0000f0 a3 c2 4a be 48 24 96 be f0 20 20 be 53 88 4d be
       -0.1980081 -0.29324555 -0.15637565 -0.20071535
000100 32 34 43 be 87 b8 30 be 8a 78 75 3e 4f 29 ae bb
       -0.1906288 -0.17257892 0.23971763 -0.005314983
000110 bd 20 0c 3b 46 64 46 be 4f 29 29 3d 32 48 3f be
       0.0021381818 -0.19374189 0.04129916 -0.18679884
000120 46 b4 51 be e0 19 37 3e 4d 75 a9 3c fe 78 67 be
       -0.20478925 0.17880964 0.020685816 -0.22604749
000130 9e 8f 4e be 01 d3 53 be d2 04 30 be 4c f9 e1 3e
       -0.20171973 -0.2068596 -0.17189339 0.4413551
000140 1e 62 6a be a2 1b 7c 3c 8e 8b 24 3d f6 b5 79 3e
       -0.22888991 0.015387448 0.040172152 0.24385819
000150 46 db 3b be b9 a2 47 be ff 19 3d be a5 8b 56 be
       -0.18345365 -0.19495668 -0.18466948 -0.20951708
000160 a4 ff 2c be 76 42 36 be 26 52 44 3e 2a 63 49 be
       -0.16894394 -0.1779879 0.19171962 -0.19666734
000170 e8 95 e4 3c 3d 88 94 be cd b8 5d be 21 45 54 be
       0.027903512 -0.29010192 -0.21652527 -0.20729496
000180 03 f5 9e 3c 43 e7 f3 3b 8e bc 7f 3c 78 6b ad 3c
       0.01940394 0.00744334 0.01560892 0.02116941
000190 f9 d1 38 be 21 40 0b 3d 7a 8b fb 3c 7e 75 46 3c
       -0.18048848 0.033996705 0.030706156 0.012112973
0001a0 93 b3 4e be 03 20 4a 3c 40 77 2c 3d 0c 33 a1 3d
       -0.2018569 0.012336734 0.042105913 0.078710645
0001b0 da 9d 25 be 5a 7c 44 be 15 08 48 be dc a1 f2 3c
       -0.16173497 -0.19188061 -0.19534333 0.029618196
0001c0 4f 93 4c be 48 55 51 3d b2 56 5b be 63 d3 3e be
       -0.19978069 0.05110672 -0.2141979 -0.18635325
0001d0 79 9d 99 bc 25 d0 3b be fc 8c 4f be 40 f0 60 bc
       -0.018751847 -0.1834112 -0.20268625 -0.013729155
0001e0 e6 e2 60 be d9 b9 51 be a8 aa 2c be 59 5d 3d be
       -0.21961555 -0.20481052 -0.16861975 -0.1849264
0001f0 b4 d8 47 3e 0c e0 4c be b1 33 35 be df 0c 46 be
       0.1951626 -0.20007342 -0.176955 -0.19340847
000200 a6 c5 66 be 7a 0b 4c be 6e 1b 4e be 25 78 d1 3b
       -0.22536334 -0.19926253 -0.20127651 0.006392496
000210 4d 97 60 be e7 dc 36 be 96 cd 5a be 2e 1a a8 3c
       -0.21932717 -0.17857705 -0.21367487 0.020520296
000220 87 2a 84 3c f2 9a c0 3a 06 9e 24 be 4d 09 5f be
       0.01613356 0.0014694615 -0.16075906 -0.21780892
000230 2c 7b f2 3c a1 ee 25 3c 1b 4c 97 be 7e a7 7e 3c
       0.029599749 0.010127694 -0.2955025 0.015542863
000240 47 38 b1 3c 50 ec 36 be 75 00 38 be df 43 1e ba
       0.02163328 -0.17863584 -0.17968924 -0.0006037335
000250 6c ca a2 3c 17 60 4c be 59 f0 a5 3d 55 6a 30 3d
       0.019871913 -0.1995853 0.08102483 0.043070156
000260 6d 43 96 3e c4 f7 29 3d 54 0c 36 3d 46 8a 9b be
       0.29348317 0.041496053 0.04444535 -0.30378932
000270 22 da eb 3e 98 37 5d be e0 0d 8f 3b cb a7 39 be
       0.4606486 -0.21603239 0.0043656677 -0.18130414
000280 cd 06 34 be 8d 4b 57 be e8 f9 67 be 12 15 91 be
       -0.1758072 -0.21024914 -0.22653925 -0.28336388
000290 13 f8 4f be 49 d8 16 bd 12 af ae 3c 40 fc 24 39
       -0.20309477 -0.03682736 0.021323714 0.00015734229
0002a0 f8 92 3a be a4 07 7b be 92 6a 46 be a1 a9 bc 3c
       -0.18220127 -0.24514633 -0.19376591 0.023030104
0002b0 86 a6 13 3c 9d de 4e be 87 89 28 3e f9 33 29 3d
       0.00901187 -0.20202108 0.16458713 0.04130933
0002c0 ed bd 4b be 98 5b 5c bc 19 48 5a be 00 b6 79 3e
       -0.1989667 -0.013449572 -0.21316566 0.24385834
0002d0 58 32 03 3c 68 38 10 3c d2 67 41 be e0 36 21 3b
       0.008007608 0.008802511 -0.1888726 0.0024599358
0002e0 33 61 f4 3c 97 df 44 be a4 18 40 be ca 2f 68 3d
       0.029831504 -0.19225918 -0.187594 0.0566862
0002f0 c6 68 cf 3c 79 b3 9e 3c 2f 36 6b be fe 7d 67 3c
       0.025318515 0.019372689 -0.22969888 0.01412916
000300 d1 d5 4f be d0 ac 58 be 7e c8 55 be 7c eb ac 3a
       -0.20296408 -0.21159673 -0.20877263 0.0013192738
000310 f6 56 d5 3c 55 48 69 3c 23 e3 85 3c 39 68 94 3c
       0.026042443 0.014238437 0.016343659 0.018116103
000320 22 88 9d 3c 04 d4 28 be 08 27 2f be 2b df 64 3d
       0.019229952 -0.16487128 -0.17104733 0.055876892
000330 07 aa ec 3e ab 2a 60 3d 07 37 80 be f0 ca 0e bc
       0.4622347 0.05472819 -0.25041983 -0.008715376
000340 50 44 59 be 4b 2c 53 be 53 20 5e be 15 7e 92 be
       -0.21217465 -0.20622365 -0.21692018 -0.28611818
000350 e6 e0 54 be 47 e4 03 3c 99 d7 5c 3d d5 ea 37 be
       -0.20788917 0.008050031 0.053916547 -0.17960675
000360 64 93 3a be 51 78 f1 3c fa cb b9 3c b4 0b 53 be
       -0.18220288 0.029476317 0.022680271 -0.20609933
000370 ad 9e 24 3c 69 7a a1 3c 3d 9d 8d 3c 3c 78 37 be
       0.010047597 0.01971169 0.017286891 -0.1791696
000380 1c 57 54 be 82 48 a0 3c 20 12 65 3f 3a 6b f4 3c
       -0.20736355 0.019565824 0.8948078 0.029836286
000390 a2 f0 62 3d dd 65 65 be a8 0d 52 bd 30 05 69 3c
       0.055405267 -0.22402139 -0.051282555 0.014222428
0003a0 eb 62 52 be 24 c7 a1 3c c0 34 58 be 65 87 37 be
       -0.20545547 0.019748278 -0.21113873 -0.17922743
0003b0 5e e0 c8 3e ab e3 1e 3d 77 7c 4e be ce 3b e4 bb
       0.3923368 0.03879134 -0.20164667 -0.006965137
0003c0 65 4d 28 3d 82 31 57 be 98 2c 7a bc 61 a5 c7 3c
       0.041089434 -0.2101498 -0.015269421 0.024370851
0003d0 e4 0a 42 be 68 92 b6 3a 5b 5a 24 3b b7 03 9e be
       -0.18949467 0.001392913 0.002507827 -0.3086221
0003e0 d6 e4 ed 3c 40 67 4a bb 55 e1 34 be b4 16 d9 3b
       0.029039782 -0.0030884296 -0.17664082 0.006625021
0003f0 93 ee 8e 3b af eb 42 be 19 ce 6a be d0 ba 62 3e
       0.0043619364 -0.19035219 -0.22930183 0.22141576
