youtube-ppo/tmp/ppo/critic2-dt.pth (torch, 271014 bytes, 5 tensors)

critic.0.weight f4 [256, 3]
0.7401011 0.7759595 0.30399606 -0.65562487 -0.8565454 -0.24326952 -0.553544 -0.37726134
-0.17393054 -0.68723506 -0.8212862 -0.24897991 -0.46971187 -0.082118124 0.5343184 -0.62554914
0.34927797 0.17493318 0.4208908 -0.29077962 0.07855208 0.094418876 -0.46125847 0.16953309
0.69139105 -0.18488419 0.17072432 -0.05935034 -0.17236438 -0.09149782 0.4474549 -0.6102103
-0.008670144 0.6938366 0.7964597 0.292356 0.4898424 -1.0829221 -0.08611826 0.438543
0.7148553 0.12762962 -0.7358176 0.3644715 -0.020314632 0.08683603 -0.26377386 0.0025339355
0.961038 -0.4801936 -0.3645191 -0.02518236 -0.3427274 0.15432999 0.35992998 -0.41504294
-0.015181085 -0.5951644 0.75759226 0.12549622 -0.63463753 -0.68229717 -0.22659503 0.29663864
0.060410254 0.310508 -0.53332657 0.5362428 -0.64757955 -0.7452014 -1.0828424 -0.3430106
-0.4948149 -0.86596835 -0.19927546 -0.5711237 0.30935666 -0.13104324 -0.7222621 -0.8463595
-0.29336923 -0.89061683 -0.8301809 -0.32156307 -0.6417805 -1.1173793 -0.27606165 -0.6283397
-0.5996171 -0.21367261 0.70030874 1.0614398 0.24647987 -0.5682963 -0.7925976 -0.21077718
0.56677836 -0.020523252 -0.46541163 0.49913722 -0.6877831 -0.07539615 0.10812879 0.015807072
-0.5250149 0.048866086 -0.20537326 0.17973526 0.8236515 0.7672261 0.04358541 0.35285935
0.2556335 -0.4491036 0.6572283 0.21603757 0.5096932 -0.3083447 -0.8708642 -0.10389434
-0.35403565 -0.815602 0.045779195 0.06098664 -0.7281487 -0.45353866 0.15693769 -0.6523839
-0.28858748 0.7218665 0.5553281 0.25342944 -0.31717762 0.7903554 -0.0037320273 1.1558849
-0.1786663 0.5682299 -0.35939178 -0.054919068 0.09629499 -0.63509905 -0.012333963 0.22742014
0.85734415 -0.25217077 0.24716528 0.30457887 0.04702814 -0.62583065 0.51959085 -0.11057573
-0.020874785 -0.13367476 0.234097 -0.58424926 1.0940143 0.4149914 0.05075984 0.8155019
0.6140797 0.33862746 -0.011627298 -0.08687548 0.17779477 -0.5594521 -0.35263288 0.09471318
-0.1196777 -0.6360223 0.20073818 -0.38246724 -0.08829991 0.41263294 0.14609957 0.3456546
-0.04273327 0.49319217 -0.8586404 -0.14901748 -0.46789208 0.5411171 0.09692737 -0.77913266
0.655924 -0.6473792 0.74966145 -0.23530456 0.0634569 0.7341574 -0.24059863 -0.0037747729
-0.14029337 -0.29615837 0.11709016 0.37286347 -0.3865748 -0.06607 -0.5215498 -0.27862754
0.2591663 0.029937783 0.19727492 -0.108402796 -0.59115285 0.5511408 0.13583815 0.5015252
-0.6153757 -0.18540812 -0.40807992 0.8425754 0.17517841 0.78051585 -0.19544677 0.36458573
-0.06221092 -0.25145033 -0.5833407 0.99358803 -0.09391337 0.42465517 1.0449791 0.44035184
-0.6705901 -0.22277397 -0.059703805 0.09452766 -0.4740893 -0.37018922 0.22359124 -0.8104826
-0.30093712 0.3200798 0.18020466 0.56933844 -0.56637096 -0.64309335 0.36652267 0.1863499
0.9316425 0.12862942 0.04220019 -0.022801476 0.09302458 0.15045218 -0.28776857 -0.914242
-0.30019698 0.6395821 0.8548452 0.23749289 -0.32523093 0.617268 -0.760571 0.021607023
00000000: 4477 3d3f 48a5 463f 5fa5 9b3e 08d7 27bf
00000010: 8f46 5bbf a51b 79be 0fb5 0dbf 6628 c1be
00000020: d91a 32be a3ee 2fbf d03f 52bf 97f4 7ebe
00000030: 137e f0be 8c2d a8bd 17c9 083f fd23 20bf
00000040: 90d4 b23e af21 333e 007f d73e 11e1 94be
00000050: eadf a03d af5e c13d 122a ecbe 159a 2d3e
00000060: 01ff 303f 4852 3dbe 5bd2 2e3e 5819 73bd
00000070: 4a80 30be 3663 bbbd cf18 e53e be36 1cbf
00000080: 380d 0ebc 479f 313f c8e4 4b3f b0af 953e
00000090: a0cc fa3e 319d 8abf c55e b0bd b588 e03e
000000a0: c200 373f 57b1 023e 8b5e 3cbf 029c ba3e
000000b0: df6a a6bc 17d7 b13d 5e0d 87be 6210 263b
000000c0: 9606 763f efdb f5be 3fa2 babe 3d4b cebc
000000d0: f779 afbe ae08 1e3e be48 b83e 8280 d4be
000000e0: 16ba 78bc b25c 18bf 91f1 413f 1582 003e
000000f0: 9b77 22bf 07ab 2ebf 8708 68be 05e1 973e
00000100: be70 773d e8fa 9e3e 1788 08bf 3547 093f
00000110: c6c7 25bf 85c5 3ebf 949a 8abf 169f afbe
00000120: 6158 fdbe 1ab0 5dbf de0e 4cbe 2a35 12bf
00000130: ff63 9e3e 3330 06be 2be6 38bf 04ab 58bf
00000140: 7e34 96be 77ff 63bf bc86 54bf eaa3 a4be
00000150: ba4b 24bf 4906 8fbf f457 8dbe dfda 20bf
00000160: 8280 19bf fecc 5abe 6f47 333f 42dd 873f
00000170: 3865 7c3e de7b 11bf ade7 4abf f9d5 57be
00000180: 6318 113f 6120 a8bc 6f4a eebe ea8e ff3e
00000190: 8e12 30bf 4c69 9abd a172 dd3d d57d 813c
000001a0: 6067 06bf ce27 483d 5e4d 52be 850c 383e
000001b0: d3da 523f ee68 443f 9d86 323d fba9 b43e
000001c0: 65e2 823e e8f0 e5be 1d40 283f f438 5d3e
000001d0: 417b 023f 5bdf 9dbe f5f0 5ebf 8ec6 d4bd
000001e0: 2944 b5be 4bcb 50bf f782 3b3d 21cd 793d
000001f0: f467 3abf 3836 e8be 46b4 203e a202 27bf
00000200: bdc1 93be 3ecc 383f fb29 0e3f 81c1 813e
00000210: 1b65 a2be bb54 4a3f 0795 74bb 09f4 933f
00000220: 4cf4 36be 8477 113f 3302 b8be d1f2 60bd
00000230: 4f36 c53d da95 22bf 6414 4abc d3e0 683e
00000240: e87a 5b3f 871c 81be e518 7d3e c3f1 9b3e
00000250: 94a0 403d 7036 20bf e803 053f 8775 e2bd
00000260: 9901 abbc 09e2 08be 20b7 6f3e 5c91 15bf
00000270: a908 8c3f c179 d43e 8de9 4f3d bcc4 503f
00000280: 5434 1d3f 9460 ad3e 6c80 3ebc c6eb b1bd
00000290: d50f 363e 4138 0fbf 4c8c b4be fcf8 c13d
000002a0: 9519 f5bd 5cd2 22bf 4f8e 4d3e bfd2 c3be
000002b0: 95d6 b4bd a044 d33e 209b 153e a4f9 b03e
000002c0: 1509 2fbd af83 fc3e dbcf 5bbf 0a98 18be
000002d0: 8d8f efbe a686 0a3f db81 c63d 3d75 47bf
000002e0: a3ea 273f a5ba 25bf d0e9 3f3f aef3 70be
000002f0: b1f5 813d bdf1 3b3f 7d5f 76be 2e62 77bb
00000300: 11a9 0fbe 12a2 97be f7cc ef3d f6e7 be3e
00000310: 22ed c5be b54f 87bd 4a84 05bf 45a8 8ebe
00000320: 72b1 843e 1540 f53c 7002 4a3e 4902 debd
00000330: cb55 17bf 9017 0d3f 2819 0b3e f563 003f
00000340: 4389 1dbf a0db 3dbe daef d0be 05b3 573f
00000350: f861 333e e3cf 473f 3323 48be fbaa ba3e
00000360: e1d0 7ebd 19be 80be d155 15bf c95b 7e3f
00000370: a755 c0bd 676c d93e e0c1 853f cc75 e13e
00000380: cbab 2bbf dc1e 64be fa8b 74bd b897 c13d
00000390: d5bb f2be 7189 bdbe 1af5 643e ca7b 4fbf
000003a0: 6e14 9abe 80e1 a33e 9287 383e 2ac0 113f
000003b0: b0fd 10bf c4a1 24bf dca8 bb3e 82d2 3e3e
000003c0: 1f80 6e3f 6eb7 033e 1bda 2c3d 29ca babc
000003d0: ac83 be3d 2310 1a3e 6756 93be c40b 6abf
000003e0: 6bb3 99be a7bb 233f 23d7 5a3f 5631 733e
000003f0: ab84 a6be 4705 1e3f c8b4 42bf 3601 b13c

critic.0.bias f4 [256]
0.1836564 0.60411644 0.5475731 0.63780755 -0.2891154 0.5324139 0.6203237 0.92263347
0.10388141 0.79862255 -0.37853655 0.22438827 0.25377652 -0.39751253 0.1251409 0.78132594
0.47353017 0.9018591 0.6453646 0.46797842 0.6040843 0.53645045 -0.2946739 0.8792046
0.43893272 0.93267363 0.79255235 0.8937478 0.5899885 0.5992602 -0.67374766 0.52194846
0.875189 -0.48337123 -0.84602064 1.0901423 -0.08037472 1.0591456 -0.076158054 0.26309836
0.24702464 -0.55610406 0.70229673 0.15164383 0.36004093 -0.37088 0.38433105 0.6599451
0.09754235 -0.27140826 0.9639796 -0.63049906 -0.14965668 0.022454374 1.0037278 0.57562304
0.80236787 -0.5052013 0.864725 0.3574836 0.3756329 0.41645375 -0.3373099 -0.07663211
0.6028321 -0.38170087 0.9031769 0.79514396 0.48095834 0.23681934 0.26184168 -0.49706247
-0.3874458 0.17445014 -0.10599571 0.5119994 0.9746786 0.989035 -0.44021288 0.54361415
-0.36294627 0.8866775 -0.24573411 -0.70103794 -0.35530165 -0.60036635 0.6054244 1.0140297
0.70093066 0.975482 0.4981721 0.6159151 -0.32927147 0.52788347 0.9225696 1.0068275
0.46231928 0.3835898 -0.17387572 -0.19992982 0.9217046 0.80167264 0.15976077 -0.61404127
0.97190785 -0.530951 0.9841655 0.5539448 0.993502 -0.47688782 -0.2691121 0.64997745
-0.41855454 -0.60654795 0.7207255 -0.13574691 0.49166203 0.8747937 -0.5399369 0.5580415
0.304875 0.43455353 -0.5914113 -0.50238574 -0.41769773 0.26331386 0.33915877 0.18691432
0.3199782 0.62200165 0.7894925 -0.27990204 0.7560922 -0.3866831 1.0692588 0.52744234
1.0232077 0.8609943 -0.352073 0.3919424 0.50714606 -0.2743609 0.39891702 0.51776236
0.007853599 0.39729676 0.7786486 0.81345236 0.9710314 0.9060648 0.62182933 0.2224767
-0.07744173 0.5166248 -0.19181502 0.4321415 -0.5358083 -0.13097057 -0.13176782 -0.33164698
0.7738903 0.11715818 1.0301248 0.9035592 0.053365655 -0.51182973 -0.45326617 0.81588644
0.9377985 0.96277267 1.1184579 0.6072491 0.851718 -0.13168089 0.85366815 0.8135079
0.3478326 0.9903609 0.93257695 -0.1201859 0.7516749 -0.36508197 0.7901085 0.38427478
-0.10349874 0.79199433 -0.017842926 0.66311395 -0.65572923 0.8818306 0.110154286 0.661782
1.0876176 0.16206184 0.4068494 0.36974785 0.8593778 -0.37814185 0.9588332 -0.23365371
0.96007204 0.22787154 -0.13722883 0.0038461569 0.7957558 0.36151385 0.5448289 -0.052900657
-0.37826315 0.23695068 0.69745815 0.9103918 0.22405483 -0.32113305 0.90743905 0.75460404
0.67309946 0.5003423 0.9867998 -0.402219 0.9560645 0.452022 0.96773636 0.9078052
-0.41401896 0.8878471 0.6353168 0.51462495 0.5193381 -0.4888306 -0.53140837 -0.42376435
-0.47571313 -0.37732568 1.0680166 0.14940125 -0.7369047 -0.21374263 1.0092101 -0.33320037
-0.8182111 0.73760706 0.75128824 -0.59440887 -0.53155655 0.424994 0.3204112 0.5729809
-0.11023117 -0.6527163 0.4776506 0.8022485 0.5793552 -0.34491295 0.6687692 -0.5417711
00000000: 6c10 3c3e 60a7 1a3f c02d 0c3f 5b47 233f
00000010: ef06 94be 474c 083f 89cd 1e3f b531 6c3f
00000020: c7bf d43d 8772 4c3f 8bcf c1be 0ac6 653e
00000030: ffee 813e c386 cbbe f024 003e fa04 483f
00000040: 8c72 f23e 3de0 663f 9d36 253f de9a ef3e
00000050: 45a5 1a3f d154 093f 7fdf 96be 8d13 613f
00000060: cabb e03e b3c3 6e3f b6e4 4a3f a8cc 643f
00000070: 7d09 173f 1e69 193f ba7a 2cbf 6a9e 053f
00000080: 630c 603f 6f7c f7be cf94 58bf c889 8b3f
00000090: 809b a4bd 1592 873f c1f8 9bbd d4b4 863e
000000a0: 07f4 7c3e d65c 0ebf b8c9 333f 8548 1b3e
000000b0: 4957 b83e fce3 bdbe 0ac7 c43e 29f2 283f
000000c0: 49c4 c73d 06f6 8abe 5ec7 763f 6368 21bf
000000d0: 9a3f 19be 3cf2 b73c 277a 803f 085c 133f
000000e0: fb67 4d3f df54 01bf 9e5e 5d3f 1708 b73e
000000f0: f552 c03e 6d39 d53e e2b3 acbe 4cf1 9cbd
00000100: 3453 1a3f 4c6e c3be 9a36 673f 8e8e 4b3f
00000110: 2c40 f63e c580 723e 1d10 863e f97e febe
00000120: 4c5f c6be 0fa3 323e 4714 d9bd 6512 033f
00000130: 8984 793f 6631 7d3f 9563 e1be 4c2a 0b3f
00000140: 18d4 b9be 4cfd 623f b9a1 7bbe 3977 33bf
00000150: 19ea b5be 9cb1 19bf 18fd 1a3f bacb 813f
00000160: 3170 333f 30b9 793f 6a10 ff3e 9dac 1d3f
00000170: 4596 a8be 5f23 073f 852d 6c3f b9df 803f
00000180: 1db5 ec3e e265 c43e 7a0c 32be 67ba 4cbe
00000190: d5f4 6b3f 6b3a 4d3f 5498 233e cf31 1dbf
000001a0: f4ce 783f 68ec 07bf 45f2 7b3f 54cf 0d3f
000001b0: 2656 7e3f a42a f4be 10c9 89be ec64 263f
000001c0: c84c d6be ba46 1bbf 7781 383f 3d01 0bbe
000001d0: 20bb fb3e 7bf2 5f3f 4e39 0abf cfdb 0e3f
000001e0: 9318 9c3e cd7d de3e bb66 17bf 5a9c 00bf
000001f0: 7adc d5be 13d1 863e 38a6 ad3e 7866 3f3e
00000200: 2fd4 a33e 803b 1f3f 2e1c 4a3f 524f 8fbe
00000210: 428f 413f 54fb c5be 79dd 883f 7606 073f
00000220: 78f8 823f 1f6a 5c3f ea42 b4be adac c83e
00000230: 53d4 013f 0879 8cbe da3e cc3e 138c 043f
00000240: 62ac 003c 7b6a cb3e 8455 473f 6a3e 503f
00000250: 8495 783f ddf3 673f 3530 1f3f efd0 633e
00000260: c599 9ebd 8641 043f 286b 44be a741 dd3e
00000270: bc2a 09bf 261d 06be 25ee 06be a2cd a9be
00000280: ad1d 463f a1f0 ef3d 21db 833f a84f 673f
00000290: f295 5a3d 4607 03bf 8112 e8be efdd 503f
000002a0: 9013 703f 4578 763f a129 8f3f ad74 1b3f
000002b0: 310a 5a3f 5bd7 06be ff89 5a3f 0e42 503f
000002c0: 1d17 b23e 4b88 7d3f 5dbd 6e3f 0624 f6bd
000002d0: c46d 403f 06ec babe 8d44 4a3f aabf c43e
000002e0: 26f7 d3bd 24c0 4a3f 542b 92bc d6c1 293f
000002f0: dfdd 27bf a6bf 613f 9298 e13d 8c6a 293f
00000300: 0e37 8b3f 8af3 253e 914e d03e 974f bd3e
00000310: 2f00 5c3f cf9b c1be 1876 753f eb42 6fbe
00000320: 48c7 753f 2857 693e b785 0cbe ce0f 7c3b
00000330: a7b6 4b3f 5818 b93e e879 0b3f 5cae 58bd
00000340: b5ab c1be 33a3 723e 9e8c 323f 700f 693f
00000350: a16e 653e 8d6b a4be ed4d 683f bb2d 413f
00000360: 3f50 2c3f 6f16 003f e99e 7c3f a6ef cdbe
00000370: a5c0 743f 6d6f e73e 92bd 773f ec65 683f
00000380: 4bfa d3be f349 633f 1fa4 223f 76be 033f
00000390: 57f3 043f 0148 fabe 610a 08bf a4f7 d8be
000003a0: ac90 f3be d530 c1be c5b4 883f a4fc 183e
000003b0: c9a5 3cbf 59df 5abe cc2d 813f 3d99 aabe
000003c0: 4876 51bf d1d3 3c3f 6d54 403f 2e2b 18bf
000003d0: 1714 08bf d098 d93e f00c a43e e0ae 123f
000003e0: e1c0 e1bd 6a18 27bf 9f8e f43e 2860 4d3f
000003f0: 9f50 143f 6e98 b0be 7534 2b3f 83b1 0abf

critic.2.weight f4 [256, 256]
-0.17715153 0.21984132 0.21500805 0.39940348 -0.19296424 0.118249506 0.21722074 0.10012148
-0.08649243 0.16767702 0.25390768 -0.22200793 -0.33887804 0.35001191 0.2424697 0.33042148
-0.14530937 0.22495037 0.2286467 0.13560118 0.3125511 -0.04352371 -0.40246195 0.22455956
0.14814189 0.15994108 0.23185319 0.23275144 0.23721847 0.30100307 0.34799463 0.2296137
-0.21334215 0.2462838 -0.49369964 0.05759432 -0.021051178 -0.18208267 -0.12909754 0.066117465
0.17880851 -0.23704232 -0.076865315 -0.20822145 0.12475001 -0.24662639 0.14312291 0.15458475
-0.13963051 -0.21264586 0.22153564 -0.38009405 -0.13013527 -0.18247743 0.10368201 0.24735583
0.32216355 -0.29282704 0.24777023 -0.11177511 0.24958926 -0.2729133 0.02332096 0.038560174
0.24515955 0.3610082 0.024530279 0.13018185 0.1420423 -0.19846776 0.073746495 -0.23741049
-0.26837468 -0.10478051 -0.30283856 0.06246995 0.17234628 0.15873712 -0.3195626 0.25517693
-0.33306557 0.05053695 -0.2019048 0.36143824 -0.26061285 -0.13051708 0.2169064 0.07783935
0.20638509 0.11932866 0.33005646 0.089964874 -0.022091853 0.06921719 0.11689713 0.10628491
0.101306856 0.17318328 -0.2763266 -0.2575326 0.08507509 -0.037191015 -0.22204374 -0.09876913
0.24105841 0.19403817 0.2762982 0.3077933 0.09473509 0.4582132 -0.3966095 0.32192954
-0.009598201 0.4688276 0.32556129 -0.23290063 -0.16419591 0.0813441 -0.17930667 0.2828588
-0.14336132 0.25825393 0.07321819 0.2204492 -0.19671874 -0.13589418 0.09752716 0.3230963
0.36099276 0.0847834 0.4619891 -0.21266581 0.30281088 -0.15071684 -0.06098277 0.14948533
0.19106783 0.27440354 0.109969035 0.13551725 0.17595689 0.30941358 -0.115168765 0.33517036
-0.29323295 -0.21317515 -0.20122004 0.11914032 0.23271312 0.11341973 0.014589368 0.1503006
-0.2116338 0.20089787 -0.3757724 0.36196816 -0.11060293 -0.061957717 -0.2258428 -0.32622743
-0.07876311 -0.27411723 0.29374006 0.40664557 0.014014247 0.2175623 0.37932912 0.3001534
0.31474295 -0.021282302 0.10241213 0.11757526 0.16403031 -0.018679734 0.21594535 0.27501434
0.1809139 0.21202402 0.10738058 -0.24416481 0.08882587 -0.19887187 0.31393132 -0.17422973
-0.2860292 -0.15900943 -0.047243133 0.016031453 -0.16845118 0.19890957 0.0991243 0.03943938
0.22982699 -0.27958596 -0.22723182 -0.18165807 -0.029997462 -0.22700697 0.15021451 0.2493651
0.19835943 0.0445235 -0.295099 0.014046827 0.30937567 -0.2797483 0.22804208 -0.044887025
-0.22775064 0.20727453 0.25067568 0.20075038 -0.3144821 0.09996118 0.1513606 0.33476457
0.03169633 0.29465967 -0.09763862 -0.23710854 0.028600518 -0.20518732 0.29126474 0.29454967
-0.05824078 0.15851773 0.22836368 0.27858427 0.23086971 -0.028455354 0.5634028 0.460748
0.24646676 -0.20657669 0.085616775 0.28780246 -0.2797473 0.21013343 0.13276912 -0.26367435
-0.37972 0.1176766 0.019764211 0.3087641 -0.23630011 0.26149333 -0.26524854 0.3586342
-0.25471574 -0.20017076 0.09665703 0.22016151 0.23934175 0.30070204 0.25500113 0.45655423
00000000: 3667 35be 151e 613e 122b 5c3e 9d7e cc3e
00000010: 6b98 45be cc2c f23d 1d6f 5e3e 7e0c cd3d
00000020: f122 b1bd 86b3 2b3e 3000 823e 0c56 63be
00000030: 6c81 adbe c334 b33e fa49 783e 012d a93e
00000040: fbcb 14be 6459 663e 5c22 6a3e 09db 0a3e
00000050: b306 a03e eb45 32bd 7e0f cebe f1f2 653e
00000060: 82b2 173e 98c7 233e ec6a 6d3e 6556 6e3e
00000070: 66e9 723e 131d 9a3e 5a2c b23e db1f 6b3e
00000080: 5d76 5abe d231 7c3e 33c6 fcbe 06e8 6b3d
00000090: 8573 acbc e173 3abe 2532 04be 9868 873d
000000a0: 9419 373e 39bb 72be 906b 9dbd 0138 55be
000000b0: ef7c ff3d a18b 7cbe d08e 123e 774b 1e3e
000000c0: 4dfb 0ebe d6bf 59be 3dda 623e b09b c2be
000000d0: 2e42 05be 5ddb 3abe 3c57 d43d d94a 7d3e
000000e0: 9ff2 a43e 6ded 95be 7bb7 7d3e 59ea e4bd
000000f0: 5494 7f3e 4bbb 8bbe 990b bf3c 46f1 1d3d
00000100: 1b0b 7b3e 11d6 b83e b9f3 c83c 644e 053e
00000110: 8973 113e 223b 4bbe 6708 973d bc1b 73be
00000120: 6868 89be 2a97 d6bd a80d 9bbe 7ee0 7f3d
00000130: 8b7b 303e fc8b 223e b69d a3be 8da6 823e
00000140: 9287 aabe d5ff 4e3d 22c0 4ebe 6f0e b93e
00000150: 0c6f 85be 45a6 05be b61c 5e3e 3d6a 9f3d
00000160: 9d56 533e 9662 f43d 29fd a83e 813f b83d
00000170: f9f9 b4bc bec1 8d3d c367 ef3d e7ab d93d
00000180: f879 cf3d f556 313e ae7a 8dbe 50db 83be
00000190: d93b ae3d 9b55 18bd 6f5f 63be 7847 cabd
000001a0: 04d8 763e f1b1 463e f576 8d3e 1597 9d3e
000001b0: 7904 c23d ec9a ea3e 6610 cbbe f3d3 a43e
000001c0: c641 1dbc 2c0a f03e f8af a63e 817d 6ebe
000001d0: f922 28be bc97 a63d 2b9c 37be ded2 903e
000001e0: 4fcd 12be dc39 843e 6bf3 953d 6fbd 613e
000001f0: a370 49be d827 0bbe 52bc c73d e16c a53e
00000200: 0bd4 b83e eba2 ad3d d689 ec3e 11c5 59be
00000210: 070a 9b3e 8455 1abe 12c9 79bd af12 193e
00000220: 49a7 433e 9f7e 8c3e 7237 e13d 09c5 0a3e
00000230: 0b2e 343e 756b 9e3e 9add ebbd 739b ab3e
00000240: a122 96be 964a 5abe a00c 4ebe d7ff f33d
00000250: 594c 6e3e 9a48 e83d 3f08 6f3c 67e8 193e
00000260: 88b6 58be 2cb8 4d3e 3d65 c0be e453 b93e
00000270: ca83 e2bd 60c7 7dbd 5643 67be 4807 a7be
00000280: 8e4e a1bd 1859 8cbe 1965 963e d933 d03e
00000290: 039c 653c a7c8 5e3e 6d37 c23e b5ad 993e
000002a0: fd25 a13e 3958 aebc 73bd d13d 4ccb f03d
000002b0: 90f7 273e 3e06 99bc c720 5d3e aece 8c3e
000002c0: 7e41 393e d31c 593e 59ea db3d 5706 7abe
000002d0: 56ea b53d 11a5 4bbe 9bbb a03e 4769 32be
000002e0: 6b72 92be 5ed3 22be 0482 41bd 6554 833c
000002f0: 777e 2cbe f3ae 4b3e ae01 cb3d 308b 213d
00000300: c457 6b3e e425 8fbe 75af 68be 9304 3abe
00000310: 3dbd f5bc 8474 68be d5d1 193e 9159 7f3e
00000320: bc1e 4b3e 465e 363d 3717 97be aa24 663c
00000330: 7d66 9e3e 2b3b 8fbe dd83 693e 75db 37bd
00000340: 7737 69be c63f 543e 9058 803e 8291 4d3e
00000350: cc03 a1be 72b8 cc3d 46fe 1a3e 4366 ab3e
00000360: 03d4 013d a2dd 963e c2f6 c7bd 95cc 72be
00000370: a24b ea3c a01c 52be a720 953e 37cf 963e
00000380: e28d 6ebd 7952 223e 2bd8 693e 99a2 8e3e
00000390: 1c69 6c3e 341b e9bc 2a3b 103f 29e7 eb3e
000003a0: c861 7c3e d788 53be d957 af3d d85a 933e
000003b0: 0a3b 8fbe 382d 573e a1f4 073e 5300 87be
000003c0: a96a c2be 6e00 f13d 8ee8 a13c 5416 9e3e
000003d0: a8f8 71be 74e2 853e a8ce 87be e79e b73e
000003e0: 1a6a 82be 90f9 4cbe 1ff4 c53d 0572 613e
000003f0: 0116 753e 9ef5 993e 828f 823e 7ac1 e93e

critic.2.bias f4 [256]
0.3851295 0.32234094 0.022092529 0.3711756 -0.013799991 -0.027841918 0.34169325 0.4144022
0.3124741 0.018731002 -0.04868407 0.32938716 0.34170553 -0.021815084 0.3512838 0.3412928
-0.05894387 0.2862728 0.039447073 0.37680614 0.112042636 -0.03805271 -0.04164124 -0.06864677
0.014369368 -0.0418933 0.32870066 0.39241204 -0.028185662 0.3479746 -0.010253423 0.4172218
-0.007191193 0.3805425 0.41611627 0.049289875 0.01112574 -0.06402742 -0.0175778 0.3652516
-0.014366855 0.35777 0.0010651876 -0.063495286 0.36189798 0.39500165 -0.0002121984 -0.023223724
0.38894194 0.30056617 0.4264457 -0.007069462 0.32109115 0.020539371 -0.06913399 0.3641951
0.32845408 -0.0178777 -0.04845721 0.33774748 0.34949696 0.023200372 -0.041796446 0.3469495
0.3286147 0.045412257 -0.0030894326 0.37745783 0.39978474 0.380582 0.046628904 -0.006973946
0.37293264 0.401627 0.35249996 0.38556617 0.046685755 0.2773252 0.29926032 -0.0011000609
-0.028579911 -0.00017405466 0.32555124 0.34083554 0.30435905 0.01696544 0.026925085 -0.05456485
0.02518316 -0.01595633 0.4258433 0.38369787 0.37390286 0.3642503 -0.06380138 0.036995154
-0.018520921 0.32286745 0.3494938 0.40656087 0.048526026 -0.0018554194 0.36678076 -0.022594083
0.3661202 -0.05445526 0.3039049 0.04915823 0.3477889 0.02363627 0.34088868 0.39187095
-0.016317707 0.04575214 0.37663803 -0.049752813 0.35062063 0.40581098 0.38296407 0.29559854
0.004671521 0.3819431 -0.033396497 -0.050675914 0.3525747 0.33304712 0.348214 0.30532062
-0.0395472 -0.007920787 0.3078239 -0.033941492 0.021084005 0.32464775 0.40312865 0.28590754
0.023793476 0.28640956 -0.018918846 0.37193966 0.27861777 0.033940792 -0.015767565 0.34235677
0.060451403 -0.03780263 -0.013037126 0.3972609 0.008657915 0.055834576 0.0118909255 -0.027121603
0.2864098 0.34788638 0.30899408 0.37124535 -0.05118292 0.3331524 0.012754329 0.337077
0.03483013 0.39861053 0.06190241 0.35453314 0.27983123 0.27479386 0.35098368 0.4126273
-0.0030244666 0.30086735 0.40086788 -0.0041369726 0.33391082 0.3044336 -0.04293841 -0.008999355
0.27378008 0.043820485 0.3150749 0.32248235 0.02238064 0.29769966 0.31884688 0.036515605
0.310507 0.31176928 0.035695136 0.36726695 0.3672864 0.33418992 0.36537224 0.40447465
0.022104813 0.17749551 -0.052111454 0.3651587 -0.036942165 -0.04244791 0.29753196 -0.052717656
0.37978256 0.051979497 0.3581961 -0.04914022 -0.023059955 -0.02666595 -0.017388362 0.3896474
-0.064694345 0.043890484 0.017533723 0.30740646 0.023607928 -0.049838442 0.3344009 0.41147313
0.35363457 -0.06346728 0.3480571 0.35267007 0.029302334 0.057813026 0.28409675 -0.040678784
-0.054872017 -0.018468123 0.03216471 0.3863767 -0.027695157 -0.03918409 0.038612917 -0.03962194
0.038183015 0.024016418 0.34113687 0.35181522 -7.9818106e-05 0.04833985 -0.0247576 0.31239137
0.3289487 0.029493954 0.1684736 -0.029564535 -0.039200313 0.30802047 0.3042607 0.2984503
0.12875888 0.29167804 0.30104536 -0.05531689 -0.040579606 -0.00017985138 0.014124304 0.02818693
00000000: b22f c53e df09 a53e 64fb b43c ba0a be3e
00000010: 5c19 62bc bc14 e4bc 6bf2 ae3e 862c d43e
00000020: 9bfc 9f3e c271 993c f368 47bd 6fa5 a83e
00000030: 07f4 ae3e 8cb5 b2bc 78db b33e eebd ae3e
00000040: 216f 71bd 5992 923e 4193 213d bcec c03e
00000050: 9c76 e53d 29dd 1bbd 0190 2abd ae96 8cbd
00000060: 7f6d 6b3c 4f98 2bbd 744b a83e 3bea c83e
00000070: 9ee5 e6bc ba29 b23e f9fd 27bc 199e d53e
00000080: 19a4 ebbb 77d6 c23e 310d d53e 2ee4 493d
00000090: bc48 363c cf20 83bd 52ff 8fbc 4202 bb3e
000000a0: f562 6bbc a12d b73e c49d 8b3a d109 82bd
000000b0: b14a b93e a83d ca3e 9381 5eb9 ae3f bebc
000000c0: 6623 c73e cfe3 993e 1757 da3e f2a6 e7bb
000000d0: 0f66 a43e 2f42 a83c 1f96 8dbd c877 ba3e
000000e0: 222b a83e 4174 92bc 117b 46bd 3ded ac3e
000000f0: 44f1 b23e b50e be3c c032 2bbd 5da3 b13e
00000100: 3040 a83e 3402 3a3d 1478 4abb 2742 c13e
00000110: 96b0 cc3e a5db c23e f3fd 3e3d b385 e4bb
00000120: 07f1 be3e 0ea2 cd3e e07a b43e ee68 c53e
00000130: 9039 3f3d 92fd 8d3e a638 993e eb2f 90ba
00000140: 6b20 eabc 7182 36b9 a7ae a63e ff81 ae3e
00000150: f3d4 9b3e 1bfb 8a3c ff91 dc3c 647f 5fbd
00000160: ea4c ce3c d9b6 82bc 2208 da3e 0c74 c43e
00000170: 3270 bf3e 047f ba3e 4caa 82bd 3b88 173d
00000180: 30b9 97bc e24e a53e daf0 b23e bf28 d03e
00000190: 3ac3 463d 8b31 f3ba b0ca bb3e 3a17 b9bc
000001a0: 1b74 bb3e 7b0c 5fbd 6c99 9b3e 245a 493d
000001b0: 6311 b23e daa0 c13c f688 ae3e 4fa3 c83e
000001c0: b6ac 85bc 9966 3b3d b3d6 c03e 9bc9 4bbd
000001d0: 8c84 b33e 75c6 cf3e de13 c43e b158 973e
000001e0: 8f13 993b 0c8e c33e c4ca 08bd 8c91 4fbd
000001f0: ac84 b43e 2785 aa3e 1b49 b23e fc52 9c3e
00000200: 3ffc 21bd 30c6 01bc 189b 9d3e 3c06 0bbd
00000210: 5db8 ac3c 3b38 a63e e166 ce3e 7962 923e
00000220: 89ea c23c 46a4 923e b2fb 9abc e06e be3e
00000230: fda6 8e3e 8005 0b3d fb2a 81bc 6349 af3e
00000240: e49b 773d eed6 1abd ab99 55bc c865 cb3e
00000250: edd9 0d3c ccb2 643d 28d2 423c 202e debc
00000260: 4ea4 923e 2a1e b23e 7934 9e3e df13 be3e
00000270: 2ea5 51bd f492 aa3e 88f7 503c 5b95 ac3e
00000280: 0aaa 0e3d ae16 cc3e 628d 7d3d 5e85 b53e
00000290: 0a46 8f3e c8b1 8c3e 22b4 b33e e343 d33e
000002a0: 2136 46bb 490b 9a3e 8e3e cd3e 718f 87bb
000002b0: 5cf6 aa3e b9de 9b3e 30e0 2fbd 0872 13bc
000002c0: e72c 8c3e 1c7d 333d 7f51 a13e 681c a53e
000002d0: 9b57 b73c 176c 983e e63f a33e 6391 153d
000002e0: c6fa 9e3e 39a0 9f3e 1035 123d 6a0a bc3e
000002f0: f70c bc3e f11a ab3e 1212 bb3e 4d17 cf3e
00000300: 2715 b53c 62c1 353e d272 55bd 15f6 ba3e
00000310: ab50 17bd dcdd 2dbd 1c56 983e 78ee 57bd
00000320: dc72 c23e 74e8 543d 7b65 b73e 4147 49bd
00000330: 3be8 bcbc 8d72 dabc 0a72 8ebc dd7f c73e
00000340: 787e 84bd 82c6 333d e2a2 8f3c 6164 9d3e
00000350: 6a65 c13c 6523 4cbd 9836 ab3e 9bac d23e
00000360: 970f b53e 22fb 81bd 8a34 b23e 2c91 b43e
00000370: 730b f03c 5acd 6c3d 2175 913e cc9e 26bd
00000380: 7bc1 60bd 764a 97bc 25bf 033d 2bd3 c53e
00000390: f4e0 e2bc 7f7f 20bd 9428 1e3d 9e4a 22bd
000003a0: cb65 1c3d 14be c43c 7ea9 ae3e 2021 b43e
000003b0: 0564 a7b8 0200 463d 73d0 cabc c3f1 9f3e
000003c0: f76b a83e 4e9d f13c 5884 2c3e 5331 f2bc
000003d0: 8290 20bd dcb4 9d3e 0fc8 9b3e 7ace 983e
000003e0: 5ed9 033e d356 953e 9e22 9a3e f793 62bd
000003f0: cd36 26bd 7d96 3cb9 a069 673c 47e8 e63c

critic.4.weight f4 [1, 256]
-0.24745728 -0.26378652 -0.05401557 -0.22015925 0.0343845 -0.034027122 -0.26675388 -0.20488639
-0.21952324 0.3510611 0.00038009358 -0.28113973 -0.25837982 -0.0428458 -0.24301417 -0.2411104
0.00721586 -0.26011115 0.037743762 -0.27178752 0.17012347 0.03127999 0.007198884 0.017187849
0.005061772 0.012900006 -0.1983754 -0.23127878 0.020349449 -0.24179035 0.050322328 -0.21587145
0.34166715 -0.22078384 -0.21716614 0.032549113 0.025676666 0.054237444 0.051415585 -0.22689699
0.018549114 -0.25646773 0.045544673 0.041450594 -0.25141928 -0.23406678 0.01254471 0.03401591
-0.2036609 -0.21809092 -0.21605904 0.052036647 -0.20032847 0.030671822 0.036541767 -0.21996625
-0.25397837 0.038497064 0.05264525 -0.2534117 -0.22180833 0.006907443 0.040030163 -0.24718438
-0.2245235 0.026684811 0.05632947 -0.26136073 -0.25424203 -0.23374592 0.05199601 0.015353323
-0.2521011 -0.22122093 -0.27029523 -0.2717229 0.020297447 -0.27023607 -0.24658935 0.012830116
0.033467367 0.046279714 -0.2746316 -0.27561522 -0.22873233 0.043899562 0.05176681 0.030206976
0.0153600825 0.02380279 -0.20169875 -0.25452504 -0.27544576 -0.23084809 0.04126949 0.04868245
-0.02751834 -0.28750026 -0.21491694 -0.2521944 0.034193482 0.040795125 -0.20430152 0.018575104
-0.22617862 0.045442495 -0.22306809 0.02171583 -0.26987967 0.027071655 -0.26429945 -0.22821407
0.018431507 0.03707105 -0.23669198 0.022104355 -0.26321837 -0.22802348 -0.204228 -0.29223302
0.037703462 -0.22667184 0.0037143314 0.0003282143 -0.21759355 -0.24772213 -0.20209093 -0.2608438
0.05445976 0.032758795 -0.24685903 0.052783206 -0.008112049 -0.25053942 -0.25585592 -0.26779607
0.012622192 -0.26161686 -0.015517398 -0.23400377 -0.25517756 0.04661835 0.017434528 -0.23962663
0.6711314 -0.036438204 0.050635647 -0.21187168 0.027033018 0.016583193 0.03042243 0.019517738
-0.27589855 -0.23547953 -0.20130536 -0.2769791 -0.050628733 -0.21667357 0.014642969 -0.2276631
0.04431915 -0.26582637 -0.039381623 -0.25114155 -0.26726004 -0.25808784 -0.21195303 -0.20977296
0.041951105 -0.21177614 -0.24196275 0.012831977 -0.25579107 -0.24623072 0.03456518 0.020856766
-0.26734442 -0.00050061184 -0.21370089 -0.22763622 0.0404858 -0.2417277 -0.26500478 0.043970022
-0.24931258 -0.25503963 0.0051902924 -0.24006844 -0.25071093 -0.26908424 -0.26974013 -0.22500649
0.008509122 0.34740752 0.051811535 -0.24999042 0.033920825 -0.0016126145 -0.24485566 -0.55068976
-0.2518617 0.0053978222 -0.24650928 0.047295928 0.051935785 0.01621489 -0.001869784 -0.20270412
0.041252077 0.027227832 -0.021133812 -0.21634491 0.0045345407 0.025387343 -0.25972578 -0.23416431
-0.2405959 0.026467131 -0.22495447 -0.2551181 0.029849118 0.0052725663 -0.23152082 0.024397612
0.04378274 -0.0055862563 0.038083024 -0.22563475 0.012944853 -0.0049402257 0.032947265 -0.023442931
0.58920634 0.0101005705 -0.27168936 -0.2332973 0.01801842 0.02278091 0.03538431 -0.27844724
-0.26081818 0.01496886 0.539358 0.007087404 0.024196353 -0.19520494 -0.26280493 -0.21136105
0.3457511 -0.24933761 -0.23138572 0.015838714 0.0537737 0.024807496 0.016050935 0.030271173
00000000: 7165 7dbe 070f 87be 6e3f 5dbd 6d71 61be
00000010: c3d6 0c3d 0660 0bbd f793 88be bdcd 51be
00000020: b3ca 60be 48be b33e 4c47 c739 8cf1 8fbe
00000030: 5c4a 84be 147f 2fbd b5d8 78be a5e5 76be
00000040: 0573 ec3b 4a2d 85be 3499 1a3d bc27 8bbe
00000050: d934 2e3e 721f 003d 9ee4 eb3b 88cd 8c3c
00000060: 39dd a53b 8c5a 533c ec22 4bbe 58d4 6cbe
00000070: e3b3 a63c e497 77be c91e 4e3d 680d 5dbe
00000080: ffee ae3e 2915 62be cd60 5ebe 3852 053d
00000090: df57 d23c 1528 5e3d 2699 523d af57 68be
000000a0: 50f4 973c bd4f 83be 0d8d 3a3d 19c8 293d
000000b0: 07ba 80be 34af 6fbe 5488 4d3c 4454 0b3d
000000c0: 7c8c 50be 3a53 5fbe 953e 5dbe 6124 553d
000000d0: e822 4dbe 7943 fb3c d2ac 153d d53e 61be
000000e0: 7409 82be 19af 1d3d 8ca2 573d 2ebf 81be
000000f0: b921 63be d557 e23b abf6 233d e71d 7dbe
00000100: 7de9 65be 1b9a da3c bbb9 663d 13d1 85be
00000110: 032c 82be 175b 6fbe c5f9 543d 818c 7b3c
00000120: 6513 81be bd87 62be 2364 8abe 441f 8bbe
00000130: d546 a63c 625c 8abe eb81 7cbe 6835 523c
00000140: 1415 093d cc8f 3d3d 839c 8cbe 701d 8dbe
00000150: cf38 6abe 07d0 333d 6f09 543d 9f74 f73c
00000160: dba8 7b3c 12fe c23c 1e8a 4ebe 1b51 82be
00000170: 3a07 8dbe 7163 6cbe 320a 293d 4067 473d
00000180: 246e e1bc 3c33 93be 3013 5cbe a01f 81be
00000190: 770e 0c3d ca18 273d 6b34 51be d12a 983c
000001a0: 5e9b 67be e921 3a3d f66b 64be 65e5 b13c
000001b0: ab2d 8abe 60c5 dd3c 4252 87be f3b0 69be
000001c0: acfd 963c d0d7 173d 625f 72be 3114 b53c
000001d0: 8fc4 86be fd7e 69be 2521 51be 919f 95be
000001e0: f26e 1a3d aa1c 68be 246c 733b 2d14 ac39
000001f0: d8d0 5ebe dfaa 7dbe edf0 4ebe 528d 85be
00000200: 3311 5f3d 162e 063d 9dc8 7cbe 3433 583d
00000210: 66e8 04bc b446 80be 8cff 82be 911c 89be
00000220: 4fcd 4e3c a5f2 85be af3c 7ebc af9e 6fbe
00000230: a2a6 82be e2f2 3e3d dbd2 8e3c af60 75be
00000240: 44cf 2b3f 3a40 15bd 5367 4f3d e4f4 58be
00000250: 5974 dd3c 7ad9 873c 7638 f93c aae3 9f3c
00000260: 9342 8dbe 8c21 71be fe22 4ebe 34d0 8dbe
00000270: 1360 4fbd addf 5dbe 10e9 6f3c 8420 69be
00000280: ff87 353d 651a 88be a04e 21bd a095 80be
00000290: 4fd6 88be 1724 84be 370a 59be b9ce 56be
000002a0: ecd4 2b3d d8db 58be 15c5 77be 363d 523c
000002b0: 0cf7 82be e823 7cbe 3894 0d3d cfdb aa3c
000002c0: 5ee1 88be 7e3b 03ba 68d4 5abe 7819 69be
000002d0: 70d4 253d 7787 77be b5ae 87be e919 343d
000002e0: cc4b 7fbe 8e94 82be 5413 aa3b 80d4 75be
000002f0: 2f5d 80be 69c5 89be 611b 8abe 1a68 66be
00000300: d869 0b3c 66df b13e 5538 543d 7dfd 7fbe
00000310: 90f0 0a3d 5d5e d3ba 71bb 7abe 01fa 0cbf
00000320: 04f4 80be 37e0 b03b ee6c 7cbe 60b9 413d
00000330: 9eba 543d 17d5 843c 8a13 f5ba ab91 4fbe
00000340: f0f7 283d e70c df3c d120 adbc 8589 5dbe
00000350: 7c96 943b 1ef9 cf3c c7fa 84be c5c8 6fbe
00000360: c65e 76be 99d1 d83c 775a 66be d79e 82be
00000370: 2386 f43c 7ec5 ac3b cb13 6dbe 80dd c73c
00000380: 8855 333d ea0c b7bb f2fc 1b3d cc0c 67be
00000390: a616 543c 9ee1 a1bb b6f3 063d 640b c0bc
000003a0: 3ad6 163f dd7c 253c de1a 8bbe 7de5 6ebe
000003b0: 5e9b 933c 089f ba3c 23ef 103d a390 8ebe
000003c0: f689 85be f33f 753c 5e13 0a3f 743d e83b
000003d0: 6e37 c63c cee3 47be 5e8e 86be 086f 58be
000003e0: 4a06 b13e 5c52 7fbe 61f0 6cbe 31c0 813c
000003f0: d041 5c3d 1739 cb3c 407d 833c 40fb f73c
