youtube-ppo/tmp/ppo/critic2-batch.pth (torch, 271044 bytes, 5 tensors)

critic.0.weight f4 [256, 3]
000000 a5 1e 50 3f 42 2c 80 bd db 33 8c 3c a6 45 37 be
       0.8129676 -0.062584415 0.01711457 -0.17897663
000010 33 ae 51 3e f8 7f 25 3f 1c 13 4d be ff da 0a 3d
       0.20476608 0.6464839 -0.20026821 0.033900257
000020 72 90 c5 be af bf 38 bd 58 94 89 3f 6e 75 9c 3e
       -0.38586766 -0.04510468 1.0748396 0.30558342
000030 dc 11 d6 be de fb 84 bf 84 ab 80 be 47 1c a3 bc
       -0.418105 -1.0389364 -0.25130856 -0.019910945
000040 14 d7 0d 3f ba 81 70 bd a3 f9 c1 3d d1 f7 1d bf
       0.5540631 -0.058717467 0.094714426 -0.6170626
000050 8f 77 90 bd 90 09 0c be bc 52 93 3f 32 3c 8e 3e
       -0.07054054 -0.13675523 1.1509624 0.277803
000060 44 78 02 be 80 39 8a bc 13 4b dc 3d 1d 93 81 be
       -0.1274119 -0.016873121 0.10756507 -0.2530755
000070 62 71 2a 3f de 6f 66 3e 3a f3 e2 3e 63 1d 1f 3f
       0.6657926 0.22503611 0.44326192 0.62154216
000080 c3 18 d8 3e 98 15 25 3f 1e 71 af 3e c2 e9 a8 bd
       0.42206392 0.64486074 0.3426599 -0.08247711
000090 fb 09 09 3d e7 2b fd be 31 af df 3e 55 78 9e 3e
       0.033456784 -0.49447557 0.43688348 0.3095118
0000a0 12 d7 45 3e 44 ea 91 3e 0f 97 15 3e 9e 4a b9 3e
       0.19320324 0.28499043 0.14608406 0.3618974
0000b0 7e c6 42 bb 75 e5 ee 3e 8f 1c 2c 3f 0e 20 36 3e
       -0.0029720361 0.46659437 0.67231077 0.17785665
0000c0 6e fc 03 bf 49 65 16 bf 9f 4b 75 3d 3b 58 33 bd
       -0.5155705 -0.587483 0.05988657 -0.043785315
0000d0 50 19 ba 3d 31 7a c8 be ad 1e a4 bd 82 e5 07 3e
       0.09086859 -0.39155725 -0.080136634 0.13271144
0000e0 49 81 70 be ec 5f 55 3f cc 33 a5 be f4 19 96 3d
       -0.23486818 0.8334949 -0.3226608 0.07329169
0000f0 e4 48 05 bf f3 e1 e9 be ec e2 ef bd f5 a8 58 3d
       -0.5206435 -0.45680198 -0.11713204 0.052895505
000100 3f 79 b3 bc 5a e6 1f bd 88 11 cb be ac 42 56 3f
       -0.0219084 -0.03903804 -0.39661813 0.83695483
000110 ac 9a f8 3e 25 9c 62 3e 4b 4b 1a bf 72 b6 73 bd
       0.48555505 0.22129877 -0.6027114 -0.059500165
000120 93 f8 93 be f3 02 55 bf df 96 39 3e 2a 40 1b bf
       -0.28900585 -0.83207625 0.18123959 -0.6064478
000130 1d d4 fd 3e af 47 04 be 7e 5b 56 bf 87 e7 70 3f
       0.49575892 -0.1291797 -0.83733356 0.9410328
000140 0c 89 84 3e 3c 20 63 be ed 69 a9 3e 86 86 fe be
       0.25885808 -0.22180265 0.33088627 -0.49712008
000150 1a 30 0b bf 00 0d 12 3f f5 92 3c 3d 1f b2 15 bf
       -0.5437027 0.57051086 0.046038587 -0.58474916
000160 b3 44 32 be b0 b8 dc bd 4f 2b 3a 3e 0d 26 4b 3e
       -0.17409019 -0.10777414 0.18180583 0.19838734
000170 b8 d9 96 3e 98 c4 b4 3e b5 56 10 3f 23 5d 69 bd
       0.2946298 0.3530624 0.56382304 -0.056973588
000180 18 61 81 be 54 7e 8a 3c e2 29 09 3f 93 77 0d bf
       -0.2526939 0.016905941 0.53579533 -0.5526058
000190 8a 28 27 bd 22 0e f0 3e 86 a3 12 bf 48 e7 0b bf
       -0.040810145 0.46885782 -0.57280767 -0.5464978
0001a0 4c d2 b1 3e d8 86 b3 be ce f5 28 3f 1f b8 20 3f
       0.34730756 -0.35063815 0.6600007 0.62780946
0001b0 25 cc 57 bf 75 bc 99 3e a6 fa c3 bb 3c ab 3a bf
       -0.84295875 0.30026594 -0.0059808074 -0.7291753
0001c0 3a c8 47 3f 4e 3f dc 3e 33 63 28 3f ad 40 84 bf
       0.78039896 0.43017048 0.65776366 -1.0332237
0001d0 bf f8 8e be 08 70 35 3f f1 7c 8c 3f fe d9 7d 3e
       -0.27924153 0.7087407 1.0975629 0.24790189
0001e0 ca 4d 30 be 1b 7e d8 bd 1f e2 70 be d0 ee 00 bf
       -0.17217174 -0.10570928 -0.23523758 -0.503644
0001f0 c9 24 ab 3d 8d 83 a4 be ab 97 75 3e 09 e7 b4 3e
       0.083566256 -0.32131615 0.23983638 0.35332516
000200 54 be b2 3b 5d 77 87 be 76 4c 93 3d 5e 06 8c 3e
       0.005454818 -0.26458254 0.07192318 0.27348608
000210 90 00 6a be 1a d9 22 3f 5b bc 2d 3e 7d bf 16 bf
       -0.22851777 0.6361252 0.16966383 -0.5888594
000220 5f 30 59 bc ad f9 a5 bd 65 40 a4 3d 8d ef 26 3f
       -0.0132561615 -0.081042625 0.08020095 0.65209275
000230 2f 70 c9 3e bb 4d da bc 86 62 88 3e d9 b8 e4 bc
       0.39343402 -0.026648393 0.26637667 -0.027920173
000240 b3 dc c3 be 65 e4 fe 3e c2 cc cc 3e f6 87 32 bf
       -0.38254318 0.49783626 0.39999968 -0.6973871
000250 b2 8f 9a 3f 4f fb 80 3e 9f 3a 5c 3e b1 44 50 3e
       1.2075102 0.25191733 0.21506737 0.20338704
000260 43 3f 83 be fd 10 06 bf b5 fe 83 3e b7 a6 e1 3d
       -0.25634202 -0.5236967 0.25780264 0.110181265
000270 3a 14 5f 3c 9c 79 12 bf cd e6 18 bf 7f cb 4f be
       0.013615662 -0.5721681 -0.59727174 -0.20292471
000280 31 f1 bd 3d 8b fe 23 bf dd a6 f5 be fa 63 59 3f
       0.09274519 -0.64060277 -0.4797887 0.8491818
000290 ce d6 c3 3e 6b 67 04 3f 66 49 f0 3d 1a f7 e3 be
       0.3824982 0.51720303 0.1173275 -0.4452446
0002a0 ef 3c c4 be 87 18 15 3f d0 8c 0e 3e 95 3c e7 bd
       -0.3832774 0.5824055 0.13920903 -0.11290852
0002b0 4d 4d da 3e 4e d4 8a 3e 44 ca c7 be 00 1c 3b 3f
       0.426371 0.271151 -0.39021504 0.730896
0002c0 df 31 89 bd d1 8d c0 3c 15 cf c9 bc b7 72 23 3f
       -0.06698965 0.023505123 -0.024634877 0.63846916
0002d0 6e 3c 3e be 72 c6 98 3d 16 cc 29 3f 8c ee a7 3d
       -0.1857774 0.074597254 0.66327035 0.08199796
0002e0 84 73 e6 be a6 a4 9f 3e 52 a4 af 3e 44 a4 25 be
       -0.45010006 0.31180304 0.34305054 -0.16175944
0002f0 6e 7a 00 3f 7c aa 1e 3f a6 8d 18 3f 27 6f e0 3d
       0.5018681 0.6197889 0.5959114 0.109587006
000300 9c 26 73 bf 41 a1 04 3f 80 a2 59 3e 5d 28 0c 3f
       -0.9498079 0.51808554 0.21253395 0.5474909
000310 ac 21 d7 3d f2 0b 0f 3f 6c 89 bd bd 30 1f 40 bf
       0.10504469 0.558776 -0.09254727 -0.7504759
000320 07 63 1b bf 07 36 77 be 68 41 40 bf 8d b8 39 3d
       -0.6069798 -0.24141704 -0.750998 0.045342017
000330 38 fa 2a bf 20 36 8c 3f 83 7a c9 3e ab 5c b4 be
       -0.66788054 1.0954018 0.39351282 -0.3522695
000340 c7 aa 34 3f 67 98 08 3f c3 85 db 3e 16 97 a3 3e
       0.70573086 0.5335755 0.4287549 0.31951207
000350 9c da f2 3e 14 ea f3 be b5 2b af 3e 37 65 ea 3d
       0.4743241 -0.47639525 0.34213033 0.114450864
000360 bc 9b 27 3e 24 7e fc 3b 7c fe 08 bd 17 d1 c4 be
       0.16368002 0.007705467 -0.03344582 -0.38440773
000370 0a 11 8f 3d b5 4c b3 be 54 96 a5 be 61 22 4f bf
       0.06985672 -0.3501946 -0.32341254 -0.80911833
000380 2b 89 23 be ff a6 0b bf b7 47 a7 be 69 82 28 3f
       -0.15970294 -0.5455169 -0.32671902 0.6582399
000390 73 99 26 3f d2 e9 82 bf 07 f8 b6 3e f0 3c d1 be
       0.65077895 -1.0227606 0.35736105 -0.40866804
0003a0 02 02 76 bf 12 b0 69 be f1 fa 37 3e 5d 0e aa be
       -0.96096814 -0.22821072 0.1796682 -0.33214083
0003b0 35 6e 69 3e bf 66 0a be 69 0b 8d bf 4a 30 e5 be
       0.22795947 -0.13515757 -1.1019107 -0.44763404
0003c0 1b d5 ff be 77 28 1e bf ef 09 ab bd 68 f0 2c bf
       -0.49967274 -0.61780494 -0.08351504 -0.6755433
0003d0 5a 53 d9 3c 54 e2 cb be d0 5e 9a 3e 5b 1f 86 3e
       0.026529003 -0.39821112 0.3015046 0.26195797
0003e0 94 a9 bc 3c 77 36 53 bf 71 67 46 3f 9e 85 6e 3e
       0.02303008 -0.8250498 0.7750159 0.23293158
0003f0 6e 43 c1 3e ee d7 b8 3e fd 72 f2 be f8 87 1f 3e
       0.37746757 0.3610224 -0.47353354 0.15579212

critic.0.bias f4 [256]
000000 0a e7 fe 3d f7 f3 26 bf f3 ed 01 bf 23 2c 78 3d
       0.12446411 -0.6521601 -0.50753707 0.060588967
000010 e2 e8 c5 3e e1 88 ed 3e 1a 21 2f 3f 16 1e 39 3d
       0.38654238 0.46393493 0.68409884 0.045194708
000020 bf 89 45 3f 44 00 5a be 56 ea 94 be 9a 36 2d 3e
       0.7716331 -0.21289164 -0.29085034 0.1691536
000030 5f ff 0e 3f 9d 41 10 3e 8a 1c c5 3e 92 7e 2d 3f
       0.55858415 0.1408753 0.38498336 0.67771256
000040 57 01 b0 3e d3 09 27 bf 86 ec 80 3e ae 65 d0 3d
       0.34376022 -0.65249366 0.25180453 0.10175644
000050 bc 65 e2 3e c7 26 f7 be db ac 2a bf 0e 55 5b 3f
       0.44218242 -0.48271772 -0.66670007 0.8567666
000060 56 2b c2 3e 07 01 04 3f 6b 04 1a 3f 69 cc 28 3f
       0.37923688 0.5156407 0.6016299 0.65936905
000070 03 ee ca 3e 08 60 1d 3f 93 17 13 3f 71 ed 39 3f
       0.39634714 0.6147466 0.57457846 0.7262793
000080 26 d8 1e bf d1 d5 0c bf 24 36 1a 3f 79 bf f5 be
       -0.62048566 -0.5501376 0.6023886 -0.47997645
000090 7e c6 13 be 2a 36 b0 be a8 75 f7 3e c6 95 5c 3e
       -0.14431188 -0.34416324 0.48331952 0.21541509
0000a0 ca 9e 34 3e 74 ca 1f 3d d0 9c 1a 3f 69 d0 87 3e
       0.17638698 0.039011434 0.60395527 0.26526192
0000b0 1d a9 60 3e 21 91 21 3f 7e 42 e4 3e 72 8b 02 3f
       0.21939512 0.63112074 0.4458198 0.50994027
0000c0 83 4f d0 3e 6b 51 b7 be b1 dc 50 bf 0f 92 e8 3e
       0.40685663 -0.35804304 -0.8158675 0.45423934
0000d0 d4 ea 01 bf 85 6b 24 bf 1c 40 f0 3e 74 a8 46 be
       -0.50748944 -0.6422656 0.46923912 -0.19400197
0000e0 97 d8 76 3e 99 73 2e 3e 98 73 62 3e e1 0d 25 bf
       0.2410606 0.17036285 0.22114408 -0.644743
0000f0 30 06 ea be ad 71 01 bf 30 52 19 3f 03 48 0b bf
       -0.45707846 -0.5056408 0.59891033 -0.54406756
000100 75 f9 4f 3f 33 54 e1 3e c2 c4 24 bf a9 33 ca 3e
       0.81240016 0.4400955 -0.6436273 0.3949254
000110 40 4f 20 3f f9 51 b0 3e d5 a3 69 3e 35 f3 c5 3e
       0.62620926 0.3443754 0.22816403 0.38662115
000120 f4 36 42 3f 31 42 e0 be d0 e0 ab 3e 08 9c 1d bf
       0.758651 -0.438005 0.33569956 -0.6156621
000130 f2 ec da 3e 3b 65 bd 3e e3 2f 27 bf a8 16 31 3d
       0.427589 0.36991295 -0.65307444 0.043234497
000140 70 61 9b 3e 90 4b 32 bf 56 8d 05 3f 1b 30 21 3f
       0.30347776 -0.6964655 0.52168787 0.6296403
000150 02 b1 00 3f 2f 6b 30 bf 54 d6 10 3f c0 42 2a bf
       0.5027009 -0.6891355 0.5657704 -0.665081
000160 0b 9c 97 be 15 63 0a 3f 87 fd 29 3f 65 1f a6 3e
       -0.2961124 0.5405744 0.6640248 0.32445827
000170 9c 18 c8 3e 66 28 d2 3e 70 01 15 3f 48 ad 07 bf
       0.39081275 0.41046447 0.5820532 -0.5299878
000180 42 c2 0a bf 2f f3 1d 3f 68 7a 85 bd cf 34 c5 3e
       -0.54202664 0.61699194 -0.06517488 0.38516852
000190 fe d9 3c bd 31 3a 2f 3f 0f e1 d4 3e 4f e8 3c 3e
       -0.04610633 0.6844817 0.41577956 0.18447994
0001a0 0f ae 2b 3f fb d1 d6 3e 94 21 0e 3f 98 38 fe 3e
       0.6706247 0.41957077 0.55519986 0.49652553
0001b0 82 0f fb be 98 1c d4 3e 28 9f 16 3e 0b b0 42 bd
       -0.4903527 0.41428065 0.14709151 -0.04753117
0001c0 1e 82 e0 3e 1d 5a f4 3e f0 ec 30 3f 4f 4e 45 3c
       0.43849272 0.47725 0.6911154 0.012042596
0001d0 e3 70 8a 3e 35 7c 2d 3e 37 eb 38 3f 62 a6 01 3f
       0.2703925 0.16941912 0.7223391 0.50644505
0001e0 e6 f5 2b 3e 51 ef 02 3f 5f d2 1c 3f 96 46 94 3e
       0.16793022 0.5114642 0.612585 0.28960103
0001f0 fc f2 75 3e f7 53 94 3d 1b 59 f4 3e 81 56 b2 3e
       0.24018472 0.072425775 0.47724232 0.34831622
000200 2e 10 0e 3f 6f c6 c0 3e 1a 67 8d be dd 8a 3f 3f
       0.5549344 0.37651393 -0.27617723 0.74821264
000210 2f 0c 46 3f 29 f1 3d 3f 35 a9 52 3e c1 16 a1 bd
       0.7736234 0.74196106 0.2057236 -0.07865668
000220 3c fe b7 3e e0 72 40 bd 33 12 56 be 7b 87 19 bd
       0.35936153 -0.046984553 -0.2090538 -0.03748272
000230 a7 aa 1f 3f 23 59 33 3f f1 82 ba 3e af 5c f7 3d
       0.6236977 0.70057887 0.36428025 0.12078225
000240 83 70 4f 3e 9c b4 91 3e 5d 25 3a 3f f7 ba 7a 3e
       0.20257764 0.28458107 0.7271326 0.24485384
000250 58 25 12 3f 6c ea 2a bf a2 6e 00 3e 93 26 03 bf
       0.5708823 -0.6676395 0.12542203 -0.51230735
000260 db 17 e5 3e 12 22 c8 3d b5 75 40 3f 78 88 3b bf
       0.44744763 0.097721234 0.75179607 -0.7325511
000270 3d 66 d7 3e 0a 81 39 3f 85 7b 22 be 4e 09 06 bf
       0.4207019 0.72462523 -0.15867431 -0.5235795
000280 17 ca 6c 3e aa bb 8a 3e 72 bb 33 bf 01 b5 3d 3f
       0.23123966 0.270963 -0.70207894 0.74104315
000290 92 18 06 3f ee 5d 04 3f 1d ee c9 bd 4d 16 0c bf
       0.5238124 0.51705825 -0.0985987 -0.5472153
0002a0 50 e2 11 bf 57 26 d6 be d2 7d a9 3e 31 d2 85 be
       -0.5698595 -0.41826126 0.33103806 -0.26136926
0002b0 a6 8b 43 3f 1a e6 26 bf 80 02 80 3e c1 3f c3 be
       0.7638496 -0.6519486 0.25001907 -0.38134578
0002c0 e8 b5 27 3f de f2 4f 3e fc 97 28 3f cb 2c ff be
       0.6551194 0.2030749 0.6585691 -0.49838862
0002d0 79 31 51 3e e3 1e d0 3e e3 3c a4 3e 0e a5 6c 3e
       0.20429029 0.40648565 0.32077703 0.23109838
0002e0 93 fc 2b 3f 81 89 a7 3d 22 80 1a 3f 53 95 df be
       0.6718227 0.08180524 0.60351765 -0.43668613
0002f0 09 71 0a be c6 da 1b 3f 3e a0 1e bf 8e 91 35 3f
       -0.13519682 0.60880697 -0.6196326 0.70925224
000300 5d 06 ad be 14 b6 0e 3f 8c e3 fd 3e 35 c5 97 3e
       -0.33793917 0.5574658 0.49587667 0.29642645
000310 d2 e4 04 bf 40 06 c7 be 1d 7e 7e 3e a7 34 3b 3f
       -0.5191165 -0.38871956 0.24852796 0.73127216
000320 6d 4b 1c bf 67 18 0c 3f 9a 59 23 3f 1f ff 37 3f
       -0.6105259 0.54724735 0.63808596 0.7187366
000330 25 db 37 3f e3 78 2f 3f 98 9a 51 3f 3d f6 fb 3e
       0.71818763 0.68543833 0.81876516 0.49211302
000340 26 b8 10 3f f5 11 06 3f 73 39 cf be cb 2c 0b bf
       0.5653099 0.5237115 -0.40473518 -0.54365224
000350 89 ca 37 3f 41 0e 1f be 62 d6 23 bd c8 6c 4f 3f
       0.7179342 -0.15532781 -0.039999373 0.8102536
000360 00 18 79 3d ef fb 6e bf ef 7b 1c 3f f8 77 27 3e
       0.060813904 -0.9335317 0.6112661 0.16354358
000370 24 dd 04 3f 65 32 16 3f 74 c4 95 3e 9e 23 20 3f
       0.51899934 0.58670646 0.29251444 0.6255435
000380 7e f9 33 bf de c1 c2 3c 5b 8b 44 bf 8a de cf 3e
       -0.7030257 0.023774084 -0.7677514 0.4059947
000390 0c d3 50 3f 3c 78 a9 3e b5 10 88 3e 03 c0 0c 3f
       0.8157203 0.33099544 0.26575246 0.54980487
0003a0 1d 91 08 3f aa f4 4e be 80 2e 41 bf 0c 12 90 3e
       0.53346425 -0.2021052 -0.7546158 0.2813877
0003b0 7c 65 07 be 63 87 32 3f 80 92 9d be 18 c0 4a 3e
       -0.13222307 0.69737834 -0.30775833 0.1979984
0003c0 ab 4c 8a be 24 2d c4 3e 54 5b ad 3e 99 cb 3f bf
       -0.27011618 0.3831569 0.3385874 -0.7492004
0003d0 3c 32 84 3e 34 b5 a2 be 69 8a 30 3f 93 cc 9c be
       0.25819576 -0.31778872 0.689612 -0.30624828
0003e0 76 23 06 3f 18 51 35 3e 27 eb 1a bf 5c f2 23 bf
       0.5239786 0.17706716 -0.60515064 -0.64041686
0003f0 5d 7c 0b 3f 2e 81 e2 3c 28 ba 13 3f 40 42 03 be
       0.5448664 0.027649488 0.57705927 -0.12818241

critic.2.weight f4 [256, 256]
000000 29 fa 6f 3e de 3e 89 bd 0c 44 27 be 39 fd 8e 3d
       0.23435272 -0.06701444 -0.16334552 0.06981892
000010 eb 2d 0e 3e d4 00 d5 3d f8 4f 91 bd a1 81 d0 3d
       0.13884704 0.104005486 -0.07095331 0.10180975
000020 46 3d 85 3d 97 30 5e bd 56 74 12 3a 3d e0 dd 3d
       0.065058276 -0.054245558 0.00055867934 0.10833786
000030 74 9a e3 3c 59 ff 9a bd 6b 2c 51 3d 7c e6 c7 bd
       0.02778361 -0.07568235 0.05106775 -0.09760758
000040 07 8e 8d 3d 16 3f e3 bd 0c 20 11 bd b6 c6 84 3e
       0.06911855 -0.11096017 -0.035430953 0.25932854
000050 ff 96 91 3e 8e 4a 31 3d b7 57 f5 bd 93 8d 98 3d
       0.28435513 0.04328399 -0.11979621 0.07448878
000060 29 09 71 3b 3c b4 aa 3d 7c c2 24 3e 19 ba c6 3d
       0.0036779142 0.08335158 0.16089815 0.09703464
000070 f6 1a 6d 3e a1 6a 2d 3e 51 55 a2 3a 8b 23 94 bd
       0.23154816 0.16935207 0.0012385045 -0.07233342
000080 6c 57 b1 bd 90 09 cc bd 4e 56 a3 3d 0b c8 98 bd
       -0.086592525 -0.099627614 0.07975446 -0.0746003
000090 29 cd 13 3e 01 f0 eb bd e3 b8 3a be 52 fa 22 be
       0.14433731 -0.115203865 -0.18234591 -0.15915802
0000a0 8c 20 86 3d 70 37 76 bc bb 29 32 3e 9c aa e4 3d
       0.065491766 -0.015027866 0.17398731 0.11165354
0000b0 96 bd fe 3c 10 9e ab 3d 19 b3 17 3d 58 4b 40 3d
       0.031096261 0.083797574 0.037036035 0.046946853
0000c0 64 ed c1 3d af 46 9b be a0 65 87 be 99 d7 1a 3e
       0.09469107 -0.30327365 -0.2644472 0.15121306
0000d0 25 b9 d3 bd e2 9f 13 be b1 90 2e 3d 0a 26 1b bd
       -0.10338048 -0.14416459 0.042618457 -0.037878074
0000e0 3d a4 a7 3e 04 18 b9 3c 4c 9d da 3d ca 7b b1 bd
       0.3274249 0.02259446 0.10674533 -0.08666189
0000f0 26 1c bb bd 14 e4 ce bd 17 0c 02 3d 7e 67 b3 3e
       -0.09136228 -0.10102096 0.03174981 0.35039896
000100 a2 36 70 3e 72 8b aa bd 39 c7 aa bd 15 f3 74 3e
       0.23458341 -0.08327378 -0.0833878 0.23920853
000110 ad 95 b7 3d 49 b2 d9 3d e0 5d 5d bc a6 d6 2f 3e
       0.08964095 0.10629708 -0.013511151 0.17171726
000120 39 f0 89 3d e8 81 b5 bd dd c2 1f 3e 72 73 f9 bd
       0.06735272 -0.08862668 0.15601678 -0.121802226
000130 8d 98 be bc ea 0e e3 3d f4 03 3c be b5 99 65 bc
       -0.023266101 0.11086829 -0.18360883 -0.014013697
000140 19 d4 28 bd 35 63 e4 bd 61 b0 40 bb 81 67 11 3e
       -0.041217897 -0.11151735 -0.0029402005 0.1419964
000150 97 1c 54 bd 79 9b 73 be 38 26 92 3d c8 fe 3c be
       -0.051785078 -0.23789777 0.07136196 -0.18456566
000160 2a 4c b9 bd a6 18 18 3e 50 cc 56 3d 04 45 88 3e
       -0.0904773 0.14853153 0.05244094 0.26615155
000170 7a 59 7a 3e 5a 1e 14 3e ac 69 12 3e 23 1b 94 bd
       0.24448195 0.14464703 0.14298123 -0.072317384
000180 85 63 c4 bd 7d 9f af 3c 3f 5a 46 3e 1d db 35 3e
       -0.09589294 0.021438355 0.19370364 0.17759366
000190 56 fd a2 3d e7 38 93 bd b1 9d 50 3e 75 f8 46 3e
       0.07958476 -0.07188588 0.20372654 0.19430716
0001a0 33 c5 7a 3e 49 fa 0d 3e 51 de b3 3c e4 33 99 3e
       0.24489288 0.13865007 0.021956595 0.29922402
0001b0 55 3f 28 be 59 97 50 3e e1 fe 3d 3e b8 30 c3 3c
       -0.16430409 0.20370235 0.1855426 0.023826942
0001c0 26 f6 b0 bd 0a 3d 5f 3c 63 ae 3f 3d cd 27 f7 3b
       -0.08640699 0.013625393 0.046797168 0.0075425864
0001d0 40 81 11 3d f5 11 36 3b cf b0 01 bd 1e e4 12 bd
       0.035523653 0.00277817 -0.03166276 -0.03586208
0001e0 31 da e4 bd 69 40 fc 3d 11 57 5d 3e 01 7f 2c bd
       -0.11174429 0.12316973 0.21615244 -0.042113308
0001f0 e5 c3 a7 bc 0b fc e3 bb 66 51 c3 3d 8f 89 8e 3d
       -0.020479152 -0.006957536 0.0953701 0.06959831
000200 c5 8d 0a bd 30 47 30 3d e1 f5 82 3d a8 79 00 3e
       -0.03382661 0.04303664 0.06394554 0.12546408
000210 32 7e bd 3d 3a b3 72 3e cf 0c 54 3d 60 7b 9c bd
       0.092525855 0.23701182 0.051770028 -0.076407194
000220 6a 8e b8 bd 37 c3 88 3e 70 6d 85 bd 88 27 7b 3e
       -0.09011538 0.26711437 -0.06515014 0.24526799
000230 d4 c1 a2 3c 05 34 d6 3d de dd b9 3d e4 96 78 3e
       0.019867815 0.10459141 0.09075521 0.2427631
000240 8a 02 79 3e 45 83 3f 3e 3f 17 7c 3e 12 58 55 3c
       0.24317375 0.18702419 0.24618243 0.013021486
000250 c7 ba 16 3e 73 07 5d be 6b f5 4a bd a9 fd 85 bd
       0.14719687 -0.21584873 -0.049550455 -0.065425225
000260 2f 4d 58 3d c0 8a 64 3d 67 68 0c 3e 69 b5 99 bd
       0.052807983 0.055796385 0.13711701 -0.07505304
000270 4a e7 21 bd cb 13 88 3d 4b 0e d3 3d 87 62 91 bd
       -0.039527215 0.066444 0.103054605 -0.07098871
000280 8c ca 91 bc 07 ad fc bd 12 e4 00 be c0 32 83 3d
       -0.017796777 -0.1233769 -0.12587002 0.06406164
000290 e3 4b 4c 3e 89 34 2e 3e 85 20 95 bd 3e 1b 84 be
       0.19950823 0.17012228 -0.07281593 -0.25802034
0002a0 98 14 29 3c 5b 69 83 be aa 45 51 3d 04 21 b7 bc
       0.010319851 -0.25666317 0.051091827 -0.02235461
0002b0 be aa 09 3e 7f a5 30 be 12 72 2e be 14 7e 0c bd
       0.13444039 -0.17250632 -0.17035702 -0.034299925
0002c0 9a d8 86 3d 77 c7 8c 3d 5b 91 74 3e b9 3c 51 bd
       0.06584282 0.068739824 0.23883574 -0.0510833
0002d0 8a 8c db bb 23 95 db 3d 44 6c 94 bd dc 76 83 3c
       -0.006700103 0.10721805 -0.072472125 0.016047888
0002e0 85 67 0a bc d4 a4 d5 bc f6 e4 a0 3d 7a b7 37 be
       -0.008447533 -0.026079573 0.07856171 -0.17941085
0002f0 b6 eb 5f 3e 5e 01 63 3e ae 86 5c be 3d 88 73 bd
       0.2186726 0.2216849 -0.21535751 -0.0594561
000300 01 ed a5 3e 5b e3 75 3d c9 84 03 3e af e4 24 3e
       0.32407382 0.060031276 0.12843622 0.16102861
000310 22 96 67 be 36 57 41 bd 58 6c ea bc 6d df 43 3d
       -0.22615865 -0.04720231 -0.028616115 0.047820497
000320 c3 c5 3a be 78 54 7b 3e 31 21 e5 3d 99 78 2b 3e
       -0.18239503 0.24543941 0.111879714 0.16745223
000330 8c 83 1d 3e 36 84 93 3d 13 79 2f 3c 36 42 b8 3d
       0.15382212 0.072029516 0.010710019 0.08997004
000340 10 c8 ed 3d bf c0 dd 3d 69 f2 85 be 86 80 cd bd
       0.116104245 0.10827779 -0.26161507 -0.100342795
000350 2c 67 ac 3d 06 c5 30 3e 50 19 13 bd 00 a7 16 3e
       0.08418116 0.17262658 -0.03591281 0.14712143
000360 85 2a c9 bb 9d 6f 84 be 1e f4 a2 3d cb 00 84 3d
       -0.006139102 -0.25866404 0.07956718 0.06445464
000370 5a 08 28 3e 90 79 94 3d 1c a1 6f 3d 8b 2b 52 3d
       0.16409436 0.07249749 0.058503255 0.051311057
000380 33 f0 3e be c6 36 8c bb 17 ee 01 be 84 51 6c 3d
       -0.18646316 -0.0042789904 -0.1268848 0.057694927
000390 ac 8e 3e 3d 73 c1 59 be 7b 9a f8 3d bd 01 9d 3d
       0.04652278 -0.21265201 0.1213884 0.07666347
0003a0 fa 27 a6 bc 9d be 25 bd ff 51 d9 bd 42 ca 7f bc
       -0.020282734 -0.040464986 -0.10611343 -0.015612187
0003b0 c4 0e b3 bc b8 b4 3c bd 4c 79 b2 be ec 70 c0 3e
       -0.021857627 -0.046070784 -0.34858167 0.37586153
0003c0 96 78 a1 3d a7 5c 89 bd dc 67 b0 3d 2f af 04 be
       0.07884328 -0.06707125 0.086135596 -0.12957452
0003d0 c0 aa ad 3d 09 25 47 3c 22 2f f1 3d 8e a5 a4 3e
       0.084798336 0.012154826 0.11776568 0.32157558
0003e0 d1 53 5f 3e c3 dd 7b 3d d9 e0 74 be c3 6f e0 bd
       0.21809317 0.061490785 -0.23913898 -0.10958817
0003f0 52 79 50 3e 15 0b a0 bb c6 ed 81 3d 75 9d 10 be
       0.2035878 -0.0048841336 0.0634418 -0.14122565

critic.2.bias f4 [256]
000000 1d 29 49 3d 05 89 d4 3c 34 dd a2 3d d4 0a ef bc
       0.049111474 0.025944242 0.079523474 -0.029179968
000010 3c fd f3 bc 15 2b e8 3d 71 2d aa 3d 64 a3 48 3c
       -0.029783837 0.11336342 0.083094485 0.012245987
000020 9d 9f 51 3e d6 7f 1a 3e f7 d5 95 bc 02 40 7e bd
       0.20471044 0.15087828 -0.018290503 -0.06207276
000030 4e 70 30 3d ab 2d c3 3d a4 bd 98 3d a8 5f fb 3d
       0.043075852 0.09530195 0.07458046 0.12274104
000040 90 e1 a2 bc 88 b3 5d b9 73 1d f4 bc e7 c2 1b 3d
       -0.019882947 -0.00021143083 -0.029799199 0.03802767
000050 9b 8b 25 bc a2 6c 39 3d 42 55 e4 3d 36 9d 42 3d
       -0.010104085 0.045269616 0.11149074 0.04751321
000060 68 7b f8 3d b4 5e c1 3c 98 60 0d 3e 65 93 8e bd
       0.12132913 0.023604728 0.13806379 -0.06961707
000070 ba 37 16 3e fb e4 38 3e 8d f7 32 bc 6f 12 63 3d
       0.14669695 0.18056099 -0.0109232785 0.0554375
000080 77 00 13 3e 39 58 ba 3d ed f6 f0 ba 1a fd 39 3d
       0.14355646 0.090988584 -0.0018384136 0.045407392
000090 f7 d5 a4 3d 92 1d 7a bc b8 9e c7 3c ac c7 79 bd
       0.08048623 -0.015265839 0.024367675 -0.060981438
0000a0 13 78 85 3d 11 e4 70 3d 3f 72 b3 3d 6f ed 1e 3e
       0.06517043 0.05881125 0.08762025 0.15520261
0000b0 1e ad b0 3d 51 34 7c 3e 17 5f cc 3c e1 8a a6 3d
       0.086267695 0.24629332 0.024947686 0.08131958
0000c0 85 73 d9 3d b3 f1 62 3d d4 ec 17 3b 36 45 b5 3d
       0.10617737 0.055406284 0.0023181932 0.088510916
0000d0 90 e8 fa 3d 7b 8e 14 3e b8 77 e5 bc 54 cd 02 3c
       0.12251389 0.14507477 -0.028011188 0.007983524
0000e0 87 cd 6f 3c 16 53 5e bd de 7b 0a 3e 9e 22 46 bd
       0.014636404 -0.054278456 0.13523814 -0.048372857
0000f0 4d 33 0c bd 3a fa 53 3c 8c 4b cf 3d 7c 4c 66 3d
       -0.03422861 0.012938077 0.10121831 0.056225285
000100 57 e2 3c 3e 82 b0 d3 3c 41 31 d1 3d 97 27 ac 3c
       0.18445717 0.025841001 0.102144726 0.021014972
000110 df db 91 3e c6 9e 89 3d 91 28 ff 3d 4b 8f 36 bd
       0.2848806 0.06719737 0.12458909 -0.04457025
000120 8b 20 cf 3d 93 6a df 3d 22 44 23 3e 31 e9 0b bd
       0.10113629 0.10908999 0.1594396 -0.034157936
000130 ce 9a d8 3d 79 9a b8 3c 0b 15 d5 bc a5 27 2b 3d
       0.10576402 0.022534596 -0.02601101 0.041785855
000140 fd 3e dc 3c f3 e1 9d 3d df 8b 11 3d 7c 31 14 3e
       0.026885504 0.07709112 0.035533782 0.14472002
000150 63 a2 44 3d 59 fc 53 3d f9 4d 3e bd 25 a3 5a bd
       0.048006427 0.05175433 -0.04646108 -0.053378243
000160 1f df e0 3d 70 64 56 3c 33 eb 8f 3d f0 a2 93 3b
       0.10980057 0.01308547 0.070272826 0.0045055076
000170 c6 e7 29 3d f0 77 a9 bb 2f ed 29 3d 81 36 00 3e
       0.041480802 -0.0051717684 0.04148596 0.12520792
000180 54 ca 87 bc 84 0a 2f 3d 38 49 57 3d 6a 7b 12 bd
       -0.01657597 0.042734638 0.05256006 -0.035762228
000190 60 c3 ae 3d ea 4f d5 bb 1a 05 32 3d d5 6f 8c 3d
       0.085333586 -0.0065097706 0.043461896 0.06857268
0001a0 1f 5b 5d bd 3b ed f1 3c 44 73 84 bd 4e 38 85 bc
       -0.054041978 0.029532066 -0.06467298 -0.0162622
0001b0 cb 6f 9f 3d 10 62 09 3e eb 11 ac 3d 21 e4 eb bc
       0.07784995 0.13416314 0.08401855 -0.028795304
0001c0 df 89 46 bd e0 c9 82 3d a7 12 07 bd 81 20 bc 3d
       -0.048471328 0.06386161 -0.032976773 0.09185887
0001d0 9e b6 30 bd 3c b1 e5 3d 7d 2d 78 3d f5 c0 cb 3d
       -0.043142907 0.112154454 0.060590256 0.09948913
0001e0 62 03 d6 3d 35 2c 11 3d 1a 30 2b 3d 4b 8b 60 3c
       0.10449864 0.03544255 0.04179392 0.013705085
0001f0 95 e7 05 3e 2a 31 d2 3d 3d 9c 06 bd a2 da bc 3d
       0.13076623 0.102632836 -0.032863844 0.092213884
000200 2f aa 01 3e 5b 38 37 3e a3 f6 f6 bc e2 3d f5 3c
       0.12662576 0.17892592 -0.030146902 0.029936735
000210 3a d3 18 3e 27 c0 f7 bc 50 64 f4 3d 4f 25 12 3e
       0.14924327 -0.030242993 0.119331956 0.14272045
000220 68 6c d6 bd 7a 43 0d bd 02 c4 50 3b c7 ef f2 bc
       -0.104698956 -0.03448818 0.003185511 -0.02965535
000230 a5 9a 82 bd c1 c8 bc 3d d3 8e 62 3d 1a 54 ce 3d
       -0.06377152 0.09217978 0.05531199 0.10074635
000240 1f 37 b5 3d 6b af 1e 3d 79 6d 79 3d 6e 59 db 3d
       0.08848404 0.03874151 0.060895417 0.10710417
000250 5d cd 44 3d 52 fa 87 3d 08 66 76 bd d5 64 94 3e
       0.048047412 0.06639542 -0.0601559 0.2898318
000260 2e 19 b5 3d fd 39 f4 bc 40 86 06 bd db 6d 00 3d
       0.08842693 -0.029812807 -0.032842875 0.031354766
000270 08 1e 09 3e 44 a5 64 bd 01 e9 96 bc 46 96 4a 3e
       0.13390362 -0.055821672 -0.018421652 0.19783887
000280 3d c1 4b bd 2b 7c 13 3e 3d 82 00 bd 4f 72 55 3d
       -0.049744833 0.14402835 -0.031374205 0.052110966
000290 d2 da c2 3d f5 ff e1 3d 37 43 2e 3d a6 ed 34 3c
       0.09514393 0.11035148 0.04254457 0.011042988
0002a0 99 a0 e0 3d a9 f6 83 3d 2d bb d3 3d 78 3e 11 3c
       0.109681316 0.06443531 0.10338435 0.008864991
0002b0 a1 fc 29 3d ad 67 6e 3e 41 cb 12 3e 81 2d e5 3d
       0.04150069 0.23281737 0.14335348 0.1119032
0002c0 a1 76 23 3d fe 59 a4 3d 21 f9 ff 3d 4d e7 6b bc
       0.039908055 0.08024977 0.124986894 -0.014398408
0002d0 40 55 28 bd 33 2a e1 3d 7c d5 0c bd d6 6c d9 3d
       -0.041096926 0.10994377 -0.034383282 0.10616462
0002e0 d9 20 bd 3c 59 90 07 3e be 5e 1d bc 40 e4 a4 bc
       0.023086952 0.13238658 -0.009605108 -0.02012837
0002f0 f9 3c e1 3c df 50 c2 3d ea 53 a3 bc 8a ba 1d bd
       0.027494894 0.09488081 -0.019937474 -0.038507976
000300 57 f1 c8 bc 9f b3 33 3e 08 84 2a 3e 51 52 50 bb
       -0.024529142 0.17548989 0.16651928 -0.0031787346
000310 d4 1a 6d 3d 40 a5 ff 3c 16 96 28 3e 82 be 80 3c
       0.057886913 0.031206727 0.16463503 0.015715841
000320 ff 84 83 3d e0 ed d1 bc 87 05 a2 bc 81 e5 a8 3d
       0.06421851 -0.025626123 -0.019778026 0.082468994
000330 be d6 51 3e 84 92 aa bc ec 32 75 3d 5e 87 98 3e
       0.20492074 -0.020821817 0.059863016 0.29790777
000340 4c 63 d9 bb 97 83 87 bd e8 8d 2d 3e c0 7e ea 3d
       -0.0066341516 -0.06616896 0.16948664 0.11449957
000350 37 c3 bc bc 47 3a f2 3d 0d da 12 3d 62 7e 7e bd
       -0.023042304 0.11827522 0.03585248 -0.062132247
000360 16 8e 17 3d 1d 65 a8 bb c7 c1 09 3e d0 ca c6 3c
       0.037000738 -0.005139007 0.13452826 0.02426663
000370 cb 92 65 bd 48 01 c6 3c 17 b8 e0 3d f4 cf 9d 3d
       -0.056048196 0.024170533 0.10972612 0.077056795
000380 78 4c cd 3d 24 cf 2a bd 21 5e a3 3d 84 62 05 bd
       0.10024351 -0.04170145 0.07976938 -0.032564655
000390 18 f0 53 3c 01 91 cf 3d 6f ff cb bb 80 29 df 3b
       0.012935661 0.10135079 -0.0062255184 0.006810367
0003a0 23 65 0d 3e f7 69 58 bd 9b 08 37 3e 5a 08 08 3d
       0.13808112 -0.05283543 0.17874376 0.03321109
0003b0 96 23 41 bd 22 ce 38 3e e3 90 1b bd 8f 35 73 bd
       -0.047153078 0.18047383 -0.03797997 -0.05937725
0003c0 1e 27 ba 3e 50 ab ba 3d c9 6a 47 bd 0c 26 db 3d
       0.3635797 0.091147065 -0.048685823 0.10700616
0003d0 0f 4a 83 bb 12 8f dc bc 2f 62 51 3d ea 0d 32 bd
       -0.004006631 -0.02692369 0.051119026 -0.0434703
0003e0 a3 78 c9 3d eb 28 09 3e 52 ec d0 bc 61 31 af bc
       0.09837463 0.13394515 -0.025503311 -0.02138585
0003f0 dd 36 0c 3e 37 3c c6 3d cc 42 5b bd 55 08 15 3d
       0.13692804 0.09679454 -0.0535305 0.0363849

critic.4.weight f4 [1, 256]
000000 d1 d8 6f be 08 e6 8b 3b 22 6d 5a be 22 7c 3c 3d
       -0.23422553 0.004269365 -0.21330693 0.04601682
000010 40 93 b0 3c 8e 90 54 be 71 41 45 be e2 21 66 3d
       0.02155459 -0.20758268 -0.19263245 0.056184657
000020 ca d4 2f be 45 ba 6a be 5b 99 34 3d 08 b0 50 bd
       -0.17171016 -0.22922619 0.044091564 -0.050949126
000030 78 e5 4a be df 49 34 be 37 f1 4f be 04 4c 3e be
       -0.19814098 -0.17606305 -0.2030686 -0.18583685
000040 65 4a bb 3c a6 81 06 bd 9d 1c 41 3d 15 bd 34 3d
       0.022862623 -0.032838486 0.04714643 0.044125635
000050 ff 11 9d 3c a4 a0 1b 3d af de 34 be d8 12 06 bd
       0.01917362 0.037994996 -0.17663072 -0.032732815
000060 fb 9c 36 be 1e 8f e9 3c 97 63 52 be 6c fb 3b 3d
       -0.17833321 0.028510626 -0.20545803 0.04589407
000070 dc 0e 4f be 57 2b 37 be fd 25 1d 3d 85 8d a0 3c
       -0.20220512 -0.17887627 0.038366307 0.019598732
000080 10 bd 38 be a8 42 51 be 8e ba 91 3c 03 31 10 3d
       -0.18040872 -0.20435584 0.017789152 0.03520299
000090 56 59 5b be 58 38 03 3d 78 7a 34 3b eb 0f 46 3c
       -0.21420798 0.032036155 0.0027538817 0.012088756
0000a0 21 5d 62 be 5a 94 46 be 07 92 2b be e2 55 21 be
       -0.22105838 -0.19392529 -0.16754924 -0.15755418
0000b0 21 1b 6d be 92 23 93 be aa ce 38 3b 74 f7 51 be
       -0.2315488 -0.28738075 0.0028199353 -0.20504552
0000c0 0c f0 5b be c4 6d 4f be 7b e5 96 3c bd d9 5e be
       -0.2147829 -0.20256716 0.018419972 -0.21762748
0000d0 7b 9f 67 be de de 43 be e8 ac 55 3d 53 02 60 ba
       -0.2261943 -0.19127986 0.05216685 -0.0008545268
0000e0 f6 8f f7 3c 7a ea 1d 3d 78 3e 40 be e4 33 b8 3c
       0.030220013 0.038553692 -0.1877383 0.02248568
0000f0 07 9d 03 3d 9b 10 a1 3c e0 e2 45 be aa e6 53 be
       0.032132175 0.019661238 -0.19324827 -0.2069346
000100 f9 55 31 be 19 08 94 3c f5 92 46 be 5f cf 5e 3d
       -0.17317952 0.018070268 -0.19391997 0.054396983
000110 02 16 51 3f 15 a1 49 be 62 98 48 be 73 9c 60 3d
       0.81674206 -0.19690354 -0.1958938 0.0548367
000120 0a 9d 61 be d2 32 3f be 06 56 3c be 9e 01 0a 3d
       -0.22032562 -0.1867173 -0.1839219 0.03369295
000130 20 16 5d be 18 46 5d be 4d 5c cf 3c 1f 41 76 be
       -0.21590471 -0.2160877 0.025312567 -0.24048279
000140 1e c8 e7 3c 13 0e 2c be 31 69 d4 3c 70 d2 91 be
       0.028293665 -0.16802244 0.025929065 -0.28480864
000150 1f cd 77 be fc 05 2c 3d e7 30 12 3d 15 6a 41 3d
       -0.24199341 0.041997895 0.03569117 0.04722031
000160 67 aa 4b be 73 70 bf 3c 7b 57 4f be 79 d3 f6 3c
       -0.19889222 0.02336905 -0.20248215 0.030130135
000170 0d d2 51 be a2 1d 11 3d 28 eb 09 3d 35 f4 32 be
       -0.20490284 0.03542865 0.033671528 -0.1747597
000180 76 4a 6f 3c f2 fc 29 bd 16 b8 32 be 2c 4f 65 3d
       0.014605155 -0.041500993 -0.17453036 0.055983707
000190 0e 4d 5f be fa 1d b6 3c 9b 49 27 3d 7f 12 51 be
       -0.21806738 0.02223109 0.04084168 -0.20417212
0001a0 53 b6 df 3c e6 88 d1 3c a3 4d 63 3d 6b 73 35 3d
       0.027308619 0.025577974 0.055493962 0.044299524
0001b0 13 fe 5b be 26 6d 59 be 53 45 55 be 1b 10 11 3a
       -0.2148364 -0.21233043 -0.20827226 0.0005533711
0001c0 8b 15 6e 3c da ee 43 be 0a 63 0a 3d d8 e6 b2 be
       0.014531503 -0.19134083 0.033785857 -0.34941745
0001d0 3a cc 15 3d ff d5 61 be 46 42 2e be 15 d2 4d be
       0.03657172 -0.2205429 -0.17017469 -0.20099671
0001e0 ca 50 4b be af d3 4b be 94 21 d7 3d cc 84 12 3d
       -0.19855037 -0.1990497 0.105044514 0.035771176
0001f0 87 c0 28 be 35 f6 3a be 3a 24 64 3c 05 e8 58 be
       -0.16479693 -0.18257983 0.013924653 -0.21182258
000200 fc 1e b2 be 78 fa 2f be 1e a8 ec 3c 6f 05 37 be
       -0.34789264 -0.1718539 0.028888758 -0.17873167
000210 99 da 32 be 87 60 8f 3b 62 f6 28 be 39 93 50 be
       -0.17466201 0.0043755206 -0.16500238 -0.20368661
000220 49 07 d0 3e d7 d0 f1 3c 07 a0 31 3d 31 e5 b9 3c
       0.40630558 0.029518528 0.043365505 0.022692295
000230 e6 30 9a 3c 66 17 32 be f1 20 7f 3a 5c b3 3a be
       0.018822145 -0.17391738 0.00097323867 -0.18232483
000240 ba 3e 35 be e0 61 4f be de fd 3b be aa 19 51 be
       -0.1769971 -0.2025218 -0.18358561 -0.20419946
000250 20 a4 66 be 13 83 75 be 35 e2 64 3d b9 87 3c 3f
       -0.22523546 -0.23975782 0.05587979 0.73644596
000260 b7 aa 46 be 8b da 2f 3c 75 db c8 3b 35 33 53 3b
       -0.1940106 0.010733257 0.006129677 0.0032226567
000270 f1 13 74 be 68 11 de 3c 0a fb b3 3a fd b6 36 be
       -0.23835732 0.02710791 0.0013731432 -0.17843242
000280 d5 a2 90 3c 65 1f 6f be a4 7b 6a 3c 58 9b 41 be
       0.01765577 -0.2335182 0.014311705 -0.18906915
000290 02 1a 35 be 1b 07 6a be c1 22 60 be 65 3f 6a be
       -0.17685702 -0.22854273 -0.21888258 -0.22875746
0002a0 02 11 2f be ed 04 23 3e d0 06 4a be d9 2d 17 3c
       -0.17096332 0.15919848 -0.19729161 0.0092272395
0002b0 f0 22 65 be 2b 75 8c be 67 3c 57 be f8 ab 3f be
       -0.22376609 -0.27433142 -0.21019135 -0.18717945
0002c0 45 9a dc 3c 29 88 5b be 74 b4 27 be f5 83 d9 3c
       0.02692903 -0.2143866 -0.16377431 0.02655218
0002d0 b3 a4 43 3d 97 44 58 be b9 98 c0 3c d0 2c 4d be
       0.04776449 -0.21119915 0.023510324 -0.20036626
0002e0 f5 2c bf 3c a2 64 54 be 55 b0 72 3c f8 bf 89 3c
       0.023336867 -0.20741513 0.014812549 0.01681517
0002f0 f5 ab 59 3d 7a 52 59 be ef a9 fa 3a 30 df 95 3c
       0.053142507 -0.21222869 0.001912413 0.0182949
000300 c5 96 e1 3c 70 00 2c be 9b b9 3e be 0d 9c 4f 3d
       0.027537713 -0.16797042 -0.1862549 0.05068593
000310 1e 81 55 be cd e3 07 3d bb 06 3d be 2f 6b 07 3d
       -0.20850036 0.033176232 -0.18459599 0.033061203
000320 a0 f3 35 be a3 9a 5e 3c 03 59 14 3b 96 83 3f be
       -0.17768717 0.013586673 0.0022636063 -0.1870254
000330 94 af 41 be 6e 74 a9 3c ac 9a 4a be c3 16 4b 3f
       -0.18914634 0.0206854 -0.19785565 0.79331607
000340 23 6d 8a 3c e7 b2 3b 3c dd 07 0d 3f 58 b0 42 be
       0.016897744 0.011456228 0.55090123 -0.19012582
000350 b1 ea 86 3c 64 8c 6c be 42 3b a7 3c 62 ba de 3b
       0.016469331 -0.2310043 0.020413999 0.006797121
000360 90 c8 37 3d 36 e0 73 3d 0a 7d 46 be c0 f2 ef 3a
       0.044869006 0.059539996 -0.19383636 0.0018306598
000370 ae 04 1f 3c d4 5f a0 bc 3d 38 4c be ff 20 4c be
       0.009705706 -0.019576944 -0.19943328 -0.19934462
000380 fa 54 4d be 91 d4 9a 3c 8a 62 68 be de a8 47 3d
       -0.20051947 0.018900188 -0.2269384 0.04874503
000390 3c f5 0a 3d 71 88 4f be f3 16 07 3d 3a 5f 56 bd
       0.03392528 -0.20266892 0.03298087 -0.05233691
0003a0 88 6f 3e be eb 19 d8 3b 23 48 2c be d9 4e 22 3e
       -0.18597233 0.0065948865 -0.16824393 0.1585039
0003b0 ae 69 7a bd bf 22 36 be ba c7 54 3b f7 9c 11 3d
       -0.06113594 -0.17786692 0.003246768 0.035550084
0003c0 54 c0 83 3f 2c c0 6f be 57 63 be 3c e3 e7 39 be
       1.0293069 -0.23413152 0.023240728 -0.18154864
0003d0 27 1d 41 3d 6f 6c 8d 3c 6d 7f 3e be 1c 85 10 bd
       0.047146942 0.01726362 -0.18603297 -0.035283193
0003e0 3b 12 55 be 89 06 39 be 0d 6a 56 3d 76 c2 3d 3d
       -0.20807736 -0.18068899 0.05234723 0.04632803
0003f0 a3 8d 43 be 80 02 23 bf d8 8b ed b9 ff 51 5f be
       -0.19096999 -0.6367569 -0.00045308354 -0.21808623
