youtube-ppo/tmp/ppo/lyapunov2-dt.pth (torch, 271034 bytes, 5 tensors)

critic.0.weight f4 [256, 3]
0	0x3ec260a9	0.3796437
1	0xbf118fa7	-0.5685982
2	0xbd93f210	-0.07223904
3	0xbeb94eaa	-0.36192828
4	0x3e660a1e	0.22464797
5	0x3d457348	0.048205644
6	0x3e04d686	0.12972459
7	0x3e3ecc8c	0.18632716
8	0xbeda2992	-0.4260984
9	0xbeceb551	-0.40372708
10	0xbee37970	-0.44428587
11	0x3d48dc7b	0.04903839
12	0xbeca28a1	-0.39484122
13	0xbe0f56c2	-0.13997939
14	0x3e3e703a	0.18597499
15	0xbe02d9dd	-0.12778421
16	0xbc6ad30d	-0.014332545
17	0xbc05c70f	-0.008165135
18	0x3ec9ce27	0.39415094
19	0xbe80b4b5	-0.2513787
20	0x3e5490a4	0.20758301
21	0x3e529332	0.20563963
22	0xbe10bf5c	-0.14135498
23	0xbe72f55c	-0.2372641
24	0x3ecc5219	0.39906386
25	0x3ea6f353	0.32607517
26	0xbe1e2a09	-0.15445723
27	0x3e4894d5	0.19588025
28	0x3f014a47	0.50503963
29	0x3e82b5d3	0.25529346
30	0xbe090b6a	-0.1338326
31	0x3e9398c1	0.2882748
32	0x3cffa2f7	0.031205637
33	0x3e00de7d	0.12584873
34	0x3ebd963c	0.37028682
35	0xbe01adc7	-0.12663947
36	0x3ef24be8	0.47323537
37	0xbe909361	-0.2823744
38	0x3e547d4a	0.20750919
39	0x3e893ffb	0.26806626
40	0x3d4c5ebd	0.049895037
41	0xbeb4a72c	-0.35283792
42	0xbb023353	-0.0019867017
43	0xbe5f050d	-0.2177927
44	0xbe6e4a5b	-0.23270552
45	0x3e53ddfd	0.2069015
46	0xbe934f23	-0.28771314
47	0x3e9a5899	0.3014572
48	0xbdd73778	-0.10508627
49	0xbe44e8b4	-0.19229394
50	0xbe2fcd30	-0.17168117
51	0x3e695e1f	0.2278981
52	0x3ebf15a5	0.373212
53	0x3e9b395c	0.303172
54	0xbee19175	-0.44056287
55	0xbec718c5	-0.38886085
56	0x3dc5ca8a	0.09657772
57	0x3ef37aea	0.47554713
58	0xbdaf3193	-0.085543774
59	0xbd293328	-0.041308552
60	0x3d45268b	0.04813246
61	0xbeeaed2a	-0.45884067
62	0x3e7e5b48	0.24839509
63	0x3e00a012	0.12561062
64	0xbe82814a	-0.25489265
65	0x3ee306fd	0.4434127
66	0x3ef3cd67	0.47617647
67	0x3f0daab1	0.5533858
68	0xbef9d1c6	-0.48792857
69	0x3e226726	0.1585966
70	0xbeb2f1c6	-0.34950083
71	0x3e93a198	0.28834224
72	0xbeb069b3	-0.34455642
73	0xbed85ce7	-0.4225838
74	0x3ea05dfd	0.31321707
75	0x3cd83e0a	0.02639677
76	0xbee83e83	-0.45360193
77	0x3e719c39	0.2359475
78	0x3ecbfa11	0.39839223
79	0xbe257ba7	-0.16160451
80	0x3e70cac1	0.23514844
81	0x3eb4dc00	0.35324097
82	0x3ddcf3fe	0.10788725
83	0xbe7d1226	-0.24713954
84	0x3eaa4430	0.33255148
85	0xbe4fe03c	-0.20300382
86	0x3e665a63	0.22495417
87	0xbd832460	-0.06403422
88	0x3ea9589b	0.33075413
89	0xbe31ad60	-0.17351294
90	0x3df3860e	0.11890803
91	0x3ee4868e	0.44633907
92	0x3e23a1c8	0.15979683
93	0xbed22d25	-0.41050068
94	0xbe9c1e2c	-0.3049177
95	0x3e35031b	0.17676966
96	0xbdcf8f41	-0.101347454
97	0xbd3e03d5	-0.046390373
98	0x3f0a1816	0.53943
99	0xbd1afc77	-0.037838425
100	0xbe8f1348	-0.27944398
101	0x3f00bf12	0.5029155
102	0xbe86b588	-0.26310372
103	0xbe0b3904	-0.13595968
104	0x3eab3b9e	0.33443922
105	0x3ef7d5db	0.48405346
106	0xbe77a233	-0.24182968
107	0xbc69979b	-0.014257337
108	0xbef9f3bc	-0.48818767
109	0x3ee27163	0.44227132
110	0xbeb1b0db	-0.34705243
111	0x3ee247f7	0.4419553
112	0xbebca45d	-0.3684415
113	0x3ead4edd	0.3384923
114	0x3e60d34f	0.21955608
115	0x3e01b247	0.12665664
116	0x3dd7fc1a	0.105461314
117	0x3f0b3821	0.5438252
118	0x3d7786c5	0.06043126
119	0x3e076912	0.13223675
120	0x3ea06bd8	0.31332278
121	0x3f00688a	0.50159514
122	0xbe5587e7	-0.20852624
123	0x3ef003e7	0.46877977
124	0xbdfd10ee	-0.12356745
125	0xbe0cac77	-0.13737665
126	0xbf0d162f	-0.55111974
127	0x3f06f362	0.5271512
128	0x3e9e6f48	0.30944276
129	0xbe867dd3	-0.2626787
130	0x3e8a4a19	0.27009657
131	0x3d1b0102	0.037842758
132	0x3b92513e	0.004465251
133	0xbce54db4	-0.027991153
134	0x3eaf096b	0.34186873
135	0xbe8ff1fb	-0.28114304
136	0xbea09f06	-0.31371325
137	0xbed76021	-0.42065528
138	0xbe4ad7df	-0.19808911
139	0x3e900033	0.28125152
140	0xbe9cd9a5	-0.306348
141	0x3ed6b355	0.41933694
142	0x3e1aac08	0.15104687
143	0xbec1aee4	-0.37828743
144	0x3c59a466	0.013283825
145	0x3e2ea33a	0.17054453
146	0x3f002f23	0.50071925
147	0x3e730697	0.23732983
148	0xbef8042a	-0.48440677
149	0x3e9ea771	0.30987123
150	0x3ef9d8f4	0.48798335
151	0xbe0ebb0a	-0.13938537
152	0x3ee9a16d	0.4563097
153	0x3d6bc2f4	0.05755897
154	0xbd6cc321	-0.057803277
155	0xbe060998	-0.13089597
156	0xbe766927	-0.2406355
157	0xbe836baf	-0.25668094
158	0x3e3991e7	0.18122064
159	0x3ecabe93	0.39598522
160	0x3e816fc3	0.2528058
161	0x3db374fa	0.08762546
162	0xbeb91024	-0.36145127
163	0x3ce41bcb	0.027845284
164	0xbb6d171a	-0.00361771
165	0xbf07b295	-0.5300687
166	0x3ed23f94	0.4106413
167	0xbf05fa15	-0.5233472
168	0xbe888a9b	-0.26668248
169	0x3ea85da6	0.32883948
170	0x3d38c3a9	0.04510847
171	0x3dbf3c80	0.09337711
172	0xbf00c170	-0.5029516
173	0xbe8f2383	-0.2795678
174	0xbda1a3a6	-0.078925416
175	0xbe93c0e2	-0.28858095
176	0xbdf685a0	-0.12037206
177	0x3de71e95	0.1128513
178	0x3efc6cb6	0.4930169
179	0x3efa5af6	0.48897523
180	0xbf0075d2	-0.5017978
181	0xbed75198	-0.4205444
182	0x3ddd2ed2	0.10799946
183	0x3ed7dc96	0.4216048
184	0x3eda81d5	0.4267718
185	0xbe890b61	-0.26766494
186	0xbdbc1f25	-0.09185628
187	0xbdb7e858	-0.08979863
188	0x3d2564df	0.0403794
189	0xbd407b08	-0.04699233
190	0xbd3ede5c	-0.046598777
191	0x3f03125c	0.5119989
192	0x3f041240	0.5159035
193	0x3e22f398	0.15913236
194	0x3ea8bb72	0.3295551
195	0x3ebde36f	0.3708758
196	0x3e5fb48c	0.21846217
197	0x3e774f6b	0.2415139
198	0xbf03acda	-0.51435626
199	0xbe8f14b3	-0.2794548
200	0x3ec1da71	0.3786197
201	0xbead11c7	-0.33802626
202	0x3e17bdba	0.14818469
203	0x3ebb13f0	0.3653865
204	0xbe693272	-0.2277315
205	0xbe63f934	-0.22263032
206	0xbe0de624	-0.13857323
207	0xbf101cd3	-0.5629398
208	0xbdae61a3	-0.085147165
209	0xbf02de01	-0.5112
210	0x3de042d9	0.1095025
211	0xbd74c23c	-0.05975555
212	0x3eb0405d	0.34424105
213	0x3eda2fbd	0.42614546
214	0x3e2d43b1	0.16920353
215	0xbec68da8	-0.3877995
216	0xbee6d2bd	-0.45082656
217	0x3eaa0a5c	0.3321103
218	0xbe96e0c3	-0.29468355
219	0x3db6282f	0.08894383
220	0x3dcea46c	0.10089955
221	0xbec2fdd2	-0.38084275
222	0xbe068009	-0.13134779
223	0x3d9077bf	0.0705409
224	0xbd5ceecc	-0.053938672
225	0x3e2f1489	0.17097677
226	0x3eca9bea	0.39572078
227	0xbe973277	-0.2953069
228	0x3efc9648	0.49333405
229	0x3e1aa159	0.15100612
230	0xbf011f2a	-0.5043818
231	0x3c0af716	0.008481761
232	0x3ebad75d	0.36492434
233	0xbef3b360	-0.4759779
234	0x3dc91c6d	0.09819875
235	0x3d843324	0.06455067
236	0xbd87813a	-0.06616445
237	0x3f156318	0.5835433
238	0xbea4ccc0	-0.32187462
239	0xbeab9f84	-0.33520138
240	0xbe00b05c	-0.12567276
241	0x3e09e67a	0.13466826
242	0x3e23b02b	0.15985171
243	0x3ea2c5b3	0.31791458
244	0x3ed29161	0.4112654
245	0x3c826f8f	0.015922336
246	0xbee47f29	-0.44628266
247	0xbeca8559	-0.3955486
248	0xbf04b7e9	-0.51843125
249	0xbe89cd81	-0.269146
250	0xbe790dc6	-0.2432166
251	0x3df38a0a	0.11891563
252	0x3ef72121	0.48267463
253	0xb9a8e4d2	-0.0003221394
254	0xbd55c6e8	-0.052191645
255	0x3f0f3d88	0.55953264

critic.0.bias f4 [256]
0	0x3e16a679	0.14711942
1	0xbe199684	-0.14998823
2	0xbe196200	-0.1497879
3	0x3e98fc7c	0.2988013
4	0xbe4f168a	-0.20223442
5	0xbe47c7fb	-0.1950988
6	0x3f13492c	0.57533526
7	0xbeffbe4e	-0.49949878
8	0xbbb9721b	-0.0056593544
9	0x3d90aac0	0.07063818
10	0xbea9a3b4	-0.33132708
11	0x3e665f3d	0.22497268
12	0x3f04bb5f	0.51848406
13	0x3dbf12ab	0.093297325
14	0xbe64de3d	-0.22350402
15	0x3ec3221b	0.38111958
16	0xbdaf1c48	-0.08550316
17	0x3eeec94b	0.4663795
18	0x3e8cf9aa	0.2753423
19	0x3f08e139	0.5346866
20	0x3eb8ce45	0.3609487
21	0xbe826311	-0.25466207
22	0x3ec800db	0.39063153
23	0x3ecdcfaf	0.40197513
24	0x3e81c74d	0.25347367
25	0xbdf30ea7	-0.11868029
26	0xbee5dac7	-0.44893476
27	0x3efd115b	0.49427304
28	0xbf06d106	-0.52662694
29	0xbdd9ead4	-0.10640493
30	0xbf02e866	-0.5113586
31	0x3d81eb8a	0.06343754
32	0xbdf1ae57	-0.11800831
33	0xbf0420ce	-0.51612556
34	0x3ee5d6a5	0.44890323
35	0x3e8f5326	0.27993125
36	0x3d1fc1f1	0.039003316
37	0x3e4c168a	0.19930473
38	0xbf0c457f	-0.5479354
39	0x3db32e03	0.087490104
40	0xbd4e6a57	-0.050394382
41	0xbe6a5080	-0.22882271
42	0xbec5e6b5	-0.38652578
43	0xbe0d8671	-0.13820817
44	0xbe95049f	-0.29105088
45	0xbecc8b58	-0.3995006
46	0xbee256e2	-0.4420691
47	0xbce44ea0	-0.027869523
48	0x3e46337e	0.1935558
49	0xbefee8ff	-0.49787137
50	0x3eaadc0c	0.33371007
51	0xbf015b03	-0.505295
52	0xbedba66b	-0.42900404
53	0x3ecd0187	0.40040228
54	0x3eaf6186	0.34254092
55	0xbd2d67c0	-0.04233527
56	0xbe939bc8	-0.2882979
57	0x3eb3e045	0.35132042
58	0xbe5f9974	-0.21835881
59	0x3d88dfe5	0.066833295
60	0xbd4a91b0	-0.049455345
61	0x3c70ba79	0.014692896
62	0xbc19476f	-0.00935541
63	0xbf039816	-0.5140394
64	0xbe68759e	-0.22701117
65	0x3ec00f6a	0.3751176
66	0xbe6125a0	-0.21987009
67	0x3ca01a99	0.019543933
68	0x3e9f85f2	0.3115688
69	0x3edd1bb9	0.43185213
70	0x3e915431	0.28384545
71	0x3ed22ad8	0.41048312
72	0xbeea1c2a	-0.45724612
73	0xbeb8bbfb	-0.36080918
74	0xbf15297b	-0.5826642
75	0xbeb8926a	-0.36049205
76	0x3ef9c509	0.48783138
77	0xbe851608	-0.2599337
78	0x3df74608	0.12073904
79	0x3e1a7fdc	0.15087837
80	0x3eafc780	0.34331894
81	0xbee09ce6	-0.43869704
82	0xbe9a2bb6	-0.30111474
83	0x3f0a2c5e	0.5397395
84	0x3e6b3348	0.22968781
85	0xbe376567	-0.17909776
86	0xbee20db2	-0.44151074
87	0xbdcfbc25	-0.101433076
88	0x3e2bb8a5	0.16769655
89	0x3f07b72d	0.5301388
90	0x3df9ce21	0.12197519
91	0xbe9fc21d	-0.31202784
92	0xbec2ce0a	-0.3804782
93	0xbccc0a6c	-0.024907313
94	0xbd86e2ec	-0.06586251
95	0xbea865d8	-0.328902
96	0x3f1c308a	0.61011565
97	0xbec45dca	-0.38352805
98	0xbf09472a	-0.5362421
99	0xbea3a755	-0.31963602
100	0xbe5983a8	-0.21241629
101	0x3d2a7466	0.041614912
102	0xbe901f39	-0.2814882
103	0xbe697a3f	-0.2280054
104	0xbe21e760	-0.15810919
105	0x3e35ada1	0.17742015
106	0xbebb7e80	-0.3661995
107	0x3e668191	0.22510363
108	0x3e669615	0.22518189
109	0x3ee1cfc4	0.44103825
110	0xbf0d54f5	-0.5520776
111	0x3e93ac31	0.2884231
112	0xbec1c368	-0.37844396
113	0x3e9cf2cb	0.30653986
114	0xbd9a6fe0	-0.0754087
115	0x3f003c38	0.50091887
116	0x3e5d820f	0.21631645
117	0xbee6ff37	-0.45116588
118	0xbde142f7	-0.10999101
119	0x3e6ef0cf	0.23334049
120	0x3f005a89	0.50138146
121	0xbee1cfe8	-0.44103932
122	0x3ecbd02b	0.39807257
123	0xbdfc4101	-0.12317086
124	0x3e8e95c2	0.2784863
125	0xbf0b297f	-0.54360193
126	0x3ec00d93	0.37510356
127	0xbf067c9e	-0.525339
128	0xbf0a3bbe	-0.5399741
129	0x3eab8c7d	0.33505622
130	0xbed21d98	-0.41038203
131	0x3f166ea1	0.58762556
132	0x3e3c4394	0.18385154
133	0xbde48d9e	-0.11159824
134	0x3f0b06ce	0.5430726
135	0x3d04adb3	0.032392215
136	0x3ec92386	0.39284915
137	0x3ea2cb5c	0.31795776
138	0x3eaeef25	0.34166828
139	0xbdf9d90d	-0.12199602
140	0x3e572fca	0.21014324
141	0xbf0bbfcd	-0.5458954
142	0xbf01c5ea	-0.5069262
143	0xbe066d2c	-0.13127583
144	0x3ece0201	0.40235904
145	0xbefd046d	-0.4941744
146	0xbf0dd6ae	-0.554057
147	0x3eccf27c	0.4002875
148	0x3da009a6	0.0781434
149	0xbef86237	-0.48512432
150	0x3ef65c04	0.48117077
151	0x3e9c666c	0.30546892
152	0xbd7152fb	-0.058917027
153	0x3dc14093	0.09436145
154	0x3ec0eb05	0.37679306
155	0xbc7315f6	-0.014836779
156	0xbf00f074	-0.503669
157	0x3efc185c	0.49237335
158	0xbeae2654	-0.34013617
159	0x3e1a5841	0.15072729
160	0x3eb293be	0.34878343
161	0x3d917a42	0.07103397
162	0x3ce0f5b7	0.027460916
163	0xbe289f2c	-0.16466969
164	0x3ec4ef6d	0.38463917
165	0xbd0737c3	-0.033012163
166	0x3dd18c8f	0.102318875
167	0x3eeb77aa	0.45989734
168	0x3f0fb45c	0.5613458
169	0xbee5a827	-0.44854853
170	0xbecbda9a	-0.39815217
171	0x3ec36c9a	0.38168794
172	0x3f085455	0.5325368
173	0xbeebc0af	-0.46045443
174	0x3e5fe7df	0.21865796
175	0xbe4dbc23	-0.200913
176	0xbda4210b	-0.08014115
177	0xbd638b33	-0.055552673
178	0x3c967a71	0.018368931
179	0x3ea6a29b	0.32545933
180	0x3e88e9af	0.26740786
181	0x3ef62ea2	0.48082453
182	0xbc2a61fb	-0.010399337
183	0xbd8ac51d	-0.067758776
184	0xbe985b71	-0.29757264
185	0x3e0d8904	0.13821799
186	0x3ea7669d	0.32695475
187	0x3e305acd	0.17222138
188	0xbd3039ea	-0.04302398
189	0xbeb46c88	-0.35239053
190	0xbe796175	-0.24353583
191	0xbda977ff	-0.082748406
192	0x3effa635	0.49931493
193	0xbe86c84e	-0.26324695
194	0xbeaa63a9	-0.3327916
195	0x3d401af3	0.0469007
196	0xbec7110f	-0.38880202
197	0xbeb950dc	-0.36194503
198	0x3e8415ea	0.2579797
199	0xbece7431	-0.40323022
200	0xbe496ba1	-0.19669963
201	0x3f0116b8	0.5042529
202	0x3eaa4a8f	0.3326001
203	0x3e2f6bc3	0.17130952
204	0xbf204dd5	-0.6261876
205	0x3f1211f4	0.57058644
206	0x3e6fbad0	0.23411107
207	0xbecb5a44	-0.39717305
208	0xbce49c21	-0.02790648
209	0xbef9edb4	-0.48814166
210	0xbef566d4	-0.47930014
211	0x3f12c897	0.57337326
212	0x3ef92ae0	0.48665524
213	0xbd1f8ea0	-0.038954377
214	0x3dc1e384	0.09467223
215	0xbf11ecf9	-0.57002217
216	0xbf0fa6a9	-0.5611368
217	0x3ed9e7ab	0.4255956
218	0xbee84b10	-0.45369768
219	0x3ee0b649	0.43889073
220	0xbed5c0f7	-0.41748783
221	0xbcb15dc2	-0.021651153
222	0x3ed87f07	0.42284414
223	0xbe53dfd6	-0.20690855
224	0x3d70c095	0.05877741
225	0xbf10225f	-0.56302446
226	0xbeeca073	-0.46216163
227	0x3f038eef	0.51389974
228	0x3d9fd5b6	0.07804434
229	0x3eec9dce	0.46214145
230	0x3e8d636e	0.2761492
231	0x3e793da9	0.24339928
232	0xbbfb8db5	-0.007676805
233	0x3f0165d0	0.5054598
234	0xbe71ba20	-0.23606157
235	0xbec710bd	-0.38879958
236	0x3edc3b71	0.430141
237	0x3dd7ba4d	0.10533581
238	0xbd0d69da	-0.034524776
239	0x3c4c1f50	0.012458637
240	0x3f15d148	0.5852246
241	0x3eb54931	0.35407403
242	0x3e91271b	0.28350148
243	0xbd30100b	-0.04298405
244	0x3ed98eb5	0.4249169
245	0x3e5a394c	0.2131092
246	0x3e4b1bf5	0.19834884
247	0xbdc73335	-0.09726564
248	0x3ef5d7a9	0.48016098
249	0x3e887d68	0.26658177
250	0xbc955a1d	-0.018231446
251	0x3d9c0f3e	0.07620095
252	0xbee71a72	-0.45137364
253	0x3e4c39c8	0.19943917
254	0xbd8bdeb6	-0.06829588
255	0xbe9a95c4	-0.30192387

critic.2.weight f4 [256, 256]
0	0xbc8fd83f	-0.017559169
1	0x3cb64a4a	0.02225222
2	0x3d031baf	0.032008823
3	0x3c0515d4	0.00812288
4	0xbd2a3924	-0.0415584
5	0x3d577a4a	0.05260686
6	0xbc0f2598	-0.00873699
7	0xbc3ab6b3	-0.011396098
8	0x3d204f2a	0.039137997
9	0x3d811da2	0.0630448
10	0xbd1788e2	-0.036995776
11	0xbd6ebc9c	-0.05828534
12	0x3d0d3ef7	0.034483876
13	0xbb2a044d	-0.0025942505
14	0x3c578485	0.013154154
15	0xbd005427	-0.031330254
16	0xbd837ad5	-0.06419913
17	0xbd634cb7	-0.055493083
18	0xbd6889d0	-0.056772053
19	0x3d73e902	0.059548385
20	0x3d3f5ef0	0.0467214
21	0x3d672a75	0.056436975
22	0x3d14ca56	0.036325775
23	0x3d215516	0.039387785
24	0xbcb9da83	-0.022687202
25	0x3d38d65d	0.045126308
26	0xbccc6bfd	-0.024953837
27	0xbd8e3022	-0.06942774
28	0xbc84a0db	-0.016189983
29	0xbd62377a	-0.055228688
30	0xbd109fcd	-0.035308648
31	0xbd223ad7	-0.039606895
32	0x3d3abce8	0.04559031
33	0x3c920fbd	0.01782977
34	0x3cec6a37	0.028859241
35	0xbd583e71	-0.052793924
36	0x3b816200	0.00394845
37	0xbd339957	-0.04384741
38	0x3c80a4eb	0.015703639
39	0x3d33ca94	0.043894365
40	0x3d6f14fc	0.05836962
41	0xbd3be8f9	-0.045876477
42	0x3d011b3e	0.03152012
43	0xbd2bb7b7	-0.04192325
44	0xbabf0902	-0.0014574828
45	0xbbd0b8b2	-0.0063696736
46	0x3c6ef4fb	0.014584775
47	0x3d4e818b	0.05041651
48	0xbd405a69	-0.04696122
49	0x3b449593	0.002999638
50	0xbd1f4eba	-0.03889344
51	0x3c512d53	0.012767154
52	0xbd03702d	-0.0320894
53	0xbd10035b	-0.03515945
54	0xbcc52ccc	-0.024069212
55	0xbd0e0c88	-0.03467992
56	0x3c862ec8	0.016379729
57	0x3d757cff	0.05993366
58	0x3d4b9f8f	0.049712714
59	0xbd1a0b0d	-0.037608195
60	0x3cd76758	0.026294395
61	0x3c9828b3	0.018574094
62	0xbd47e2f6	-0.04880043
63	0xbd20f34d	-0.03929453
64	0xbc696b64	-0.014246795
65	0xbcf713b7	-0.030160768
66	0xbc1f6a90	-0.009729996
67	0x3d151693	0.03639848
68	0xbd4590fe	-0.04823398
69	0x3d476edb	0.048689704
70	0x3d666088	0.056244403
71	0xbd3036b9	-0.043020938
72	0xbca55ff2	-0.020187352
73	0x3ce4de93	0.027938163
74	0x3ca5414b	0.020172736
75	0xbca052ce	-0.019570734
76	0xbd66bb66	-0.05633106
77	0x3b64edcb	0.0034931775
78	0xbd807587	-0.062724166
79	0xbd166f22	-0.03672708
80	0xbc41443e	-0.011796055
81	0x3c2007e8	0.00976751
82	0x3d043eae	0.03228634
83	0x3cd45f9c	0.025924496
84	0xbc696d06	-0.014247185
85	0x3c0a490d	0.008440268
86	0xbbe232f6	-0.0069030477
87	0x3d251f9a	0.04031334
88	0xbc9fa450	-0.01948753
89	0xbcd1d589	-0.025614517
90	0x3bd4846a	0.0064855115
91	0x3b646eb5	0.0034856026
92	0xbd027f69	-0.03185979
93	0xbd083c2a	-0.033260502
94	0x3b3ce544	0.0028823176
95	0x3d486b00	0.04893017
96	0xbd8668e4	-0.06562975
97	0x3d4aeaa3	0.049540173
98	0x3cfdf446	0.031000268
99	0x3d2a52b8	0.041582793
100	0x3cf497e1	0.029857578
101	0xbcd61571	-0.026133271
102	0xbd04c104	-0.032410637
103	0x3d0d507d	0.034500588
104	0x3bedde3a	0.0072591575
105	0xbbd937d6	-0.0066289706
106	0xbcc78cda	-0.024359155
107	0xbd127081	-0.035751823
108	0x3d07f146	0.03318908
109	0xbccd0c54	-0.025030293
110	0xbcbe3c55	-0.023222128
111	0x3cfdba32	0.030972574
112	0xbc4648d6	-0.012102326
113	0x3d124175	0.035706956
114	0xbd45c32d	-0.048281837
115	0xbd80e0b0	-0.06292856
116	0xbcc15413	-0.02359966
117	0xbd722360	-0.059115767
118	0xbd290c72	-0.041271634
119	0x3d1af3b6	0.037830077
120	0xbd1ebff6	-0.038757287
121	0x3cff2b81	0.031148674
122	0xbcabaa89	-0.020955341
123	0xbc09cb0c	-0.008410227
124	0x3c142e35	0.00904422
125	0xbc9f24ac	-0.019426666
126	0xbd8c4cf7	-0.068506174
127	0x3c70e178	0.014702193
128	0x3c49f6f8	0.012326948
129	0x3d40514e	0.04695254
130	0x3be8b345	0.0071014487
131	0x3b84cb79	0.004052576
132	0x3c6f426c	0.014603239
133	0xbce66d29	-0.028128223
134	0x3cc80443	0.024416095
135	0x3d8f5d5d	0.070002295
136	0xbbfdc1f9	-0.0077440706
137	0x3bbbce10	0.0057313517
138	0xbc60e0d7	-0.013725481
139	0xbcf6ecc6	-0.0301422
140	0xbcae8325	-0.021302769
141	0x3cc24764	0.023715682
142	0x3d65ec6a	0.056133665
143	0xbb490a25	-0.0030676213
144	0xba85050e	-0.0010148601
145	0xbcbeb7f1	-0.02328107
146	0x3c18b549	0.0093205655
147	0xbd076466	-0.03305473
148	0x3c0bfd0f	0.008544221
149	0xbc4a5362	-0.012348982
150	0xbd63c9a7	-0.055612233
151	0x3d383e51	0.044981305
152	0xbc012e82	-0.0078846235
153	0x3c91e881	0.017811062
154	0xbd0c6a7c	-0.03428124
155	0xbcee46f9	-0.029086577
156	0xbd8a6dbb	-0.06759211
157	0xbd5c47cd	-0.053779412
158	0xbd2f49cf	-0.042795
159	0xbd568620	-0.052374005
160	0x3c9e99ab	0.019360384
161	0xbce916df	-0.028453289
162	0xbd0186a6	-0.03162255
163	0x3cbce0d0	0.023056418
164	0x3d4f9fec	0.050689623
165	0x3cd32423	0.025774067
166	0x3ce230e9	0.027611213
167	0x3cd39eb7	0.025832517
168	0xbbc23cbd	-0.0059276507
169	0x3d0aaa20	0.03385365
170	0xbd5b3d7b	-0.05352543
171	0x3ceb46bf	0.028720258
172	0xbd3d0df1	-0.046155874
173	0x3b319b68	0.0027100686
174	0x3ca78684	0.020449884
175	0x3d57451b	0.05255614
176	0x3d7b3da9	0.0613381
177	0x3d42f7c7	0.04759958
178	0xbbb33ff0	-0.0054702684
179	0x3cce7fa7	0.025207354
180	0x3d584893	0.052803587
181	0xbba55907	-0.0050460133
182	0xbca9b1d1	-0.020714672
183	0xbd1dbc9d	-0.038509954
184	0xbd7696be	-0.060202353
185	0xbd1d9f5d	-0.03848206
186	0x3ca00ce9	0.019537406
187	0x3d45e8b7	0.048317637
188	0x3b80324c	0.003912246
189	0x3d5d5e90	0.05404526
190	0x3d52d7d5	0.051475365
191	0x3c4e1906	0.012579208
192	0x3bbdda9e	0.0057938835
193	0xbcf055a5	-0.029337713
194	0xbd25f4d8	-0.040516704
195	0x3d2837cd	0.04106884
196	0x3aac2d97	0.0013136145
197	0xbd4dcb62	-0.05024279
198	0xbd6d454a	-0.057927407
199	0x3c7b7e8b	0.015349994
200	0xbd095422	-0.0335275
201	0x3ccc7725	0.024959156
202	0x3d069d41	0.032864813
203	0x3d265235	0.040605742
204	0x3d2a4dce	0.041578107
205	0xbd19f2ed	-0.037585188
206	0xbcdd197e	-0.026989695
207	0xbc0fde94	-0.008781094
208	0x3d0ad064	0.033890143
209	0x3d666fea	0.056259073
210	0xba0c78fd	-0.0005358605
211	0x3bda4bf4	0.0066618863
212	0x3cfef551	0.031122835
213	0x3cabd3a1	0.020974936
214	0xbc4a2a4b	-0.012339185
215	0x3c95575b	0.01823013
216	0x3c84401c	0.016143851
217	0xbd2e5007	-0.04255679
218	0xbd2f19d5	-0.042749245
219	0xbd7acc74	-0.061230138
220	0x3d3abf1d	0.045592416
221	0xbcd0e52e	-0.025499906
222	0x3cf07e3b	0.029357066
223	0xbd520fb1	-0.051284496
224	0x3d462073	0.04837079
225	0x3c58d320	0.01323393
226	0xbd353ed0	-0.044249356
227	0x3c3578f3	0.0110762
228	0x3cc78237	0.024354083
229	0x3d0e855a	0.034795143
230	0x3d0ba08f	0.034088667
231	0x3d0251e3	0.031816375
232	0xbb81596d	-0.003947428
233	0xbc8f3f20	-0.017486155
234	0x3d05dfdd	0.032684196
235	0x3c60edec	0.0137286
236	0xbd649170	-0.055802763
237	0x3d309ddd	0.0431193
238	0x3bca0ec5	0.0061663114
239	0xbcedd6eb	-0.029033145
240	0xbd203a2f	-0.03911799
241	0xbd28b65d	-0.04118954
242	0x3d5e2070	0.054230154
243	0xbcdd74f2	-0.027033303
244	0x3d18ea65	0.03733291
245	0x3d467ca4	0.04845871
246	0x3cd175b9	0.02556883
247	0x3d186e6d	0.037214685
248	0xbcec0fdb	-0.028816154
249	0x3d25b25e	0.040453307
250	0xbd06c55a	-0.032903053
251	0x3989a0cb	0.00026250476
252	0xbaa745aa	-0.001276185
253	0xbcd0f7cc	-0.025508784
254	0xbcf02f48	-0.02931942
255	0xbc5b26c5	-0.013375943

critic.2.bias f4 [256]
0	0xbd4360ac	-0.047699615
1	0x3c31f3ce	0.01086135
2	0x3d2f1167	0.042741206
3	0x3d552427	0.05203643
4	0x3ce60138	0.028076753
5	0xbd2fa728	-0.042884022
6	0xbd1a96f8	-0.03774163
7	0x3d32f81b	0.043693643
8	0xbd8497c8	-0.064742625
9	0xbc7c0bc8	-0.015383668
10	0x3ceab1c4	0.028649218
11	0xbb8afaed	-0.0042413385
12	0x3d6dc9eb	0.058053892
13	0xbda7a1ac	-0.08185133
14	0x3d330ea0	0.04371512
15	0xbd0665f7	-0.032812085
16	0x3d3e771d	0.046500314
17	0x3d0a1361	0.033709887
18	0xbd5550ef	-0.052079137
19	0x3bb41a4a	0.005496298
20	0xbd2f4e97	-0.04279956
21	0xbd6256d9	-0.055258606
22	0xbbff54ab	-0.0077920756
23	0xbc22fe5c	-0.009948339
24	0x3d2577fa	0.04039762
25	0xbd50a1e2	-0.050935633
26	0x3cdb7d69	0.026793199
27	0xbd9c964c	-0.07645854
28	0xbc515b05	-0.012778048
29	0xbd4cefa3	-0.050033223
30	0xbcaf3c65	-0.021391103
31	0xbd389120	-0.045060277
32	0x3cf2532d	0.029580677
33	0x3d182d9c	0.03715287
34	0xbc396d20	-0.011317521
35	0xbc3b7eea	-0.011443833
36	0x3c8ba5cd	0.017046833
37	0xbc25a4a6	-0.010110056
38	0x3bd2bb43	0.0064310147
39	0xbd8f194c	-0.06987247
40	0x3d5997e0	0.053123355
41	0x3cab7acb	0.020932576
42	0x3cda91b4	0.026680805
43	0xbd7a37ea	-0.06108848
44	0x3d51f75a	0.051261283
45	0xbd28d2b4	-0.041216567
46	0xbbd4c2e4	-0.0064929593
47	0x3cf0fb3a	0.02941667
48	0xbba88bd8	-0.005143624
49	0xbd4fe32f	-0.05075377
50	0xbd6d09b8	-0.057870597
51	0x3d44cebc	0.04804872
52	0x3d316565	0.043309588
53	0x3c43ebf5	0.011958112
54	0xbbbd5f22	-0.005779163
55	0xbd852a23	-0.065021776
56	0x3b99dd02	0.0046955356
57	0xbae11656	-0.0017172794
58	0xbd581219	-0.052751634
59	0xbd00b182	-0.031419285
60	0x3cb01754	0.021495499
61	0x3d1083c5	0.035281915
62	0xbd81f53e	-0.06345604
63	0x3cfd4203	0.030915266
64	0xbd2f5946	-0.042809747
65	0xbcfe835d	-0.031068498
66	0xbd8541c4	-0.065066844
67	0x3cc2e85b	0.023792436
68	0x3b913900	0.0044318438
69	0xbd53a0f0	-0.051667154
70	0x3d5159f0	0.05111116
71	0xb9878ba8	-0.0002585326
72	0x398869c7	0.00026018752
73	0x3c2a2ebd	0.01038712
74	0x3ac032ca	0.0014663574
75	0x3cc7ba9a	0.02438097
76	0xbc4ce6cb	-0.012506197
77	0xbc46b0c4	-0.012127105
78	0xbd4cbef2	-0.049986787
79	0x3cdac6ac	0.026706062
80	0xbd2e3ef5	-0.04254051
81	0xbcfabd50	-0.03060785
82	0x3c22c3ed	0.009934408
83	0x3cfb38cc	0.030666731
84	0x3c9e877f	0.019351719
85	0x3d3114d1	0.043232743
86	0x3ce67d00	0.028135777
87	0xbd4f3a98	-0.05059299
88	0xbd995ae6	-0.074880406
89	0xbd73f9b2	-0.0595643
90	0xbd991703	-0.07475092
91	0xbcd4d2f8	-0.025979504
92	0xbd281a44	-0.041040674
93	0x3c971768	0.018443778
94	0x3cf8bd0f	0.030363588
95	0x3d0e230c	0.034701392
96	0x3ceafd61	0.028685274
97	0xbc78fb53	-0.015196639
98	0xbd8cb069	-0.06869585
99	0xbd1c4c93	-0.038158964
100	0x3c0e993a	0.008703524
101	0xbd391fc8	-0.045196325
102	0xbd8afb5f	-0.067862265
103	0xbd92c8e5	-0.07167224
104	0x3bcde521	0.006283418
105	0xbc5f6d40	-0.013636887
106	0xbd03830b	-0.032107394
107	0xbd529152	-0.05140812
108	0x3c6aca4b	0.014330457
109	0xbd129b75	-0.035792787
110	0x3d1f61a2	0.03891147
111	0xbb0b235b	-0.002123079
112	0x3d751b64	0.059840575
113	0x3c039935	0.008032133
114	0xbd6e40ce	-0.05816727
115	0x3c93445f	0.017976938
116	0x3ce4bd71	0.027922364
117	0xbd84902e	-0.064728126
118	0x3a1e45ce	0.00060376234
119	0xbc06e41d	-0.008233097
120	0x3cc81328	0.024423197
121	0x3a386a70	0.00070349034
122	0xbc30e236	-0.01079612
123	0x3ca941d0	0.020661265
124	0xbd432af0	-0.04764837
125	0xbc7540c6	-0.0149690565
126	0xbcde8bb6	-0.027166229
127	0xbd03df87	-0.032195594
128	0xbd439be8	-0.047756106
129	0xbd337183	-0.043809425
130	0xbaa4c120	-0.0012569763
131	0xbd269efc	-0.040678963
132	0x3ca874c4	0.02056349
133	0x3c3d66ed	0.011560184
134	0x3ca2de24	0.019881316
135	0xbd850969	-0.064959355
136	0xbd885f72	-0.0665883
137	0xbcb5af91	-0.022178443
138	0xbd8b7350	-0.068091035
139	0x3cae1421	0.021249833
140	0xbd79eabb	-0.061014872
141	0xbcea962f	-0.028636066
142	0x3cf8eee3	0.030387348
143	0xbd2b09af	-0.041757282
144	0x3d37e39a	0.044894792
145	0xbd06488c	-0.03278403
146	0xbd07ef9d	-0.033187497
147	0xba9dbc7b	-0.0012034321
148	0xbd0a47da	-0.03375993
149	0x3c78985d	0.015173045
150	0xbc022ae0	-0.0079447925
151	0xbce97a3f	-0.028500674
152	0xbd7c8b09	-0.06165603
153	0xbc8ceb23	-0.017201966
154	0x3cc51afa	0.024060715
155	0xbb6650db	-0.0035143408
156	0xbca38fec	-0.019966088
157	0x3b862671	0.004093938
158	0x3cb1bc8c	0.021696351
159	0xbd7ef246	-0.06224277
160	0xbd60f6d2	-0.054922886
161	0xbd1ca28a	-0.038240947
162	0x3c2368ae	0.009973688
163	0xbd8e1381	-0.06937314
164	0xbcf37b86	-0.029721987
165	0xbd4c6fbc	-0.049911246
166	0xbcf0a18c	-0.029373907
167	0xbd8b4794	-0.06800762
168	0xbd5a2d53	-0.05326588
169	0xbd3578a6	-0.044304512
170	0x3c21c355	0.009873231
171	0xbd06c569	-0.03290311
172	0xbcb27713	-0.021785295
173	0xbc243368	-0.010022022
174	0xbd5e2d45	-0.05424239
175	0xbd89cc32	-0.067284
176	0x3a779ba8	0.0009445497
177	0xbbbac73a	-0.005700019
178	0x3b28af2c	0.0025739176
179	0x3ce4dd45	0.02793754
180	0xbc89e547	-0.01683296
181	0xbb93d628	-0.0045116134
182	0x3c37e910	0.011225
183	0xbd6f4e0f	-0.05842405
184	0x3c4d17f3	0.012517917
185	0x3d45f222	0.04832662
186	0xbca6f61b	-0.020381024
187	0xbcfd00d4	-0.030884184
188	0xbd19ee7d	-0.037580956
189	0xbb91c7e0	-0.004448876
190	0xbd2c8e5c	-0.042127952
191	0xbbba0cc5	-0.005677792
192	0xbd37af9c	-0.04484521
193	0xbcbb935c	-0.022897415
194	0x3b868691	0.004105397
195	0xbd48e51e	-0.04904663
196	0xbd813377	-0.06308644
197	0xbcbe9031	-0.023262115
198	0xbc85dd51	-0.016340883
199	0x3d1c638c	0.038180873
200	0x3d3a1fc6	0.045440458
201	0xbd820743	-0.06349041
202	0xbd865a5b	-0.06560203
203	0x3c2788a7	0.010225452
204	0xbbd455d7	-0.0064799595
205	0x3d4a7f55	0.04943784
206	0xbd106553	-0.03525288
207	0xbb0196d5	-0.001977374
208	0x3cddbf0e	0.027068641
209	0xbc0e4f24	-0.008685861
210	0xbd2160a1	-0.039398793
211	0x3d1dc8e1	0.03852165
212	0x3d037a33	0.03209896
213	0xbd42ff71	-0.04760689
214	0xbd3338ee	-0.043755464
215	0xbccecfb1	-0.02524552
216	0xbd3645fb	-0.044500332
217	0xbd8612db	-0.06546565
218	0xbd46edca	-0.048566617
219	0xbd814913	-0.06312766
220	0xbb95092d	-0.004548213
221	0xbd2439b8	-0.040094107
222	0x3ca9c9d1	0.020726116
223	0xbd3edb84	-0.046596065
224	0xbd59813c	-0.053101763
225	0xbd2e041c	-0.042484388
226	0x3b6a908c	0.0035791723
227	0xbd05f392	-0.03270299
228	0xbbbd3720	-0.0057743937
229	0xbd42bf41	-0.047545675
230	0x3c5f31ed	0.013622743
231	0x3b775dde	0.0037745158
232	0x3d002160	0.03128183
233	0xbd90d876	-0.07072537
234	0x3d14c3b5	0.036319453
235	0xbd21d392	-0.03950841
236	0x3d6ed2fd	0.058306683
237	0x3d2b4258	0.041811317
238	0x3d0ae4e0	0.03390968
239	0x3caeccd8	0.021337911
240	0xbd1a91e3	-0.037736785
241	0xbaa1d0d6	-0.0012345563
242	0xbd05143f	-0.03249001
243	0xbd30032c	-0.042971775
244	0x3c6a76ed	0.014310581
245	0xbd0bf1ae	-0.03416603
246	0xbd81a172	-0.063296214
247	0x3c4158df	0.011800974
248	0x3c80f1d0	0.015740305
249	0x3d408bd7	0.04700836
250	0xbd016414	-0.031589583
251	0xbd07fc73	-0.03319974
252	0x3d448120	0.047974706
253	0x3c0a88b4	0.008455444
254	0x3d3ba192	0.045808382
255	0xbd1f9f12	-0.03897006

critic.4.weight f4 [1, 256]
0	0xba06bb1b	-0.0005139575
1	0x3b67eb28	0.0035387967
2	0xbc9c8f4b	-0.019111296
3	0x3c08ec45	0.008357112
4	0xbb3ec20c	-0.002910736
5	0x3abb3c09	0.001428486
6	0xbba273a1	-0.0049576317
7	0x3c1b7bff	0.009490012
8	0xba2a1ffc	-0.00064897514
9	0x3bdff390	0.006834455
10	0x3b404f8c	0.0029344289
11	0x3b8f7f75	0.0043792077
12	0x3b1ae26d	0.0023633495
13	0xbc311ded	-0.0108103575
14	0xbac45969	-0.001498026
15	0xbbd3e1dc	-0.0064661335
16	0x3d39dc76	0.045376264
17	0x3ba8e2f1	0.0051540066
18	0xb82422f0	-3.9133185e-05
19	0x3aa6ac65	0.0012716172
20	0xbc172a53	-0.0092263995
21	0x3b9b6f81	0.004743517
22	0x3b10ee03	0.0022114522
23	0xb7def0a3	-2.6576517e-05
24	0x3bb4d4c1	0.0055185263
25	0x3a195f06	0.00058506464
26	0x3984d385	0.00025334596
27	0xbcb2361d	-0.021754319
28	0x39a80442	0.0003204663
29	0xbc49ce4d	-0.012317252
30	0xb995078c	-0.00028425117
31	0x3d221f8e	0.039580874
32	0xba65de92	-0.00087688223
33	0x3a90a499	0.0011035382
34	0x3c057760	0.008146137
35	0xbc166b4c	-0.009180855
36	0xbb1c5d41	-0.0023859295
37	0x398188aa	0.0002470662
38	0xbc1d5220	-0.0096021
39	0xbc14ea33	-0.009089041
40	0x3a5dc986	0.000846051
41	0xba8ec5bb	-0.0010892669
42	0xbab5e5f4	-0.0013877735
43	0xbac946ce	-0.0015356184
44	0x3d43c49c	0.047794923
45	0xbd758181	-0.059937958
46	0xb9b8d2fc	-0.0003525241
47	0xbb724e12	-0.0036972803
48	0xb99b2ca9	-0.00029597178
49	0x3cbb6e19	0.022879647
50	0xbbeebeca	-0.0072859274
51	0x3ba6204e	0.005069769
52	0x3d4c797f	0.049920555
53	0x3b25208b	0.00251964
54	0xbb5e5692	-0.0033926112
55	0x3bcbcaea	0.0062192576
56	0x3d15ab53	0.03654034
57	0x3b379d31	0.0028017277
58	0x396fd671	0.00022872702
59	0xbad97c2d	-0.0016592793
60	0xbbbb6fa2	-0.005720095
61	0x3b273185	0.0025511694
62	0xb96b9c9a	-0.00022469685
63	0xbc061ac1	-0.00818509
64	0x3cf549bc	0.029942386
65	0xbd168d06	-0.036755584
66	0x3b0e59af	0.0021720936
67	0xb9fd975c	-0.00048368692
68	0xbd302916	-0.043007933
69	0x3bb18aad	0.005418143
70	0x3b7da100	0.00387007
71	0x3bd0f15f	0.00637643
72	0xbbb5d8c5	-0.0055495226
73	0xbc17253c	-0.009225186
74	0xbbde4719	-0.006783378
75	0x3b093f1d	0.002094216
76	0xbd192347	-0.03738716
77	0xbd2e00b9	-0.042481158
78	0x3b5334a7	0.0032227428
79	0x356e9590	8.887955e-07
80	0x3adf1c93	0.0017022066
81	0xbc0cd080	-0.008594632
82	0xbc859c2b	-0.016309818
83	0x39dda8ff	0.00042278317
84	0x3c11c76e	0.008897645
85	0x3b34011d	0.0027466484
86	0x3b05ccc0	0.002041623
87	0xbaecf226	-0.0018077537
88	0xb97b3e81	-0.0002396051
89	0x3c8ed9de	0.017437872
90	0x3b01cfd7	0.001980772
91	0xb9cd88d0	-0.0003920258
92	0x3a963b6b	0.00114618
93	0x3a434581	0.00074490166
94	0x3b19cb18	0.0023467
95	0x3c0c53eb	0.0085649295
96	0x3bac6a31	0.0052616824
97	0xbbd2f09c	-0.0064373743
98	0x39c8808d	0.0003824275
99	0xbc7ba72b	-0.01535968
100	0x39fd70c3	0.00048339934
101	0xbd5dc7ee	-0.054145746
102	0x3ab5d5a3	0.0013872873
103	0xbd0d5b6a	-0.034511007
104	0x384e29ea	4.9153263e-05
105	0x3d21974c	0.03945093
106	0xbb95662d	-0.0045592994
107	0xbb252df8	-0.0025204401
108	0xba90fe4d	-0.0011062116
109	0x3a8abce9	0.0010584864
110	0xbaa405d6	-0.0012513946
111	0xb9bda6f7	-0.00036173288
112	0xbd02af72	-0.0319056
113	0xbb0f6a58	-0.0021883454
114	0xbaa94544	-0.001291432
115	0xba60fc42	-0.0008582511
116	0xb88b2c80	-6.636325e-05
117	0xbae11bcd	-0.0017174423
118	0x39730bb6	0.00023178649
119	0xbb6e183c	-0.0036330363
120	0xba76f746	-0.0009421002
121	0xbc2a8b92	-0.010409253
122	0xbb4752f7	-0.003041444
123	0x3b29d7e1	0.0025916027
124	0x3d56da0d	0.052454043
125	0xb8fc1e29	-0.00012021914
126	0x3b431fd3	0.0029773607
127	0xbc012adb	-0.007883753
128	0x393df4ad	0.00018115593
129	0x3d273385	0.040820617
130	0x3cefd30a	0.029275436
131	0xba2197e4	-0.0006164296
132	0xbb209038	-0.0024500024
133	0x3d0ac93b	0.033883315
134	0x3bc1ce68	0.005914498
135	0xbb0814eb	-0.0020764421
136	0xba3d268a	-0.00072155206
137	0xbc1b8fa7	-0.009494699
138	0x3b4752f9	0.0030414446
139	0x3d20fbfb	0.039302807
140	0xbb141937	-0.0022598037
141	0x3aaf5071	0.0013375414
142	0xb9469d7f	-0.00018941423
143	0xba6a35f8	-0.00089344336
144	0x3c2a0977	0.010378233
145	0x3a92630f	0.0011168438
146	0xbb320252	-0.0027162028
147	0x3d347e2e	0.044065647
148	0x3c156919	0.0091192955
149	0x3d12021b	0.03564654
150	0x3a1256e8	0.0005582408
151	0x38065e44	3.203588e-05
152	0xbc2ece8f	-0.010669365
153	0x39498d4b	0.0001922149
154	0xb7304054	-1.0505395e-05
155	0xbc84020f	-0.016114263
156	0x3b642460	0.003481172
157	0xbc029c89	-0.007971891
158	0x3b868198	0.0041048042
159	0x3b169439	0.0022976531
160	0x3c0f7f06	0.008758312
161	0xbbeb944a	-0.0071893083
162	0xbc1606c3	-0.009156886
163	0xbad7f34a	-0.0016475704
164	0xb903f86b	-0.00012585676
165	0xbc1b51c3	-0.009479943
166	0x3a8c2fde	0.0010695418
167	0x394f6cf1	0.00019781642
168	0x3bc0db6a	0.005885531
169	0xbd2dc382	-0.04242278
170	0xbd2dc899	-0.042427633
171	0x3b9ad91c	0.0047255885
172	0x3cb3bc93	0.021940505
173	0xbd3fd0a4	-0.046829835
174	0xbc245ef5	-0.010032405
175	0x3b91f7fc	0.004454611
176	0x3d53f311	0.051745478
177	0xbc8bf421	-0.017084183
178	0xbd0c97c3	-0.03432442
179	0xbade0755	-0.0016939441
180	0xbc1be050	-0.0095139295
181	0xbad1807b	-0.0015983725
182	0x3b2271fd	0.002478718
183	0xbc29a983	-0.010355356
184	0x399039d1	0.00027508897
185	0xbb17d7d6	-0.002316942
186	0x3b8f114e	0.0043660766
187	0x3b7c5b76	0.0038506663
188	0xbb71bebc	-0.0036887368
189	0xbcb25aba	-0.021771777
190	0xbcffd744	-0.031230576
191	0x394e7364	0.00019688677
192	0x3c215200	0.0098462105
193	0xbabb4698	-0.0014288006
194	0x3afd9a0e	0.001934828
195	0xb7fef558	-3.0393407e-05
196	0x3aa5d07c	0.0012650634
197	0xbae33e0b	-0.0017337216
198	0x3bdaddff	0.006679296
199	0xba0417a7	-0.0005038925
200	0x3a8dee3e	0.0010828448
201	0x3b6ee618	0.0036453065
202	0xbc148f2c	-0.009067338
203	0xb95af4a1	-0.00020881231
204	0xbc2627bb	-0.010141308
205	0xbae8ff09	-0.0017776202
206	0xbd2b4d78	-0.041821927
207	0x3c493a16	0.012281915
208	0xbc50fc57	-0.012755475
209	0xbc357fcc	-0.011077832
210	0x3aab0b93	0.0013049714
211	0xba6309d5	-0.0008660828
212	0x39cb8f9f	0.00038826183
213	0x3a01ec74	0.0004956194
214	0x3c72f327	0.01482848
215	0xbcef241f	-0.029192029
216	0xb9ac82a1	-0.00032903723
217	0x3ccc582d	0.02494439
218	0xbb4e3d55	-0.0031469662
219	0xbcc0e6d3	-0.023547566
220	0xbadb4431	-0.0016728697
221	0x398a6867	0.00026399197
222	0x3c3a1693	0.011357921
223	0xbb65987d	-0.0035033517
224	0xba32c9ef	-0.00068202516
225	0x3a012afc	0.00049273646
226	0xbb2c9ad4	-0.0026337402
227	0xb8639acf	-5.4265194e-05
228	0xbcd3f04c	-0.025871418
229	0xba12c363	-0.0005598573
230	0xba8b6ed3	-0.0010637887
231	0x3a1982bb	0.0005855967
232	0xb96f2a1b	-0.00022808502
233	0xbaeb882a	-0.0017969657
234	0x3c2a7ede	0.010406224
235	0xba01bfb1	-0.0004949524
236	0xbb6392f8	-0.0034725051
237	0xba999745	-0.0011718055
238	0xbc9c359f	-0.019068537
239	0x3a93fe86	0.0011291064
240	0x3ab20be4	0.0013583866
241	0x3acd80c2	0.0015678632
242	0x3bf57189	0.007490341
243	0xbae91e29	-0.0017785478
244	0x394e4be4	0.00019673962
245	0xbaa4a537	-0.0012561445
246	0xbd3a8fb2	-0.045547195
247	0x3a50032e	0.0007935044
248	0x3a6f95d6	0.0009139454
249	0xbd47ea5b	-0.048807483
250	0xbd766afa	-0.060160615
251	0x3aa58bb9	0.0012630142
252	0xbb8d0523	-0.004303591
253	0x3cb12178	0.021622404
254	0x3a68289b	0.00088561483
255	0x384ed759	4.9314785e-05
