youtube-ppo/tmp/ppo/lyapunov2.pth (torch, 271004 bytes, 5 tensors)

critic.0.weight f4 [256, 3]
0	0xbe6c1d5b	-0.23058073
1	0x3d3e4485	0.046452064
2	0x3e3c8ca7	0.1841303
3	0x3edf5192	0.4361692
4	0x3e08f196	0.13373408
5	0xbe8532e2	-0.26015383
6	0x3e949873	0.2902256
7	0xbdac3060	-0.08407664
8	0x3e71b14b	0.23602788
9	0xbe2ffaf2	-0.17185572
10	0x3e645eea	0.22301832
11	0x3e9cf3da	0.30654794
12	0xbe78f93a	-0.24313822
13	0x3e0d82ad	0.1381938
14	0xbc997bdd	-0.01873582
15	0xbec204fe	-0.37894434
16	0x3e4c08de	0.19925258
17	0xbe451ebb	-0.19250004
18	0x3ecd89af	0.40144107
19	0x3f0a29cf	0.53970045
20	0x3ea4d86c	0.32196367
21	0x3eeeeb63	0.4666396
22	0x3e81f986	0.25385684
23	0xbe8af700	-0.2714157
24	0xbeee3f53	-0.46532688
25	0x3e9e7db9	0.30955294
26	0xbd2f0a19	-0.04273424
27	0x3ee88b25	0.4541866
28	0x3e9c2849	0.30499485
29	0x3ebc5097	0.36780235
30	0xbe8aa7bf	-0.27081105
31	0xbeabb1bf	-0.33534047
32	0xbea16666	-0.31523436
33	0xbedc8d74	-0.4307667
34	0x3e8b6937	0.2722871
35	0x3ea79447	0.32730314
36	0x3d820d95	0.06350247
37	0xbea3c7ad	-0.31988278
38	0xbec69074	-0.38782084
39	0xbe129918	-0.14316213
40	0x3ec24b1f	0.37947938
41	0x3ec7e5c5	0.39042488
42	0x3d87d715	0.066328205
43	0x3ebe7ddf	0.37205407
44	0x3cbba2c4	0.022904761
45	0xbd391607	-0.045187023
46	0xbed99bb3	-0.42501602
47	0x3e71aa4b	0.23600118
48	0xbca524a9	-0.020159082
49	0x3e4f469c	0.20241779
50	0x3d89cdf3	0.06728735
51	0xbdfb1c0e	-0.122612104
52	0x3e739aa1	0.23789455
53	0xbea9044e	-0.33011097
54	0xbe815e86	-0.25267428
55	0x3ec0467d	0.37553778
56	0x3e7bba68	0.24582827
57	0x3d4378a0	0.04772246
58	0xbed17c5f	-0.409152
59	0xbe7e0e6f	-0.24810193
60	0x3e3fe90c	0.18741244
61	0x3d0f6ead	0.035017658
62	0xbe06aef9	-0.13152684
63	0x3e1c4b48	0.15263093
64	0xbe41f3d9	-0.18940677
65	0xbec986bf	-0.39360616
66	0x3e054370	0.13014007
67	0xbe95cb50	-0.29256678
68	0x3e38866a	0.18020025
69	0xbe8970de	-0.26843923
70	0xbe931765	-0.28728786
71	0x3eed28f3	0.46320304
72	0x3f020793	0.5079281
73	0x3d8b833b	0.068121396
74	0x3e30180e	0.17196676
75	0x3f0c257c	0.54744697
76	0xbe35762c	-0.1772086
77	0xbeb56a85	-0.3543283
78	0xbdc4d85a	-0.09611578
79	0xbf0834f0	-0.53205776
80	0x3d68d49d	0.05684339
81	0x3e823a99	0.2543533
82	0xbeaa6ebf	-0.33287618
83	0xbe838da1	-0.25693992
84	0x3ee3681f	0.44415376
85	0x3d94b069	0.0726021
86	0x3e1c6f28	0.15276778
87	0xbdfe8cf1	-0.12429226
88	0x3ed60dd8	0.41807437
89	0x3d81db54	0.06340662
90	0x3dac75bf	0.08420896
91	0xbf06e568	-0.52693796
92	0xbd7bb915	-0.061455805
93	0x3e8cd0c5	0.2750303
94	0x3e3ce2a2	0.18445829
95	0xbd205a10	-0.03914839
96	0x3e59a084	0.21252638
97	0xbebc8ad5	-0.3682467
98	0x3f006699	0.5015655
99	0xbef59828	-0.47967649
100	0xbeba1d93	-0.36350688
101	0xbe9fc79a	-0.3120697
102	0x3e656cae	0.2240474
103	0x3ed32df8	0.4124601
104	0xbdace7da	-0.0844266
105	0xbdeb71a0	-0.114962816
106	0x3efa1e63	0.48851308
107	0x3eac52dd	0.3365697
108	0xbf06ea7d	-0.5270155
109	0x3e5a192e	0.21298668
110	0xbe1c8a20	-0.15287066
111	0x3ed8ec60	0.4236784
112	0x3ed4526c	0.41469133
113	0x3ee44bfc	0.4458922
114	0x3eb4b627	0.3529522
115	0x3c81f897	0.015865607
116	0xbce63726	-0.028102469
117	0x3efec978	0.49763083
118	0x3ed906fe	0.42388147
119	0x3e5a26e5	0.213039
120	0xbeeec802	-0.4663697
121	0xbe09fcee	-0.13475391
122	0x3dafc1e3	0.08581903
123	0x3e9bab68	0.3040421
124	0x3eab0603	0.33403024
125	0x3efacf88	0.4898646
126	0xbc445a6e	-0.011984451
127	0xbdd9b2ba	-0.106297925
128	0xbeee535d	-0.46547976
129	0xbe31392e	-0.17306969
130	0xbeb163e6	-0.3464653
131	0xbed123c1	-0.4084759
132	0xbeb2fdb5	-0.34959188
133	0xbe48de6a	-0.19616094
134	0x3ca07de9	0.019591289
135	0xbd46d0d2	-0.04853899
136	0xbd3ba62e	-0.04581278
137	0x3ddd9080	0.10818577
138	0xbebe2572	-0.37137944
139	0x3c060c6e	0.008181674
140	0xbd7e9180	-0.06215048
141	0xbe93fad8	-0.28902316
142	0x3e3bd4ad	0.18342848
143	0xbdaf57fd	-0.08561704
144	0x3e9e9e01	0.30979922
145	0xbf11c35c	-0.5693872
146	0xbed11647	-0.4083731
147	0xbd269144	-0.04066588
148	0xbe90a468	-0.28250432
149	0xbeb24ba1	-0.34823325
150	0xbec790d7	-0.38977692
151	0x3f0d2b1f	0.5514392
152	0x3e463ebf	0.19359873
153	0x3d409d56	0.047025047
154	0xbec5442b	-0.3852857
155	0x3f06785c	0.52527404
156	0x3f050ff9	0.519775
157	0xbe507204	-0.20355994
158	0xbe024a58	-0.12723672
159	0x3e19b85e	0.15011737
160	0xbd57f8e6	-0.052727602
161	0xbdbecf06	-0.0931683
162	0x3f075b61	0.5287381
163	0x3ec1a34d	0.378199
164	0xbea1aa74	-0.31575358
165	0x3ec12ba4	0.37728608
166	0x3ec696cd	0.38786927
167	0x3ecdd3fa	0.40200788
168	0x3e757be2	0.23973039
169	0x3d92d155	0.07168833
170	0xbd373219	-0.04472551
171	0xbebd4137	-0.36963817
172	0x3eb0fa4e	0.34565967
173	0xbeadc544	-0.33939564
174	0xbed5dc08	-0.41769433
175	0xbefedad3	-0.49776325
176	0xbdd2400d	-0.10266123
177	0x3c2c0618	0.0104995
178	0x3e7b9bd2	0.2457116
179	0xbe707a6d	-0.23484202
180	0x3e03274c	0.1280796
181	0x3e9565a6	0.29179114
182	0xbe8e5108	-0.27796197
183	0x3dc4f93c	0.0961785
184	0x3f090b82	0.53533185
185	0x3ec0df01	0.37670138
186	0xbe25a25c	-0.16175216
187	0x3d073c86	0.033016704
188	0xbe0d3583	-0.13789944
189	0x3e4ec8ce	0.20193788
190	0x3eb4fba6	0.35348243
191	0x3f04f8a5	0.519419
192	0x3f1f0929	0.6212335
193	0xbe55b80d	-0.20870991
194	0x3eae430a	0.34035522
195	0x3e97991b	0.29608998
196	0x3d7a3129	0.06108204
197	0xbeef9e9d	-0.468007
198	0xbe442e4f	-0.1915829
199	0xbf0fb045	-0.5612834
200	0xbe263009	-0.16229261
201	0xbe6ddeec	-0.23229569
202	0xbf114486	-0.56745183
203	0xbece150c	-0.40250432
204	0xbe4e69b8	-0.20157516
205	0x3eaa8465	0.33304134
206	0x3e9b6cc5	0.30356422
207	0xbed596ea	-0.417167
208	0x3e09a327	0.13441144
209	0x3c44742c	0.011990588
210	0xbe7b34d8	-0.24531877
211	0xbedb2ca2	-0.4280749
212	0x3e635054	0.22198611
213	0xbf007961	-0.5018521
214	0x3e82ebcf	0.25570533
215	0x3e94ce37	0.2906358
216	0x3e1a4d0e	0.15068457
217	0xbea92fd2	-0.33044297
218	0x3ec3b02f	0.38220355
219	0x3d018228	0.031618267
220	0xbf1297d3	-0.57262915
221	0xbd28041a	-0.041019537
222	0xbf082353	-0.531789
223	0xbe86ab1d	-0.26302424
224	0xbe6b27f2	-0.22964457
225	0x3e949bd1	0.29025128
226	0x3ea21865	0.31659237
227	0x3ec30239	0.38087633
228	0x3e330565	0.17482527
229	0xbf017afc	-0.50578284
230	0xbe7a5156	-0.2444509
231	0x3e08033a	0.13282481
232	0xbcf7efeb	-0.030265769
233	0x3e640a0a	0.22269455
234	0x3dff0622	0.124523416
235	0x3eb67fdf	0.35644433
236	0x3d661062	0.056167968
237	0xbede3491	-0.4339948
238	0xbe1e3d71	-0.15453126
239	0x3d3b4610	0.045721114
240	0xbe0c44b2	-0.1369808
241	0x3e067a8d	0.13132687
242	0xbee850fa	-0.4537428
243	0xbeabd1b2	-0.33558422
244	0x3e135e5e	0.14391467
245	0x3ed33666	0.4125244
246	0xbe219342	-0.1577883
247	0xbe63e3bd	-0.22254844
248	0x3e9233bf	0.28555104
249	0xbeb5ca41	-0.3550587
250	0xbd466293	-0.04843385
251	0x3e953520	0.29142094
252	0xbe8b4dc5	-0.2720777
253	0xbbc7ed12	-0.006101259
254	0x3dd4b8f1	0.10386837
255	0x3eb3ed38	0.3514192

critic.0.bias f4 [256]
0	0xbedbc6b8	-0.42925048
1	0xbe3152a3	-0.1731668
2	0xbea8171a	-0.32830125
3	0x3e899626	0.26872367
4	0xbedc0b36	-0.42977303
5	0xbec8b30b	-0.391991
6	0xbecc1f22	-0.39867502
7	0x3dd06d74	0.101771265
8	0xbe4d4faa	-0.2004992
9	0x3c74a844	0.014932696
10	0xbd950cee	-0.07277857
11	0xbeb5580f	-0.35418746
12	0xbe95978c	-0.29217184
13	0x3eab8ae7	0.33504412
14	0x3dd4c42e	0.10388981
15	0x3ec7cbc3	0.39022645
16	0xbf1afcca	-0.60541975
17	0xbf08d17c	-0.5344465
18	0xbee442b8	-0.44582152
19	0x3ef2b49c	0.4740342
20	0x3e20a293	0.15687017
21	0xbed377ef	-0.4130244
22	0x3d20282d	0.039100815
23	0xbaeef583	-0.0018231127
24	0x3e25481c	0.16140789
25	0x3f034c58	0.51288366
26	0xbe92d18d	-0.286755
27	0xbf1197b6	-0.5687212
28	0x3f002f76	0.5007242
29	0xbec7b7ed	-0.39007512
30	0x3eef2221	0.46705726
31	0x3ebabb6c	0.36471117
32	0xbf0ea725	-0.5572379
33	0xbe913211	-0.2835851
34	0x3ec2b296	0.38026875
35	0xbf107b46	-0.564381
36	0xbce63bca	-0.028104682
37	0xbf19dd52	-0.60103333
38	0xbe9a43d9	-0.3012989
39	0x3e81ffcf	0.2539048
40	0x3a2f566c	0.0006688598
41	0x3eb479f1	0.35249284
42	0x3eb3e23c	0.3513354
43	0xbe10b518	-0.14131582
44	0xbf12c57d	-0.57332593
45	0x3f0b8283	0.5449602
46	0xbd3fdfc8	-0.046844274
47	0xbe7e7785	-0.2485028
48	0x3e44eb41	0.19230367
49	0x3f02cc61	0.5109311
50	0xbec705fc	-0.38871753
51	0xbb81e83e	-0.003964453
52	0x3d6e8f1b	0.058241945
53	0xbe402002	-0.1876221
54	0x3e8623a8	0.2619908
55	0xbe7b82d8	-0.24561632
56	0x3f0cae64	0.549536
57	0xbd379894	-0.044823244
58	0x3d6849bd	0.056710947
59	0x3e58a97c	0.21158403
60	0x3ca0dd0a	0.01963665
61	0x3bd34402	0.006447316
62	0xbe7931c9	-0.24335398
63	0xbef8c671	-0.485889
64	0xbc88e52e	-0.016710844
65	0x3d49ed54	0.0492986
66	0x3dc8d3ef	0.09806048
67	0x3e56d21d	0.2097859
68	0xbdcb61cf	-0.09930765
69	0x3e4a5555	0.19759114
70	0x3c5eb4db	0.013592924
71	0x3de69f53	0.112608574
72	0x3e3f385f	0.18673848
73	0xbe8a17ce	-0.26971287
74	0xbeb59aff	-0.35469815
75	0xbde613a0	-0.11234212
76	0x3eefb2c1	0.46816066
77	0xbecc9ff9	-0.399658
78	0xbebf01ed	-0.37306157
79	0xbec16ec6	-0.37779826
80	0x3ea23272	0.31679112
81	0xbbcf1b88	-0.0063204207
82	0xbbf1135d	-0.0073570446
83	0x3efff121	0.49988654
84	0xbe2ca1c5	-0.16858585
85	0x3ee11f52	0.43969208
86	0xbec0a829	-0.37628296
87	0x3f09bd3f	0.5380439
88	0x3cb6279e	0.022235688
89	0x3d92d146	0.07168822
90	0x3eaa0501	0.33206943
91	0xbe5cfc5f	-0.21580647
92	0xbf0bffb2	-0.54687035
93	0xbd737ffd	-0.05944823
94	0x3d120474	0.035648778
95	0x3e2cadb3	0.16863136
96	0x3d8a0305	0.06738857
97	0xbf0a268c	-0.5396507
98	0x3dc369d9	0.09541673
99	0x3e4ea931	0.20181729
100	0x3e230904	0.15921408
101	0xbee23dbf	-0.44187734
102	0x3e2d82c4	0.16944414
103	0x3e21792f	0.15768884
104	0x3f01018c	0.50392985
105	0x3ec6ae80	0.38805008
106	0x3ec11ff2	0.37719685
107	0xbeff6fa4	-0.49889863
108	0x3e4148e0	0.18875456
109	0x3ebea262	0.37233263
110	0x3ea64ee8	0.32482076
111	0x3e94eef6	0.29088563
112	0xbf0b1678	-0.5433116
113	0xbf024488	-0.5088582
114	0xbc9cb390	-0.01912859
115	0xbe35d914	-0.1775859
116	0xbe2d9245	-0.16950329
117	0xbee299db	-0.44258007
118	0x3f152cf4	0.5827172
119	0xbe30dfc1	-0.17272855
120	0x3e7c9b75	0.24668677
121	0xbea3043e	-0.31839174
122	0xbe1ad054	-0.15118533
123	0xbe512d3a	-0.20427409
124	0x3e020b6b	0.12699668
125	0x3d08a06f	0.033356126
126	0xbe093d03	-0.1340218
127	0x3e4c43e0	0.19947767
128	0xbd5ac464	-0.05340995
129	0x3e114be9	0.14189114
130	0x3e121422	0.14265493
131	0x3c7bc843	0.01536757
132	0xbebb1b3e	-0.36544222
133	0xbf07ad83	-0.5299913
134	0xbf0d83e4	-0.55279374
135	0x3b3d1577	0.0028851905
136	0x3dc257a0	0.094893694
137	0x3e95e757	0.2927806
138	0x3cfd7861	0.03094119
139	0xbeb2b089	-0.3490031
140	0xbee2ddf9	-0.44309977
141	0x3ef0938a	0.46987563
142	0x3ecd6c29	0.40121582
143	0x3effbb34	0.49947512
144	0x3ef75b57	0.48311874
145	0x3e1723e1	0.1475978
146	0x3e1c777d	0.15279956
147	0x3ed964ff	0.42459866
148	0xba9c2e74	-0.00119157
149	0xbefd7a48	-0.49507356
150	0x3e38ae94	0.18035346
151	0xbec6881f	-0.38775727
152	0x3ca53ad2	0.02016965
153	0xbeb3c7d1	-0.35113385
154	0xbc4414bd	-0.011967835
155	0x3e1a8192	0.1508849
156	0xbeea6f53	-0.4578806
157	0xbf114518	-0.56746054
158	0x3e9450de	0.28967947
159	0xbe8f578d	-0.27996483
160	0x3dc8fb57	0.09813564
161	0x3d7f6374	0.062350705
162	0xbbdbf142	-0.00671211
163	0xbe672c86	-0.22575578
164	0xbeda6816	-0.42657536
165	0xbdc150ff	-0.09439277
166	0xbdd5a422	-0.104316965
167	0x3eafb17a	0.3431509
168	0xbdc1b4a4	-0.094582826
169	0x3e70f499	0.23530807
170	0xbe84d183	-0.25941095
171	0xbeaf8a59	-0.34285238
172	0x3bac6737	0.0052613276
173	0xbe9d34a0	-0.30704212
174	0xbf0721f7	-0.527862
175	0x3ec9744e	0.39346546
176	0xbe0b1cd5	-0.13585217
177	0xbc71cc06	-0.014758116
178	0xbe952982	-0.2913323
179	0x3ec45f51	0.3835397
180	0x3f23a332	0.6392089
181	0x3c4729bf	0.012155949
182	0xbec89498	-0.39175868
183	0x3e4cd189	0.20001806
184	0x3e70ed7f	0.23528098
185	0x3ed2086e	0.41022056
186	0x3ea457c2	0.32098204
187	0xbe4d3b89	-0.20042242
188	0xbd84297f	-0.06453227
189	0x3e19f013	0.15032987
190	0xbde6ee66	-0.1127594
191	0xbed3fb3a	-0.41402608
192	0x3d3818a6	0.04494538
193	0x3e537f1d	0.20653959
194	0x3eecefb9	0.46276644
195	0xbeb39636	-0.3507554
196	0xbdf8540d	-0.121254064
197	0x3d006e8f	0.031355437
198	0x3eb64f60	0.35607433
199	0x3d3af3a2	0.045642503
200	0xbf02a19d	-0.5102785
201	0x3ec23db8	0.37937713
202	0xbf04c405	-0.518616
203	0x3ec9a6d0	0.3938508
204	0xbf0151ed	-0.50515634
205	0xbf0a6f5a	-0.5407616
206	0x3decaba1	0.11556173
207	0x3d9eb7f9	0.07749934
208	0x3d76f59e	0.060292833
209	0xbe1c759e	-0.15279242
210	0x3d6d87a8	0.0579907
211	0x3e597875	0.21237357
212	0x3ec8805c	0.3916043
213	0xbee3e496	-0.44510335
214	0xbf0c2bfc	-0.54754615
215	0x3ea4ffac	0.32226312
216	0xbe682892	-0.22671726
217	0x3e373b47	0.17893706
218	0x3d72a881	0.05924273
219	0x3eeb9054	0.4600855
220	0xbc8bdd4a	-0.017073292
221	0xbea4710c	-0.32117498
222	0x3ee8b453	0.45450076
223	0xba03b373	-0.00050239934
224	0x3ecf3620	0.40470982
225	0xbedf2c88	-0.43588662
226	0x3e60d885	0.21957596
227	0xbe15ca6d	-0.14628
228	0xbeec9f78	-0.46215415
229	0x3eff64d2	0.49881607
230	0xbed959a0	-0.4245119
231	0xbda133b8	-0.07871193
232	0x3c948ecf	0.018134503
233	0xbeab6e06	-0.3348238
234	0xba0601f8	-0.00051119877
235	0xbe9f8c38	-0.31161666
236	0x3e306451	0.17225768
237	0xbdd95c6e	-0.10613333
238	0xbe67b4d0	-0.22627568
239	0xbb66f700	-0.0035242438
240	0x3e753c5d	0.23948808
241	0xbe2f662f	-0.17128824
242	0xbca0ab9e	-0.019613083
243	0xbeda3723	-0.4262019
244	0x3ec88733	0.3916565
245	0xbf0224b7	-0.5083727
246	0x3c53ee84	0.0129352845
247	0xbdc1c214	-0.094608456
248	0xbe94b717	-0.29045936
249	0xbed33d11	-0.41257527
250	0xbef76d81	-0.48325732
251	0xbe9b5f5d	-0.30346194
252	0xbcba5619	-0.022746133
253	0x3ee6c53e	0.4507236
254	0xbc8cea8b	-0.017201683
255	0x3eece23e	0.4626636

critic.2.weight f4 [256, 256]
0	0x3ca12880	0.019672632
1	0xbd2b3d23	-0.04180635
2	0x3ced55c5	0.028971562
3	0x3cdc5835	0.02689753
4	0x3d3fef86	0.046859287
5	0xbd19dd62	-0.037564643
6	0xbd1fb50b	-0.038991015
7	0xbcdb32b2	-0.026757572
8	0x3cea84d3	0.028627789
9	0x3c9ed0a4	0.019386597
10	0xbd350691	-0.044195715
11	0x3cc2614f	0.023728041
12	0xbd5a6925	-0.05332293
13	0x3cb5ed29	0.022207813
14	0x3d26126f	0.040544923
15	0x3d2b87af	0.041877445
16	0xbd333b27	-0.043757584
17	0x3ce63b41	0.028104426
18	0x3c32a502	0.010903599
19	0xbcdeaf09	-0.027183073
20	0x3cfb435f	0.030671773
21	0xbd813b82	-0.06310178
22	0x3d75f87d	0.06005143
23	0xbd84718a	-0.06466968
24	0x3d27a99f	0.040933248
25	0x3c9abc28	0.018888548
26	0xbd1dc406	-0.03851702
27	0x3cd30387	0.025758518
28	0x3c0bbedd	0.008529392
29	0xbd84f260	-0.06491542
30	0x3c771fa0	0.015083224
31	0x3ca8c154	0.020599999
32	0xbc91890f	-0.01776555
33	0x3d862519	0.065500446
34	0xbd350862	-0.044197448
35	0x3d32ddd8	0.043668598
36	0xbd7051a6	-0.058671616
37	0xbb98c85d	-0.004662557
38	0x3d231970	0.03981918
39	0xbd7b033e	-0.06128239
40	0xbc7e6210	-0.01552631
41	0xbce2f68f	-0.027705459
42	0xbd1d527b	-0.038408738
43	0x3d21f907	0.03954413
44	0xbd870962	-0.065935865
45	0xbd2a6d5f	-0.04160821
46	0xbc5c0b03	-0.01343036
47	0x3d308c08	0.043102294
48	0x3ad99a2d	0.0016601734
49	0xbcb91632	-0.022593591
50	0x3ccf371c	0.025294833
51	0x3d0c97de	0.03432452
52	0x3d5e59e2	0.054284938
53	0xbd44bb05	-0.04802992
54	0x3d3da8fe	0.04630374
55	0x3d43524c	0.047685906
56	0xbd83889f	-0.06422543
57	0x3caf3373	0.021386838
58	0x3c062a62	0.008188816
59	0xbd822817	-0.06355303
60	0xbba48492	-0.0050206864
61	0xbbae5e99	-0.0053213355
62	0xbd743428	-0.059620053
63	0x3d1bea7f	0.03806543
64	0x3ca78b40	0.020452142
65	0xbd28977d	-0.041160095
66	0x3b3e3fca	0.002902972
67	0x3c345300	0.011006117
68	0x3c8960e9	0.016769843
69	0xbbe8bb44	-0.007102402
70	0x3d3c6858	0.045997947
71	0xbc908135	-0.017639736
72	0x3d614b9a	0.05500374
73	0x3d886827	0.066604905
74	0xb9b04bfe	-0.00033625955
75	0xbd78f8a8	-0.060784012
76	0xbc2fc906	-0.01072908
77	0xbd42f14a	-0.047593392
78	0xbd8716e2	-0.065961614
79	0xbd813f85	-0.063109435
80	0x3d531e18	0.05154237
81	0xbaa21e3b	-0.0012368629
82	0xbc687aba	-0.014189417
83	0xbd765f26	-0.060149334
84	0xbc9bc201	-0.019013407
85	0xbb96a3cf	-0.004597164
86	0x3d028eb2	0.031874366
87	0xbd5dfdd4	-0.054197147
88	0xbd828889	-0.06373698
89	0xbc9ce4df	-0.019152103
90	0xbcc72e87	-0.024314178
91	0xb93eb8d1	-0.00018188661
92	0x39c85f62	0.00038218038
93	0xbcfe3e42	-0.031035546
94	0x3d20a4cb	0.03921966
95	0xbac4b510	-0.0015007574
96	0xbcaa7a21	-0.020810189
97	0x3cc18d63	0.023626989
98	0xbd2e24e2	-0.042515643
99	0x3b9c4f26	0.0047701774
100	0x3d2774e7	0.04088297
101	0x3d56457e	0.052312367
102	0xbb90ab53	-0.0044149547
103	0x3d0040e6	0.031311892
104	0xbc0f5314	-0.008747835
105	0x3cb1b577	0.021692974
106	0x3c9271d5	0.017876545
107	0x3d4905b5	0.04907771
108	0xbd3730e1	-0.04472435
109	0x3c43bd09	0.011946925
110	0xbd8168c8	-0.063188136
111	0x3c913051	0.017723234
112	0xbc6e7430	-0.014554068
113	0x3d3e213e	0.04641842
114	0x3d381df7	0.04495045
115	0xbd49c3db	-0.049259048
116	0xbaf088f7	-0.0018351366
117	0xbd531be4	-0.05154027
118	0xbb914e57	-0.0044343877
119	0x3cad87ea	0.021182973
120	0xbd0d03dd	-0.034427512
121	0x3cbcbc82	0.023039106
122	0x3c1d5925	0.009603773
123	0x3c2ea9f7	0.01066064
124	0x3c0a35fc	0.008435722
125	0xbd8162e0	-0.06317687
126	0xbd79a8cc	-0.060951993
127	0x3cd585b9	0.02606474
128	0xbd074e5e	-0.03303372
129	0x3d3f6939	0.046731208
130	0xbb05dfdb	-0.0020427618
131	0x3d490f22	0.049086697
132	0x3d452744	0.04813315
133	0x3d0bdc4a	0.03414563
134	0x3d2b7b82	0.041865833
135	0x3d5aa2c1	0.05337787
136	0xbbb2efd2	-0.0054607177
137	0xbcfb681d	-0.030689294
138	0xbd0cfa9a	-0.03441868
139	0xbd8e76c6	-0.06956248
140	0x3c9bdc17	0.019025845
141	0x3cca585f	0.024700342
142	0x3d08b999	0.033380125
143	0xbd7049d4	-0.058664158
144	0x3c568871	0.013094054
145	0xbd5a60f5	-0.05331512
146	0x3d00a815	0.031410296
147	0x3ccf3a5d	0.025296384
148	0xbd3ed3d2	-0.046588726
149	0xbcc1fd0d	-0.023680234
150	0x3d708b6d	0.058726717
151	0xbccede61	-0.025252523
152	0x3ae2fdfa	0.0017318123
153	0xbc945602	-0.018107418
154	0xbd0d5060	-0.03450048
155	0xbd443dab	-0.047910374
156	0x3d481a08	0.04885295
157	0xbb3558a2	-0.0027671237
158	0xbc07b36c	-0.008282524
159	0xbd015430	-0.031574428
160	0x3c4b1fad	0.012397689
161	0xbbbf5927	-0.005839485
162	0xbcb57a9d	-0.022153193
163	0xbbe649e9	-0.0070278537
164	0x3d0d2bb3	0.034465503
165	0x3cfd8460	0.03094691
166	0x3c50173d	0.012700853
167	0xbcff9be8	-0.031202272
168	0xbb8a7d1c	-0.00422634
169	0x3d1ddcb0	0.038540542
170	0xbd2563f0	-0.04037851
171	0xbd1ef77e	-0.038810246
172	0x3d01a912	0.03165538
173	0x3d70ccff	0.05878925
174	0x3c3ccec0	0.011523902
175	0x3aa17333	0.0012317657
176	0x3ccbf064	0.0248949
177	0xbd207b72	-0.039180227
178	0xbc08be79	-0.0083461935
179	0xbca69783	-0.020335918
180	0x3b4434e4	0.0029938752
181	0xbb3d1566	-0.0028851866
182	0x3b61ad00	0.0034435391
183	0xbcba4e03	-0.022742277
184	0xbc06d38a	-0.008229146
185	0x3cc252fb	0.023721209
186	0xbbbc58bd	-0.005747883
187	0xbbb046f6	-0.005379553
188	0xbd2b0962	-0.041756995
189	0xbd89fa8d	-0.06737242
190	0xbd8cb1d5	-0.06869856
191	0x3ca30c8c	0.019903444
192	0xbcbadc43	-0.022810107
193	0xbd86d908	-0.06584364
194	0xbd777d2e	-0.060422115
195	0x3c82d1d4	0.015969194
196	0xb7a18439	-1.9254267e-05
197	0xbca061b5	-0.01957784
198	0x3d30b0da	0.04313741
199	0xbd6fce02	-0.058546074
200	0xbd1a09e4	-0.03760709
201	0xbc95bbf7	-0.018278105
202	0x3d5496ca	0.051901616
203	0x3ce86f3f	0.028373359
204	0x3d331560	0.043721557
205	0xbbbdd6d0	-0.00579343
206	0x3c7b159a	0.015324974
207	0x3cfd4a80	0.030919313
208	0xbd6317fb	-0.05544279
209	0xbc7579df	-0.01498267
210	0x3c394810	0.011308685
211	0xbd88362a	-0.06650956
212	0xbd5ad06a	-0.053421415
213	0xbc94cd0d	-0.018164182
214	0x3c0933de	0.0083741825
215	0xbd31ebac	-0.043437645
216	0xbd8056a4	-0.062665254
217	0xbc8b956f	-0.017039029
218	0xbd04167f	-0.032248016
219	0x3c4faba3	0.012675199
220	0xbcfd9b9f	-0.030957995
221	0x3c8a4f7e	0.016883608
222	0x3c7883ef	0.015168174
223	0x3cfd6a54	0.03093449
224	0xbcb60b06	-0.022222053
225	0x3d489936	0.04897424
226	0xbd36137e	-0.044452183
227	0xbd801ca7	-0.06255465
228	0x3d5925cb	0.053014558
229	0xbca4ff8c	-0.020141385
230	0xbacfd831	-0.0015857277
231	0x3cb28043	0.021789676
232	0xbc3faa4c	-0.011698317
233	0x3cdea6ee	0.027179208
234	0xbc1c8fc0	-0.009555757
235	0x3c83f36c	0.016107284
236	0x3d66b6fb	0.056326848
237	0xbc91d13b	-0.017799964
238	0xbd4cff8f	-0.050048407
239	0x3d11e478	0.035618275
240	0xbd46f64b	-0.048574727
241	0xbd196540	-0.037450075
242	0xbad92794	-0.0016567581
243	0xbbcce8dc	-0.006253345
244	0xbd5ce01a	-0.053924657
245	0x3cf5e094	0.030014314
246	0xbc574473	-0.013138878
247	0x3d3a0e3e	0.04542374
248	0xbca41164	-0.020027824
249	0xbb7c2b6e	-0.0038478035
250	0xbca61619	-0.020274209
251	0xbbca7838	-0.006178882
252	0x3d39bc91	0.045345847
253	0x3d118a21	0.03553212
254	0xbc9707e4	-0.01843638
255	0xbb8232fa	-0.003973362

critic.2.bias f4 [256]
0	0x3bb3ddc6	0.005489084
1	0xbd9c47f1	-0.07630909
2	0xbccc8438	-0.02496539
3	0x3c80e2c0	0.015733123
4	0xbd93b590	-0.07212365
5	0xbd257f44	-0.040404573
6	0x3c8c2325	0.017106602
7	0x3d13b9e5	0.036065955
8	0xbc539bc4	-0.012915555
9	0x3d372ffb	0.044723492
10	0xbd69dccc	-0.057095334
11	0x3c95d613	0.018290555
12	0xbd6f77e8	-0.05846396
13	0x3ccffb54	0.025388397
14	0xbd5191c0	-0.05116439
15	0xbd540577	-0.051763024
16	0x3cdec725	0.027194569
17	0x3c7ced96	0.015437504
18	0x3d092df1	0.03349108
19	0x3d386e4b	0.04502706
20	0xbb11bff3	-0.0022239655
21	0xbd4f6446	-0.050632738
22	0xbd3c5cf4	-0.045987085
23	0xbc4433eb	-0.011975269
24	0x3ced07bb	0.02893435
25	0xbcac7fd0	-0.02105704
26	0x3c17329f	0.009228378
27	0xbd82138c	-0.063513845
28	0x39ee30cc	0.00045431254
29	0xbd48bac1	-0.049006227
30	0xbd6008de	-0.054695956
31	0x3bb811dc	0.0056173634
32	0xbcf49167	-0.02985449
33	0xbcf02fee	-0.02931973
34	0x3b231e97	0.002489006
35	0xbd51e7e8	-0.051246554
36	0xbd00e27f	-0.031466004
37	0xbcd74705	-0.026278982
38	0x3c9459f4	0.0181093
39	0x3c2d7be1	0.010588617
40	0xbac48d7f	-0.0014995782
41	0xbcd59437	-0.02607165
42	0x3c9e43ca	0.019319434
43	0xbd3fffde	-0.046874873
44	0x3d2cb4d8	0.042164654
45	0xbcab5cf8	-0.020918354
46	0xbd056e5f	-0.03257596
47	0xbd84c79f	-0.06483387
48	0xbc855853	-0.016277468
49	0xbcc4245a	-0.023943115
50	0xbcb4d702	-0.02207518
51	0xbc1558d1	-0.009115414
52	0xbd237020	-0.039901853
53	0x3d08532d	0.033282448
54	0xbd880ac8	-0.06642681
55	0xbbab9e89	-0.0052374047
56	0xbd04b3fd	-0.032398213
57	0xbd1b0bd0	-0.037853062
58	0x3cfe63f5	0.031053523
59	0x3c9fca7e	0.019505735
60	0x3cdd0336	0.02697907
61	0xbc78a472	-0.015175926
62	0xbd4b54f4	-0.049641564
63	0xbd642d15	-0.055707056
64	0x3d16c21f	0.036806222
65	0x3c7d84c6	0.01547355
66	0xbd20bcbc	-0.03924249
67	0xbd8cff97	-0.068846874
68	0x3cc9db8a	0.024640817
69	0xbcacb390	-0.021081716
70	0x3a9afed3	0.0011825211
71	0xbd8477f9	-0.064681955
72	0xbc67b240	-0.014141619
73	0x3d3c4050	0.04595977
74	0x3b8cc5ca	0.004296039
75	0x3b92a320	0.0044750124
76	0xbd9e2069	-0.077210255
77	0xbd51a4d3	-0.05118258
78	0xbd646858	-0.055763572
79	0xbd5d9766	-0.054099463
80	0x3ce79758	0.028270409
81	0x3c9df325	0.01928098
82	0xbd6800e4	-0.056641474
83	0x3b96df91	0.004604288
84	0xbcd6fa26	-0.026242327
85	0xbd57945b	-0.052631717
86	0x3c98c27a	0.018647421
87	0xbd58cf99	-0.052932356
88	0xbd3408aa	-0.043953575
89	0x3d00d6ec	0.031454965
90	0x3bc293f6	0.0059380485
91	0x3d34083a	0.043953158
92	0xbcda221c	-0.026627593
93	0xbcbeaac7	-0.023274792
94	0x3b9e8ce2	0.004838572
95	0xbbea5664	-0.007151412
96	0xbc4d0c48	-0.012515135
97	0x3ca98a13	0.020695722
98	0xbd31f2bd	-0.043444384
99	0xbd611314	-0.054949835
100	0xbd88ecb9	-0.06685776
101	0x3ccf848e	0.025331762
102	0xbd7a6f6a	-0.06114141
103	0xbd115071	-0.035477106
104	0xbd3800f9	-0.044922803
105	0x3d38b2eb	0.045092504
106	0xbd431b2a	-0.047633328
107	0x3ccf6c1e	0.025320109
108	0x3d0edd3b	0.03487895
109	0xbca193d6	-0.019723814
110	0xbd320f28	-0.043471485
111	0x3d2ce3bf	0.042209383
112	0x3cc9550e	0.02457669
113	0x3d02398b	0.03179316
114	0xbbad2b0a	-0.0052846717
115	0xbc01b3a5	-0.007916366
116	0x3c96cea8	0.018409088
117	0xbcddea65	-0.027089307
118	0xbd355655	-0.044271786
119	0xbd412a0e	-0.047159247
120	0xbd54e6fe	-0.051978104
121	0xbd4b6a3f	-0.04966187
122	0x3c829ee2	0.015944902
123	0xbd037cf4	-0.032101586
124	0x3d4f7b6f	0.050654825
125	0xbcaaa741	-0.020831706
126	0x3d3f600a	0.04672245
127	0x3d62e95f	0.05539834
128	0xbc8a3c44	-0.01687444
129	0xbd289ce4	-0.041165248
130	0x3ce9c150	0.028534561
131	0xbd2d7f27	-0.04235759
132	0xbc6b1065	-0.0143471705
133	0x3d187776	0.0372233
134	0x3c8b1099	0.016975688
135	0x3d07150e	0.032979064
136	0x3cbd559c	0.02311211
137	0xbd55068e	-0.052008204
138	0xbd054fea	-0.032546915
139	0x3d14d745	0.03633811
140	0x3c0e501d	0.008686093
141	0xbd7ba044	-0.061432138
142	0x3c028bdb	0.007967914
143	0x3cf51966	0.029919337
144	0x39d5483f	0.00040680353
145	0x3d30cf2f	0.043166336
146	0x3d015989	0.031579528
147	0x3a41fc20	0.0007399935
148	0x3d0be638	0.0341551
149	0x3c862664	0.016375728
150	0xbc233ba8	-0.009962954
151	0xbd16a137	-0.03677484
152	0x3c957e9c	0.018248849
153	0x3c0bfa0e	0.008543504
154	0x3cbbee19	0.022940682
155	0x3cd08f40	0.025458932
156	0xbd1a4c9f	-0.037670728
157	0xbd138443	-0.036014806
158	0x3cd3b194	0.025841512
159	0x3cd2f37f	0.025750874
160	0x3becb92c	0.0072242226
161	0x3d5d1dab	0.05398337
162	0xbd0cda7c	-0.03438805
163	0xbbb40464	-0.0054936875
164	0x3d27ef54	0.040999725
165	0xbcd07f31	-0.025451275
166	0xbd99dbc7	-0.07512622
167	0xbb1eebc8	-0.0024249423
168	0x3d38090e	0.04493051
169	0xbcafcd5d	-0.02146023
170	0xbba3303f	-0.0049801166
171	0xbd02b5da	-0.03191171
172	0x3c297ffe	0.010345457
173	0xbd271e04	-0.04080011
174	0x3cfd24db	0.030901363
175	0x3d0e7a69	0.03478471
176	0xbd598bdf	-0.053111907
177	0x3cb1abdf	0.0216884
178	0x3c0e3605	0.008679871
179	0x394a214a	0.00019276622
180	0xbd546301	-0.05185223
181	0xbd6cbcd5	-0.05779727
182	0xbd781270	-0.06056446
183	0xbd27bc4c	-0.04095106
184	0xbcc2516d	-0.023720467
185	0xbd1e43fc	-0.038639054
186	0xbbec6802	-0.007214547
187	0x3d2ed1f6	0.042680703
188	0xbcdf0177	-0.027222378
189	0xbcf6de51	-0.030135306
190	0x3d182845	0.03714778
191	0xbce9e534	-0.028551675
192	0x3c1ecdc1	0.00969261
193	0xbd1c111d	-0.038102258
194	0xbd96f36b	-0.07370647
195	0x3c81f78c	0.01586511
196	0x3d1b9c42	0.037990816
197	0x3c183097	0.0092889285
198	0x3b319103	0.002709449
199	0xbd311938	-0.04323694
200	0xbd9d3f24	-0.07678059
201	0xbd2c7e7c	-0.042112812
202	0xbd5a3573	-0.05327363
203	0x3cb4e7e5	0.022083232
204	0x3b7335c1	0.0037110897
205	0xbd5967a2	-0.053077348
206	0x3beb1ed9	0.007175308
207	0x3c33f5c3	0.010983887
208	0x3a520173	0.000801108
209	0xbd1f6e37	-0.03892347
210	0xbd64472e	-0.055731945
211	0xbc818718	-0.015811488
212	0x3cf3c0bc	0.029754989
213	0x3d026da9	0.03184286
214	0x3cda1aa8	0.026624039
215	0xbb8adb5c	-0.0042375755
216	0x3c309453	0.010777551
217	0xbd93b3f1	-0.072120555
218	0x3d0bba9d	0.034113515
219	0xbd14e967	-0.036355402
220	0xbd22716a	-0.03965894
221	0xbd9682ab	-0.07349142
222	0x3d2e56ed	0.042563368
223	0xbd4a11fb	-0.049333554
224	0x3cd3fe2d	0.025878036
225	0xbcdb49cd	-0.02676859
226	0xbd671dbe	-0.05642485
227	0xbd49ada2	-0.049237855
228	0xbbf738e3	-0.007544623
229	0xbd94ef29	-0.07272179
230	0xbd0640a9	-0.03277651
231	0xbd78c072	-0.060730405
232	0xbd82d484	-0.063881904
233	0xbc8e3c4d	-0.017362738
234	0xbd53baeb	-0.05169193
235	0xbcbacbcd	-0.022802258
236	0xbd9018b7	-0.07035964
237	0xbce9ba9c	-0.028531365
238	0xbd6ab543	-0.05730177
239	0xbd4e89dc	-0.05042444
240	0xbce7bf23	-0.028289383
241	0xbc15815d	-0.009125081
242	0x3ca3e45d	0.020006353
243	0x3ce9f921	0.028561177
244	0x3c804e9b	0.015662482
245	0xbd0e167f	-0.034689423
246	0xbd46448d	-0.04840522
247	0x3cec8e1b	0.028876355
248	0x3cda96ee	0.026683297
249	0x3b9887a4	0.0046548415
250	0xbce23982	-0.027615312
251	0xbd7062a8	-0.058687836
252	0x3bd4a171	0.006488972
253	0x3d2d078a	0.042243518
254	0xbd5d7f5d	-0.05407654
255	0x3d6f04ce	0.05835419

critic.4.weight f4 [1, 256]
0	0x3b1ec230	0.0024224631
1	0x3c0f336e	0.008740289
2	0x3d6ddace	0.058069997
3	0x3bf319f6	0.0074188663
4	0xbc119db8	-0.008887701
5	0x3bb09320	0.0053886324
6	0xb90b2799	-0.00013270824
7	0xbc837b4f	-0.016050009
8	0x3b7477f2	0.0037302938
9	0xbd100d28	-0.035168797
10	0xbd4c1d14	-0.04983242
11	0x3a418714	0.0007382494
12	0x3a9e0fb3	0.0012059122
13	0xbc75ff5f	-0.0150144985
14	0x3ae92e18	0.0017790226
15	0xbd058161	-0.03259409
16	0x3aab756c	0.0013081259
17	0x377685c7	1.469389e-05
18	0xb68b75ed	-4.156251e-06
19	0xbcda99e9	-0.026684718
20	0x3c095507	0.0083820885
21	0xbaaec727	-0.0013334499
22	0xba087beb	-0.00052064535
23	0x3a235aae	0.0006231469
24	0xbc1280a5	-0.008941804
25	0x3d495ab6	0.049158774
26	0x3a342c31	0.000687304
27	0x3a36ddaf	0.00069757825
28	0xbbcba16e	-0.0062143123
29	0xbbf4a244	-0.0074656326
30	0xbbcaf6fc	-0.0061939936
31	0x3d0c44ac	0.034245178
32	0x398d790f	0.0002698381
33	0x3c143c60	0.009047598
34	0x3c0bfff0	0.008544907
35	0x3d610dba	0.05494473
36	0xba51ca39	-0.0008002851
37	0xbd46ed37	-0.04856607
38	0x3d82fd67	0.06395989
39	0x3cfd4b91	0.030919822
40	0xb6a3519d	-4.8672796e-06
41	0xba61807d	-0.0008602215
42	0xbce70725	-0.028201649
43	0xbb443892	-0.0029940945
44	0x3d30f77e	0.043204777
45	0xbc5f02b1	-0.0136114815
46	0x3c0ad7aa	0.00847427
47	0xba87bbf2	-0.0010355695
48	0xb91698f4	-0.00014362094
49	0x3d637da1	0.05553973
50	0x397a271c	0.00023856427
51	0x3acb6a4f	0.0015519353
52	0x3b0d7789	0.002158614
53	0x3c0fd512	0.008778827
54	0xbc0848c2	-0.008318128
55	0xbcb0a8b3	-0.021564817
56	0xbc1e8495	-0.009675165
57	0xbc86b3f0	-0.016443223
58	0xbc71e245	-0.0147634195
59	0xbb1125c5	-0.0022147757
60	0x3c221a33	0.009893942
61	0xbc191905	-0.009344344
62	0xb8b5aadf	-8.66258e-05
63	0x3c1a402c	0.009414714
64	0x3ace4673	0.0015737548
65	0x3d508278	0.050905675
66	0x3d435aa2	0.047693856
67	0x39d81c46	0.00041219796
68	0x3bfc9f64	0.0077094305
69	0xbbe385fc	-0.0069434624
70	0xb87d7f51	-6.0438473e-05
71	0xbc1a325c	-0.009411421
72	0xbcce53e8	-0.025186494
73	0xbbc6c5ad	-0.0060660453
74	0xb9468010	-0.00018930458
75	0xbd3a75d8	-0.04552254
76	0x39289431	0.00016076934
77	0x3c1649ec	0.009172898
78	0xbaa05c85	-0.0012234604
79	0x3c142f49	0.009044477
80	0x3a6159b8	0.0008596438
81	0x3a997415	0.0011707569
82	0x3d798912	0.060921736
83	0x3a941150	0.0011296663
84	0x3c1bcb5a	0.009508932
85	0xba5a6a59	-0.0008331887
86	0x3a084eed	0.0005199749
87	0xbc46ff56	-0.012145838
88	0x3d629573	0.055318307
89	0xba985ab4	-0.0011623711
90	0x3c1b8e0c	0.009494316
91	0xbd2b3de8	-0.041807085
92	0x3c0ca8ae	0.008585138
93	0x3b362d80	0.0027798116
94	0xba9807c9	-0.0011599
95	0xbb410e75	-0.002945808
96	0xbb028d51	-0.0019920657
97	0x3950e27b	0.00019920796
98	0x3d1d99c4	0.03847672
99	0x398095bc	0.00024525623
100	0x3c3eb29b	0.011639263
101	0xba5ced9a	-0.00084277394
102	0xbd107984	-0.035272136
103	0xbb02d894	-0.0019965516
104	0xbc17a563	-0.00925574
105	0xbd0f4e49	-0.034986768
106	0x3ba7d8ab	0.0051222644
107	0x3d1a1624	0.03761877
108	0x3bb8d86c	0.005641034
109	0x3a40b276	0.00073508115
110	0x3d265a24	0.04061331
111	0xba997916	-0.001170906
112	0x39b2719d	0.00034035454
113	0xbac89f82	-0.0015306326
114	0xbc0771a5	-0.008266841
115	0xbbc2e1e9	-0.0059473407
116	0xbc0fed63	-0.008784625
117	0xbb0587a0	-0.0020375028
118	0x3b7483f9	0.0037310107
119	0xbc841897	-0.016125007
120	0xbb7e729e	-0.0038825641
121	0xba32318e	-0.00067975454
122	0xbafbd8cd	-0.0019214392
123	0x3c18f165	0.009334897
124	0xbc0bc780	-0.008531451
125	0xbd22aabf	-0.039713617
126	0x39ac60e0	0.00032878574
127	0x3a92dde3	0.0011205043
128	0x39857e6f	0.00025461937
129	0xbbfcbd11	-0.007712968
130	0x3a2a2f36	0.00064920203
131	0x3ca5682b	0.020191273
132	0x3d23fc7d	0.040035713
133	0xbc17ff8d	-0.009277237
134	0xbbb683be	-0.005569904
135	0x3c16dd65	0.009208058
136	0x3d63f6a6	0.055655144
137	0xbd00762f	-0.03136271
138	0x3d5f8f20	0.054579854
139	0xbc0dd7f2	-0.008657442
140	0x3bc5a841	0.0060320203
141	0x3c77892a	0.015108386
142	0x3a61440a	0.00085932075
143	0xbcb440c0	-0.022003531
144	0x3b5dd8bb	0.0033851105
145	0x3b547005	0.0032415402
146	0xb9804c2d	-0.00024470818
147	0x3ab1109c	0.0013508978
148	0xbca500e2	-0.020142023
149	0xba4cd5f1	-0.0007813862
150	0x3cf219f6	0.029553395
151	0x3a55e70e	0.0008159735
152	0x37273b32	9.967758e-06
153	0x3a040c09	0.0005037194
154	0xbc1b9dcf	-0.009498074
155	0x3c165fcd	0.009178114
156	0xbb2deb94	-0.002653812
157	0xbc7d7200	-0.015469074
158	0xbd1c1fb4	-0.038116172
159	0x3ccd5430	0.025064558
160	0x3d0bc30d	0.03412156
161	0x3cf2267b	0.029559365
162	0x3bf18521	0.0073706065
163	0xbb9e3392	-0.004827925
164	0xb998a8f8	-0.0002911759
165	0x398af442	0.00026503397
166	0xbc9da2d8	-0.019242689
167	0x3cdb0e05	0.026740083
168	0xbae54a29	-0.0017493415
169	0x3ca1edc1	0.01976669
170	0x3c53f9c7	0.0129379695
171	0x3c1b69bc	0.009485658
172	0xbbccf6ea	-0.0062550204
173	0x3bdf47f4	0.0068139974
174	0x39b7fc03	0.00035092243
175	0xb9938ded	-0.00028143768
176	0xba1d3548	-0.0005997014
177	0xbc62121c	-0.013798263
178	0x3bceeb02	0.006314636
179	0x3d744c1f	0.059642907
180	0x39eed404	0.0004555286
181	0x3bad877b	0.0052956915
182	0xbc1529cf	-0.009104206
183	0xbc66b22a	-0.014080564
184	0x3b9dc351	0.0048145433
185	0xbac025a7	-0.0014659659
186	0xb9cccab3	-0.00039060935
187	0x3a228b3b	0.00062005565
188	0xbcf80356	-0.030275028
189	0x3c3e1a32	0.011602925
190	0xbd2db7b8	-0.042411536
191	0x3d58f120	0.05296433
192	0xba443654	-0.0007484902
193	0x3a8a6356	0.0010558169
194	0xbc19ed89	-0.009395012
195	0xbbfd34f6	-0.0077272607
196	0x3a723389	0.0009239247
197	0x3c185d51	0.009299592
198	0x3c61d2ff	0.013783216
199	0xbd4f7ec2	-0.050657995
200	0xbbd34ca7	-0.0064483467
201	0xbd19f2b3	-0.03758497
202	0x3b94d458	0.004541915
203	0x3b83e3db	0.004024965
204	0x3b48d70b	0.0030645754
205	0x3bd7758d	0.0065752924
206	0x3c11329e	0.008862166
207	0x3aeb6444	0.0017958959
208	0xbc430883	-0.011903885
209	0xbce2d45a	-0.027689148
210	0x3b7faac5	0.0039011699
211	0x3b9aae96	0.0047205193
212	0x3bb15ee0	0.0054129213
213	0xb903b3f6	-0.00012560174
214	0x3d18138d	0.03712802
215	0x3907d553	0.00012954073
216	0xbc2349be	-0.009966312
217	0xba089d8d	-0.0005211465
218	0xbb35e6cc	-0.0027755974
219	0xbd5e44ce	-0.054264836
220	0x3959e1af	0.00020778806
221	0xbb8fa0aa	-0.0043831663
222	0x3bf63639	0.007513788
223	0x3d362ab7	0.04447433
224	0xbbaa4612	-0.0051963413
225	0xbc1ae333	-0.009453583
226	0xb6d32011	-6.292023e-06
227	0xb7e4f24d	-2.7292548e-05
228	0x3b66e9b6	0.0035234517
229	0xbd12b2d1	-0.035815064
230	0x369cf461	4.6776117e-06
231	0xbba23173	-0.0049497425
232	0x3cd0719a	0.025444794
233	0x38e705fc	0.00011016053
234	0xbbd04390	-0.0063557103
235	0x3a154804	0.000569463
236	0x3ae96171	0.0017805529
237	0x3d012a84	0.031534687
238	0xbd02ed11	-0.031964365
239	0x3d609968	0.0548338
240	0x3c4f5417	0.012654326
241	0x3cd2dbe1	0.025739612
242	0xbc0750a5	-0.008258973
243	0xbc1e0e99	-0.009647035
244	0xbc0ba927	-0.008524216
245	0xbc084969	-0.008318284
246	0xba2e5233	-0.0006649822
247	0x3ac9622e	0.0015364343
248	0xb9c0cb76	-0.00036772684
249	0xbc0e4cc5	-0.0086852955
250	0xbc0ccaea	-0.0085933
251	0xbd24d02b	-0.040237587
252	0x3b15899b	0.0022817615
253	0x3bc92462	0.0061383704
254	0x3a8e2b0c	0.0010846569
255	0x38b31592	8.539403e-05
