youtube-ppo/tmp/ppo/lyapunov2-batch.pth (torch, 271128 bytes, 5 tensors)

critic.0.weight f4 [256, 3]
000000 51 e3 59 be 25 6e 7d bc 4d 3a 87 be 4d a9 4c 3e
       -0.2127812 -0.015468155 -0.26411667 0.19986458
000010 d8 af 97 3e f4 ca e2 3e 62 a7 b0 3e 61 a0 49 be
       0.29626346 0.44295466 0.34502703 -0.19690086
000020 f6 a1 f5 3d 24 a0 12 3f ce c9 c8 bd 23 0e e9 3e
       0.11993782 0.57275605 -0.09804116 0.45518598
000030 23 50 4a be 04 19 60 3e 16 6e 3b be 4c 56 ec be
       -0.19757132 0.21884543 -0.18303713 -0.4615959
000040 1c c2 a9 3d f2 a1 de 3e ae d6 4e 3d d4 b0 2e be
       0.082889766 0.4348293 0.050497703 -0.17059642
000050 33 44 75 3e 20 c9 3f be 9d c5 95 3e f3 05 80 3e
       0.23951797 -0.18729067 0.2925233 0.2500454
000060 cd 9a 5e 3e 51 ea 6c be d4 28 e1 be 19 49 bf 3e
       0.2173874 -0.2313626 -0.43976462 0.37360457
000070 7b 1c 31 3e d9 6b 49 bc d8 d3 09 3f 40 8d d5 be
       0.1729602 -0.012293779 0.5383887 -0.41709328
000080 71 50 c7 3e 88 32 e2 3e e9 f9 e6 3e 99 22 1a bd
       0.3892856 0.44179177 0.4511254 -0.03763065
000090 70 f0 ec be 31 73 fd 3e dc b9 8b 3e 93 10 30 3e
       -0.4627719 0.49501947 0.27290237 0.17193823
0000a0 03 7f a0 3e c4 f2 b0 3e 48 5e c9 bc 72 e5 69 3e
       0.31346902 0.34560215 -0.02458109 0.22841433
0000b0 f5 dd b2 3e 69 fb 4c bb 9b d2 bb 3e 30 6f c5 be
       0.34934965 -0.0031277782 0.36684117 -0.38561392
0000c0 6d 91 ff bc e4 f3 13 3e 57 07 c5 3e 81 7d fe 3e
       -0.031197274 0.14448506 0.38482162 0.49705127
0000d0 06 d6 f9 be f7 eb ed bd c3 5f da 3e 16 c4 00 3f
       -0.487961 -0.11617272 0.42651185 0.50299203
0000e0 45 e0 d9 be d1 40 dc be 35 7f c4 3e 34 5b 67 3e
       -0.42553917 -0.430182 0.383783 0.22593385
0000f0 45 ca 44 be 11 88 b6 be fa 7b 6c be 7f 9e 36 3c
       -0.19217785 -0.35650685 -0.23094168 0.011146187
000100 6a b6 5f be c9 44 58 3c c8 26 d2 bc 71 d7 eb bd
       -0.21846929 0.013199993 -0.025653258 -0.115157016
000110 74 6e 92 bd 1e 92 8f 3d fb 20 98 3e 2e 13 a1 be
       -0.071499735 0.070102915 0.29712662 -0.31459945
000120 6e f9 ab 3d 22 29 c8 3d 23 24 80 3e fe 26 ef 3e
       0.08397184 0.097734705 0.2502757 0.46709436
000130 ca 76 a3 3e e8 2c d3 3e 97 cd a3 3e a0 06 d2 be
       0.31926566 0.41245198 0.3199279 -0.4102068
000140 6c e9 64 be e7 11 6e 3d f2 ca 1f 3e 8a 8f 01 3f
       -0.22354668 0.05812254 0.15604761 0.5060965
000150 b4 87 01 bf 8a 33 fa bd ff 99 87 3e c2 78 2f 3e
       -0.5059769 -0.122168615 0.26484677 0.17135909
000160 0f ad b6 3e b7 33 90 be 90 14 84 be 52 68 7a bd
       0.35678908 -0.28164455 -0.25796938 -0.061134644
000170 9f d0 c2 bd de 46 34 be fd ce a1 be 6f d3 07 be
       -0.095124476 -0.17605159 -0.31603232 -0.1326425
000180 a3 d2 ce bc 5e 68 03 bf f4 fd a5 3e f3 3e be be
       -0.025246924 -0.51331127 0.32420313 -0.371574
000190 71 96 f7 3e e8 cd a5 be 5d d7 02 3f 80 c2 b8 3d
       0.48356965 -0.32383657 0.5110987 0.09021473
0001a0 c9 a4 02 3f 69 75 f1 3d 53 05 3f 3e d3 cd d3 be
       0.5103269 0.11789972 0.18654375 -0.4136797
0001b0 7d e8 15 be 1d 39 f9 bd e0 f9 2d bd c2 88 eb 3e
       -0.14639468 -0.121690966 -0.042474627 0.46002775
0001c0 89 ec 1f 3d c6 8d 03 3b 3b 26 61 3e ad 42 cd 3e
       0.039043937 0.0020073517 0.2198724 0.40089932
0001d0 20 65 e0 3d cf 9d 29 bb d6 f6 fa be 84 71 4a bc
       0.10956788 -0.0025881415 -0.49016446 -0.012356166
0001e0 e6 84 e9 3d 6e cc a5 3e 8b ce 32 bd a9 05 dc be
       0.114023015 0.3238253 -0.043654006 -0.42973068
0001f0 e1 ec 9d be 6e a6 20 be 62 4f 73 be de a8 ed 3e
       -0.30844787 -0.15688488 -0.23760751 0.46417898
000200 b4 ca 66 3d e4 3a b8 3d b5 11 8f 3e 8a 7a 94 3e
       0.056345657 0.089956075 0.27943197 0.2899974
000210 b0 07 bc 3c 36 a4 d7 be ee 45 e5 bd 2f 19 14 3d
       0.022952884 -0.4211747 -0.11194979 0.03615683
000220 d5 4c 35 3e c7 2b db be cb e2 f9 be 21 8f af bd
       0.1770509 -0.42806837 -0.48805842 -0.085722215
000230 be c0 b0 3e c5 e5 b0 3e 07 4a 18 3e 48 93 da 3e
       0.3452205 0.345503 0.14871989 0.42690492
000240 12 0c 0a 3f 89 0c 79 3e c0 ce aa 3e 6a b3 06 be
       0.5392467 0.24321188 0.33360863 -0.13154379
000250 02 9a a9 3d 87 57 c5 be e0 38 c8 3e 55 81 ba be
       0.08281328 -0.3854334 0.39105892 -0.36426798
000260 fe 11 ad 3e 4d 83 ff 3e 60 5d 5f bd 4b 78 66 3e
       0.3380279 0.49904862 -0.05453241 0.22506826
000270 e9 a8 81 be cc 93 7e be c0 5c 8b 3e ad 22 1e 3e
       -0.2532418 -0.24861068 0.272192 0.15442915
000280 c1 e5 d2 3e 1e bd e4 be f9 04 a0 3e d7 7e 1c be
       0.41190913 -0.44675535 0.31253794 -0.1528276
000290 3b 2e 28 3e 28 c8 aa bd 9b 8e ae be 9b bb 00 3e
       0.16423886 -0.08338958 -0.34093174 0.12571566
0002a0 af 05 a0 3e af 92 06 bf 7a 5d 76 be 3f 29 99 be
       0.31254336 -0.5256757 -0.24059096 -0.2991428
0002b0 98 97 16 3e dc ee f9 3e 75 0e ab 3e e1 6c 44 be
       0.14706266 0.48815048 0.33409467 -0.19182159
0002c0 b0 2c ab 3e d0 1c 20 3e 62 7f e2 3e 80 eb c2 be
       0.3343253 0.15635991 0.4423781 -0.38070297
0002d0 ce db be 3e 6c c1 b6 bd 11 91 b6 bd 1e 27 b9 3e
       0.37277073 -0.08923611 -0.08914388 0.36162657
0002e0 f5 53 fc 3d fa 32 99 be a8 53 8c be 55 ec 14 be
       0.12320701 -0.29921705 -0.27407575 -0.14543279
0002f0 07 02 ff be ff 08 dc 3e 22 8a d6 3e ce 2a 43 be
       -0.49806234 0.42975613 0.41902262 -0.19059297
000300 6b e1 39 be e4 8b 30 3e 53 2d 07 bd 7c 1e df bc
       -0.18152396 0.17240864 -0.03300221 -0.027236216
000310 3f 8b 07 3f bb c6 f0 3e e3 c1 e2 be 2b a4 1a 3e
       0.5294685 0.4702662 -0.4428855 0.15101688
000320 c0 cd 6f be b9 a7 2d 3c b2 8f 45 3d da c7 7c 3d
       -0.23418331 0.01059907 0.04823274 0.06171403
000330 21 64 58 3e 9a d2 10 bf f5 e8 d4 3e f0 73 a5 bc
       0.21131946 -0.5657135 0.41583982 -0.020196885
000340 8a 7b 31 3e 2d 57 95 be 01 56 9a be aa ec cb 3e
       0.17332283 -0.29168072 -0.3014374 0.39828998
000350 c4 e0 18 3e 34 91 7b be 44 61 04 be c0 bc fe 3c
       0.14929491 -0.2456711 -0.12927729 0.031095862
000360 1f fc a1 3d 29 42 fa 3e 67 df aa bd 31 01 d5 be
       0.079094164 0.488786 -0.08343392 -0.4160247
000370 99 34 c6 be 05 c2 b6 3e 83 1e d2 bd c5 2a 0d 3f
       -0.38712004 0.356949 -0.10259726 0.55143386
000380 4e 40 8c 3e b8 d5 3b be b0 f0 71 be 49 ad 91 3d
       0.2739281 -0.18343246 -0.23626971 0.0711313
000390 e5 26 c8 3e fb 71 92 be d2 17 70 3c 40 c5 b2 3e
       0.39092174 -0.28602585 0.014654117 0.34916115
0003a0 0e 0b e4 3e 68 34 9a 3e a8 ba f5 3e 20 28 97 be
       0.44539684 0.30118108 0.4799397 -0.295228
0003b0 e7 af 29 be bf a3 f7 3e 61 aa c7 3e 30 0b d5 3e
       -0.16571008 0.48367116 0.38997176 0.41610098
0003c0 d7 33 b8 be 2c 53 9c 3d 94 8c 35 3d 90 aa 17 be
       -0.3597705 0.07633051 0.04432352 -0.14811158
0003d0 5b 11 b7 bd ad 46 7e 3e ff ea ec bc d2 f2 a2 3e
       -0.08938857 0.24831648 -0.028920649 0.31825882
0003e0 c4 a1 b5 3e 62 0c 0b 3f 42 82 90 3d 3b ff a0 3e
       0.3547498 0.5431577 0.07056095 0.31444725
0003f0 34 a3 0f 3d 10 17 e9 be 51 e1 d6 bd 9c bf 0c 3f
       0.035067752 -0.45525408 -0.104921944 0.5497987

critic.0.bias f4 [256]
000000 db b5 85 be 54 01 d6 be d5 55 db be ca d0 55 be
       -0.26115307 -0.41797888 -0.42838922 -0.20880428
000010 0f 52 fa 3e 53 0c f3 be 07 da 9f be 01 a2 d9 3e
       0.4889073 -0.4747034 -0.3122103 0.42506412
000020 5b f2 f9 3e e2 6e 6f be 86 c2 85 bd 27 64 02 bf
       0.48817715 -0.23382142 -0.06531243 -0.5093407
000030 aa ee a3 3e a3 00 5d 3e b5 37 cb 3e 36 a3 95 3e
       0.32018024 0.21582274 0.3969094 0.29226083
000040 f4 6b 04 3f 9b 58 f3 3e cd da 46 be a1 c1 02 3f
       0.51727223 0.47528538 -0.19419403 0.51076704
000050 fa c5 41 be 8e 25 c7 3e 7c d5 0e 3f d5 6d a7 3e
       -0.18923178 0.3889584 0.557945 0.32700983
000060 61 bc 84 be 7a fc 1d bf a0 97 af 3e 67 e1 5d 3e
       -0.25924972 -0.61713374 0.34295368 0.21668015
000070 0e cd 41 3d 37 e3 8e be 2e 98 f0 be 6c 51 91 be
       0.047314696 -0.27907726 -0.46991104 -0.28382432
000080 f9 3f fd 3d 65 71 63 3e 0b 87 86 bd d4 63 03 3f
       0.123657174 0.22211225 -0.06568726 0.513242
000090 a8 00 62 be 82 8a 1a be 55 e5 50 3e cf ee de be
       -0.22070563 -0.15091899 0.20399983 -0.43541571
0000a0 61 10 0a 3f dd 45 0e 3f 83 43 8f 3e d3 32 ad be
       0.5393124 0.5557535 0.27981195 -0.33827838
0000b0 9b 51 59 3e fa 41 ff 3e 94 5e 00 be 96 3d e4 bd
       0.21222536 0.49855024 -0.12536079 -0.11144559
0000c0 3a a3 17 3e 43 56 87 be 98 38 39 3e e0 10 a7 3e
       0.1480836 -0.26433 0.18087995 0.32630062
0000d0 a5 0b df 3e 1f a4 17 bf b9 62 e3 3e 37 09 c8 be
       0.43563572 -0.59234804 0.44411257 -0.3906953
0000e0 4d 1e db be 2a ff e3 3d 51 7e 46 bc b9 da cf be
       -0.42796555 0.11132653 -0.012115077 -0.4059656
0000f0 a5 b9 a4 be 42 38 7f be ad ae ff be 51 01 c2 be
       -0.32172886 -0.24923804 -0.49937955 -0.3789163
000100 f9 ca 4e 3c 90 49 c9 3e 2e d6 21 3e 87 60 1a be
       0.012621635 0.39313936 0.1580436 -0.15075885
000110 21 ea 97 3d dd e5 c8 bd e2 f6 b9 be 67 fc 0f bf
       0.074177034 -0.09809468 -0.3632117 -0.5624451
000120 ad 20 f8 3e 7a ad 09 3d 67 65 55 3e 77 47 2e 3e
       0.4846243 0.033612706 0.20839463 0.17019449
000130 35 72 41 be 33 0a f5 be 35 e0 f3 3e 13 3a 2a 3d
       -0.18891223 -0.47859344 0.47631994 0.04155929
000140 eb 1b fd 3b de ba d8 be 64 89 e4 3e 3e 9e b2 3d
       0.0077242753 -0.42330068 0.4463607 0.087215886
000150 25 ab b1 be 1b 2d 16 bf 5b 20 54 3c 07 4d 93 bd
       -0.34700885 -0.58662575 0.012947167 -0.07192426
000160 5f e5 0e bf 5d 40 ba bd d4 7a 80 3d 48 11 9b 3e
       -0.5581874 -0.090943076 0.062734276 0.30286622
000170 6a a6 0b bf 53 20 40 3d 2f bb 8e 3e ab 2d 84 be
       -0.545508 0.046905827 0.27877185 -0.25816092
000180 53 ae e9 3e 5c 3b b1 be 11 52 3d be 4a d7 3d be
       0.4564081 -0.346156 -0.18488337 -0.18539158
000190 be 46 bc be 50 20 c9 3e a9 42 ea 3d d1 ce 5b bd
       -0.36772722 0.39282465 0.11438496 -0.053664032
0001a0 09 63 05 3d a5 40 0a bf dc e4 e9 3e 28 8d 06 bf
       0.03256515 -0.5400489 0.45682418 -0.5255914
0001b0 e5 5a 3a bd ad d8 dc be f9 bc 5f be 3d d1 22 3e
       -0.04549684 -0.4313406 -0.21849431 0.1590013
0001c0 c5 2e bf 3e f9 34 bd 3e 98 57 81 3c ea 45 c2 3d
       0.3734037 0.36954477 0.015788838 0.09485991
0001d0 ea 15 df be 44 75 42 3e 29 1a a4 3e e5 93 dd 3e
       -0.43571407 0.18990046 0.3205121 0.43276897
0001e0 90 f1 8f 3e 12 13 fe 3e f0 6a b8 be bb 6e c4 be
       0.28113985 0.49623924 -0.36019087 -0.3836573
0001f0 95 66 f7 3e bf 4c e1 bd 45 fb 02 3f 0c 97 ec 3e
       0.4832045 -0.11000966 0.51164657 0.4620899
000200 9d 0e 72 be a6 a7 a9 3d 08 47 db be 27 fe c9 3e
       -0.23638387 0.082839295 -0.4282763 0.39451715
000210 80 11 9a be f6 e0 d8 be 3c 71 a0 3e 10 60 df bc
       -0.30091476 -0.42359132 0.3133639 -0.027267486
000220 68 dd d7 bc 67 70 ff 3e 3b 77 9b be 84 f8 08 bf
       -0.026350692 0.49890444 -0.30364403 -0.53504205
000230 4f d8 fd 3e c0 f2 76 bd fe 5a 96 3c 6f 6d c1 3e
       0.49579093 -0.0602901 0.018353935 0.37778804
000240 f4 4e a0 3e c8 44 58 bd 81 db a5 be 67 76 80 bd
       0.31310236 -0.05279997 -0.3239403 -0.062725835
000250 65 2f 5b be 90 52 18 3d 57 bb 10 bf 7a 64 96 3e
       -0.21404798 0.037188113 -0.5653586 0.29373533
000260 e2 30 36 3e 34 5a d9 bd 41 8b bc be bd 7c 9f 3e
       0.17792085 -0.10612908 -0.36824992 0.31149855
000270 b4 7e 04 bf 4c 19 cf 3e 71 99 ef bc a1 7f d6 3d
       -0.51755834 0.40448987 -0.029247971 0.10473562
000280 de 8a fb be 03 e1 f7 3e e6 fc 95 be fc f1 b6 3d
       -0.49129385 0.48413858 -0.2929451 0.089328736
000290 f8 c3 12 bf fc 11 85 3e 66 9a 39 bc 06 6f a9 3e
       -0.57330275 0.25990283 -0.011328315 0.33092517
0002a0 ef b7 d0 3e 0d 31 e2 bd f9 e9 8b bd 92 92 18 bf
       0.4076533 -0.11044512 -0.06831736 -0.5959865
0002b0 c4 81 41 3e d3 d2 c9 be 41 b0 f0 3e 83 a1 cd be
       0.18897158 -0.3941866 0.4700947 -0.40162286
0002c0 8a 9b 06 bf ed 81 92 bd 34 23 80 be d9 42 9e 3b
       -0.52581084 -0.071536876 -0.25026858 0.004829746
0002d0 3b 6a d0 3e bf ed a4 bc 3b 3f 96 be 05 82 ee 3e
       0.40706047 -0.020132897 -0.29345116 0.46583572
0002e0 8e 45 fc be b5 07 9b be c4 e3 82 bd 58 1a 01 bf
       -0.49271816 -0.30279317 -0.06391099 -0.5043082
0002f0 37 c4 82 bd 6f 93 f5 bc a1 a5 3c 3d fc 39 7b be
       -0.06385081 -0.029977528 0.046056394 -0.24533838
000300 42 c9 12 bf 09 77 c3 be 42 e4 7a bc c7 31 8e be
       -0.57338345 -0.38176754 -0.01531321 -0.27772352
000310 c6 b4 7a bd d9 63 cd 3e 42 ff 75 bb 63 1b 99 bd
       -0.061207555 0.4011524 -0.0037536179 -0.07475927
000320 ba b1 d0 bc 8b 04 12 bf 6a a4 00 bf d4 07 0f bf
       -0.025475372 -0.5703818 -0.50250876 -0.5587132
000330 91 85 47 be f0 8e 0a 3f 98 8e e9 be c4 0a b5 3e
       -0.19484545 0.54124355 -0.45616603 0.35359776
000340 e2 ad b3 3d 27 3a 13 bf b2 cd 67 3d 27 da f2 be
       0.087734 -0.5751061 0.05659265 -0.47432062
000350 0a 56 00 bf 8d 7b 07 3f 88 51 93 3e 04 c5 b4 be
       -0.50131285 0.529229 0.2877314 -0.3530656
000360 c2 8f ec be 03 c5 2d 3c 66 16 03 bf 22 cd 01 bf
       -0.46203429 0.010606053 -0.5120605 -0.5070363
000370 9f f5 f3 be 61 12 e4 be e7 b1 97 bd 26 56 87 be
       -0.47648332 -0.44545272 -0.07406979 -0.26432914
000380 90 76 09 be f5 97 06 3f 64 a4 de be f5 be c2 3e
       -0.13424134 0.5257562 -0.43484795 0.38036314
000390 73 c3 6a be c9 09 cf 3e 93 f4 42 3e c5 fd af 3c
       -0.2292612 0.40437153 0.1903861 0.021483311
0003a0 5c 07 05 bf 08 32 e3 3d 65 82 3e be 00 92 0a bf
       -0.51964355 0.11093527 -0.18604429 -0.5412903
0003b0 ed a3 af 3e a3 1d 2b 3e a6 a7 fc 3e a1 99 d9 be
       0.34304753 0.16710524 0.49346656 -0.42500022
0003c0 e1 b6 08 3e a8 38 37 be 85 8c 41 3e 1c 17 5a 3e
       0.13351013 -0.17892706 0.1890126 0.21297878
0003d0 22 ad 8b 3e 2a 54 27 3e ad 02 d7 be 32 34 d7 be
       0.27280527 0.163407 -0.4199423 -0.4203201
0003e0 6d 28 25 3e 25 e2 0c bf cb 7b d0 3e 54 1e 02 bf
       0.16128702 -0.5503257 0.40719447 -0.5082753
0003f0 fc 6c 1b bf 70 d1 2f be 62 19 dc 3e 5f 70 2d be
       -0.6071317 -0.17169738 0.42988116 -0.16937397

critic.2.weight f4 [256, 256]
000000 42 2d 0b bd 6d 12 6b bd 57 21 a8 bb 88 b4 3c 3d
       -0.033978708 -0.05739062 -0.0051309275 0.046070606
000010 1a 57 d5 bc 77 84 0f bd 88 bf 6d bd 1e 12 8f bd
       -0.02604251 -0.035038438 -0.058043987 -0.069858775
000020 46 38 88 bd 86 ce 8a bd 43 a2 3b 3d 9d 37 74 bd
       -0.06651358 -0.067776725 0.04580904 -0.05962335
000030 ef 26 12 3c 1d 3b 9b 3c 2e b0 25 bd 00 42 35 3d
       0.008920415 0.018949086 -0.04045122 0.044252396
000040 c3 f6 35 3c c0 a3 87 3c 9e b8 bb bb 9c c8 e9 3c
       0.011106196 0.016557574 -0.005728795 0.02853804
000050 ab ec 4e 3d 07 55 44 bd ae 48 b1 3c ea 6e d5 bb
       0.050518673 -0.04793265 0.021641102 -0.006513466
000060 30 af a0 bc b0 aa de bc ac 50 02 3d 45 76 d4 bc
       -0.019614786 -0.027181 0.031815216 -0.025935302
000070 e2 46 50 bd b4 91 57 3d 70 2b 9e 3b 80 a7 70 bb
       -0.05084885 0.052629188 0.0048269555 -0.0036720932
000080 97 d7 42 bd 3a ac 7c bc 4b 5f 4a 3d 57 5e 47 bc
       -0.047568884 -0.015421921 0.049407285 -0.012168488
000090 08 b1 27 3c bd de 6c bd e0 dd 5d bd 83 d9 4a 3d
       0.010235079 -0.057829607 -0.054166675 0.04952384
0000a0 a6 6a 9e bb 43 59 75 3d 30 a7 8f bc 9e 3c 63 3d
       -0.004834491 0.05989958 -0.017535776 0.05547773
0000b0 84 5c 1a bd 79 53 18 bc 7c d7 2e bd f1 39 7b bd
       -0.037685886 -0.009297245 -0.04268597 -0.061334554
0000c0 61 82 db 3c 10 37 6e bd 43 84 6c bb c5 0f 02 3c
       0.026795568 -0.05815798 -0.0036089576 0.00793833
0000d0 dd e0 80 bd 20 6e 7c 3c 34 46 86 bd 16 01 f1 bc
       -0.06292889 0.015407115 -0.06556359 -0.029419463
0000e0 87 a5 08 3d b6 94 db 3c f1 c3 89 bd f2 ac 3d bd
       0.033360984 0.02680431 -0.06726826 -0.04630751
0000f0 92 81 a7 3b 93 dc f2 3c 38 41 65 3c 46 1e 8f bd
       0.0051118815 0.029646194 0.0139926 -0.06988196
000100 dc 1f 59 bd c2 9e 96 3b 2f 4a df bc 27 b6 b6 3c
       -0.0530089 0.004596562 -0.027257053 0.022303654
000110 21 7b f7 bc 07 fb 71 3d 34 ab 72 bd 00 a0 2c bb
       -0.03021008 0.05907729 -0.059245303 -0.0026340485
000120 b8 44 4b 3c 93 ff 36 bd 53 ee 88 bd a1 fe b8 3b
       0.012406521 -0.04467733 -0.06686082 0.0056455885
000130 f1 a5 b1 3b c5 0c 58 bc 52 06 f2 bc 32 24 e8 38
       0.005421393 -0.013186638 -0.02954403 0.00011069364
000140 de b8 95 bc 47 23 83 bd ec 94 3e 3d 08 81 7b bc
       -0.018276628 -0.06403213 0.04652874 -0.015350588
000150 36 ec 34 ba a4 7f 35 3c ea f1 28 3d b3 46 0f bd
       -0.0006901653 0.011077795 0.041246332 -0.034979533
000160 74 19 1a 3d 0b 8a a5 bc c8 1a 0c 3d 6a 27 76 bc
       0.03762193 -0.020207426 0.034205228 -0.0150240455
000170 3b a9 7b 3d 8e 65 0c 3d 45 75 31 bd 58 a1 4b 3c
       0.061440688 0.034276538 -0.043324728 0.012428604
000180 ca f3 85 bc 65 74 60 3c 97 3a 0c 3c 5e 70 01 bc
       -0.0163516 0.013699626 0.008558891 -0.007900326
000190 76 30 12 3d 02 64 30 3d 8d a0 77 bd c6 37 5e 3c
       0.035690747 0.043064125 -0.060455848 0.013563102
0001a0 af 98 82 bd 4f d4 09 bd 5f 76 64 bd c8 26 eb 3c
       -0.06376778 -0.03364974 -0.05577695 0.028705016
0001b0 c0 f4 a7 3c f2 10 85 bc b4 c5 3a 3d 2d e0 08 3d
       0.020502448 -0.016243432 0.0455987 0.033416916
0001c0 d9 bb 0a bd 7a 5f 2b bd 20 14 d8 3b cc 6a 6a bd
       -0.03387055 -0.0418391 0.006594196 -0.057230756
0001d0 b7 53 5f bd a3 fe fd 3c 17 cd 56 bd 40 c0 cb 3c
       -0.054523196 0.03100521 -0.052441683 0.024871945
0001e0 c1 c7 44 bc d7 e6 4d 3b d0 12 40 bd 40 d7 29 bd
       -0.012010516 0.003141811 -0.04689294 -0.041465044
0001f0 dd dc 23 bd c4 76 8d 3c 29 31 80 3c aa 7e 4f 3b
       -0.040005554 0.017268546 0.015648441 0.003166119
000200 83 96 fd 3c 7e bb 7b bd c4 f1 88 bc 73 e5 49 bd
       0.030955559 -0.061458103 -0.016716845 -0.049291085
000210 0b 50 03 3c aa 48 7a bd 0f f4 91 bd 83 5f 60 3d
       0.008014689 -0.061104454 -0.071266286 0.054778587
000220 48 96 89 bd 89 20 4c 3d 58 7c 0f bc f0 65 34 3d
       -0.06718117 0.049835715 -0.008757673 0.044042528
000230 7c be a4 3c 35 c4 21 bd c6 29 b8 bc 31 7d a4 bc
       0.020110361 -0.03949376 -0.022480857 -0.020079227
000240 71 04 81 3b ae 98 cf 3a cb 86 13 bd 58 1c 6d 3c
       0.003937297 0.0015838349 -0.03601722 0.01447209
000250 c4 fa fa bc fd 6b ea 3b 91 bd 7b bd f3 ac 87 bd
       -0.030637152 0.0071539865 -0.06146008 -0.06624784
000260 53 07 3e 3d 6b 20 1d bd 3a c6 4e bd 0b 83 4f bc
       0.046393704 -0.038360994 -0.050482012 -0.01266552
000270 6c 5b 56 bd bd ad 23 3c 22 fc 75 3d af 25 00 3d
       -0.05233328 0.009990153 0.060054906 0.031285938
000280 28 11 65 3c 8c 64 32 bd 03 ab bf 3c d6 c7 1b 3d
       0.013981141 -0.04355292 0.023396974 0.038032375
000290 30 87 79 3c 0c 86 3d 3c 67 b3 27 3d e3 8a 40 bd
       0.015229985 0.011567604 0.040942576 -0.047007453
0002a0 92 74 17 bb 19 c3 0a 3d cd dd 15 bc 5a ba c8 3b
       -0.0023110253 0.033877466 -0.00914712 0.0061257305
0002b0 30 90 77 3c f1 88 6c bd 2a bd 01 3c a0 36 34 bc
       0.015110061 -0.057747785 0.007918635 -0.010999352
0002c0 c1 eb 41 bd ef 52 e6 bc de 10 5b bd 34 3e eb 3b
       -0.047343973 -0.028115718 -0.053482883 0.007179046
0002d0 bd 34 52 b9 c2 7a 2e 3d 3a e2 ce bc d5 e7 2f bc
       -0.00020046807 0.04259754 -0.025254358 -0.010736425
0002e0 08 de 82 bd 40 06 ed bb ac 28 7a bd 90 cf 81 bb
       -0.06390005 -0.007233411 -0.061073944 -0.003961511
0002f0 c6 ae 7e bc c8 26 27 3d 5f a8 4b 3d 12 55 2a bd
       -0.015544599 0.04080847 0.049721118 -0.041585036
000300 2f 05 5e bd 18 44 19 3c 62 2d c4 b9 ce cf 6c bd
       -0.054204162 0.009354614 -0.00037417846 -0.057815365
000310 fc 21 b4 bc d9 d6 f5 3c 92 e1 49 3d f0 4e 10 3d
       -0.021988861 0.030009674 0.049287386 0.03523153
000320 10 b5 7c bd 9d 6d 2e bd 61 82 5e 3a 58 b2 38 bc
       -0.061696112 -0.042585004 0.0008488056 -0.011272989
000330 78 83 5d 3d 65 be 56 bd a7 53 1a bc d4 e7 e2 3c
       0.054080456 -0.052427668 -0.009419358 0.027698435
000340 4a 00 37 bd 60 77 53 bd 00 5e 52 3d e8 5b 4e 3d
       -0.04467801 -0.051627517 0.051359177 0.050380617
000350 ab 72 3b bd 37 62 79 bd 6a 5a 52 3d 32 f4 89 bd
       -0.045763653 -0.06088468 0.051355757 -0.0673603
000360 62 34 03 bd 65 fb 97 bd 68 c3 9e 3c 47 0a 83 bd
       -0.032032378 -0.074209966 0.019380286 -0.063984446
000370 45 27 e9 3c d8 15 3a 3d 74 ae ee 3c 84 70 0e bc
       0.028461108 0.045430988 0.02913592 -0.008693818
000380 5b 78 64 3d 4b c8 4c bd 05 6e ff 3c de 84 2e 3c
       0.055778842 -0.0499957 0.031180391 0.010651795
000390 3f da 58 3d 29 8b 44 3d b7 df d1 bc ae 6a 1e bc
       0.05294251 0.047984276 -0.02561937 -0.009668989
0003a0 2f e4 f6 3c 54 8b 96 bd 2c 33 de 3c f4 e0 91 3c
       0.030138103 -0.073507935 0.02712401 0.017807461
0003b0 5c 3b 58 3d 1b be 62 bc e4 86 5a bd 4e 83 6e bb
       0.052790985 -0.01383927 -0.053351298 -0.0036394182
0003c0 fb 13 2c bd 4d 9b 01 3d c0 2f cb bc 8b e8 4c 3c
       -0.042011242 0.031642247 -0.024803042 0.012506614
0003d0 24 02 86 bd e9 db b5 bc 9a d6 37 bd 73 d2 7b bd
       -0.06543377 -0.022199588 -0.044882394 -0.061479997
0003e0 56 f4 f7 3c 68 bd 5c 3d 51 0c 2f 3d be 3a 64 bd
       0.030267876 0.05389157 0.042736355 -0.055720083
0003f0 8a 4e 7f bd d6 66 28 bd 8c b8 bd 3c b5 23 13 3d
       -0.06233076 -0.041113697 0.023159288 0.035922725

critic.2.bias f4 [256]
000000 eb 18 47 bc db 54 c8 3a 00 c1 d0 bc dc ea 14 3d
       -0.012151937 0.0015284078 -0.025482655 0.03635679
000010 32 4c 4f bd 79 92 54 3d 36 53 86 bc 60 86 7a 3c
       -0.050609775 0.0518975 -0.0163971 0.015290827
000020 70 e8 64 3c 9b bd 32 3c 12 5a 6d 3d f1 be 8e bc
       0.013971433 0.010909463 0.057947226 -0.017425032
000030 df 06 4e 3d 22 3b 3a 3c cc 69 2f bc fa 1a 88 bd
       0.05029952 0.011366637 -0.010706376 -0.0664577
000040 28 e3 6a bd 41 ff 2f bd 3a fd 27 bd ff c8 43 bd
       -0.05734554 -0.04296804 -0.04101298 -0.047799107
000050 01 e5 3e 3c 58 5f e6 bb 69 94 22 bd ed 62 43 bc
       0.0116512785 -0.007030409 -0.039692316 -0.011925441
000060 c3 94 d2 bc 53 4f 2e bd 04 96 64 bc 80 f3 2a 3d
       -0.0257057 -0.04255612 -0.013951782 0.041736126
000070 57 22 56 bd 60 ce 81 bd 19 f0 fb bb 0d a3 85 bc
       -0.052278843 -0.06338191 -0.007688534 -0.0163131
000080 d7 8f 63 3d 10 e2 b4 bc 61 6e 34 3b 83 d8 e8 3c
       0.0555571 -0.022080451 0.0027531611 0.028423553
000090 3d 5f 8b 3d 95 d4 cd 3c 99 03 f7 bc 0c a0 72 bc
       0.06805275 0.025125781 -0.030153083 -0.014808666
0000a0 5e 0a 49 3c 15 04 ed ba 93 c5 5d bd 51 90 10 3d
       0.012270538 -0.0018082882 -0.0541435 0.03529388
0000b0 a5 3f 1a 3d 8b 40 ef 3b 71 57 2e 3d bd 8e 53 bd
       0.037658352 0.0073013953 0.04256386 -0.051649798
0000c0 b2 f3 91 bd 2d fb 16 3d 41 93 37 3d ca 78 cf bc
       -0.07126559 0.036860634 0.044818167 -0.025326151
0000d0 25 06 91 bc c6 f4 27 bd ed cc e9 bc b5 a4 0a 3c
       -0.017703125 -0.04100492 -0.028540099 0.008462121
0000e0 55 2c c3 bb 2f 73 64 bd db c0 16 bd b0 1c ab bc
       -0.0059562125 -0.05577391 -0.036805015 -0.020887703
0000f0 15 15 48 3d 71 bc f2 3c a6 2f 7d bd fb bc 1a 3d
       0.04884823 0.029630871 -0.06181302 0.037777882
000100 c5 da 1a 3a 4d 05 bb bb bd 43 b0 3b da 76 2f bd
       0.0005907233 -0.005707419 0.005379169 -0.042837955
000110 8b ef 3f bd c3 0f 9c bd 13 58 15 3b c5 6d 29 3d
       -0.046859305 -0.07620194 0.0022788092 0.04136445
000120 d6 3f 89 bd 64 22 02 3d c3 42 33 3d 1e 97 35 bd
       -0.06701629 0.03177108 0.04376484 -0.04433357
000130 09 42 06 3d 31 56 16 3b 70 9e f0 bb 3b b6 89 bd
       0.03277782 0.0022939558 -0.007343106 -0.06724211
000140 e4 dc 02 3d f0 8f 61 bc 7c 70 1b 3d e7 0d 57 bd
       0.03194894 -0.0137672275 0.03794907 -0.052503493
000150 92 fd 41 bd ed 50 26 bd 28 b9 2b 3b bb 13 c9 3c
       -0.047360964 -0.04060452 0.002620289 0.024545541
000160 65 a3 9f bb 88 9c e5 39 d6 26 2d bd bf 66 44 bc
       -0.004871773 0.0004379491 -0.042273365 -0.011987387
000170 9b 11 3d bd ef 3a 40 bc 97 fe bc 3c 56 b3 74 bb
       -0.046159368 -0.011732801 0.023070617 -0.0037338338
000180 f0 d3 91 3c 61 16 8f bc a0 96 ae 3c c5 7c 82 bd
       0.017801255 -0.017466726 0.021312058 -0.06371454
000190 d2 b5 d4 3c 87 7d 14 3d 6e cf b0 bc 17 aa de 3c
       0.025965605 0.036252525 -0.021583285 0.027180715
0001a0 3a c2 e5 3b 03 26 34 3d 1b 61 0f bd 02 2c 59 3c
       0.007011679 0.043981563 -0.035004716 0.013255121
0001b0 5f 55 89 3b a5 1a 7a bd 76 b8 bd 3c a2 04 d2 3c
       0.004191085 -0.061060566 0.023159247 0.025636975
0001c0 fe fc 73 bd 87 ed 99 38 50 c3 13 3c 8c 6c 22 bd
       -0.059567444 7.3398514e-05 0.009018734 -0.0396543
0001d0 63 ef 4f bd dd 72 d7 3c f5 75 56 bd b4 fc 12 3d
       -0.050765406 0.026299888 -0.052358586 0.035885528
0001e0 de 6d 26 bc 98 e7 01 3d 8c 70 0a 3d 34 d5 e2 3c
       -0.01015803 0.031715006 0.03379874 0.027689554
0001f0 57 eb b3 bc ac b5 d6 bb af b7 e7 3c 7d 81 4c bd
       -0.021962805 -0.0065524187 0.02828583 -0.049928177
000200 c9 76 24 bd f9 73 42 bb 4d b9 f9 bb 07 89 6b bd
       -0.040152345 -0.0029671176 -0.0076209665 -0.057503726
000210 3d 43 62 bd ba d9 41 bd 92 5b 26 3d 4b 27 37 3d
       -0.055239905 -0.04732678 0.040614672 0.044715207
000220 8a 7b 60 bd 5d 64 8d bd f7 5f ff 3c db 74 40 3d
       -0.054805316 -0.069039084 0.03117369 0.046986442
000230 38 55 ff 3b d6 34 88 bb 33 59 97 3c 66 3a 66 3d
       0.0077921413 -0.004156689 0.01847515 0.056208037
000240 9d 1e 34 bd bf 11 23 bd ab ed b2 3c a3 39 33 3d
       -0.043974508 -0.039811846 0.021841845 0.04375614
000250 54 e1 49 bb aa ca 6b bc ce 80 a1 bc 64 3c e9 3c
       -0.0030804472 -0.014391581 -0.01971474 0.02847118
000260 64 84 19 3d 6f 9e 93 3a c7 7b 5b bd 3a 2f 98 3c
       0.037479773 0.0011262427 -0.05358484 0.018577207
000270 d6 5d 57 3d c8 b7 30 ba 9c 8f c1 bc 4b 0d d5 3b
       0.052579723 -0.0006741253 -0.023628049 0.006501829
000280 9c 07 22 bd b2 36 52 3c 20 59 3d 3d 38 68 0c 3d
       -0.039558038 0.012830423 0.046227574 0.03427908
000290 d7 8e a1 bc 47 47 05 3d 98 c6 9f bd 91 a7 92 bc
       -0.019721432 0.03253868 -0.078015506 -0.017902168
0002a0 ab b0 7d bd 26 62 ca bc a6 c2 17 3d 7e 2e 24 3d
       -0.06193606 -0.024705004 0.037050866 0.0400834
0002b0 8c a4 cc 3c 80 25 c6 bc 57 d9 2e 3d ec fc 4f bd
       0.024980806 -0.024187803 0.04268774 -0.050778314
0002c0 c3 9f 75 3c 7e 36 08 3c 67 da 3c bd dd 63 ac 3a
       0.014991703 0.008313773 -0.046106722 0.001315232
0002d0 fc f9 2f 3d b6 52 91 bd c2 da 4c bd 41 b1 42 3d
       0.042963013 -0.07095854 -0.05001331 0.047532324
0002e0 71 5f 8b bd 88 25 15 bc b2 da eb 3c 9b 52 8c bd
       -0.068053134 -0.009103186 0.028790805 -0.06851693
0002f0 f0 e5 b6 bc c3 a1 06 bd 0c fe b1 bd ae dd a7 bc
       -0.02232644 -0.03286911 -0.08691034 -0.020491447
000300 b4 32 0c bc 13 d8 0b 3d b4 80 51 3d 43 6a 8b bd
       -0.00855701 0.03414161 0.05114813 -0.06807377
000310 d7 fc 15 3d 23 d0 aa 3c ee 18 8a bd 6c 26 12 3d
       0.03661808 0.0208512 -0.06743036 0.035681173
000320 90 5c c9 3c 34 22 05 3c 2a 73 1f bb 65 f5 01 3c
       0.02458027 0.00812583 -0.0024330118 0.007932042
000330 64 49 4b bd 86 f7 29 3d bb 88 70 bd 90 a1 93 bd
       -0.049630538 0.041495822 -0.058724146 -0.0720855
000340 e4 2b b8 3c b5 5f 0b bd f4 2c 78 bd 0d 00 ed 3c
       0.022481866 -0.03402682 -0.060589746 0.028930688
000350 44 fb f9 bc 70 f7 70 bd 99 35 8e bc 69 fb a2 3d
       -0.03051532 -0.058829725 -0.017359542 0.07958109
000360 03 e8 9b bd eb d1 3c bc 5d 44 3c 3c b8 70 12 bc
       -0.07612612 -0.011524658 0.011490908 -0.008938007
000370 43 3b 2b 3d 50 dc a4 3c 99 1d 37 bd 8c 75 22 bd
       0.041804563 0.020124584 -0.04470596 -0.039662883
000380 03 7b 28 3d ce 0d 78 bd 5c b2 78 bd aa e9 1e 3d
       0.041132938 -0.06056004 -0.06071697 0.03879706
000390 6f 36 14 bd 9c ac d0 3c 0a ab 39 3d 89 9b df 3a
       -0.036184724 0.025472932 0.04532913 0.0017059903
0003a0 03 a0 22 bd 8f a5 2f bc 3b 09 39 3d 78 2d 59 bb
       -0.03970338 -0.010720625 0.04517482 -0.0033138674
0003b0 46 49 cc 3b bf 82 f9 3c c0 4f 0b 3d 2a b5 19 bd
       0.006234321 0.030457852 0.034011602 -0.037526287
0003c0 80 9d 05 bd f3 bc 52 3d 7b 81 0f bd c5 2d 6e bd
       -0.032620907 0.051449727 -0.03503559 -0.058149118
0003d0 aa 53 76 bc 6f 68 b4 bc 15 39 0d 3d bb fb 16 3d
       -0.0150345955 -0.022022454 0.034478266 0.036861163
0003e0 f7 4b 11 3d c1 16 8f 3c f3 c2 03 3c 9d 6a 9c 3c
       0.035472836 0.017466905 0.008042085 0.019093806
0003f0 5f c5 ad bb 70 f5 41 3d 5b 66 43 bd 9d a6 2e bd
       -0.0053030695 0.047353208 -0.047705036 -0.042639364

critic.4.weight f4 [1, 256]
000000 b2 c8 b3 bc 01 78 16 3a c3 e2 2d bd 35 8d c9 b9
       -0.021946285 0.0005739928 -0.042452585 -0.00038442915
000010 2c ca 6f ba 1a 07 20 3d 57 a4 54 3a 00 39 42 3a
       -0.00091472524 0.039069273 0.0008111647 0.00074090064
000020 97 4a 05 bb 89 c2 cf 37 89 0b fa bb dd 1a 12 3d
       -0.0020338648 2.476691e-05 -0.0076307696 0.03567015
000030 c8 7b 4a bd ba a2 c4 37 59 c9 73 b9 2b c5 15 39
       -0.049434453 2.3440796e-05 -0.00023249294 0.00014283198
000040 4b f7 1f 3a c6 db e0 3c 2e 57 97 3a 58 7c b9 36
       0.0006102218 0.027448546 0.0011546367 5.527905e-06
000050 f6 05 56 3b ed 72 29 3a e1 eb 48 b9 9d 40 8c ba
       0.0032657362 0.00064639637 -0.00019161358 -0.0010700409
000060 10 9e 91 b9 76 34 dd 3b 23 c1 8f 3c 40 c7 60 bd
       -0.0002777432 0.0067506386 0.01754815 -0.05487752
000070 05 33 53 39 bf 06 cf 3c 7f 51 02 3a d2 5b 19 bd
       0.00020141534 0.025271771 0.00049712503 -0.037441082
000080 cc 5e 43 3d 60 73 c3 bc d8 76 d5 ba f7 b1 c9 3b
       0.047697827 -0.023858726 -0.0016286029 0.0061552483
000090 69 9b 39 38 0a b9 d0 39 a1 e2 c8 bc 4d 15 17 ba
       4.4252174e-05 0.00039810716 -0.024522128 -0.0005763367
0000a0 37 dc 62 3a 24 ca 21 ba 84 7c 80 b9 9b a2 c9 bb
       0.00086540304 -0.0006171784 -0.00024506834 -0.0061534173
0000b0 09 8c 04 ba 3e c9 1e 39 75 ab bb b9 6e a2 b8 3b
       -0.0005056267 0.00015143023 -0.00035795165 0.0056345975
0000c0 49 6f 17 39 84 61 25 3b db 41 06 bd 1d 52 0f b9
       0.00014441939 0.0025235126 -0.03277765 -0.00013668132
0000d0 a7 01 bf ba d7 7f c0 bb fc 78 e0 b8 73 c0 4a bb
       -0.0014572636 -0.0058746147 -0.000107036874 -0.0030937463
0000e0 bc 62 a5 39 db 87 ca bb 10 ae 3b 3c 53 ee e0 3b
       0.00031544815 -0.006180746 0.011455074 0.006864348
0000f0 92 9a 52 38 6c ee f8 3a 27 3b 2c bd a0 7f b2 38
       5.0211856e-05 0.0018991954 -0.0420486 8.5114734e-05
000100 09 93 29 3b 10 4d 12 3c 6d e3 6b b8 a9 fc 54 3d
       0.0025874993 0.008929506 -5.6240173e-05 0.051998768
000110 96 3e 25 b9 50 78 1c 3a c3 d4 57 b8 cd e8 f8 38
       -0.00015758941 0.00059688557 -5.1458144e-05 0.00011868924
000120 89 83 ff ba 36 3a 98 3a b0 00 0e 3a 10 e9 d4 bb
       -0.0019494157 0.0011614028 0.00054169726 -0.00649751
000130 e1 15 ee ba 6a d7 42 3d 0d e1 11 bc 75 9d ae ba
       -0.0018164479 0.047568716 -0.008903754 -0.0013322072
000140 f1 ab 87 39 5d 22 20 b9 c4 a7 9f 39 63 3f 40 38
       0.00025877313 -0.0001527159 0.00030451838 4.58354e-05
000150 5e d5 4c b9 6f ed 98 b9 7f 5c 45 3a 98 1a 30 bb
       -0.00019534442 -0.000291686 0.00075287366 -0.002687132
000160 19 d8 42 ba 6b 10 8e ba 07 34 e4 3c 17 85 06 3d
       -0.0007432714 -0.0010838633 0.02785684 0.032841768
000170 89 6a 57 3d 57 05 e8 3a c5 b6 d4 3b a2 fd 9d 3c
       0.052591834 0.0017701787 0.0064915144 0.01928598
000180 c4 97 b8 37 5b 68 a0 bc 92 b9 b0 3a 9d 6e 16 b8
       2.200518e-05 -0.01958101 0.0013483039 -3.5865804e-05
000190 11 96 3f 3d 00 30 01 38 9d 49 db 39 96 1c 13 3a
       0.046773974 3.08007e-05 0.0004182578 0.00056118646
0001a0 da 99 17 bb bc db d8 3a d9 21 00 39 d1 83 5c 3d
       -0.0023132474 0.0016544978 0.0001221964 0.053836647
0001b0 a1 6e 4c ba 45 89 3f 3a c9 12 f8 bc 03 18 2e ba
       -0.00077984674 0.00073065265 -0.030282395 -0.0006641151
0001c0 b0 ac 35 bc 31 eb 2d 3a 81 6b 89 39 11 e9 1c 3c
       -0.011088535 0.00066344725 0.00026210773 0.009577052
0001d0 5c dc 24 ba cf 85 3e bc 92 f1 5e 3d d2 ef 1c 3d
       -0.00062889396 -0.011628582 0.0544296 0.038314648
0001e0 76 71 6b 3d a3 3f b4 ba bd bb f7 3a 70 d9 9a b8
       0.05748125 -0.0013751875 0.0018900555 -7.383793e-05
0001f0 d7 18 23 37 e0 56 d3 bb c8 61 d0 39 a6 73 af ba
       9.721341e-06 -0.0064495653 0.00039745704 -0.0013385906
000200 e0 c2 ff b9 30 8c fb b5 8e 71 b7 b9 73 0d 87 bc
       -0.00048782583 -1.8741757e-06 -0.00034989085 -0.016485905
000210 3a bb ee b8 a0 80 28 3d 6b 88 8f 3a c1 30 d4 39
       -0.00011383598 0.04113829 0.001095069 0.00040472116
000220 d6 6d 9c 3a 73 b2 c1 3a 9b 7d 5e 39 09 9e 98 3a
       0.0011934589 0.0014777913 0.00021218362 0.0011643778
000230 33 e5 f8 ba bc cc 6e 3a 91 cb 8f 37 92 61 61 b9
       -0.0018989205 0.00091094873 1.7141721e-05 -0.0002149402
000240 8b 60 72 34 32 0a 5f 3a bc 82 34 ba dc d5 1d bd
       2.2573128e-07 0.0008508294 -0.0006885936 -0.03853403
000250 14 b1 4d b6 e0 6c 07 3a 71 44 ab 39 65 08 ea b9
       -3.0650453e-06 0.0005166065 0.00032666654 -0.00044638212
000260 7d 80 e3 3a f3 2e e6 bc 29 40 9b 39 98 d0 d2 ba
       0.0017357018 -0.028098559 0.00029611707 -0.0016083894
000270 bc ae c4 bc 38 3b 13 bd a4 4c 3d 39 1e ad 49 39
       -0.024009101 -0.035945147 0.00018052995 0.00019233345
000280 68 e5 4a 3d 4f 3f 3a bd 7a 72 a8 3b 29 6e 38 3d
       0.049535185 -0.045470532 0.0051406 0.045026932
000290 8e 59 61 3a 58 c8 64 37 4c 82 c2 3b 87 3f d5 39
       0.00085964135 1.3636505e-05 0.0059359428 0.00040673857
0002a0 8a f3 01 3d f5 6e 88 3b c9 50 44 3a 60 8f d1 3b
       0.031726398 0.0041636177 0.00074888446 0.0063952655
0002b0 18 3c 3a 3c 3a 58 32 3a 09 7a 4b bd d4 50 db 39
       0.0113668665 0.0006803308 -0.04967693 0.00041831157
0002c0 6f 70 1a 3d a4 b4 9f 39 f3 7e 48 3d be c9 0a 3b
       0.03770488 0.0003046143 0.048949193 0.0021177377
0002d0 b1 e5 03 3c a2 3c 77 ba e6 db 90 3a af 59 95 38
       0.008050368 -0.0009431337 0.0011051863 7.1215785e-05
0002e0 ee e8 27 36 e8 34 9e bc cf f6 41 bd d9 a5 c8 39
       2.5020522e-06 -0.019312337 -0.047354516 0.0003827054
0002f0 74 7a 40 3d 5d 45 38 3a ce a2 f2 b9 bb 06 96 3c
       0.04699178 0.0007029379 -0.00046279136 0.018313756
000300 02 66 cc bc 81 35 82 ba 07 44 05 3b d7 07 82 38
       -0.024950985 -0.0009934158 0.0020334737 6.200343e-05
000310 1b 88 85 39 6f 51 8c bc 8c 6f 88 3c 4f 09 b9 3a
       0.00025469143 -0.017128674 0.016654752 0.0014117154
000320 76 09 28 39 57 2b d1 3a 2c b3 b9 39 e8 8b 34 bd
       0.00016025253 0.0015958351 0.00035419443 -0.044078737
000330 8a 4a 97 3b 60 17 a1 3a ae ff a6 b9 a5 ec e8 3a
       0.00461704 0.0012290291 -0.00031852484 0.0017770721
000340 d6 69 56 3a db 0e 60 ba 74 6e bf 3c a1 0a 09 bb
       0.0008179223 -0.00085471355 0.023368098 -0.0020910876
000350 e0 77 78 39 0a f2 c6 bc 67 01 44 bc 5a b6 83 b8
       0.0002369578 -0.024285335 -0.011963225 -6.2805324e-05
000360 dd ad a3 38 2a 83 25 3b 0c 76 50 3d 90 54 d1 3c
       7.80483e-05 0.0025255182 0.05089383 0.025553018
000370 0c bb 3f b9 7a 48 24 bd 0f 2f 5f bc 57 2b 06 3b
       -0.0001828486 -0.04010818 -0.0136220595 0.002047261
000380 d1 32 84 3a 41 d5 85 3a d7 0f 09 bd 38 9e a6 b9
       0.0010085945 0.0010210649 -0.03346237 -0.0003177987
000390 ff e4 1c bb 14 96 a5 3c 77 c0 02 bd 91 c0 6c ba
       -0.0023940203 0.020213164 -0.03192183 -0.000903138
0003a0 8c 62 f7 b8 f8 8a 13 bc ef d0 6a 3a 0f cc 9e 3a
       -0.000117962336 -0.009005301 0.0008957525 0.0012115258
0003b0 3a 4d 96 bb 17 5b 15 ba 8d 69 08 bb d0 58 bf 3c
       -0.004586843 -0.00056974724 -0.0020814866 0.023357779
0003c0 2f 58 86 36 1a 71 b4 bc d2 07 c4 3c 9e a6 93 39
       4.003777e-06 -0.022026587 0.02392951 0.00028162164
0003d0 50 83 46 3d 5c 55 c4 39 5b ec 1f 3b 7e 23 e1 39
       0.048465073 0.0003744763 0.0024402353 0.00042941788
0003e0 59 8a 90 bc 92 2f f3 b9 27 5e 45 39 0f 01 9c 3a
       -0.017644094 -0.00046384014 0.00018822459 0.0011902171
0003f0 86 5e 24 3b e0 ec 64 ba f4 07 2b ba 72 06 1f 38
       0.0025080754 -0.0008732807 -0.00065243174 3.7914557e-05
