youtube-ppo/tmp/ppo/lyapunov2-batch.pth (torch, 271064 bytes, 5 tensors)

critic.0.weight f4 [256, 3]
00000000: 0f85 d33d 5dae 15be e776 553e ca23 9dbe
00000010: a60e 013f a96d df3d c8c3 9b3d 5d2e 0dbc
00000020: be63 37bd df36 143f a0a4 923e 6509 a6be
00000030: 7ca9 663e f5dd febe 6c28 113e 9273 dcbe
00000040: 663c bf3e 4481 f1bd 5cb6 123f a0a3 063f
00000050: 7812 073f 5f8e 66be ac67 a03c 251e 483c
00000060: 4598 8fbd f081 093e a227 55be 47e5 153f
00000070: 0dec da3e daf9 103e 09d7 38be 9d19 3cbd
00000080: b576 773e 75a4 f03e a91c 60bd 9ad1 803e
00000090: 3c5f 7dbe 902c cabe 340a a83e 7698 bbbe
000000a0: c938 acbd e1dc f93e 53d5 c9bd feb8 e43e
000000b0: 0719 94be d3b8 023f f5bc 85be b7f9 fbbe
000000c0: fe54 19be 010f c3be 2f4b 9abe bb1c d8bd
000000d0: ae59 d73e cae5 083f 92f8 42bd 5f45 fc3e
000000e0: 9587 cdbd 217b cabe 2ff2 da3b 25ac 95be
000000f0: 296b 0ebe 2c72 c33e c31b f33d 756e 003d
00000100: 1ca8 e6be 4133 f13e 73b8 953d 4de5 93be
00000110: 3de9 113d c610 073f 1b14 c93e 9951 d63e
00000120: 8a14 96be 7424 9ebe dd9c e63e 7f4d 063f
00000130: f71e 033f 7af3 993e 294d cf3e 2f6e 063f
00000140: 6bcb c0be 6616 7b3e 6a66 46be 9e30 0f3e
00000150: d798 4f3e 21a1 b03e ea5a 5d3d c2d8 aebd
00000160: 08fd 513c c11e 343e 28a6 233c 64ce bbbc
00000170: 4207 83be 8f35 fbbe 5e8f 01bf d7f5 d3bd
00000180: 6b4d 593e 865d 06bd 7a45 3c3e 186e a6be
00000190: 751d 693e 81c3 b3be bb8c 6e3e e550 a7be
000001a0: 97f8 9b3e 48ef cf3e 5c72 9bbc ddb7 e63e
000001b0: 7d24 803e d845 2d3e cab9 d83e c0d2 b93e
000001c0: bbfe c93e 6db3 aebe 7a0e 223c e7e0 02bf
000001d0: 8f20 b13e a55c 813e 2d4d 85be e500 c7be
000001e0: d5d2 103e bef8 a83e 56ff b0be c069 703d
000001f0: 2b15 2c3d 1612 c13e 359f 64be 0aa4 94be
00000200: 88f2 b53e dfd1 8a3e d956 1d3d 2960 e33d
00000210: 4f5c ea3e fdaa ff3e dd89 ecbe 656c c9be
00000220: eff8 f23e cead 8d3e e789 e0bd 1864 c03b
00000230: 11bf 293e bca2 a8be 016b ca3e 9fd8 69bc
00000240: 5d27 e8be fdba acbe b600 9e3e 99c8 e33e
00000250: 1236 00bf 76f1 643e d73b 7f3e 7abf b8be
00000260: 81c7 80bc a623 2e3d 4c98 e0be 441c b83d
00000270: 51a8 babe 6d29 d13e e0d7 243d 975e 4fbd
00000280: e8c2 fb3e 6885 993e ff0c cbbc 1146 c4be
00000290: 3791 4fbe 51e0 e63e 2d8f 003f 9479 7f3e
000002a0: 9275 90bd d4b5 893e 36c5 5f3e a251 143f
000002b0: 7885 84be c15c c33e a1da 7b3e 4317 8dbe
000002c0: 733e 53bd 7146 533e 2e5a 85bd 3025 eebe
000002d0: b80a 12be 7a01 073e 7daa 91bd 7c1a 00bf
000002e0: 05c9 a63e 6d92 2abe e7d8 003f 2842 4e3e
000002f0: a803 823e 0708 073e a731 333e bc10 73be
00000300: 7ff6 bdbe 1991 fdbe 839c d9be d0c8 aebe
00000310: 23f2 fd3e 57c3 c4bc 8a6f 96be dcb8 a8be
00000320: dd60 89be 10d3 0f3e 32f4 033f 2cad 66bd
00000330: fe5f 713e 0359 12bc f144 fb3e d835 68bd
00000340: 8cba 5e3e 9439 f53e cce0 a13e 31c0 883e
00000350: 37c4 babe b9f6 393e 17ea fc3b ee3c b83e
00000360: 754b febe c50f 823e 1787 ff3d 1770 9e3e
00000370: 2f7d 933d e95d b5bd f100 953d 756f 44be
00000380: de51 cebd c4ee f9be 6805 df3e ea51 c43e
00000390: dc43 e83c 189b a2be ef19 9a3e fd27 e0be
000003a0: b83b d53d 258f 043f 74ac f8be 3e89 ad3e
000003b0: 782a 9bbe 736b 2c3e febc 7ebe 55cd 95be
000003c0: 17e8 ddbd cbe5 ad3d 6926 9dba cd7a 883e
000003d0: 7bdf dbbc 2a9d bfbe d6b7 80be c429 dc3e
000003e0: 8b20 9ebd ce29 4bbd cd4e 90be 7508 71be
000003f0: 7211 d2be 396c 0dbd e583 50be cad7 bcbe
0.10328113 -0.14617296 0.20846139 -0.30691367 0.50412977 0.10909588 0.07605702 -0.008617011
-0.044772856 0.57896227 0.28641224 -0.32429042 0.2252559 -0.49778715 0.14175576 -0.43056923
0.37350768 -0.117922336 0.5730951 0.5259342 0.52762556 -0.22515248 0.019580685 0.012214218
-0.07011465 0.13428473 -0.208159 0.58552974 0.42758217 0.14157811 -0.1805078 -0.045922864
0.24166377 0.4700047 -0.054714832 0.25159913 -0.2474336 -0.39487123 0.32820284 -0.36639756
-0.084092684 0.4880133 -0.098551415 0.44672388 -0.28925344 0.5106327 -0.26120725 -0.49213955
-0.14973828 -0.38097385 -0.30135486 -0.10552355 0.42060608 0.5347563 -0.047600336 0.49271676
-0.10035626 -0.39547065 0.0066817026 -0.29232898 -0.13908066 0.38173044 0.118705295 0.03135534
-0.45050132 0.47109416 0.073105715 -0.2888588 0.035622824 0.5275997 0.39273152 0.4185913
-0.29312545 -0.30887187 0.45041552 0.52462 0.51219124 0.3006857 0.40488556 0.52511877
-0.37655196 0.24520263 -0.19375005 0.1398339 0.20273148 0.34497932 0.05404178 -0.08537437
0.012816675 0.17589857 0.009988345 -0.022925563 -0.25591475 -0.490643 -0.50609386 -0.103496246
0.21220939 -0.032804035 0.18385878 -0.3250587 0.22765143 -0.35110095 0.23295872 -0.32678905
0.30463096 0.40612245 -0.01897543 0.45062152 0.25027838 0.16921175 0.42329246 0.36293602
0.39452156 -0.34121266 0.009891147 -0.51124424 0.34595153 0.25265995 -0.26035443 -0.3886787
0.14142926 0.33002275 -0.34569806 0.0586946 0.042012375 0.3770911 -0.22326358 -0.29031402
0.355366 0.27113244 0.038412903 0.111023255 0.4577355 0.4993514 -0.4619893 -0.3934051
0.47455546 0.27671665 -0.10963803 0.005871307 0.16576792 -0.32936656 0.39534763 -0.014272838
-0.45342532 -0.3373641 0.30859917 0.4448898 -0.50082505 0.22357735 0.24925171 -0.36083585
-0.01572013 0.042514466 -0.43866193 0.08989766 -0.3645654 0.40851918 0.040244937 -0.050627317
0.4917214 0.29984593 -0.02478647 -0.38334706 -0.20270239 0.45093015 0.5021847 0.24948722
-0.07053675 0.26896536 0.21852574 0.5793706 -0.2588308 0.38156703 0.24595119 -0.2755681
-0.051573228 0.2063234 -0.06511341 -0.46512747 -0.14261901 0.13184157 -0.07112596 -0.5004041
0.3257524 -0.1665742 0.50330967 0.20142424 0.25393414 0.13186656 0.1749941 -0.23736852
-0.37102124 -0.49524763 -0.4250222 -0.34137583 0.49598798 -0.024018927 -0.29381973 -0.32953537
-0.26831713 0.14045358 0.5154449 -0.056317493 0.23571774 -0.008932355 0.49076036 -0.056691974
0.2175085 0.4789549 0.3161682 0.2670913 -0.36477825 0.18160523 0.0077183354 0.35983986
-0.49666944 0.25402656 0.12476938 0.30944893 0.07201611 -0.088558026 0.0727557 -0.19183142
-0.10074209 -0.48814976 0.43558812 0.38343745 0.02835267 -0.31758952 0.3009791 -0.4378051
0.10411781 0.5178092 -0.4856907 0.3389377 -0.3030584 0.16837864 -0.24876782 -0.29258218
-0.10835283 0.08491095 -0.0011989597 0.2665619 -0.026839962 -0.37424594 -0.25140256 0.43000615
-0.07721051 -0.049600415 -0.2818512 -0.23538382 -0.41028935 -0.034527037 -0.20362814 -0.36883384

critic.0.bias f4 [256]
00000000: 8c19 9f3e fd4e 3b3e 389d 293e d56c d3be
00000010: 0091 223d c89d 293e e009 a1be 8867 e33e
00000020: f842 b63e b160 b4be db4c 6dbd a8f4 fc3e
00000030: 1c3c 19bc 2249 84be 19ee 363e 1135 d0be
00000040: d08e 0c3d 9423 12bf 441b 3a3e 5aa0 89b9
00000050: fcfa ac3e 167b 983e 22e5 ce3e 0588 73bc
00000060: 3ae4 83bd c297 fdbe 85d7 9b3e cf87 c9be
00000070: 3a34 2b3e de27 ce3e 1b08 7e3e eecc a3be
00000080: c36f 90be cb14 c0be a10d 06be de71 f9be
00000090: 1f75 153e b32a 9abe 86f9 d5be a073 053f
000000a0: 7742 0dbf 0454 73be a1e6 5b3e d665 7cbe
000000b0: ca07 093d 8cee 7ebe 9b99 cdbe ac25 d7bd
000000c0: 6629 b2be 2279 c7be e2bf 03bf 8e17 b5bc
000000d0: bd18 0a3f 0720 84be 0ce4 ad3b f888 c5be
000000e0: 5f48 00bf 64b2 5c3d 67c4 1f3e 4667 bebe
000000f0: 5f33 ac3e 88e6 ba3e eb87 e6be 2560 0bbf
00000100: 73ad ecbe 965b 04bf 4b65 d03d 65a4 cabe
00000110: 9c28 03bf 766b c9bd db67 bc3e e945 bd3e
00000120: 066e 4e3e 8c7d 57bd 5bcc b83e ca72 6f3e
00000130: 12ec 08bf 31dc 1abb caf2 f0be f233 0abf
00000140: 4c58 283e 9d89 f9be 6e4a 38be 302e 04bf
00000150: 1976 e2bd 85f3 d1be 16dd 3abe 9bfc 02bf
00000160: 3ad1 92be 4f8c cc3d f331 893e 7c0c b0be
00000170: c234 293e 9689 13bf 2556 023f 2051 0f3e
00000180: 3d17 05bf 0a93 8dbe bf1d 00bf 942d 2f3e
00000190: 6a56 883e 21a8 a93e 1b54 2b3e 49a1 27be
000001a0: f7eb 463e 6db9 0a3f ecf1 bb3d e2b4 d73e
000001b0: abb4 9b3e 8f89 84be 4d96 bdbe fd5c 1e3e
000001c0: 2719 093f e7ea a7bd 984d debe e9ff c9be
000001d0: e6de 30be 4a7e 3a3e fce2 833e 56fd 7a3e
000001e0: 05e5 9dbd c749 00bf 7011 73be 8d43 f33e
000001f0: 5352 d53e 0cb1 c43d 9a19 053f cbf2 f5be
00000200: 45e7 a0be 2b03 023f a25f 403d b581 c03e
00000210: 1485 f63e ed6e 8fbe fe21 02be 5782 6dbd
00000220: 826a b53e 845f d2be 2fac b1be 08fb fb3e
00000230: e40b ebbe a1d7 c8be 9e37 57bd 2675 16be
00000240: 890d 6f3e 95b3 0ebf 5856 b83e a909 66be
00000250: 3c4a d63c ebf7 0b3e c5b5 9a3e 3a16 8f3e
00000260: 8b14 cf3e 9ea5 25be d9cd d3be b9b1 d63e
00000270: aee9 7abe 40ad ee3e 9634 8f3c 53fb 733e
00000280: 1ae2 af3d 8001 8c3e 0ca2 e03d 4a3c bb3e
00000290: 6678 b33e c81a 733e 18ad 99bc 3b05 92bd
000002a0: 594a 04bf e7df 053f f538 2ebe ae08 a5be
000002b0: cd05 0abe 1b7c 1f3e 35fe 8ebd 371e 33be
000002c0: c0f9 d4be 6216 d23e cf59 8e3e f260 033f
000002d0: 4d4d 2b3d acfd 96be bc97 f0bd 1a79 783e
000002e0: 41a2 853e ebbb aabe e770 65be 48ae 68be
000002f0: bcde f13c b9b8 5f3e 40f2 81be aae7 c6be
00000300: 8092 bcbd 68e1 a93e c857 d53e 9a55 713e
00000310: 635b 84be 52ff 803e ce33 86bd 5931 f83d
00000320: 2f94 b63e 2ed0 03bf 5ee3 a53e 72ba 0abe
00000330: fa1f f33d 037e f93e 04f5 933d 2ed6 0fbf
00000340: 3152 08bf 3c7b a33e a717 07bf 9cb6 383b
00000350: 2876 963e 72ab 96be 4c0e ce3e d3ed 9abd
00000360: e4ed edbe 4896 62be 058d 313e 4561 18be
00000370: 1d96 90be 72ac 95be fddc 08bf 2108 4cbe
00000380: 73cd 97be 68d8 c73e 2b5c 4cbd 85ee 49be
00000390: efde f83e 0f25 173c c682 8c3e 2443 57bd
000003a0: ae04 6f3d 08f1 603d 4c8a bebe 5547 0ebe
000003b0: 7f46 333d b1e1 5a3e aed4 fdbe 99d1 15be
000003c0: 2b09 3f3e ffb9 a3bd 1482 cb3e bacb adbe
000003d0: beb4 9ebe 1caf 8bbd 5087 f73e 1655 d1be
000003e0: c74c c2be 3b33 c83d f51c bbbd e453 e8be
000003f0: e7f3 9ebd 3fae d3be 5f50 dbbe 03f6 6e3b
0.31074178 0.1829185 0.1656388 -0.4129397 0.039689064 0.16564095 -0.31452847 0.44414926
0.35597968 -0.3523002 -0.057934623 0.49405408 -0.00935271 -0.25837046 0.17864265 -0.40665486
0.034315884 -0.5708554 0.18174464 -0.00026250147 0.33785236 0.29781407 0.4040919 -0.014863973
-0.06440015 -0.49529845 0.30437866 -0.39361426 0.16719142 0.4026479 0.2480778 -0.31992286
-0.28210267 -0.37515864 -0.13091137 -0.48719686 0.1459546 -0.30110702 -0.41791934 0.52129555
-0.5517954 -0.23762518 0.21474697 -0.24648222 0.033454694 -0.24895686 -0.40156254 -0.10505232
-0.3479721 -0.38959605 -0.51464665 -0.022105958 0.53944 -0.25805685 0.0053067263 -0.3858106
-0.5011043 0.053881064 0.15602265 -0.37188166 0.33632943 0.36504006 -0.45025572 -0.5444358
-0.4622608 -0.5170225 0.1017557 -0.39578548 -0.5123384 -0.0983495 0.36797985 0.369674
0.20159158 -0.052609965 0.3609341 0.23383632 -0.53485215 -0.002362978 -0.47060233 -0.5398551
0.16439933 -0.48737803 -0.17997143 -0.51632977 -0.110576816 -0.41006103 -0.182484 -0.51166695
-0.28675252 0.09987699 0.2679592 -0.34384525 0.16524032 -0.57631814 0.50912696 0.1399579
-0.51988584 -0.27651244 -0.5004539 0.1710723 0.2662843 0.33136085 0.16731302 -0.16370119
0.19425951 0.5418919 0.09177002 0.4213019 0.30411276 -0.258862 -0.37028733 0.1546516
0.53554004 -0.08199101 -0.43418574 -0.39453056 -0.17272529 0.18212238 0.25759113 0.24510702
-0.07709698 -0.50112575 -0.2373712 0.47512475 0.4166437 0.096040815 0.5199219 -0.480368
-0.31426445 0.50786084 0.046966203 0.3759896 0.48148406 -0.28014317 -0.1270828 -0.05798563
0.35432822 -0.41088498 -0.34701678 0.4921496 -0.4590751 -0.39227012 -0.052543275 -0.14693126
0.23345007 -0.5574277 0.36003375 -0.22464623 0.026158445 0.13668792 0.30216804 0.27946645
0.4044536 -0.16176459 -0.41367987 0.41932467 -0.24503204 0.46616554 0.01748113 0.23826341
0.08588047 0.27344894 0.10968408 0.36569434 0.35052794 0.23740685 -0.018759295 -0.07129904
-0.51675946 0.5229477 -0.17013915 -0.32233185 -0.13478775 0.15574686 -0.0698208 -0.17491995
-0.41596794 0.41032702 0.27802894 0.513198 0.041821767 -0.2949041 -0.11747691 0.24264947
0.26100352 -0.33346495 -0.2240635 -0.22722733 0.029525153 0.2184781 -0.25380135 -0.3884862
-0.0920763 0.33179784 0.41668534 0.2356781 -0.25850973 0.25194794 -0.0655285 0.12118787
0.3565993 -0.5148953 0.3240003 -0.13547686 0.118713334 0.48728952 0.072244674 -0.5618619
-0.53250414 0.31929958 -0.52770466 0.0028185016 0.2938702 -0.29427677 0.40245283 -0.075648926
-0.4647056 -0.2212764 0.17338951 -0.14880855 -0.28239527 -0.29233128 -0.534622 -0.19924976
-0.29648933 0.39032292 -0.049892586 -0.19719894 0.48607585 0.009225144 0.27443522 -0.052554265
0.058354072 0.054917365 -0.37214887 -0.13894399 0.043768402 0.21375157 -0.49576324 -0.14630736
0.18655841 -0.0799446 0.3974768 -0.33944494 -0.3099727 -0.06820509 0.48345423 -0.40885228
-0.379492 0.097753964 -0.091363825 -0.45376503 -0.077613644 -0.41343877 -0.42834756 0.0036462552

critic.2.weight f4 [256, 256]
00000000: 3710 063d 9986 0d3d f3a2 363d e277 1b3c
00000010: 79f4 12bc cfa0 c13c 29de b6bb 18f8 3dbd
00000020: 6999 84bd b7cc 08bd 8164 80bd 3763 44bd
00000030: b500 4c3b df06 873c 91e6 37bd 5086 113c
00000040: acbe ffbb 61d2 2abd 28e8 29bd 78ce 323d
00000050: d09e d1bc 1501 3e3b 81cc 853c 7376 213d
00000060: 9719 1d3d 8003 aa3b de1f 48bd d8d1 763b
00000070: 3692 823d d430 80bd dec0 1cbd f102 3fbd
00000080: e8e6 38bc 0d6b d8bc 2b39 48bd 2206 343c
00000090: 4dda f03c 4f65 473d 8dee ff3c a8e4 35bd
000000a0: 49a6 0c3d f594 893c a061 2cbd d8e6 f0bc
000000b0: ecc7 2e3d 0139 473d 9708 c43c f17f 34bd
000000c0: 4fb4 cebb e024 223d 836a 16bd 3d54 07bd
000000d0: 5092 65bd 9e1c be3c cd51 d4bc b997 8f3c
000000e0: 10a8 483c 3f98 17bd 08c0 123d 07ae b33c
000000f0: 5616 3b3c 662a a53c 2cd9 a73c 582e 60bb
00000100: 3e7f 2b3d 20c8 273d b8e1 2a3d d644 283c
00000110: 2a21 de3c 393b 96bc 0f1e d63c cf46 dfbc
00000120: 86ef a13b 1332 583d 0ec9 32bd 1ada fcbc
00000130: fc14 623c cd39 6a3c ca99 5b3d 0896 3fbd
00000140: bc6b 61bd 6f0b 4f3d 4ab3 04bb e24a 923b
00000150: 63a8 9dbb e9fd 643d cc6c 863c 15e4 743c
00000160: d903 1f3d a30e 82bd 39c8 923c 9ae8 41bd
00000170: af8a ca3b b87d 0dbc 4bc5 babc 3031 f23c
00000180: 1f68 f93c 5aba 82bd c442 623c 314c 63bd
00000190: 057f 0c3d 22a9 543d 1e23 ad3c ff3f 7fbd
000001a0: c9cf 213c b88e 593d 2a02 a13c cfe0 fc3c
000001b0: 5604 81bd 72b8 223d 3cbd 643d 1049 1abd
000001c0: 1a75 043a 2468 72bd 9dfa 933c fec0 c3bc
000001d0: 809e 6b3b 4a95 9ebb ed99 cfbc c8c8 30bd
000001e0: 16cc 4abd 5814 0fbd f9bc 173d 460e 8e3c
000001f0: b766 593d e2c7 4fbd 0e0b 143c 94ce 39bd
00000200: 28d2 d53c 304f 913b e4a3 a7bc 1cce 94bb
00000210: 2021 84bd 3467 523d 7bf7 0c3d a3fc 14bd
00000220: 7933 263d 2e16 6abc 65b7 64bd 971a 99bc
00000230: a380 773d 881a 55bd 2234 76bd 2e51 3a3d
00000240: 61b5 b93c e085 e1bc aef1 1cbd adf1 173d
00000250: e764 94bc 91a6 3d3b b05b 4fbd d2d2 4a3d
00000260: d08c b3bb b53b 0f3d 8662 3f3d 3cb0 653d
00000270: cc5c 4cbd 3586 183c b8f0 383d 9637 96b9
00000280: 6553 58bd b7ba 043c 6ba7 743c 06dd 75bd
00000290: 2ba5 81bd df79 9f3c daed 343c d160 c93c
000002a0: 6000 10bd 8266 4cbd a33c 92bb 936f f0bc
000002b0: b80b 6abd 9ed3 43bd 86ef 7bbd 7c0f 163b
000002c0: fc36 86bd 250f 293d b8da 4d3d c87f 27bd
000002d0: 11b3 e4bc 3c97 683d 5aef 293d 57cc d93c
000002e0: c25f 313c 47d7 c73c 4251 86bc 71e5 28bd
000002f0: 798c 3c3d b42f 4f3d 7030 b8bb 8ea9 3cbc
00000300: 2a2d b83c b5d8 63bc 8f83 03bd 825e 4dbc
00000310: d793 87bc 8f71 eb3b c77f 94bb 563b 7abd
00000320: 54f3 80bd 52a7 663c e417 86bd 63c4 3d3c
00000330: 6301 c53c 32e6 633d 713a 3f3d 5114 31bd
00000340: b3c4 443d a0a2 193d 6abd 503a 1d87 40bc
00000350: 9747 2cbd b4d7 2abc e430 80bd f126 293d
00000360: 2962 0839 0e4e 57bd bdf8 6d3c 692e 2e3d
00000370: 3207 ef3c 7ac1 5d3d c5ee 74bc 3adc 5abd
00000380: ce00 a33c 0c57 97bc 020f babc e840 8dba
00000390: 4d31 183d 7b04 f2bc a6b0 693d 51c1 c1bc
000003a0: b97d 083d c639 8f3c 673c 42bd c548 0fbc
000003b0: 5536 073c 8e69 4cbc 0028 633a 40f5 523c
000003c0: f1c6 bebb d6d3 da3b 2532 cbbb ad7c 303d
000003d0: c76a 3e3c 12ed 54bd e076 2fbd 8729 8c3c
000003e0: 1cdc c8bc 8bd1 a93b f7ee dd3b f450 213c
000003f0: c3c6 eebc 4a50 f43c 88cd c33c c126 69bd
0.032730307 0.03455219 0.044588994 0.0094890315 -0.00896942 0.02363625 -0.005580683 -0.04637918
-0.06474573 -0.033398356 -0.062691696 -0.04794618 0.003112835 0.016482769 -0.04489762 0.00888212
-0.0078047123 -0.04170454 -0.041481167 0.043653935 -0.025588423 0.0028992344 0.016332867 0.039419603
0.038354483 0.0051884055 -0.048858516 0.0037661698 0.06375544 -0.06259313 -0.03826987 -0.046633665
-0.011285521 -0.026418233 -0.048882645 0.01098779 0.029400969 0.0486806 0.03124168 -0.044407517
0.03433827 0.016794661 -0.04208529 -0.02940695 0.04267113 0.048638348 0.023929877 -0.044067327
-0.0063081156 0.039585948 -0.03672267 -0.03303932 -0.056047738 0.023207005 -0.025917912 0.017528402
0.0122471005 -0.037010428 0.035827667 0.021933569 0.0114188995 0.020161819 0.020489298 -0.003420731
0.041869394 0.04096234 0.04171917 0.010270318 0.027115423 -0.018338786 0.02613738 -0.027255444
0.0049418835 0.05278213 -0.043648772 -0.030865718 0.013798948 0.014296007 0.05361346 -0.04677394
-0.055034384 0.050548013 -0.0020248466 0.004464493 -0.004811333 0.05590621 0.0164093 0.014946957
0.03882203 -0.06350448 0.01791774 -0.047340967 0.006181083 -0.008635931 -0.022799155 0.02956447
0.030445157 -0.063832 0.0138098635 -0.055492584 0.034300823 0.05191911 0.02113491 -0.06231689
0.0098762 0.053114623 0.019654352 0.030868916 -0.06299655 0.039726682 0.05584453 -0.037667334
0.000505285 -0.059181347 0.018063838 -0.023895737 0.0035952628 -0.004839574 -0.025341952 -0.04316023
-0.049511038 -0.03493151 0.037045453 0.01734079 0.053076472 -0.050727732 0.009035839 -0.045363024
0.026101187 0.0044344887 -0.020463891 -0.0045411717 -0.064516306 0.051367953 0.034415703 -0.036373746
0.040576432 -0.014287515 -0.05583896 -0.018689437 0.060425412 -0.052027255 -0.06010831 0.045487575
0.022669496 -0.027529657 -0.03831642 0.037095714 -0.01811452 0.0028938393 -0.05062455 0.04951746
-0.0054794326 0.03496905 0.04672482 0.056076273 -0.049893185 0.009309341 0.045151442 -0.00028651644
-0.052813906 0.008101157 0.014932494 -0.060025238 -0.063303314 0.019467292 0.011043036 0.024582298
-0.035156608 -0.049902447 -0.004462795 -0.029350078 -0.057140082 -0.047809236 -0.061507724 0.0022897413
-0.06553456 0.04127421 0.050257415 -0.040893346 -0.027917417 0.056784853 0.04148803 0.026586695
0.010826053 0.024394644 -0.016396169 -0.041234437 0.046032403 0.050582603 -0.0056210086 -0.011515034
0.022482473 -0.013906647 -0.032107886 -0.012534739 -0.016549988 0.007185168 -0.004531834 -0.061091743
-0.06296411 0.014077978 -0.065475255 0.011582467 0.024048513 0.055639453 0.046686593 -0.043232266
0.04803915 0.037508607 0.0007962795 -0.0117509635 -0.04206046 -0.010427404 -0.06259325 0.041296903
0.00013006538 -0.052564673 0.014524636 0.04252473 0.029178236 0.05413959 -0.014949505 -0.05343268
0.019897845 -0.018474124 -0.022712234 -0.001077679 0.037156392 -0.029543152 0.05705323 -0.02365175
0.033323023 0.017483603 -0.047420885 -0.008745377 0.0082527 -0.012476338 0.0008665323 0.012875855
-0.0058220555 0.006678085 -0.006201046 0.04308765 0.011622137 -0.0519839 -0.042837977 0.017109646
-0.024519019 0.00518245 0.0067728716 0.009845961 -0.029147511 0.029823441 0.023901716 -0.056921724

critic.2.bias f4 [256]
00000000: a52f 7fbd 7876 fabb 680b 3e3a b03e 8abc
00000010: 8bf2 413d 725a eabb 885c cc3c 136c 4dbd
00000020: 2812 8c3c 5058 803b 7cc8 bf3b a647 02bd
00000030: 130d 4abd 493d 423d 095d 50bd 05e9 f2b9
00000040: b51c ca3b c903 53bb c177 d83c f421 4bbd
00000050: a2d6 58bd 1123 3ebc a883 1f3d f0a3 643d
00000060: 7828 453d 2037 3dbd 463f 5ebd 5948 63bd
00000070: 11a4 19bc 2b75 f03c 06d5 58bd 77e0 56bc
00000080: 7a74 6fbd 9149 d73c 4747 93bd 49dc 233d
00000090: 383b 5dbd c248 0cbd 9cf3 76bd fcf3 28bc
000000a0: e8e5 263d bf6f 2d3d 4956 82bd a191 90bb
000000b0: 22a1 25bd fb9b 423d 26f4 123d 1fad 653d
000000c0: 4996 70bd dbb1 16bc 2edd 5a3c 0cf1 19bd
000000d0: cc8c 02bc 3325 6abd 4fcc 8bbd 892c 6e3d
000000e0: 6651 8bbd 1ad3 6fbd 64ec 113d a0e5 ffbb
000000f0: 52a0 143d a0ea b9bc aa49 af3a 3805 3bbc
00000100: 0058 a0bb 9fb4 6cbd 01f7 a23c 2b33 0d3d
00000110: 4690 fdbc 528e 7dbd d35b 1bbd 41f6 b5bc
00000120: 8c97 073b 86f0 70bc dc50 f8bb e0a6 193d
00000130: d781 33bd c777 1d3d be79 c03c afa0 423d
00000140: e32a 963c 9196 9dbc 0f78 803c 0a93 2a3c
00000150: 65ca b73c e3c8 a2bc 40a6 dc3b 5804 2a3d
00000160: 7bcf 7e3d 189d 6d3d 9597 a6bc cff9 f03a
00000170: 7c98 e2bb 565d 473c 35cb 423d 5d29 05bd
00000180: da05 d53b 332b adba 6c13 4f3d fe58 36bd
00000190: 0fc3 f2bc 9d97 acbb f389 e8bc 2f35 7abd
000001a0: 910e 883c 3229 efbc 4130 03bd 1991 8ebc
000001b0: 4ef8 bd3c 5fc5 56bd 6094 91bd 3d98 e83c
000001c0: 55ef 083d c7cf de3c f249 51bd d3f1 183d
000001d0: 0c6b 883d b457 4f3d 1096 ecbb 059e 36bd
000001e0: e97c babb 8f52 1d3d 5d6d 1cbd ede9 493c
000001f0: 6214 413b ed1c 823b 2f0f 9abc cf64 bf3c
00000200: 5100 2bba 7196 263d cc71 31bd 1e7f 7dbd
00000210: e9fe 863d b0b7 823c d9e1 f2bc 0457 36bd
00000220: aaa7 5d3d 1bcc 02bd 6690 163d 226c 4cbd
00000230: 220e 71bd 9762 6abd 8952 56bd 1669 2d3d
00000240: efc9 52bd 58a7 5ebd 58ac 073c 93a9 8fbc
00000250: c255 21bc 27df f83c 1e6e 9a3c 6bae 6b3d
00000260: a0f2 983c 19a3 8bbd 3ee3 1a3d 302b 463c
00000270: a844 60bc bab2 9c3c 52b4 d33c a455 63bd
00000280: 9cfa 303d 9496 f6bc 3ef9 1d3d 20b1 bfbb
00000290: b806 06bd 3328 a83c be09 19bd 2011 39bb
000002a0: 4760 0e3d d56e 673d 3d06 d33c cc68 3bbd
000002b0: e856 e5bc d9b2 45bc 66cf 393d ca22 4b3d
000002c0: 84da 90bb d5eb db3c 5d64 b73c 2495 b23a
000002d0: 308d 383c 8e03 1f3b fd0d 2cbd c010 3bbd
000002e0: 6aa2 11bb 45bf 29bc 215d edbc 6da3 adba
000002f0: f717 2cbd 8ee6 4ebd 45ff 333d 95f8 de3c
00000300: 1dca ce3c 2820 a93c 012f 15bd 477a c33c
00000310: 92e1 093d e1a1 b93c d0ea 9ebc fb56 843d
00000320: e46f 693d 4692 123d 7315 48bd 2425 81bd
00000330: c254 48bc 96a7 543d 887d 7b3c 3617 323a
00000340: e0c7 33bc 36f6 a1bc b445 94bd 1937 85bc
00000350: a6ee 9ebc 6039 3c3c c6ed 0dbd 139b 08bc
00000360: ac38 81bd 6bfd 86bd 4677 803c bf89 903d
00000370: 455b 303d 04e3 56bd d420 5bbd c958 f8ba
00000380: 75c0 113d b84e 0f3c ad13 50bc 4c97 253c
00000390: 02f7 bebc 3f28 36bd d1b6 3bbd 6485 e43c
000003a0: c21a 5fbb 6eab c93c 2e86 f3bc c40d f93b
000003b0: 79e0 1f3d b938 81bd c80e e6bc b047 ebbc
000003c0: 2f33 d3bc e2d6 1e3d 5d77 adbc bdf7 83bd
000003d0: 9e16 073d 7f69 b2bc 068c 723d 3761 ee3c
000003e0: 6754 813c 34ab 443d e5fb e6bc ef98 ee3c
000003f0: 2a08 1abd 43dd b0bc 64f1 6c3c 8698 3d3d
-0.062301297 -0.007643517 0.00072496245 -0.016875595 0.047350448 -0.007151895 0.024946466 -0.050151896
0.017098501 0.0039167777 0.005852757 -0.03180661 -0.049328875 0.047421727 -0.050869975 -0.0004633145
0.006167973 -0.00321983 0.02642429 -0.049592927 -0.052939065 -0.01160504 0.038943917 0.055820405
0.048134297 -0.04619515 -0.05425956 -0.055488918 -0.009377495 0.029352745 -0.05293753 -0.01311504
-0.05846069 0.026280196 -0.071913294 0.040005002 -0.054011554 -0.034249075 -0.060290918 -0.010312077
0.0407466 0.042342898 -0.06364114 -0.0044118916 -0.04043687 0.047512036 0.03587737 0.056073304
-0.058737073 -0.0091976775 0.013358397 -0.037583396 -0.007968139 -0.057164382 -0.06826078 0.05814794
-0.06802635 -0.05855093 0.03562583 -0.007809356 0.036285706 -0.022694886 0.0013373394 -0.0114148185
-0.004893303 -0.05778944 0.019893171 0.034472626 -0.030952584 -0.061903305 -0.037929367 -0.02221215
0.0020689694 -0.014705783 -0.0075779986 0.03751266 -0.043824997 0.038444307 0.023495551 0.04751652
0.018330997 -0.019236835 0.015682248 0.010411033 0.022435376 -0.01987118 0.0067336857 0.04150805
0.062209588 0.058011144 -0.020335952 0.0018384996 -0.00691515 0.012168249 0.047557075 -0.03251015
0.0065009417 -0.0013211727 0.05055563 -0.044518463 -0.029634027 -0.005267097 -0.028386092 -0.061085876
0.016608508 -0.029194448 -0.03202844 -0.017403172 0.02318969 -0.05243432 -0.071083784 0.028392905
0.03343137 0.027198685 -0.05109591 0.037339997 0.066610426 0.05062075 -0.0072200373 -0.044584293
-0.00569116 0.038408812 -0.038190234 0.012323839 0.0029461612 0.0039707334 -0.018806068 0.023363499
-0.00065231795 0.040670816 -0.043321416 -0.061888807 0.06591589 0.01595673 -0.029648708 -0.04451658
0.054114975 -0.03193293 0.036758803 -0.04990781 -0.05885137 -0.05722293 -0.052324805 0.042336546
-0.05146211 -0.05435881 0.008280836 -0.017536914 -0.009847106 0.030379845 0.018851336 0.057539385
0.01867038 -0.06818218 0.03781437 0.012095258 -0.013688244 0.019128192 0.02584282 -0.055501595
0.04320775 -0.030101098 0.038567774 -0.0058499724 -0.03272125 0.020526981 -0.037362806 -0.0028238967
0.034759786 0.056502182 0.02575981 -0.04575424 -0.027995542 -0.012066566 0.045363806 0.049593724
-0.0044205803 0.026845852 0.022386724 0.001362477 0.0112641305 0.0024263593 -0.042005528 -0.04567027
-0.002222205 -0.010360544 -0.028975071 -0.0013247557 -0.042015042 -0.050512843 0.043944616 0.027218143
0.02524286 0.020645216 -0.03642178 0.023862017 0.033662386 0.022660198 -0.019399077 0.06461903
0.056991473 0.03578403 -0.04884858 -0.06305912 -0.012227239 0.051917635 0.015349753 0.000679362
-0.010972947 -0.019770723 -0.07239857 -0.016261624 -0.019400906 0.011488289 -0.034650587 -0.008337754
-0.063096374 -0.065913044 0.015681874 0.07057523 0.04305579 -0.052462593 -0.053498104 -0.0018947358
0.035583932 0.008746795 -0.012700004 0.010106873 -0.023311142 -0.044471975 -0.045828644 0.027895637
-0.0034043049 0.024617877 -0.029727068 0.007600518 0.039032433 -0.06309647 -0.02808322 -0.028720707
-0.025781242 0.038779147 -0.02117508 -0.06443737 0.032980554 -0.02177882 0.059215568 0.02909909
0.015787316 0.048014835 -0.028196285 0.029125659 -0.037605442 -0.02158988 0.014461849 0.046288036

critic.4.weight f4 [1, 256]
00000000: 5e35 28ba 46cc 2ebb 826b 9a3b 1381 4d38
00000010: d349 3cbb c9d2 a13a d178 0c3a a43a 3839
00000020: 725f ecb9 13ed ae3c 18e4 0c3d 116e 983b
00000030: f17c b83a 69b3 14bc 43e4 8bb9 19cc 9f3c
00000040: c33a 593b 90f7 e3b8 d4ad 2fba da3c 0aba
00000050: 9c35 1c3d b1bb bcba 1968 10bd a91f 07ba
00000060: 0f03 e1bb e5be 163c ff6a 743a ccb1 7eb8
00000070: 69ec bdbc 5f83 073d e65e 453a ed14 c4bc
00000080: 54c5 243d d370 95bc 5127 213b ea02 1a3d
00000090: 4843 41bd 296c efbc 18b5 2239 4275 4e3c
000000a0: 7354 1939 da22 8f39 2249 df3b 41c8 5d3a
000000b0: a889 ccb8 6b67 2e39 d394 c9ba 69a6 a9bc
000000c0: 3a69 94bb 458f 8039 f69f 9f3a d53c 77ba
000000d0: e789 6439 6fed 353d a03f 843a 8937 4839
000000e0: 9111 023a 3bea a13a 30fb f53c 75bb 0d39
000000f0: 9641 61b8 26be f83c ce00 0039 1f8b 413b
00000100: 3f42 f23a 2c21 0d39 1fe3 46ba dd4d b53a
00000110: 3dd4 1fbd 253a c93a 3df2 153a 0db4 56bd
00000120: aa85 873b 0779 6e3a 6b3e 813a 16a1 9cb9
00000130: 2e7c d338 599d 1f3b 7270 55bd 1388 d33a
00000140: ddc6 f83a 0e4e 57ba 73f7 293a 7083 0bb9
00000150: 9e32 31ba a67d 37bb 3384 02bd 7762 ddb9
00000160: 465b 9439 d0a0 9d3b 5db8 c33b cad2 bdb9
00000170: 2614 6fb9 20dc 1f39 cd99 663a 4753 f23a
00000180: 2745 c239 b100 073a 52f7 b1b7 6fb7 07bc
00000190: 6f55 11b9 6c3f 1fbd fd91 013a daab 6fb9
000001a0: d791 bab9 6e97 90bb a7ec faba 21e5 82b9
000001b0: e36c 3fba 7f11 213d bbb0 ab3a bf7e d6bb
000001c0: 13b6 093a abde 41bd 8d0e 8f39 4c50 8e3a
000001d0: bac6 5f3a 6325 21bd c081 2bbd c525 3a3b
000001e0: d5d9 95ba 2f57 07bb bd68 843a 0d8f fc3c
000001f0: 9885 01ba 902e aebb 1758 103a 24c8 41b7
00000200: 1659 1dba 12e4 d23a 6f8d 09bd eef6 a13a
00000210: eef2 16ba 9876 aab8 ebaa b5b9 576c f939
00000220: b00a b939 decd 3a3b c9cd 87bc 1e72 333d
00000230: 5825 c13c 5821 a53c 6fb7 6039 2bab e4bb
00000240: ed94 2c3c f08b 763d cb9a 9a3c fc96 6cbb
00000250: eda4 abbb da85 d63b 0863 9633 0dde 673d
00000260: 0c1a ecba c3d3 b43b 5272 be3a 1e42 1eba
00000270: 789a d1b9 845e 9ebc 4706 993b a02a 893a
00000280: fdd8 34bd cdbe 94ba 2a84 b4b9 8623 483d
00000290: 893a 9239 3c9c 9e3a c863 d4bc 92a6 bfbb
000002a0: f532 55bb edb4 10b9 0029 0b3b 5f48 953b
000002b0: 93b3 183b 9744 09b9 1830 67bc badb 5abd
000002c0: 445a 8bba 7e39 2e3b 0632 d33a 0e67 3738
000002d0: 4200 a7bc 92db 4538 60f3 9bba a1b7 9039
000002e0: ab16 19ba 933c 5837 2901 d6b9 c4de 2cbd
000002f0: 4d98 4fbd 1106 9d3a b4ab b03a 5954 023b
00000300: a856 93b9 33c7 0c3a 0097 94ba ab71 b2b9
00000310: 31af 5839 aa93 aabc 2ac0 8438 9b45 733b
00000320: f2b2 dabb 74fe 97bb 9793 833a 2e50 61b9
00000330: fb4b 913a 9195 74bc 5889 74ba 3e46 01bd
00000340: 6a5a adba ac63 50bd 622b 5eba ac9b a135
00000350: da95 ce39 f443 22bd a1fc 34ba 8022 2537
00000360: b2e6 9dbb b372 c139 607d e8b8 199a ac3a
00000370: c6e1 663a 986d aebc 4872 c5bb 0c19 0c3d
00000380: 413a 023b 4be8 c23c 1d44 85ba 1e43 c539
00000390: 6a72 75bd 5e32 61b8 6f53 633b ed77 213b
000003a0: bb8e f23a e911 16ba 0a1e e339 7b36 8d3a
000003b0: d1e2 203d bed1 dc39 e944 5b3a ec8d 0ebd
000003c0: f41f c9bc 3470 7638 8824 c83c 9c23 ccbc
000003d0: 9cfc fdb9 7a0f e7bc b2b4 c83a f690 3abd
000003e0: db2a 9dbc 7173 cb37 0407 fa3a 9091 87bc
000003f0: aeb0 40bd cb85 ea3b f1b5 cd3a b718 09bd
-0.0006416644 -0.002667205 0.004712523 4.899602e-05 -0.0028730526 0.0012346144 0.0005358579 0.00017569453
-0.0004508454 0.02135328 0.034397215 0.004651793 0.0014075321 -0.009075978 -0.00026682214 0.019506501
0.0033146597 -0.000108703156 -0.00067016226 -0.000527335 0.038137063 -0.0014399198 -0.035255525 -0.0005154559
-0.0068668197 0.009200786 0.0009323805 -6.0723905e-05 -0.023184018 0.03308427 0.00075290946 -0.02393576
0.04022725 -0.018242275 0.0024590085 0.037600435 -0.047183305 -0.02922638 0.00015516987 0.012601199
0.00014622677 0.00027301052 0.006814138 0.0008460321 -9.7531185e-05 0.0001663246 -0.0015379436 -0.020709233
-0.0045291455 0.00024520807 0.0012178409 -0.0009431367 0.00021795147 0.044415887 0.0010089763 0.00019094175
0.0004961724 0.0012353131 0.030027002 0.00013516641 -5.3705262e-05 0.030364107 0.00012207331 0.0029532386
0.0018482878 0.00013459165 -0.0007586944 0.0013832409 -0.039020766 0.0015352411 0.0005719995 -0.052417804
0.004135807 0.0009097014 0.0009860521 -0.00029874657 0.00010084394 0.002435526 -0.05210919 0.0016138576
0.0018980164 -0.000821323 0.0006483711 -0.00013305037 -0.00067595567 -0.0027998476 -0.031864356 -0.00042225767
0.00028296764 0.00481043 0.0059729056 -0.0003620594 -0.00022800322 0.00015245425 0.0008796722 0.0018487953
0.00037054086 0.00051499443 -2.1215212e-05 -0.00828348 -0.00013860104 -0.038878843 0.00049427134 -0.00022856836
-0.00035585344 -0.004412583 -0.0019144014 -0.00024966247 -0.0007302297 0.039323326 0.0013098934 -0.006545871
0.00052532664 -0.047331493 0.00027285927 0.001085767 0.00085363875 -0.039342295 -0.041871786 0.002840386
-0.0011432717 -0.002065133 0.0010102015 0.03082993 -0.00049408665 -0.0053156093 0.00055062905 -1.1550295e-05
-0.00060023495 0.0016089699 -0.033582147 0.0012356916 -0.0005758245 -8.1283215e-05 -0.00034650354 0.000475737
0.00035293913 0.0028504054 -0.016577618 0.043810003 0.023577377 0.020157501 0.00021430639 -0.0069784126
0.010533554 0.06019205 0.01887264 -0.0036100736 -0.0052381665 0.006546718 7.002933e-08 0.05660825
-0.0018013134 0.005518408 0.001452992 -0.0006037074 -0.00039978675 -0.019332178 0.004669938 0.0010464974
-0.04415225 -0.0011348367 -0.00034430745 0.048862003 0.00027890902 0.0012101005 -0.025926486 -0.005848714
-0.0032531593 -0.0001380031 0.0021234155 0.0045557464 0.0023300394 -0.0001309089 -0.014110588 -0.053432204
-0.001063176 0.002658456 0.0016112931 4.3726577e-05 -0.020385865 4.717295e-05 -0.0011898093 0.00027602635
-0.00058398646 1.2888707e-05 -0.00040818125 -0.042204633 -0.050682355 0.0011979957 0.0013478906 0.00198867
-0.0002810259 0.0005370259 -0.0011336505 -0.00034035495 0.00020664629 -0.020822365 6.330044e-05 0.0037120346
-0.006674164 -0.0046384875 0.0010038492 -0.00021487541 0.0011085266 -0.014928238 -0.0009328327 -0.03156113
-0.0013225798 -0.050876305 -0.00084750925 1.2040741e-06 0.0003940303 -0.039615586 -0.00069041 9.842799e-06
-0.004818761 0.00036897286 -0.00011085975 0.0013168483 0.00088074466 -0.021292493 -0.0060255863 0.034203574
0.0019871148 0.023792407 -0.0010167394 0.00037624774 -0.059923567 -5.369109e-05 0.0034687181 0.0024638132
0.0018505672 -0.0005724715 0.00043319195 0.0010773683 0.03927881 0.0004211794 0.00083644554 -0.034803316
-0.02455137 5.8755468e-05 0.024431482 -0.024919324 -0.0004844413 -0.028205622 0.001531264 -0.0455484
-0.019185474 2.4253242e-05 0.0019075577 -0.016548902 -0.047043495 0.0071570626 0.0015694482 -0.033470836
