youtube-ppo/tmp/ppo/ppo-actor.pth (torch, 270940 bytes, 5 tensors)

fc1.weight f4 [256, 3]
00000000: 6dda 0d3e 7317 d03e ca2c b2bc cd87 d7bd
00000010: 66d2 b3bd 0fbb a4be e68f fdbe 74c4 80bd
00000020: 1e62 823d 3be7 aabc 511e 01bf accd 013f
00000030: 7068 bd3e 57b2 c4be 9da9 b53d 1c80 b3be
00000040: a405 9bbd 5f4e 903d c4d9 423d cc55 b7bd
00000050: d3e6 c3be 28e4 083f d766 df3d adc4 de3e
00000060: 6b99 c23d 0978 063f 195f fb3e 3242 8e3e
00000070: 3f13 1b3f 0f73 d73e cc53 f8be 4bbe 16bf
00000080: 70f0 583e f485 f93e f873 bdbe 56a9 943e
00000090: 1d2f 453e 8570 10be 8c47 0fbe 8932 233f
000000a0: 8a31 de3e af9c 933d 43b7 0abf 8506 273e
000000b0: 7ac4 863d f160 043f 7a5e 01bf 5eb6 043c
000000c0: 18ea 143f fc9a f93e efda 02be b93f a23e
000000d0: faa3 1abf 47e5 5dbe e726 723e e975 663e
000000e0: a1fb a03d 88a3 15be 3632 b2bb 279b 98be
000000f0: 3f50 19be 2c6c a03e 6411 a8be fd69 ce3e
00000100: e7ce f8be 70ee 85be d92f c3be 9572 c3be
00000110: 28a0 953e 00bf d63c a075 26be 8038 debb
00000120: 7d12 583b fea8 0fbf 48e9 06be 29b6 0dbf
00000130: f36a f1bd 1490 cebc faed 9cbe a833 203e
00000140: 7ebd ec3e 6fa0 f0be 7a37 4b3e 10da b4be
00000150: 3283 35be ac98 283f e05f 703e 2acd 933e
00000160: a86f a3be 0033 323e 6fa7 fbbe 61a0 abbe
00000170: 4adc 0d3e 5c6f af3d e5ed e83e d4ee 94be
00000180: 51a2 e3bd 48f8 973e 8405 d03e d89e 35be
00000190: dacb cebd c265 b1be 7640 b93e 4564 13bf
000001a0: 8dab 803b 7ded 0b3e 0867 1ebf cd74 b63e
000001b0: 5502 9cbe 56ef f5be 8c63 cdbe a1ac 903e
000001c0: b9e9 0bbf 2686 82be c291 56be 4c47 013f
000001d0: a8f1 0abe 7049 05bf 4018 b1be 0d60 6e3e
000001e0: 2e18 0abe 438c ae3e 075a b2be 3a79 d6be
000001f0: 23cd 3c3e e98c 053f 3190 e6bd 230a 9b3d
00000200: 6b1d 083f 8ee3 843e 2d6f 1cbf 6243 19bd
00000210: 1cfc 9b3e 7c5b 2e3f 70ea ef3e dd79 023f
00000220: ae57 683e 8ee0 52bd 75cc 18bf a142 c63e
00000230: 0a49 d5be f1c7 b93e 08a9 2a3f abc6 0b3e
00000240: 9ba2 9ebe 7f6a 09bc d434 d9bc c852 f93e
00000250: afb9 213f 080a ab3e 6247 c03e 697d 12bf
00000260: b4eb bdbd be94 f1be 5b13 d4be f920 b73e
00000270: 7722 ae3d d3d9 06bf 6302 29be f686 24be
00000280: 154e 0e3f ef17 f23e 9dfd 873e 5074 1e3f
00000290: 598c 3bbd fce2 0b3f 50ee e63e 06ae 033c
000002a0: fc80 813e 0979 d33e f061 123e 1a15 193f
000002b0: ccc8 c2bc d451 d33c 5f4f a03e 63d2 833e
000002c0: ce9c 74bd e62a 8fbd e1db 1cbe 41b3 b93e
000002d0: b81e e73e 4034 72bc 8040 e33b 622b 9e3e
000002e0: 2b8c ea3d 9ea7 e03e c0b9 85be ad5c df3e
000002f0: 120a 74be 7996 adbe 95e9 26bd 9edf 923e
00000300: f5ae eabe 57f7 60be 8515 e7be 539a cbbd
00000310: 09db 6d3d cf24 1f3e b013 cfbd 65a3 8b3e
00000320: b901 d3be e731 4d3e 9a1a c33c 9276 e93e
00000330: 1593 a6be 10a8 a4be c603 99be 28d6 773e
00000340: 18f3 113f 3b76 a93e 893d 0bbe 03f4 6d3d
00000350: 7c53 b13e c8fe 3d3d cd16 6cbe 7a2e d23d
00000360: f7e6 f63e d585 f33d bf75 e63e f5b1 0abf
00000370: f3a7 733d 939a 61be 7927 be3e 6e68 d53a
00000380: 8595 a93e f11c b2be 0f12 cabe 7c22 6e3e
00000390: 4d3e 0fbe fba1 a4be df66 533e dd4b c6be
000003a0: d83e e93d 2395 a0be 468c f43e 824c 983e
000003b0: 93c7 d3be 0939 2a3e 2254 aa3e ae25 353e
000003c0: 0c0f 0c3e 35d5 2b3f c22a afbd e333 e83e
000003d0: b11e eb3e bc02 7bbd 2b4a 1fbf 1a71 86be
000003e0: e498 6b3c cfdc 10bf 7747 ee3e cb43 b33e
000003f0: b8f6 d33c fd17 c7be af7f 863e 5bc2 303e
0.13852854 0.4064289 -0.021749873 -0.10523949 -0.08780365 -0.32173964 -0.49523848 -0.062874705
0.063663706 -0.020862212 -0.50436884 0.50704455 0.36993742 -0.38417313 0.08870242 -0.35058677
-0.07569435 0.07046198 0.04757096 -0.08951911 -0.38262042 0.5347314 0.10908287 0.43509427
0.095019184 0.5252691 0.4909599 0.27784878 0.6057624 0.4207997 -0.48501432 -0.58884114
0.2118547 0.4873501 -0.3700254 0.29035443 0.19256254 -0.14105423 -0.13992137 0.63748986
0.4339717 0.072076194 -0.54185885 0.16311081 0.06580444 0.5171042 -0.50534785 0.00810012
0.581697 0.48751056 -0.12778829 0.31689242 -0.6040646 -0.21669494 0.23647653 0.22505917
0.078604944 -0.14613163 -0.0054381145 -0.29805872 -0.14972018 0.3133253 -0.32825768 0.40315238
-0.48595354 -0.26158476 -0.38122442 -0.38173357 0.29223752 0.026214123 -0.16255808 -0.0067816377
0.0032970004 -0.56117237 -0.13174927 -0.5535608 -0.11787977 -0.025215186 -0.30650312 0.15644705
0.4623832 -0.469974 0.19845381 -0.35322618 -0.17725828 0.6585796 0.23474073 0.28867465
-0.31921124 0.17402267 -0.4915118 -0.33520797 0.13853565 0.08566162 0.45494 -0.2908846
-0.11114944 0.2968161 0.40629208 -0.17736375 -0.10097475 -0.34647948 0.36181992 -0.57574874
0.0039267004 0.13664813 -0.61875963 0.35635987 -0.3047053 -0.4803416 -0.4011501 0.28256705
-0.5465351 -0.25492972 -0.2095404 0.50499415 -0.13568747 -0.5206518 -0.34588814 0.23278828
-0.13485786 0.34091386 -0.3483431 -0.41889364 0.18437628 0.52168137 -0.11257971 0.07570293
0.5316989 0.2595486 -0.6110714 -0.037417777 0.30465782 0.68108344 0.4685855 0.509672
0.22689697 -0.051483683 -0.59686977 0.3872271 -0.41657287 0.36285356 0.6666417 0.13650005
-0.30983433 -0.008387207 -0.026514448 0.4869597 0.63173956 0.3340609 0.3755446 -0.5722261
-0.092734724 -0.47183794 -0.41421017 0.35767344 0.085026674 -0.52676123 -0.16504817 -0.16067109
0.55587894 0.47283885 0.2656068 0.6189623 -0.045788143 0.54643226 0.45103693 0.008037096
0.2529372 0.4130328 0.14295173 0.59797823 -0.023777388 0.025795855 0.31310555 0.2574645
-0.059719853 -0.06990604 -0.15318252 0.36269572 0.45140624 -0.014782965 0.0069351792 0.30892473
0.11452516 0.43877882 -0.26118279 0.43625394 -0.23831967 -0.33903864 -0.040750105 0.2868623
-0.45836607 -0.21969353 -0.45133606 -0.099415444 0.058070216 0.15541385 -0.10111177 0.27273098
-0.41212252 0.20038567 0.023816396 0.45598274 -0.3253409 -0.32159472 -0.2988569 0.24202788
0.57011557 0.33098015 -0.13597693 0.058094036 0.34634006 0.046385556 -0.23055573 0.10262771
0.48223087 0.11890761 0.45011708 -0.5417779 0.05948634 -0.22031622 0.3713949 0.0016281733
0.33121887 -0.34787706 -0.39466903 0.23255342 -0.1398861 -0.3215483 0.20644711 -0.38729754
0.113889396 -0.31363782 0.4776327 0.2974587 -0.413632 0.1662332 0.33267313 0.17690155
0.13677615 0.67122203 -0.08553077 0.45352086 0.45921853 -0.061281905 -0.62222546 -0.26258165
0.014379714 -0.5658693 0.46538898 0.3501266 0.02587448 -0.3888549 0.2626929 0.1726164

fc1.bias f4 [256]
00000000: 8a12 b93e dce4 d4be 77dd ce3e 290a 86be
00000010: be34 91bd 9373 013f 6479 903d 945e 04bf
00000020: 9a7e e03e b4af d2be d7a7 3dbe 7752 dabd
00000030: 6397 adbe 1373 adbe a76d 9d3e 0690 f13e
00000040: 3bd6 023f 3266 22bf 3e75 f0bd 81e6 28be
00000050: 21e8 85be 546b d83e 6cc1 863e b8e7 acbe
00000060: 5f9c 08bf f89e 29be b891 86bd 7617 053f
00000070: 7e06 4bbe 8473 c93e 6f0c 75bd aa7c f83e
00000080: febb b5bd 1b05 48be e17e 643c f6ad f3be
00000090: 7645 aebe 152c 0e3e 875f 85be c17d 2a3d
000000a0: 8771 d3be dff3 01bd 6d53 c7be 4d3b 04be
000000b0: 1d63 8b3d 7ab0 ac3d 2577 f33e 2aeb ba3e
000000c0: e5c7 933e 746f 1dbe 98fc f03e 6638 03bd
000000d0: 52e1 fbbd e4db b2be c1a9 553e f8bb f43e
000000e0: 3d6f e23d a350 4ebe 681e 4c3e c4c3 a33d
000000f0: cee5 0fbf 9730 ebbe 5208 00bd d101 a3bc
00000100: 6137 683e 114d d2be 69f0 20bf 6ef0 08bf
00000110: 3887 74be 68bd b8be 5e39 833e 77f5 76bd
00000120: 2b08 083e 788b d53e 51a6 52be 5081 fcbd
00000130: ab72 ae3d 9892 99be e08b 153d 8dfb eebe
00000140: 10bf da3e 294c 033f 5185 6b3e 9ca9 7f3e
00000150: 293c 09bf 3876 d4be 7ede c63e 5dfd efbe
00000160: 2bc9 fdbe a554 1dbf 236a 9cbe 4687 9fbe
00000170: d89b 8f3e 8097 12bf dfd9 053e 2b3b c7bd
00000180: 874d 2dbe 922d 473e bc6d e1be 3332 42be
00000190: 29c4 573e 308c f43e 8b02 c53e 3ed0 613e
000001a0: 282f 49be 989a 6cbe 89a8 373e 4590 16bf
000001b0: 9c50 64be 0932 963e aa0d 663e 5f12 783c
000001c0: 1886 a6be 1e13 0c3d ebb0 b8bd d0e9 b23e
000001d0: c344 913e 94ef 313d ba19 fa3e d11e b93e
000001e0: bb58 0a3f d73c adbe 8974 053e 5da4 89be
000001f0: 0ab6 923e b1a2 b03e 1775 10bf 07b1 cbbe
00000200: af94 2abc 0b15 06bf ba4e 803e 974e 993e
00000210: 8254 1fbf 1613 843e 22be e33e 2164 bfbe
00000220: 8b89 313e 9104 073e 1559 10be b037 a3be
00000230: b14d a33d 3e5a 953e 4b59 fdbd e274 1dbe
00000240: 675f da3e 681b 113f c6e9 0dbf 6101 ecbc
00000250: 6460 b9be 37f1 de3e 4ed3 e9be 8ab4 e3be
00000260: 3284 813e d5a3 c7be f076 bebe b84b bbbe
00000270: 31af 1a3e 3549 3f3c f559 1fbe 0427 13be
00000280: e6b0 e83c e4f2 c0be 910e 09be c605 8cbe
00000290: 7fc2 01bf 3039 54be 1b0a e43e ae45 08be
000002a0: 2849 ba3e 0697 6abe 22fd 1d3d f6bb c13e
000002b0: 0f2d 1bbf 40ea 0dbf da9c 923e 2537 a93e
000002c0: d0a3 8fbe c044 a23e 6047 2d3e f17a 0fbe
000002d0: 4f41 02bf aba0 e13e c27c a7be bce9 9fbe
000002e0: a9ac e5be caad 15bf 344c 04bb 5622 c03c
000002f0: 97a8 533e d98b a03e 4b80 e1be 6978 1b3e
00000300: 9b92 e8be 9ff3 623e f315 023e e982 c0be
00000310: fd86 0fbd 0b7b 9a3e cbec 15bf 8258 88be
00000320: 918d d8be e57a 55be bce6 8cbe 1e3a 80be
00000330: f912 a1bd 00db 833e 8719 9b3e 4c05 40be
00000340: 8a98 b4be a2fa 763d 190d d9be bc90 fdbe
00000350: 2a5d bb3e 3aa2 18be c603 1ebe ba6b c93e
00000360: c771 89be ad27 743d 657c 98bd b0fc 163e
00000370: 3a2c 81bd be1a c9be 7457 3a3e ce0d f13e
00000380: 6c59 e63e b615 e2be 9e2f dd3b 63b5 8a3e
00000390: aae8 babe 9aa8 a43e 4230 0dbf 30f4 d9be
000003a0: ee76 f4be 4af3 6f3e 1dbc f13e 9738 fb3e
000003b0: c35b 173e ccfb fa3d 0963 c03e 7b92 a9bd
000003c0: 02b6 953e 3b85 d03e 2554 9cbe e350 bebe
000003d0: 9bc2 1fbf d854 b0be 4ad2 fcbe 1c84 f23e
000003e0: 554b 293e 3423 a73e a82b 6b3e 4e27 b6be
000003f0: 78aa 033e 65ab f8bd 0c0e a8be 4511 dd3e
0.36146957 -0.41580856 0.4040334 -0.26179627 -0.07090138 0.5056698 0.070544034 -0.51706815
0.4384659 -0.41149676 -0.18521057 -0.1066026 -0.3390456 -0.33876857 0.3074772 0.47180194
0.5110814 -0.6343719 -0.11741112 -0.1649418 -0.26153663 0.42269385 0.26319444 -0.33770537
-0.53363603 -0.16564548 -0.065707624 0.51988924 -0.19826695 0.39345944 -0.05982631 0.4853261
-0.08873747 -0.19533198 0.013946266 -0.4759366 -0.3403737 0.13884003 -0.26049444 0.041623835
-0.41297552 -0.031726714 -0.38930836 -0.12913246 0.06806014 0.08432098 0.47551838 0.3650754
0.28863445 -0.15374547 0.47067714 -0.032036208 -0.12298836 -0.34933388 0.20865537 0.4779966
0.11056373 -0.20147948 0.19933474 0.07996324 -0.5621003 -0.4593551 -0.031257935 -0.019898327
0.22677375 -0.41074422 -0.62866837 -0.53491867 -0.23879707 -0.36082006 0.25629705 -0.060292687
0.13284366 0.4170797 -0.20571257 -0.12329352 0.08517965 -0.29994655 0.03651035 -0.46676293
0.42723894 0.51288086 0.23000075 0.24967045 -0.5360742 -0.41496444 0.38841623 -0.46872988
-0.4956754 -0.6145728 -0.30549726 -0.31157893 0.28048587 -0.5726242 0.13071392 -0.09728082
-0.16924106 0.19450977 -0.44029033 -0.18964462 0.21070923 0.47763205 0.38478503 0.22052094
-0.19646895 -0.23105848 0.17935385 -0.5881389 -0.22296375 0.2933505 0.2246615 0.015141099
-0.3252418 0.03419792 -0.090181194 0.3494401 0.28372774 0.04344137 0.48847753 0.36156324
0.5404164 -0.3383548 0.13032736 -0.26883212 0.2865451 0.34499124 -0.56428665 -0.397835
-0.0104114255 -0.5237586 0.25060064 0.29942772 -0.62238324 0.2579581 0.44480997 -0.3738108
0.17337625 0.13185336 -0.14096482 -0.31878424 0.07973803 0.29170412 -0.12370547 -0.15376619
0.4265091 0.56682444 -0.55434835 -0.028809251 -0.36206353 0.43543407 -0.45669025 -0.44473678
0.2529617 -0.3899218 -0.37200117 -0.36581206 0.15105893 0.011675169 -0.1556166 -0.14370352
0.028404664 -0.3768531 -0.13384463 -0.27348155 -0.506874 -0.2072494 0.4453896 -0.1330783
0.3638394 -0.22909173 0.038571484 0.37838715 -0.6061563 -0.5543556 0.28635293 0.33049884
-0.28054667 0.31693077 0.16921759 -0.14011742 -0.50880903 0.44067892 -0.3271237 -0.31233013
-0.44858292 -0.58468306 -0.0020187022 0.023453873 0.2066978 0.31356695 -0.44043192 0.15182652
-0.4542435 0.22163247 0.12703685 -0.37599877 -0.035040844 0.30172 -0.5856444 -0.26630026
-0.42295507 -0.20847662 -0.27519786 -0.2504434 -0.07864947 0.2575302 0.30292913 -0.1875202
-0.35272628 0.060297616 -0.42392805 -0.49524486 0.36594516 -0.14905635 -0.15431127 0.3934
-0.26844618 0.05960815 -0.074456014 0.1474483 -0.06307264 -0.39278215 0.18197423 0.47080845
0.44990098 -0.4415719 0.006750061 0.27091512 -0.36505634 0.32159883 -0.5515176 -0.42569113
-0.47746986 0.23432651 0.47213832 0.49066612 0.14781098 0.12255058 0.37575558 -0.08279892
0.29240423 0.40726647 -0.30532947 -0.37171087 -0.6240632 -0.3443973 -0.49379188 0.47366416
0.16532643 0.32644045 0.22965872 -0.35576862 0.12857997 -0.12142066 -0.32823217 0.43177238

fc2.weight f4 [256, 256]
00000000: e1b5 55bd 667f 09be aedf 98bd 53aa acbd
00000010: 7486 34bc 3424 3dbc adba bdbd 6094 d33c
00000020: 5589 06bd 0205 443b 403d 6fbd 138f 793c
00000030: f4e7 7dbb 9ae0 c43d 14d8 4abd 85d3 373d
00000040: d5e2 67bd 0e08 a33d fa3c ddbc ad69 ccbc
00000050: fae9 15bc f8fe 9f3c 2a86 73bd 7c6e a13c
00000060: 2ad1 bfbd c5a9 96bd b1ce 43bc 76bd 7dbd
00000070: cc29 cbbd afee 613d 3fb2 00be 384b cfbd
00000080: f96e d6bd c530 a83c 8799 133d 0633 d9bd
00000090: 4a22 a03b 82ff a53a 181c 163d 44d2 f6bb
000000a0: 7a35 0fbe 7853 4abc 9f34 17bd a8c7 273d
000000b0: 0010 e2bc 15e3 a33a d3da 813b d19f b0bb
000000c0: 30fc 90bd 704d 84bc 59ff 673d 17b5 0bbd
000000d0: c10e 813d 5f27 d6bd a416 bdbd 9900 0fbd
000000e0: e5b9 4fbc bf9e 4a3d e9d0 7ebb 3963 bc3c
000000f0: f829 1f3c 53d3 c0bd fe95 ccbd e1d2 b7bd
00000100: c5fc c6bc 242f a4bd 3f5d 19be 80a4 42bc
00000110: e341 74bd a755 14bd 3165 00bd f9b4 c23d
00000120: 75c8 3abd 3d12 1bbd 597d 11bd 2eb3 13bd
00000130: 87bd 2cbd 3000 b8bd e940 0f3d 975a a5bd
00000140: e995 d2bd 7144 6b3d b6a2 bebd 0b37 a5bd
00000150: b2e8 75bd 60ba d73c 196b 7bbd 8029 15be
00000160: 98ad a6bd ebd5 b0bc b122 cebd 04d7 23bd
00000170: d069 fdbc 5d51 2ebd 5e45 4abd ac0f b4bd
00000180: 5611 0cbc 262b c0bd 6c9b 10bd 469b 1e3c
00000190: 2b19 92bd 32b1 6bbd a604 a9bc 565c babd
000001a0: 0af3 aebd c019 fcbd d49e 8abd 8d56 b3bb
000001b0: 5307 783d d874 0dbd ce22 1bbd e172 9cbd
000001c0: ef9b fcbc 6bf9 04be 4d24 68bc 5c91 b43c
000001d0: 154e 5fbd 3a2a d33c 595a 63bd 8568 4ebd
000001e0: f8ab 98bd ff29 96bd 16e3 103d 3b00 9ebc
000001f0: c398 b7bc 45ed fbbc 61e0 97bd a538 a7bd
00000200: 7907 d2bc bdd1 a9bc a44b d03c f0a0 62bd
00000210: d252 d2bd d399 dfbc 5a25 3abc 5d85 fab9
00000220: dab6 c9bd ac73 26bd 12e5 b3bd 6bf8 02bd
00000230: 74ed 303d 2f9e 95bc b9c6 1b3d 9ffe bebb
00000240: 329e 2abd 2979 06bd be78 9f3a 706c 21bd
00000250: 0aaf bebc 9602 d0bd 4f72 30bd 28e3 a6bd
00000260: cf49 f8bb e70a b0bd 2a41 99b9 b29d a3bd
00000270: b6fb 8d3d 6681 153d 0c43 91bd e434 93bc
00000280: 7e03 a83c f20d ff3b a84b 34bd 1fc6 29bd
00000290: 8622 173c d4e1 2ebd 150f 2abd 6d84 09bd
000002a0: 5bf1 703c fc24 2fbd 9cfd 14bc 6698 db3c
000002b0: 20cf 3abe c6de 12bb 6022 6fbd 6abe 9ebb
000002c0: 0557 3fbd 708d 89bd d0d7 e4bc ec3b 39bd
000002d0: 5f56 4ebd 9f05 233d 3e1b b4bd 2ab6 4dbc
000002e0: 53dc 2a3d bba2 86bd 788c 6fbd bc5b 503b
000002f0: 75cb 8e3c f60f f0bd 1e64 c5bd 0b03 003c
00000300: 2c9c 40bd fb5f 0abd 65db 803a ec2e 22bd
00000310: 43d6 a03c 1db8 07bd f49b dbbd a4d9 14bc
00000320: 6732 8e3b eff7 42bd 3b66 86bd 0390 fcbc
00000330: 5f83 7ebd debb 603d e8d5 f6bb ccf2 a53d
00000340: 69ca 023d d88b c1ba e03e 053d c0c8 abbd
00000350: afe6 3fbd 9301 5c3d 2aef eb3c 128f 89bb
00000360: 3510 acbd 00b3 7cbd f6cb 18bd edef c6bd
00000370: acfe a1bd debd 8c3c ed84 ab3d 33b1 033d
00000380: 9ee3 b33c ba6b b5bc a134 023d 8ba2 043d
00000390: 02b7 6ebd f2b2 ae3d ced9 debc 8f28 c4bd
000003a0: bb9d 38bb 0e76 c83d 784d d6bd e375 04be
000003b0: 0171 7e3d e8af 90bd 8893 9cbc 9e1b 603c
000003c0: 0603 ca3d 1fbe be3d eee0 803c ee31 15be
000003d0: 8d67 b2bd 4df5 08bd 9f2b c9bc 0d98 5abd
000003e0: 4148 4ebd ce23 8f3d f477 813b a455 c0bd
000003f0: a9c7 b0bd 49bb 89bb f96b 41bd 4191 3c3d
-0.052175406 -0.13427505 -0.074645385 -0.08430924 -0.011018384 -0.011544276 -0.09264121 0.025827587
-0.032845814 0.0029910211 -0.058408022 0.015231865 -0.0038742991 0.09613152 -0.049522474 0.044879455
-0.05661281 0.07960521 -0.027006615 -0.024952734 -0.009150023 0.019530758 -0.05945412 0.019706003
-0.09366067 -0.073566 -0.011951135 -0.061948262 -0.099200815 0.055159267 -0.12567995 -0.10121769
-0.10470385 0.020531068 0.036035087 -0.10605435 0.0048869 0.0012664648 0.036647886 -0.00753239
-0.13985243 -0.012349002 -0.036915418 0.04096189 -0.02759552 0.0012503589 0.0039628535 -0.0053901454
-0.07079351 -0.016150206 0.056640003 -0.034108248 0.06301642 -0.10456728 -0.09232834 -0.03491268
-0.012678598 0.0494678 -0.0038881844 0.022996532 0.009714596 -0.09415307 -0.09989546 -0.08975769
-0.024290452 -0.08016804 -0.14976977 -0.01188004 -0.059633147 -0.036214497 -0.031346504 0.09507174
-0.045601327 -0.03785919 -0.03551993 -0.03605955 -0.042172935 -0.08984411 0.034974013 -0.08073919
-0.10282499 0.057438318 -0.093083784 -0.08067139 -0.06003637 0.026333988 -0.061381433 -0.14566612
-0.08138579 -0.021586379 -0.100652106 -0.039999977 -0.030934244 -0.042558063 -0.04938256 -0.08792052
-0.008549055 -0.0938323 -0.03530447 0.009680575 -0.07133707 -0.057542033 -0.0206321 -0.09099643
-0.0854245 -0.12309599 -0.06768575 -0.005472964 0.06055386 -0.03453526 -0.03787499 -0.07639099
-0.030836074 -0.1298577 -0.014168811 0.022041969 -0.054517824 0.025776971 -0.055506084 -0.050392646
-0.074546754 -0.07332229 0.035372816 -0.01928722 -0.02241171 -0.030752787 -0.07415844 -0.08165101
-0.025638329 -0.020729894 0.025426693 -0.055329263 -0.10269703 -0.027295029 -0.011361444 -0.0004778308
-0.09849329 -0.040637657 -0.08783926 -0.03197519 0.043195203 -0.018263904 0.038031314 -0.005828693
-0.041654773 -0.03283039 0.0012166721 -0.039410055 -0.023276825 -0.10156743 -0.043077763 -0.08148795
-0.007577158 -0.085958295 -0.00029230985 -0.07989062 0.06932776 0.036500357 -0.07092866 -0.017969556
0.020509478 0.007783645 -0.044017464 -0.04144871 0.00922454 -0.042695835 -0.04151829 -0.033573557
0.014705981 -0.04275988 -0.009093668 0.026806068 -0.18243074 -0.0022410615 -0.058382392 -0.0048444765
-0.046713848 -0.0671643 -0.027934939 -0.04522316 -0.05037534 0.039800283 -0.087942585 -0.012555638
0.041714024 -0.06574007 -0.05848357 0.003179296 0.017431 -0.11721794 -0.096382365 0.0078132255
-0.047023937 -0.03378294 0.000983101 -0.03959553 0.019633418 -0.03313457 -0.10723105 -0.009085093
0.0043395045 -0.04759973 -0.06562468 -0.030830389 -0.062137004 0.054866664 -0.007532824 0.081029505
0.031931315 -0.0014766408 0.032530665 -0.083878994 -0.046850856 0.05371244 0.028800566 -0.0041979635
-0.08401529 -0.061694145 -0.037303887 -0.09713731 -0.07909903 0.01718038 0.08374963 0.032151412
0.021959122 -0.022146095 0.031788472 0.032381576 -0.05828 0.08530225 -0.027203467 -0.095780484
-0.0028170187 0.09788142 -0.10463995 -0.12935595 0.062119488 -0.070648015 -0.019113317 0.013678459
0.09863858 0.093136065 0.015732255 -0.14569828 -0.08711157 -0.033437062 -0.024556933 -0.053367663
-0.050361875 0.06989251 0.003951067 -0.09391335 -0.08631832 -0.0042032343 -0.04722211 0.046036962

fc2.bias f4 [256]
00000000: a505 3dbc 474a ad3c 682f 603d 593b b93c
00000010: fc6e 44bd d548 bb3c bcb1 c43c fba2 cbba
00000020: 2382 7abd 62fe b23d 745a af3c edeb 63bd
00000030: 646e a73d a747 213d 7fd3 fd39 9339 44bd
00000040: ec33 76bd 7a7c da3c 08c4 533d b7d3 413d
00000050: 7f82 933d a974 193d 861f da3c 2a31 6e3c
00000060: c6fa 1b3d ae61 033d ee0c 223d 9462 c33c
00000070: 7ff7 733c 558e 34bd 2399 813c 60fe 29bd
00000080: c8ef 773d 7546 bbbb 30dc 7dbd 8c2a c1bc
00000090: 5790 06bc d02e 883c 8cd2 773d 9882 813b
000000a0: 6d1b 8f39 d231 f1bb c991 8b3c a075 5b3d
000000b0: 2938 babc 6fa6 4bbd 2343 32bc 8bc4 42bd
000000c0: 67a0 81bd 3247 91bd 3406 4a3d 3171 863d
000000d0: 36fe da3b 0ec9 cbbb 90fd 80bd 1ccc 613c
000000e0: 7552 7aba 9eb3 22bd b2af 36bd 4896 843c
000000f0: e0f7 593c fe15 5c3c 872c 43bd 61c7 dd3c
00000100: 483c 98bc 3637 d6bb 7319 95bd 0f06 533b
00000110: 7cb7 9cbc 2085 60bd ef5c d23d 11bb c3bb
00000120: 9988 073d 9a6f 96bd 937d b6bc ed9c 97bc
00000130: 4315 263d 5a5c 0ebd 3eb5 4c3d 22a7 f63c
00000140: a92b 04bc 04f9 c7bc c262 89bd 76b1 133d
00000150: 0e4a 413d 6c94 6e3d 6ff9 26bc 18e3 88bc
00000160: cf15 483c 9e08 2e3d f4b0 403d 5974 23bd
00000170: f6ea 493c 8276 03bd d58b 183d 262f 84bc
00000180: e7cc 5fbd 7442 233d cecc 4d3c c240 3d3d
00000190: 6b02 203d c632 373d 5b65 17bd 978d d5bb
000001a0: ef18 5abd e687 51bd ebc9 d1bd 62b5 90bd
000001b0: 3329 37bd f2b8 17bd f090 61bd 67f1 54bd
000001c0: 0955 2abd 3973 433d 93cb b53d 66ca 07bd
000001d0: e401 6cbd edda 77bd c097 a8bc bee3 22bd
000001e0: 9f98 6dbc 6243 22bd 6c8a e93b aec8 913c
000001f0: 8046 5bbc 6cc4 2d3d 44f2 f8bc 0a70 09bc
00000200: fc6b 20bc 73d4 323d 58c7 a03c d9e2 79bd
00000210: 77eb 2ebd 94f6 febc 41c1 16bc 7e0b 98bd
00000220: 36e6 e7bd 9f10 dfbb 1a2f b23c f671 ed3b
00000230: bc5f fdbc 3cd6 0a3d 53d5 21bd 17d0 943c
00000240: c4b1 3b3d 0418 2a3c f642 3d3c 71b4 503d
00000250: a6be 4dbd 7feb 3fbd 6fdc 0e3d 996e 8f3c
00000260: d93f 013c 78e9 36bd 54b6 33bc 8674 69bd
00000270: 2e29 f23c 6434 7cbb d764 203a 2b20 a7bc
00000280: a597 68bd be7e 0ebd e8c9 ecbc e22c a7bc
00000290: a6e3 4e3d 623c 22bd 9681 2dbd c8a4 7cbb
000002a0: 28dd fabc 1bf3 e63c ec3e 423d a437 e2bc
000002b0: a2e7 cbbc 391c 353b c911 80bd 36ba 06bd
000002c0: c785 24bd 92e1 443d dcfc 9cbc d8d7 a83d
000002d0: 049e 37bd a4a4 a13a a81c 9abd a7e9 193d
000002e0: 10d0 2fbd 82b7 89bd 9566 13bd aa0a 133d
000002f0: 035a 8b3c 0b2b aabc 5e5d 48bd b7fb fc3c
00000300: 5ad2 5c3d 404d 78bd 1eb6 69bd 9c4d eb3c
00000310: 78bc cfbc 6d11 9ebc 68e2 95bc b566 a5bc
00000320: 002f 0dbd 7f72 14bd c087 0abb 87b5 ae3d
00000330: 1696 afbc b2b9 82bc 1585 aabc e236 5ebc
00000340: 0e45 ef3c a0db bd3c 4c95 a6bc 3cb0 95bd
00000350: 0987 b6bc a071 433b 3eb2 72bd 0d63 8a3d
00000360: e07b c33b abb4 30bd a11c d3bb b62a 81bc
00000370: d896 28bd ec99 953d c012 973d c9eb 903d
00000380: e099 453d e603 76bd bb32 7a3d 80c8 2b3d
00000390: db48 7e3d 0b2c fbbc 4f49 19bd 0dd9 4cbd
000003a0: 371c ba3c ef7a a9bd fc3c 1ebd ef7b f1bc
000003b0: 95a7 413d be09 50bd 0da9 48bd 8f81 aeb9
000003c0: fe8b f4bb 7696 bcbb d2c5 f33d 4cdb d43c
000003d0: 2247 80bd b3a2 703b 62b8 38bd c358 033d
000003e0: 779a acbd 5311 e0bb fbe7 85bd 2eb3 2cbd
000003f0: 5d0d 61bc a2fb ba3c 485b 84bd f4f2 663d
-0.01153699 0.021153582 0.05473271 0.022611307 -0.047957405 0.022861877 0.024010532 -0.0015536243
-0.061159264 0.08739926 0.021405436 -0.05564492 0.08175352 0.039374974 0.00048413497 -0.04790647
-0.06010811 0.026670683 0.05170062 0.047321048 0.072026245 0.03746477 0.02662636 0.014538089
0.038080953 0.032075576 0.039563112 0.023850717 0.014890551 -0.04408105 0.015820092 -0.041502357
0.060531408 -0.0057151862 -0.061977565 -0.023579858 -0.008213124 0.016623884 0.060503528 0.0039523356
0.0002729552 -0.0073606754 0.01703729 0.053578973 -0.022731857 -0.04971927 -0.010880264 -0.04755072
-0.063294224 -0.070936576 0.049322322 0.06564558 0.0066831363 -0.006219036 -0.06298363 0.013781574
-0.000954903 -0.039722078 -0.04460115 0.016184941 0.013303727 0.013432978 -0.047649886 0.02707261
-0.018583432 -0.0065373434 -0.07280245 0.0032199656 -0.01913046 -0.054814458 0.10271632 -0.005973228
0.033089254 -0.07345505 -0.022276675 -0.018507445 0.04054762 -0.034756042 0.049977534 0.030108992
-0.00806705 -0.024410732 -0.0670829 0.03605791 0.047189765 0.058247015 -0.010191306 -0.01670985
0.012212231 0.042488687 0.047043756 -0.03990588 0.012324085 -0.03209544 0.03724273 -0.016135763
-0.05463877 0.039858297 0.012561036 0.046204336 0.039064806 0.044726156 -0.036961894 -0.006517123
-0.053246435 -0.051154993 -0.10243591 -0.07065846 -0.044717025 -0.037041612 -0.055069864 -0.05198803
-0.041585002 0.047717307 0.08876719 -0.033152007 -0.05761899 -0.06051152 -0.020580173 -0.039767973
-0.01450172 -0.039615043 0.007127097 0.017795887 -0.013383508 0.04242365 -0.030388959 -0.008388529
-0.0097913705 0.04365964 0.019626305 -0.061007354 -0.042705026 -0.031123437 -0.009201349 -0.07424067
-0.11323206 -0.0068074013 0.021750975 0.007246251 -0.030929439 0.033895716 -0.039510082 0.018165631
0.045823827 0.010381702 0.011551609 0.050953332 -0.050230645 -0.046855446 0.03487819 0.017508792
0.007888758 -0.044656247 -0.010968763 -0.05699589 0.029560652 -0.0038483376 0.0006118542 -0.020401081
-0.056785244 -0.03478884 -0.02890487 -0.020407144 0.05051007 -0.039608367 -0.04235991 -0.0038550366
-0.030623034 0.028192094 0.04742329 -0.027614422 -0.024890725 0.002763523 -0.06253392 -0.03289243
-0.040166643 0.048066683 -0.019163541 0.08244294 -0.04482843 0.0012332392 -0.07524997 0.037576344
-0.042923033 -0.067244545 -0.0359865 0.035898842 0.017010694 -0.020772478 -0.048917167 0.030881746
0.053911544 -0.060620546 -0.057058446 0.02872353 -0.025358424 -0.019295419 -0.018296435 -0.020190576
-0.03446865 -0.036242004 -0.0021138042 0.08530717 -0.021433871 -0.015957687 -0.020815412 -0.01356289
0.029207733 0.023176014 -0.020334862 -0.07309005 -0.022281187 0.0029822364 -0.059252016 0.06757174
0.005965695 -0.04314105 -0.006442622 -0.015767436 -0.04115948 0.07304749 0.07376623 0.070762224
0.04824245 -0.06006231 0.061083537 0.04193926 0.0620812 -0.03066065 -0.03742343 -0.050011683
0.022718532 -0.08275401 -0.038632378 -0.029478041 0.04727896 -0.05079054 -0.048989344 -0.00033284395
-0.0074629774 -0.005755241 0.119029656 0.025983475 -0.062635675 0.003671807 -0.045097716 0.03206707
-0.08427899 -0.0068380027 -0.065383874 -0.042163067 -0.013736096 0.022825066 -0.06462723 0.056384042

mu.weight f4 [1, 256]
00000000: e534 86bd d88b 033c 2f56 0a3e 82ca 5a3d
00000010: 2e7a 1d3c 56b5 233c d35f 163a e3b8 4fbc
00000020: fd1f c9ba ef03 ddbd d7e1 9abd fa06 28ba
00000030: d000 8b3d 6173 7e39 de4c 213c aef2 573e
00000040: 5dcf 013c b19d ebbd 1009 0a3d 814f d03c
00000050: 4d56 113d 3866 fcbd c0b0 4dbd 7942 2b3e
00000060: 6cc4 fabc a07f 0cbd ff4e 2cbb d047 18bd
00000070: d626 7f3a c1af c0bd 0c08 2d3c 6352 0b3d
00000080: b0b9 e6bc fa74 993a 1bf1 15bb f3f9 18bc
00000090: 3c5b eebb 47df 1dbc 77e7 393e 4ff4 fb3a
000000a0: bf55 8f3e ffd3 a9ba 3ecd d1ba f5f9 3b3d
000000b0: 1ee8 a7bb a473 58bd 1f52 383c ff17 2abb
000000c0: 05dd 1cbc 3ae6 2abd 5443 79bd f196 a0bd
000000d0: a64d 96bb 98db 9d3c 121c 9d39 e1bb 863b
000000e0: 4cc5 ab3d 34db 563d 9dff f23c 6598 00be
000000f0: f2a5 3039 fa95 31bc 6839 b3bb 8271 83bd
00000100: 0221 0f3c 95f5 823c 49b5 893d e7b4 83ba
00000110: 0d9b b7ba a7fa 37bc 8b0b 123e f904 a8bd
00000120: 4ad7 9a3c 82c4 ff3c 4fc5 0f3d a388 ccbd
00000130: f644 01be 359a 403c afbb 8cbc e8ab 723d
00000140: 34c4 f63c b329 2bbd f6d1 d1bc 3f12 92b9
00000150: 5fa9 253d e5ef d5bd 109a 8e3c fc24 fe3d
00000160: f59e 663d 6962 f2bd 3e48 c3bd e03c b4bb
00000170: adbc 9a3b 73ab 9c3b dcfd 4fbc 061c fc3c
00000180: ef2b 20bb 848b 99ba bf9e ecbc fac2 6dbb
00000190: f180 103d b6c2 913c 4f81 a03c fc0e 38bd
000001a0: da5f aa3c 6e82 f63b 50e4 763b 635d e03b
000001b0: b093 e5ba 16fd dbbb cc62 e7bb d5af 58bc
000001c0: 1b7c 113b 074b ccbb 9756 99bd 210f 87ba
000001d0: 2a8a 7ebb 4256 d7bc 6e9e a63d eda2 3d39
000001e0: fa48 893c b653 0c3b f736 c03d 9f9e 303b
000001f0: 3c63 11bd 7a09 d23c da8f 6b3d 79c2 aa3e
00000200: 1ea4 fc3c a958 4b3d 5208 8c3c ee11 71bd
00000210: de02 03bb 458d 05bd 7a3b 0c3e 9e6f 00bb
00000220: 9ce1 a93b c5d7 3dbc 0596 11bd ffc4 d939
00000230: 0c14 693d 4c10 3abb 7dbe a3bc a0e5 f83d
00000240: 3fe0 b2bc c644 c9bc 3943 063c 0f77 65bd
00000250: 3763 423b 3da4 283d b4b2 013c 6116 1239
00000260: c14f ce3a c2b1 8a39 e60b 683a 1fb8 003b
00000270: 61a0 58bb 2b44 743e 0bf4 b33a eeae 233d
00000280: ba6e aeba fa64 213d 8ff3 0e3c 0780 6dbd
00000290: c5f2 c23a 9a7a 5bbb 8a85 3dbd 2f3b dcbc
000002a0: 8ef4 22bc 38c2 ec3a cfc3 1e3b db5c 9eba
000002b0: 4028 8a39 48ea 9ebd c687 9abc 7fd7 653d
000002c0: e572 543b 5785 353e d5ad 4e3d 18f3 85bd
000002d0: 4f88 3aba 25ca d03c eb51 2a3a 95db 383c
000002e0: 7d24 babb 8eae e53a a206 2d3d 07fc a2bb
000002f0: 7808 b53b e469 d33b 20c1 56bc b211 263d
00000300: 85cf 263d 5a75 1cbc f151 1abc 3052 453d
00000310: 439a 19bb 185b 39bb 80e3 a5ba 177d 513a
00000320: 4c6d ffbc 4de7 c83c b6c8 21bd 3d20 83bd
00000330: d120 67bb c603 83bb c4a8 043a 8018 0c3e
00000340: 2810 033d 4b59 113b bdd2 83bc 3d30 ba3c
00000350: 7bf9 32bd 1d8d 73be 84a2 3abd 2414 b4bd
00000360: 7a1e 513d ffa4 0d3b 30b0 743c d583 093d
00000370: 99cf 0bbc 415c 113e cd91 adbd de12 debd
00000380: 4394 e23b 1c97 b33c 6435 07be 6a9e 833d
00000390: 49ff c4bd 60bc 75bd b1a3 183a 0a72 133d
000003a0: 043b 0ebd 6a4a 4b3d 28e4 fe3b 7e5a 8a3a
000003b0: 32c5 3dbb eb2f 13be d8cb 26bd c2b5 2a3d
000003c0: f671 333d 1377 6d3c 9952 17be 04d1 0abe
000003d0: 54c8 773c a868 d8bc 7791 623d 93ff bcbd
000003e0: 3198 54bd 086e ba3c dd15 0c3c 7c40 43bc
000003f0: c1d4 42bd 6d1c 2abe cf96 ddbc be3d 04be
-0.065530576 0.008028947 0.13509439 0.053415783 0.009611649 0.009991964 0.0005736325 -0.012678358
-0.0015344616 -0.10791766 -0.07562607 -0.0006409731 0.06787264 0.0002426631 0.009844987 0.21088669
0.007922974 -0.115046866 0.03370005 0.025428535 0.035482693 -0.12324184 -0.05021739 0.16724576
-0.03061124 -0.0343014 -0.0026292203 -0.03717786 0.0009733265 -0.094085224 0.010561001 0.034014117
-0.028164715 0.0011707835 -0.0022879306 -0.009336936 -0.0072740596 -0.009635753 0.18154703 0.001922259
0.27995107 -0.0012956857 -0.0016006602 0.045892674 -0.005124106 -0.05284466 0.011250048 -0.0025954244
-0.00957418 -0.041723467 -0.060855225 -0.0784129 -0.004586893 0.01926975 0.00029966288 0.0041117524
0.08387241 0.052455142 0.029662902 -0.12558134 0.00016846487 -0.01083898 -0.00546949 -0.06418134
0.008735897 0.015986243 0.067240305 -0.001004842 -0.0014008001 -0.011229194 0.14262216 -0.082040735
0.018901486 0.031221632 0.035100278 -0.09986999 -0.12623963 0.011755516 -0.017179338 0.059245974
0.030122854 -0.041787814 -0.025612812 -0.00027860884 0.040444728 -0.10446147 0.017407447 0.12409398
0.056303937 -0.118351765 -0.095352635 -0.005500421 0.004722199 0.0047811805 -0.012694802 0.030775081
-0.002444025 -0.0011714553 -0.02888429 -0.0036279545 0.035279218 0.01779304 0.01959291 -0.044936165
0.020797659 0.0075228726 0.0037672706 0.00684707 -0.0017515328 -0.00671352 -0.007061338 -0.013225515
0.0022199217 -0.00623453 -0.07487219 -0.0010304191 -0.0038839676 -0.026286248 0.08135687 0.00018085139
0.01675843 0.00214122 0.09385484 0.0026950014 -0.035495028 0.025639284 0.057510234 0.33351496
0.030839976 0.0496451 0.017093811 -0.05885499 -0.0019990723 -0.03260543 0.13694564 -0.001959778
0.0051843654 -0.011587088 -0.03554346 0.0004153624 0.056903884 -0.0028391061 -0.019988293 0.121531725
-0.021835444 -0.024568927 0.008194738 -0.056021746 0.0029661187 0.041172255 0.007916141 0.00013931982
0.0015740321 0.0002645385 0.00088518707 0.0019640995 -0.0033054578 0.23854129 0.0013729347 0.039961748
-0.0013308146 0.03940294 0.008725061 -0.057983425 0.0014873376 -0.0033489824 -0.04626993 -0.02688369
-0.009946002 0.0018063253 0.0024225598 -0.0012082116 0.000263514 -0.07759529 -0.01886357 0.056113716
0.0032417115 0.17726646 0.050458748 -0.06540507 -0.00071156485 0.025487015 0.0006497192 0.011282821
-0.0056806193 0.0017523335 0.042242654 -0.0049738917 0.005524691 0.006451832 -0.013107568 0.04054422
0.04072525 -0.009549463 -0.00941895 0.048174083 -0.0023437894 -0.0028283056 -0.0012656301 0.0007991357
-0.031180046 0.024524355 -0.039498053 -0.06402633 -0.0035267363 -0.0039982526 0.00050605484 0.13681221
0.03199783 0.0022178467 -0.016091699 0.02272808 -0.043694954 -0.23784299 -0.045565143 -0.08792904
0.051054455 0.0021613238 0.0149345845 0.03357299 -0.008533382 0.14195348 -0.08475075 -0.108434424
0.006914647 0.02192264 -0.1320396 0.064266995 -0.09619004 -0.0599941 0.0005822732 0.035997428
-0.03472425 0.049631514 0.007778663 0.0010555533 -0.002895665 -0.14373748 -0.040721744 0.041677244
0.043809853 0.014493722 -0.14777602 -0.13556296 0.015123446 -0.026417091 0.055314507 -0.092284344
-0.051902954 0.022757545 0.0085501345 -0.01191723 -0.04756618 -0.16612406 -0.02704945 -0.12914178
