youtube-ppo/tmp/ppo/ppo-critic.pth (torch, 271078 bytes, 5 tensors)

critic.0.weight f4 [256, 3]
00000000: 0fbe 743e e0f9 fbbd e459 35bf 2a8e ebbd
00000010: 07df 0abe f173 a63d c2d7 a83e 11dd fe3e
00000020: 099f d23e 71a0 2abf 3d25 e1bd ee9d 353e
00000030: ece7 31bf c3dc 623e 9cfc 83be 5f31 a83d
00000040: dc2f 29be 31b3 0d3f d0c0 d8be e3bc 4d3f
00000050: 9357 fd3c 495a 4fbc 16c3 99be eeda 923e
00000060: 956e b9be 8f8e 07bf 1d9d d9be 1145 babe
00000070: ddc3 8ebd db65 9a3d 3e97 43bf 63a5 abbe
00000080: 8842 3abe d7e0 21bf b75e 27bf b374 353e
00000090: e96d 9fbe 3851 9bbe be22 1abf 38fe c4be
000000a0: 20c3 373f f0c0 2d3e 01d7 acbe fc56 223f
000000b0: 9850 f43e 9fe6 203e 1730 09be ba58 0fbf
000000c0: 3ba1 8fbe 6304 663f 00c4 553e 2dbe f7be
000000d0: 5a18 9fbe 390d ec3d 4af2 3dbf e877 2dbc
000000e0: fedb 6dbe 8aa6 d2be f34e 7d3e bc2f 12be
000000f0: d04c a03e df00 0bbf de44 f1be 2610 09bf
00000100: a8ff 4c3f 0aa7 16be 92e6 653e ca52 01bf
00000110: cf63 c3bd 1914 543e 0512 4ebe 6611 0b3f
00000120: e703 3fbf 3ece 41bf 1363 9cbe 2471 66be
00000130: 1c31 2a3e 6db8 0cbe a57e cd3f ee50 a63d
00000140: 1d82 dabd 6700 223d 6aee 513e d3a3 a23e
00000150: 027e 44bf 2642 b1be c182 ea3d 423e ffbe
00000160: a718 293f 993e df3d daae 65bf 9c87 88bd
00000170: 127d 89be d901 aabe a9db 09bf 48eb 38be
00000180: b81f 98be bfcf 44bd bce6 bbbc d5e7 c4be
00000190: be37 b4be 39af 73be 3eaa 68be 6710 243e
000001a0: 1e09 a93d 8a92 cbbe e248 31bf 1b40 c13d
000001b0: 6d60 183e c165 123e 794b 15bf 7182 2ebf
000001c0: cda8 d53e 0016 353e 82fb c1be 1a38 153f
000001d0: 28aa d2bd 0c24 07bf 5f1e 43bf 184e 593e
000001e0: c70f f3be a68a 363c 56d5 183e cb62 7fbd
000001f0: 00da cf3e a78a 193d 77e4 05bf 62b2 24bf
00000200: 8218 1d3e 39ba c33f ca4b 99bd 6bdf ea3d
00000210: 1bce 7dbe 46e0 ba3d cb4d 5abe b42d 1cbe
00000220: c637 b6be 8634 0fbf 49cb a13e 3a26 20bf
00000230: d1bd c13e 291e 2dbf e676 633f c6b3 513e
00000240: 7265 63be 4967 bc3d f765 f63d d6a3 35bd
00000250: 2bab 81be 79fe 143f 2b04 d7be 76bd 0cbf
00000260: 1fd0 9b3d 5c91 9fbd 746c e63e 696b 02bf
00000270: 1cf1 46bf cccb 0b3f 6ed8 af3c 57ce a2be
00000280: e7e1 383f 20fb 473e 387c 49be b20b 373d
00000290: 6c6b d6be f0ed 1ebf eb3a 0d3f e105 76be
000002a0: f79c 3bbd 71f7 c93d 4ef2 ea3e 70a9 e4be
000002b0: 46fb 453f 166b 423e 4892 aa3d 8e2d 8bbd
000002c0: f74e ee3e 2ccb 48be 11c2 e13e e457 eebd
000002d0: 536f 91be abd0 283f 437c 1fbe bb2b 213f
000002e0: de09 633f 9ff9 03bd db6b d7be 346e 4fbf
000002f0: a8c1 37be e3e1 ccbe da6c 2abf 7ea7 52be
00000300: dddb 2cbf aab7 3b3e d543 41be 1175 69bd
00000310: 38f6 fbbe 92d3 bdbe 7529 d6be 89b2 f6be
00000320: 9928 f6be d0de b93e 609c 77bd 029b df3c
00000330: a360 5a3d 09df c73e 95a2 1bbf bf1d b3be
00000340: f3d8 2b3f 738d e53e ca68 a3be 9b64 eabe
00000350: a99a a43e 8abe c7be 216c fbbe 61ee 40be
00000360: 4c33 8a3e 9e83 a03e d15d 5a3e 286c 38bf
00000370: abce 4bbf 04c2 8bbe 4a14 b13e 803d 613f
00000380: 2180 d53c bc5b 0fbf ee47 09bf 5c40 8ebd
00000390: d3c0 d3bd ad1e 5b3f e2f1 c53e 5358 e5be
000003a0: 4fdc 453f ca61 793d 441f 153e 16dc ddbe
000003b0: fdbc 833c 6a78 5abf cd4e efbe 1053 9e3e
000003c0: 2e2a 20bf 9267 0e3f 4c1f 29bd 8cee 21be
000003d0: 734b ef3e 0532 cabe 0c49 2fbf 8423 2a3e
000003e0: 1af4 d4bd a466 0fbf 8625 043c 9788 b3bd
000003f0: fb50 09be 4383 443f c852 213e abe3 f1be
0.23900627 -0.12303519 -0.7084029 -0.11501725 -0.1356164 0.08127583 0.3297711 0.49778035
0.4113696 -0.66651064 -0.10993431 0.17736027 -0.6949451 0.22154526 -0.25778663 0.08212542
-0.16522163 0.5535155 -0.42334604 0.80366343 0.030925548 -0.012655803 -0.3003165 0.28682655
-0.3621718 -0.529519 -0.4250268 -0.36380818 -0.06970952 0.07538959 -0.7640265 -0.33524618
-0.18189442 -0.63233703 -0.653789 0.17720298 -0.31138542 -0.30335402 -0.6020926 -0.38475204
0.7178211 0.16968131 -0.33757785 0.6341398 0.47717738 0.15712975 -0.13397251 -0.5599476
-0.28052697 0.89850444 0.2087555 -0.4838728 -0.31073266 0.115259595 -0.7419783 -0.01058767
-0.23228452 -0.41142684 0.24737148 -0.14276022 0.31308603 -0.54298204 -0.47122854 -0.53540266
0.800776 -0.14712158 0.22451237 -0.5051695 -0.09540521 0.20710792 -0.20124061 0.5432342
-0.7461533 -0.75705326 -0.30544338 -0.22504097 0.16620296 -0.13742228 1.6054274 0.08120905
-0.106693484 0.039551165 0.20501104 0.31765613 -0.7675477 -0.3462078 0.114507206 -0.49852186
0.6605324 0.109006114 -0.8971993 -0.066664904 -0.26853234 -0.33204535 -0.538508 -0.18058503
-0.297117 -0.048049685 -0.022937171 -0.38458124 -0.35198778 -0.23797311 -0.22721192 0.16021882
0.08253692 -0.39760238 -0.69251835 0.09436055 0.14880534 0.14296629 -0.5831829 -0.6816779
0.41730347 0.17684174 -0.37887198 0.5828873 -0.10286361 -0.5278938 -0.7621822 0.21221197
-0.47472975 0.011141455 0.14925131 -0.062350076 0.40596008 0.037485745 -0.52301735 -0.6433469
0.1534138 1.5291206 -0.07485159 0.11468395 -0.24785654 0.09124808 -0.21318738 -0.1525181
-0.35589427 -0.5593952 0.31600407 -0.6255833 0.3784013 -0.67624146 0.888533 0.20478734
-0.22206667 0.091993876 0.12031167 -0.0443457 -0.25325903 0.58200794 -0.41995367 -0.54976594
0.07608055 -0.07791397 0.45004618 -0.50945145 -0.77711654 0.54607844 0.021465506 -0.3179805
0.722197 0.1952939 -0.19676292 0.044688888 -0.4187883 -0.62081814 0.55168027 -0.2402568
-0.04580399 0.09861649 0.4588799 -0.4466052 0.7733654 0.18986163 0.08328682 -0.06795798
0.4654462 -0.19608754 0.44093373 -0.116378576 -0.28405246 0.659434 -0.15574746 0.6295735
0.8868693 -0.03222048 -0.42074475 -0.8102753 -0.17944968 -0.40016088 -0.66572344 -0.20571706
-0.67522985 0.18331781 -0.18873532 -0.05699641 -0.49211287 -0.37075478 -0.41828504 -0.48183087
-0.4807785 0.36302805 -0.060451865 0.027295593 0.053314816 0.3903735 -0.60794955 -0.34983632
0.67127913 0.4483448 -0.31915885 -0.4577988 0.32149246 -0.39012557 -0.49105933 -0.18840934
0.2699226 0.31350416 0.2132485 -0.72040033 -0.79612225 -0.2729646 0.34585792 0.87984467
0.026062073 -0.5599935 -0.5362538 -0.06945869 -0.10339513 0.8559368 0.38661104 -0.4479395
0.7728929 0.060884275 0.14562708 -0.43331975 0.016081328 -0.8533999 -0.46739808 0.30922747
-0.6256436 0.55626786 -0.041289613 -0.15813655 0.4673725 -0.39491287 -0.68470836 0.1661511
-0.10398121 -0.5601599 0.008065587 -0.08766287 -0.13409798 0.7676279 0.15754235 -0.4724401

critic.0.bias f4 [256]
00000000: 2687 bbbe 50cc 3d3f 40e8 86bd 8197 953e
00000010: 1479 4e3e e804 323f 859f 923e 3a9a 05bf
00000020: b79f f7be d0a1 003f 49ff 393f d6a0 423f
00000030: a609 403e 1d0d ae3e 4a6e a63e 4a12 13bf
00000040: 0bc0 20be 0fa0 333f 2bec 893e 9bbe 5f3f
00000050: 3680 573f d810 023f e3a9 463f 21c2 cb3e
00000060: 0981 3d3f 02f2 00bf 144d b33e 04bb 3e3d
00000070: b36a 043e ba00 cd3e 22c4 573e 29a8 9b3e
00000080: c2cc d63e 3871 373f 7339 213f 7827 a03e
00000090: 032a 283e 4a5e 393f 8ed9 903e 441b 403f
000000a0: 8612 563f 1758 1f3f e5fa 2c3f c0f4 643e
000000b0: e414 bfbe 6f5f 1bbf 002a 123f 6e1d 1c3f
000000c0: 9bf8 4c3f b632 f3be 6c47 543e 3937 e2bd
000000d0: bbe1 35be 220b 273f 8bd4 1fbf 72a3 68bc
000000e0: ee48 89be 936d d33e 532a 21bf 2852 483f
000000f0: 1378 1c3f ecdd 9bbe f949 223f 8a08 b73e
00000100: bf1e 2cbe 41e7 9cbe 175d 9c3e c84d 363f
00000110: 7775 21bf 0acd b4be 6e1b 213e a11b 95be
00000120: 16b1 013e 6b8f 1e3f 324c 8ebd 635f 9e3a
00000130: 1e07 16bf 121a a93e 3eca 113f 9c81 ab3e
00000140: b17e 4ebd b7d1 0cbf 2ec5 4f3f 2bf7 6a3f
00000150: 0875 d23d 8ad2 a33e a495 073f db68 003f
00000160: 5926 ba3e 73ea 8c3d b116 843d d613 3c3f
00000170: b5fc 503f 1d9e 0d3f c491 373f e6ba fbbe
00000180: 2f8e a83e 0b0e cabe 2f70 e4be 9cb4 bd3e
00000190: d7e1 bc3e db38 12be 75b2 09bf c7ec 953e
000001a0: 2419 7e3e c981 303f c39a 253f 9ec1 08bf
000001b0: 7826 d13d 6caf ffbd 5fa7 523f 32a5 e73e
000001c0: c2d3 38be 40ab 073f 1007 af3e c0f1 333f
000001d0: d8b2 463f e0e1 fbbe d098 0b3f 3284 32bf
000001e0: a073 c73d 9c2a d93e dc83 cb3e f020 063f
000001f0: f38b b53e 5f36 053f 73b8 1a3f b424 cbbe
00000200: 9035 6dbe 9f65 be3e f505 563f 8170 883e
00000210: 13d4 223e 341d 9bbe 4d21 853c 374c ba3e
00000220: a302 0c3e 2d35 17bf 661f fd3e 2757 863e
00000230: e363 0abd 11fb 6e3e bd71 bf3e 5d0f 2fbf
00000240: 2c94 783e 0822 dd3e 84ca 023e cee9 093f
00000250: 3330 84be 1ce9 b03e 880f 233e cd33 4abe
00000260: d53c 1b3d 22bb 893e e07f debe 7ab3 9e3e
00000270: 229b 113f e6dc 4b3f 32ac a9be 8d2c 833e
00000280: ebff c23e 91a9 b2be d631 0ebe ffa6 883e
00000290: 666a b63d c6f0 423f 7817 823d cec7 0c3f
000002a0: 822a 0a3f 2818 7b3d afa3 f73e 991c e83e
000002b0: c705 933e db80 723e 7b20 1e3f 76d1 a1be
000002c0: c0b5 63be a55d f63e e26c afbe 0af1 653e
000002d0: bcc1 e8be ba8d 143f 262d 903e 7450 063f
000002e0: 2275 183f 1c53 453f f71d 5d3e 9218 043f
000002f0: c741 583d 4b67 a1be 902e d4be f07a f33c
00000300: 992f d83e badf 283e c871 f1be 1982 6cbe
00000310: a881 a3bd b564 963e 8a34 c83b cebd 533f
00000320: 2c22 8abe 4119 7e3e 65aa 1a3d 6a1e 443f
00000330: 5e8c e93d 21e9 ae3e a9a9 333f a6b9 553e
00000340: 63d9 5abe 03a7 083f ee4f 273f 648f e8be
00000350: 7ee9 e23e ea14 2f3f 98eb 623f 4856 1fbf
00000360: 42de 913e 916b 1d3f 2acd 403f 1c8b e7be
00000370: fd3b b63e 1efe 243f 269d 4c3f b329 143f
00000380: 9f95 d13e de1d 593d e085 20be c518 c73d
00000390: ad54 093f 94da bd3e 99d4 603f 1884 fdbe
000003a0: 69f2 053e db66 21bf f60d 923e 3520 d23e
000003b0: 0cb3 80be a12c 02bf 5c1a 613f f184 e9bd
000003c0: 6d1d 4f3f 4097 513f f732 f6be eebb d0bc
000003d0: 5ddd 1a3f 27be f93e 0474 aebd f249 883e
000003e0: bf7a c73e 6a0d 8e3e 03de 003f 98f6 133f
000003f0: a27a 5b3f 7b69 c83e 5394 05bf 50e0 7bbe
-0.36626548 0.7413988 -0.06587267 0.2921715 0.20163375 0.69538736 0.2863733 -0.52188456
-0.4836404 0.50246906 0.7265516 0.76026666 0.1875368 0.3399438 0.3250602 -0.5744978
-0.15698259 0.70166105 0.26937994 0.87400216 0.8418001 0.5080695 0.77602977 0.39796546
0.7402502 -0.50369275 0.35019743 0.04656507 0.12931328 0.40039617 0.21070912 0.30401734
0.41953093 0.71657133 0.62978286 0.31280112 0.16422276 0.724095 0.2829098 0.75041604
0.83622015 0.6224379 0.67570335 0.2235899 -0.37320626 -0.60692495 0.57095337 0.60982406
0.8006684 -0.47499627 0.2073037 -0.11045689 -0.1776189 0.6525136 -0.6243369 -0.014199125
-0.26813453 0.41294536 -0.62955207 0.7825036 0.6112072 -0.3044275 0.63394123 0.35748702
-0.16808604 -0.30645183 0.30539772 0.71212435 -0.6306986 -0.35312682 0.1573312 -0.29122642
0.12665209 0.6193759 -0.06948127 0.0012082871 -0.5860461 0.33027703 0.5694922 0.33497322
-0.05041379 -0.550075 0.8116025 0.917834 0.10276228 0.31996566 0.5296271 0.50159997
0.36357382 0.06880655 0.064496405 0.7346777 0.816356 0.55319387 0.71706796 -0.4916603
0.32920977 -0.3946384 -0.4461684 0.37051857 0.36891052 -0.14279501 -0.5378793 0.2928221
0.24814278 0.68948036 0.6468927 -0.53420436 0.102124155 -0.12484631 0.8228664 0.45243222
-0.18049529 0.5299568 0.34185076 0.70290756 0.77616644 -0.49195766 0.5453005 -0.69732964
0.097388506 0.4241532 0.39749038 0.5239401 0.35458335 0.5203609 0.604377 -0.3967644
-0.23164964 0.37186906 0.8360284 0.26648334 0.15901212 -0.30295718 0.01625123 0.36386272
0.13672881 -0.59065515 0.49438018 0.26238367 -0.033786666 0.23337962 0.37391463 -0.6838282
0.24275273 0.43190026 0.12772566 0.5387238 -0.25818023 0.34552848 0.15923893 -0.19746323
0.03789981 0.26900584 -0.43456936 0.30996305 0.5687734 0.7963394 -0.33139187 0.25619927
0.38085875 -0.34894994 -0.13886198 0.26689908 0.08907013 0.7614864 0.063521326 0.5499238
0.5397111 0.061302334 0.48367068 0.45334318 0.28715345 0.23681967 0.6176831 -0.3160512
-0.22237301 0.4811832 -0.34262758 0.2245523 -0.45460308 0.5802876 0.28159446 0.5246651
0.5955373 0.7707994 0.21593462 0.5159999 0.052797105 -0.3152412 -0.41441774 0.029721707
0.42223814 0.16491595 -0.4715712 -0.23096503 -0.07983714 0.29373708 0.006109779 0.82711494
-0.26979196 0.24814321 0.037760157 0.7660891 0.11403726 0.34162238 0.70180756 0.208716
-0.21371989 0.5337984 0.6535634 -0.45421898 0.44318765 0.6839129 0.8864074 -0.6224103
0.28489882 0.6149226 0.75313056 -0.4522332 0.35592642 0.6445025 0.7992729 0.5787613
0.40934464 0.053007 -0.1567607 0.09721521 0.5364483 0.37080824 0.878244 -0.49514842
0.13080753 -0.6304757 0.28526276 0.41040197 -0.25136602 -0.5084935 0.87930846 -0.1140231
0.80904275 0.81871414 -0.48085758 -0.025480237 0.60494024 0.48777887 -0.08518222 0.26618916
0.38960835 0.2774461 0.50338763 0.5779815 0.85734 0.39142975 -0.5217945 -0.24597287

critic.2.weight f4 [256, 256]
00000000: e6a9 1f3d b1a1 5dbd 58d6 e43c fc9e aa3c
00000010: 33e8 d9bc b580 5abd 62df 83bd 5b11 333c
00000020: 582b 3e3d 6a71 d53c 7bd8 ea3c b1da 463c
00000030: 6b07 4abd bcd8 11bd e225 f53c 3ecd b3bc
00000040: 8610 9f3a 84d6 333d 5b5e ffbc e303 48bd
00000050: 40bc 43bd 3951 a23c 5d8c 21bd 537c 83bd
00000060: b53d 78bd 5af5 013b 708d c53c d350 663d
00000070: ded6 4bbd 0aab 0f3b 32b7 e7bc 7ef1 28bd
00000080: 41ae e9bb 6b04 233d 610e 3dbd c2f3 0cbd
00000090: 43aa fcbc 9603 56bd a377 8cbc 6f3f 963c
000000a0: 5e46 88bd 5f23 c5bc 7d9f 113d 91bb 35bd
000000b0: 067e bfbb 771f 56bd 2344 49bd 5193 993c
000000c0: 7c98 83bd a8aa 88bc ddcd 1cbb 84fc 0e3d
000000d0: 2b1b 4fbd 730d 0abc f261 5ebd da2a 90bc
000000e0: 59c8 863c c68c 21bd cb4f 7a3b fc42 88bd
000000f0: e3f3 3e3a e139 8d3c 9e2d 62bd 195d 78bd
00000100: 8f69 dabc a5e0 a3bc 3296 463d 4013 3a3d
00000110: 3a79 313d 8a89 173c e6c1 003d 9c30 56bd
00000120: 7e91 2f3d 633c 8bbd d209 61bd 6ad4 3d3d
00000130: ee5e 5e3d f8f8 3abc bc39 08bd a21b b23b
00000140: 490d f9bc 5870 913b 137f 4bbd 1722 4d3d
00000150: fcfa 713d 33f9 363d 2c4d b4bc bb3b 9b3c
00000160: a796 2e3d 4106 943c e00d f83c 4e14 383d
00000170: 059d a13c 12ac bdbb e808 d53a 5699 09bc
00000180: 7c80 0a3d 9856 40bc b564 543d 91f8 2abd
00000190: 78a0 083d b50b 1b3d e16d 0c3d aa29 c7bb
000001a0: cdb8 ee3c 6146 a5bc 11f4 95bb d72e 743d
000001b0: 2712 523c fd47 f23c 46ae 253d 57f3 3ebd
000001c0: 99db 1b3d e90e 1e3c 6a0d febc e05f 86bc
000001d0: cd99 583c 4235 ea3c f6bb 42bc 50fc 19bc
000001e0: 79aa 053d 663b 2cbd 6ecf fd3c 3fd6 4cbd
000001f0: 7a0e 943c db7d 413d 2a29 80bd 409d 3bbd
00000200: 3542 753c ab84 a8bc e9e9 34bd 7bfb e7bc
00000210: a496 4f3b e2d4 323c 17c4 7bbc e34e 38bc
00000220: 6abf 333d 29ee 903c 2f81 1d3d 7e4a 153d
00000230: ff63 f53c a031 dfbc 25be 0f3d 79bf 6dbc
00000240: cbe5 3e3d c1e3 3ebd ff9a 653c 3902 00bd
00000250: 9736 40bc eca7 e8ba 2914 2ebd c1c7 28bd
00000260: 8271 ecbc ced8 17bd 3521 d73b 113b b83c
00000270: 27a1 173d 4c17 823c 698a 56bd 8002 8abc
00000280: 4a2d 41bd d608 aa3b 0626 673b 05fb 033c
00000290: 823c bebc 9093 3fbd 3d14 223d 8f40 273d
000002a0: ab36 083d fe1d 0ebd c2ba 4cbd d9cd ab3c
000002b0: a544 413d 7bf9 96bc dccd 4e3d 9356 7cbb
000002c0: bd81 703c 77cd 40bd 5e1c 0cbc e50b 933c
000002d0: 6cb2 d3bb 1bfb 35bd 6338 3c3d feca 9ebc
000002e0: b688 aa3c 1e26 6dbb 96cb 9839 5e3d 5a3d
000002f0: aa2a 293c 5504 6c3d a0e9 743d 9581 59bd
00000300: b34c 4d3d 26c4 5f3d 9769 02bd 5015 d5ba
00000310: 11a6 d23c c5f5 19bd c880 4f3d fb3d a33a
00000320: c2b3 013c c59f d2bc 472f 2bbd 0a37 63bd
00000330: 702e 053d fd7b 43bd a4da 423d a637 efbc
00000340: b94b cb3c eab9 d63a 603e 3e3d c51e 893c
00000350: ba16 2dbd 11fd 603d 2421 c73c 4f36 cbbc
00000360: 115d 67bd 11d0 113d 544a 8bbd cf12 423d
00000370: 4094 303d 72f7 513c 471c 37bc dded 193d
00000380: 788d 70bd e49a cdbc cd17 d43c 8086 19bd
00000390: ab3d 5dbd 2e0d 463d 14bf 66bc 5aa3 533c
000003a0: 650d 3fbd c855 7dbd 12ad 32bd 75f1 3dbc
000003b0: 79c9 5bbd 31fe e83c 7c63 87bd fb90 d5bc
000003c0: 920f 2dbd b3c2 51bc e732 f7bc d967 0abd
000003d0: 1fc5 f53b 5617 e33c f3cb d1bc 87a2 243c
000003e0: 0a20 90bc 28d7 1bbd 4937 8ebc c440 083d
000003f0: d436 8e3c a542 143c ade7 323d 5ee1 643d
0.038980387 -0.05410928 0.027934238 0.020827763 -0.026599979 -0.0533454 -0.06439091 0.010929431
0.046428055 0.026055057 0.028667679 0.012137101 -0.04932348 -0.035607085 0.02992529 -0.021948453
0.0012135662 0.04390575 -0.031172922 -0.04883183 -0.04778695 0.01981412 -0.0394405 -0.06420197
-0.060605723 0.0019830079 0.024115294 0.056229424 -0.04976546 0.0021922016 -0.028285597 -0.04124593
-0.0071313684 0.039799135 -0.04615629 -0.034412153 -0.030842906 -0.052249514 -0.017146891 0.018340794
-0.066540465 -0.024064718 0.03555249 -0.04436833 -0.0058438806 -0.0522761 -0.049137246 0.018747004
-0.064255685 -0.016682938 -0.0023926415 0.034908786 -0.05056302 -0.008426058 -0.054292627 -0.017598558
0.016452955 -0.039440893 0.0038194533 -0.06653401 0.0007284267 0.017239513 -0.055219285 -0.06063566
-0.026661662 -0.02000458 0.04848308 0.045428514 0.0433285 0.0092491 0.031434916 -0.05229245
0.04286336 -0.06798627 -0.054941006 0.046345152 0.05428975 -0.011411898 -0.033258185 0.005435423
-0.030401843 0.0044384412 -0.049681734 0.05008134 0.059077248 0.04467125 -0.022009455 0.01894938
0.042624142 0.018069388 0.030280054 0.04494124 0.019728193 -0.0057883346 0.0016253265 -0.008398375
0.03381394 -0.011739396 0.051853854 -0.041740958 0.03335616 0.03785296 0.034284476 -0.006077965
0.029140854 -0.02017516 -0.004576214 0.059614982 0.012821711 0.029575342 0.040449403 -0.046618786
0.03805122 0.00964711 -0.031012256 -0.016403139 0.013220263 0.028589848 -0.011885634 -0.009398535
0.03263328 -0.042048834 0.0309827 -0.05000901 0.01807331 0.047239166 -0.062578514 -0.045804262
0.014969398 -0.020571074 -0.044168387 -0.028318157 0.0031675482 0.010915013 -0.015366576 -0.011249277
0.04388372 0.017691689 0.038453277 0.036447994 0.029954908 -0.027245343 0.035093445 -0.014510983
0.046605866 -0.04660392 0.014014005 -0.03125212 -0.011731765 -0.001775024 -0.042499695 -0.041206125
-0.028862718 -0.037071995 0.006565238 0.022489103 0.03701892 0.01588025 -0.052378092 -0.016846895
-0.04716233 0.0051890416 0.0035270466 0.008055453 -0.023222212 -0.046771586 0.039570082 0.040833052
0.03325526 -0.03469657 -0.049982794 0.02097218 0.047184605 -0.018429508 0.05048929 -0.003850375
0.0146793695 -0.047070947 -0.008551685 0.017950008 -0.0064604785 -0.044428926 0.045952212 -0.019383904
0.020817142 -0.003618605 0.00029143383 0.05328118 0.010325113 0.05762132 0.059793115 -0.053102095
0.050121974 0.05463042 -0.03183898 -0.0016256962 0.025713952 -0.0375879 0.050659925 0.0012454385
0.007916393 -0.02571095 -0.041793134 -0.05547241 0.03251499 -0.047725666 0.047571793 -0.02920134
0.02481638 0.0016382311 0.046446204 0.016738305 -0.042258002 0.054928843 0.024307795 -0.02480617
-0.05648524 0.03559882 -0.06801286 0.04738122 0.043110132 0.012815343 -0.011176175 0.03758036
-0.058728665 -0.025098272 0.025890255 -0.037481785 -0.05401389 0.048352413 -0.0140836425 0.012917364
-0.046643633 -0.061849385 -0.043622084 -0.011593212 -0.053658936 0.02844152 -0.06610772 -0.026070109
-0.042251177 -0.012802768 -0.03017564 -0.033790443 0.0075003053 0.027721088 -0.025609946 0.010048515
-0.017593402 -0.038046986 -0.017360346 0.03326489 0.017360128 0.009049092 0.043677974 0.05587899

critic.2.bias f4 [256]
00000000: 7cee 5bbd 60f5 343e f18f 213d a992 80bd
00000010: aa0a 31bd 1025 483e e46c 1c3e 1c14 813e
00000020: 0f51 2a3e 1b24 0cbd 34b6 5dbd 44b4 71bd
00000030: b828 b0bb e9f3 663e 1645 373e b329 143e
00000040: 865f 0fbd bd4c 84bd 3cef eebc f2b0 643e
00000050: 7185 ffba ec8e 76bd de53 15bc dd53 4d3e
00000060: 36b4 f23d 3f07 373e 3ae5 513e c50c 85bc
00000070: f1ea d93c 21fa 963e b3df 623e ad88 52bc
00000080: 729b 3a3e c596 6b3c 8d85 353e 6634 aabd
00000090: 9978 0e3d 9134 693e 0a88 2d3e 885e 673e
000000a0: 9077 4f3e f39a 5c3e 06f5 523d 28bb 2e3e
000000b0: f240 913e c8db 083e 2509 383b 0346 633e
000000c0: 11f7 38bd d87d 3fbd ca64 4a3d 520a e3bb
000000d0: 8aee 2dbb afc5 5b3e b8f2 03bd 906d 483e
000000e0: 8ff1 95bb ca7c 2c3e 413b f13c b0d5 043e
000000f0: ed0c 653e 77c9 14ba b067 96bb 940b e33d
00000100: c0c9 803e 446c 73bd a5e9 33bd 44d2 d33c
00000110: 2778 8abc abca 073d 85f6 e93d 4138 a1bc
00000120: dbee fe3a 5bb1 983d b095 77bd 738c 033d
00000130: b80a 443e 827e 59bd 2a52 393e 0c76 ffbb
00000140: 7a64 393e 8639 42bd da23 213e b421 133e
00000150: 6b7f 8cbd e79a 453e baec 463d eb5a 603e
00000160: cce5 82bc 7235 4a3e 87b4 743e eff7 653e
00000170: 9cd4 e03c aaa2 523d b0e4 1b3d e8d4 6f3e
00000180: 389c 133e 387a 293e d7f4 933c 094d 413e
00000190: e380 4e3e b199 47bb 1b8d f93b b7de 693e
000001a0: 3194 423e 00f4 2c3e 7bc0 183c 6796 ea3c
000001b0: e0d5 603e deee 1cbd 5607 7dbd 978c 5a3e
000001c0: 6470 593e 5332 2c3e ac6e 5e3e 4453 5e3e
000001d0: d99b 793e 001d 9c3c 9bb7 2d3e a5e2 d1bc
000001e0: 353f 3d3d ecac 75bd 5945 203e 5eeb 67bd
000001f0: 1409 923c 3329 513e a21a 0d3d 0dfd f83a
00000200: 3b56 603d 5cca f63c 4f38 793c 35e1 0b3e
00000210: 26df 523e 52b9 9c3c 5cb4 c73c 9083 233e
00000220: e0f4 2c3e ae79 57bd 4c83 693e 8aae cfbc
00000230: 76f0 2b3e 8dba d0bb df73 82bd 02c1 173e
00000240: c1ca 463e 0d09 483e c518 5d3e 1feb 8ebd
00000250: d9bc 5b3e 395f 14bd e1d5 3b3d 1ac1 403d
00000260: 4441 adbc a177 22bd cb89 1e3d 5094 44bc
00000270: f0eb 1d3d 3c9c 633e d9d4 793e f4d9 0abd
00000280: f523 083e 3752 c8ba deba dbbc 587d 0c3e
00000290: b797 89bc 834d 3a3e 470a 82bc 6b92 013e
000002a0: 2295 2d3d 57e2 613e 8cfb a2bc 5ea4 583e
000002b0: da36 3b3e 1045 19be 6c27 163e 1914 273e
000002c0: 2e5f 0e3e edea 213e fa90 f0bc 4dc6 6c3e
000002d0: 7faa 5f3e 6df0 69bd 0b63 333e 817a e03c
000002e0: ce11 583e 76fd 14bd 6457 ea3d 91df 02bc
000002f0: 8875 5e3e 3c74 d1bc 23ef 243e 2053 193e
00000300: 2c22 313d 626f 8a3e 31a2 c33c 8c2b 343d
00000310: 3a7a 2f3d 8b4d 6e3e 0ef9 dbbc ac73 1d3e
00000320: 2384 273e ac7e 083e b99d 823e ab9d 723e
00000330: 0778 ed3d ec60 833e 215a 713e ad46 333e
00000340: bfa4 113c 583f 1b3e 26af 1f3e ad10 d8bc
00000350: 274f bebc f0db 8e3e 6e2f 81bd 8c4b 553d
00000360: e74c 233e ab5b 78bb ba7f fd3d 2928 773b
00000370: 5941 453d 1a9d 493e ac28 2c3e b1fa 3e3e
00000380: ddfb fd3d f053 5a3c b075 183e 1025 303e
00000390: 268d 843e 06b1 b93b 80ae 49bd c6e2 073e
000003a0: df02 343d a63d 213e f6a9 023e 0e9a 3e3d
000003b0: dfc1 1f3e c8c7 383e 3f08 913e 8d1d 6e3e
000003c0: 6cfa f93b 84ee df3d d4b6 533e c85f 273e
000003d0: 7e09 4f3e fe2e 76bd 9a29 373e 642f 953a
000003e0: 1b50 033d cf0a 8bbc 8524 8fbd 5e0d 5ebd
000003f0: 330b 423e 8b0a 0c3e 2cc3 383b 3463 223e
-0.053694233 0.17671728 0.039443914 -0.06277973 -0.04322306 0.19545388 0.15275913 0.25210655
0.16632484 -0.03421412 -0.05412884 -0.059009805 -0.005375948 0.22553982 0.17897448 0.14469032
-0.035003208 -0.06459949 -0.02916681 0.22333124 -0.0019494725 -0.060194895 -0.009114234 0.20051523
0.11850779 0.17873858 0.20497599 -0.01624144 0.026601287 0.29487708 0.22155647 -0.012849969
0.1822336 0.014379208 0.17726727 -0.083107755 0.03478298 0.22773959 0.16946426 0.22594655
0.20260453 0.21543483 0.051503204 0.17063582 0.28369862 0.1336509 0.0028081622 0.22194676
-0.045157496 -0.046750873 0.049412526 -0.0069287205 -0.0026539885 0.21462129 -0.032213897 0.19573045
-0.004575915 0.16844478 0.0294472 0.1297214 0.22368212 -0.00056757726 -0.004589997 0.11086193
0.25153923 -0.059429422 -0.043923993 0.025857098 -0.016902996 0.033152264 0.11423973 -0.019680144
0.0019449847 0.07455703 -0.060445487 0.032116365 0.19144714 -0.053099163 0.1809775 -0.0077960547
0.18104735 -0.04741814 0.15736333 0.14368325 -0.068602405 0.19297372 0.048565604 0.21909682
-0.015978716 0.1974695 0.2389699 0.2245786 0.02744513 0.05142466 0.03805989 0.23421061
0.14415061 0.16550529 0.018061085 0.18877043 0.20166354 -0.0030456597 0.007615698 0.22838865
0.19001843 0.16889954 0.009323235 0.02863617 0.21956587 -0.03831374 -0.061774574 0.21342693
0.2123428 0.16816072 0.21721905 0.21711451 0.24375857 0.019056797 0.16964571 -0.025620768
0.046202857 -0.059979364 0.15651454 -0.056620948 0.017826594 0.20425873 0.034449227 0.0018996313
0.054769736 0.03012579 0.015211179 0.13660128 0.20592937 0.019131336 0.024377994 0.15968156
0.16890287 -0.052606277 0.22803992 -0.025351781 0.16790947 -0.006369895 -0.06369757 0.1481972
0.19413282 0.19534703 0.2159148 -0.069784395 0.21458758 -0.036223624 0.045858268 0.047059156
-0.021149285 -0.03966487 0.03870563 -0.011998251 0.038555086 0.22227567 0.24397601 -0.033899263
0.13294967 -0.0015283291 -0.026822504 0.1371969 -0.016795976 0.18193631 -0.015874041 0.1265351
0.042378552 0.22058998 -0.019895338 0.21156451 0.18282643 -0.14967752 0.14663476 0.1631626
0.13903496 0.15812273 -0.029366005 0.2312252 0.21842383 -0.057114054 0.1751825 0.027402164
0.21100542 -0.03637453 0.1144245 -0.007987873 0.21724522 -0.02556812 0.16106848 0.14973116
0.04324548 0.27038103 0.02388105 0.043986842 0.042841174 0.23271768 -0.026852157 0.15376157
0.16359 0.13329571 0.25510958 0.23692958 0.11595159 0.25659883 0.23569538 0.1750743
0.008889376 0.15160882 0.15594158 -0.02637514 -0.023231102 0.27902174 -0.063078746 0.052074
0.15947305 -0.0037896435 0.123778775 0.0037713146 0.048158024 0.19688836 0.1681239 0.18650319
0.12401555 0.013325676 0.14888644 0.17201638 0.25888938 0.005666855 -0.04923868 0.13270101
0.04394805 0.15746173 0.12760147 0.046533637 0.156013 0.1804496 0.28326604 0.2325346
0.0076287296 0.10934165 0.20675212 0.16345131 0.20218465 -0.06010341 0.17886963 0.0011381921
0.032058816 -0.016972927 -0.069893874 -0.054211967 0.18949585 0.13675897 0.0028192503 0.15858155

critic.4.weight f4 [1, 256]
00000000: 2d1e 3c3d 3c34 5dbe 0a7f d63b 70fa 003d
00000010: 952d d03a 2b1c 4fbe 5c9e 4ebe e770 48be
00000020: d3ce 5fbe b0de 5a3d 4ef0 5e3d 3cf1 6b3d
00000030: 0557 a23c 7a54 60be c722 5dbe 3ba8 64be
00000040: ce84 143d 61f7 063d 4de8 983e fb35 48be
00000050: 130c e23c e957 5f3d 5129 2c3c 46c0 54be
00000060: ab44 6dbe fcb1 59be 7210 51be a733 853b
00000070: a1ad 263d 4a8c a7be f816 123f 30c6 1a3d
00000080: d8f9 46be fd38 fa3b 0c2a 6fbe 8d77 cb3e
00000090: 0a47 753b 6db8 5fbe 194a 2dbe 130a 4abe
000000a0: 991e 4dbe 6d72 50be 58af b43b 02b2 31be
000000b0: a826 46be beaa 48be 5ee4 b83c b437 63be
000000c0: 162e 4f3d f69f 703d f987 df3c 0062 3f3d
000000d0: 3511 683c 4da7 3fbe 4e86 5c3d 9e68 59be
000000e0: 8c78 573d cb40 2fbe 01a2 0f3d 8edd 4cbe
000000f0: 005d 57be 1d7c a83c baae 0a3d 80fc 58be
00000100: 0022 41be 730c 363d 114b 593d b6f6 123d
00000110: a84d 353d 2a39 4a3d fb03 cd3e 595c 513b
00000120: 0ca7 f5bc c16e aa3e 3d12 653d 3051 5b3d
00000130: 0d70 48be 80f6 be3c 8448 41be 4c79 df3c
00000140: 2bc9 3abe 1631 cf3c 072f 5abe 96dc 45be
00000150: 6e17 5b3c 03a4 44be 04b0 753d 0ed0 57be
00000160: b249 c93e 9391 41be 537d 3fbe 1cc9 68be
00000170: d73e 623d 3650 bb3c 5f17 b43c be72 45be
00000180: 1847 57be 0acf 35be df4f 733c 6097 38be
00000190: 1f34 39be bf32 233c 958b f13b ec35 30be
000001a0: 1994 64be 3b01 4cbe 48b2 f03c 3f0b 8f3a
000001b0: 5454 57be f0cb b13b 4f49 393d eeda 4bbe
000001c0: c643 52be f5a6 3cbe e74b 68be fbd6 61be
000001d0: 1314 38be 7304 c13c ae9b 5cbe a5d5 9d3c
000001e0: ee15 3c3d 99f7 eb3c 5db1 5dbe b03e ae3c
000001f0: 54f7 b73c 66ec 42be 20b7 333d d7b9 d43b
00000200: 07b6 043d 7cdf b7bc cb49 633c 90df 49be
00000210: fa7c 34be 12cb f53c 18b4 9f3b 3fa2 55be
00000220: 439f 38be 8d1a d23b 3a9f 51be b300 3a3d
00000230: 74d0 59be 494d 153d 1b03 f73c bc47 6bbe
00000240: bc9e 39be a02a 5cbe 5929 39be 8e08 373d
00000250: ee2f 58be 89eb 163d a490 463d da2c b43b
00000260: 607f 243d af90 ab3c 6ca9 fd3c 4fb4 ac3c
00000270: 5412 2b3c b382 47be ec99 55be b3e4 513c
00000280: 080d a83e 0acd 2e3d fbb0 443d aa4a 51be
00000290: 8e91 123d 23d0 36be 74d3 0b3c 3591 64be
000002a0: 78b5 333d 0cb4 133f 30bd 53bd 35be 3abe
000002b0: ff52 47be 1276 3abf 5c99 46be 7a0b 1e3f
000002c0: 3055 42be 1e5e 4dbe 66a7 3dbd 7c4f 4abe
000002d0: 7910 57be 52e1 f83b 7f8b 8d3e b6de 043c
000002e0: ba77 4abe 92b8 4d3d 4f61 60be 8c8e c03c
000002f0: aff2 36be d098 cd3c f240 49be 7902 3dbe
00000300: 2620 7dbd faf6 2fbe 8d58 af3b 6d3f 84be
00000310: aa21 273d 538d 2dbe 39ea 5f3d 0131 61be
00000320: 0a16 5dbe dc15 3cbe aa67 3ebe 9df6 5abe
00000330: 88c9 55be fbf5 41be 9cf2 3ebe 6aec 40be
00000340: ffde 203c e582 4cbe c3cf 42be d44e 333d
00000350: 8fd1 03bb d494 acbe a5da fa3c 479f 923b
00000360: 94df ae3e cfc2 2b3c 771f 58be 7f6b e73c
00000370: e0b8 79bc 651d 5cbe 2d94 59be 6479 5abe
00000380: 8464 4bbe c810 8c3c 0ef2 38be 0b5f 2dbe
00000390: cd16 3ebe d4ad dc3c 63f3 2d3d e2d0 58be
000003a0: bff1 4ebd 3bf1 4dbe 03e8 48be 12c1 eb3c
000003b0: 4a70 44be af89 41be 7804 46be 7d21 50be
000003c0: d0a1 533d 952a 773e 9530 3ebe 95c1 5cbe
000003d0: 54dd 51be f34f 273d f9f1 45be 03db 8a3c
000003e0: 487f 1b3d 38f3 2c3d b435 223b a301 1d3c
000003f0: f4f0 40be c3b7 57be 9f1b 1a3d ef38 4ebe
0.045927215 -0.21601957 0.006545906 0.031488836 0.0015882725 -0.20225589 -0.20177597 -0.19574319
-0.21856241 0.053435028 0.05442839 0.057603106 0.019816885 -0.21907225 -0.21595298 -0.223298
0.036259465 0.032950763 0.2986473 -0.19551842 0.027593648 0.054527197 0.0105078975 -0.20776471
-0.23170726 -0.21259302 -0.2041643 0.0040649953 0.04069293 -0.3272422 0.570663 0.037786663
-0.19431245 0.007636188 -0.23355883 0.39739648 0.0037426376 -0.21847697 -0.16922797 -0.19730406
-0.20031203 -0.2035615 0.0055140667 -0.17353061 -0.19350684 -0.19596383 0.022569831 -0.22189218
0.05058106 0.0587463 0.027286517 0.04672432 0.014164259 -0.18716164 0.05383902 -0.21231315
0.052605197 -0.1711456 0.03506661 -0.20006391 -0.2103157 0.020566994 0.03385804 -0.21190071
-0.18860626 0.044445466 0.053050105 0.035879813 0.044263512 0.049370922 0.400421 0.0031945913
-0.02998688 0.33287624 0.055925597 0.053544223 -0.19573994 0.0233109 -0.18875319 0.027279519
-0.18240802 0.02529196 -0.21307002 -0.19322428 0.013372285 -0.1920319 0.059982315 -0.2107546
0.39314038 -0.18903188 -0.18700151 -0.22732967 0.05523571 0.022865396 0.0219838 -0.19282052
-0.21023214 -0.1775476 0.014850586 -0.18026495 -0.18086289 0.009960829 0.007371376 -0.1720807
-0.2232212 -0.19922344 0.029381886 0.0010913386 -0.21028262 0.0054259226 0.04523593 -0.19907734
-0.20533666 -0.18423064 -0.22685204 -0.22054665 -0.17976408 0.023561692 -0.21543762 0.019266913
0.04591935 0.028804587 -0.2164969 0.021270126 0.022456802 -0.19035491 0.043875813 0.0064918804
0.032400157 -0.022445433 0.013872574 -0.19714189 -0.176258 0.030004058 0.004873764 -0.20862673
-0.18029504 0.0064118565 -0.20470896 0.045410823 -0.21270925 0.036450658 0.030152848 -0.22976583
-0.18126959 -0.21500635 -0.18082179 0.044685893 -0.21112034 0.036845718 0.048477784 0.005498511
0.040160537 0.020943014 0.030964576 0.021082072 0.0104413815 -0.19483452 -0.20859498 0.012810874
0.32822442 0.04267601 0.048020344 -0.20438638 0.035783343 -0.17852835 0.008534301 -0.22321017
0.043874234 0.57696605 -0.051694095 -0.1823662 -0.19465254 -0.7283641 -0.1939444 0.6173626
-0.18977809 -0.20055434 -0.04630222 -0.19756883 -0.21002378 0.0075952196 0.2764549 0.008109739
-0.19772235 0.050224848 -0.2191212 0.023505472 -0.17866014 0.02509728 -0.19653681 -0.18457974
-0.061798237 -0.17184058 0.0053511322 -0.2582964 0.04080359 -0.16948442 0.05466673 -0.2199135
-0.21590438 -0.18367714 -0.18594232 -0.21383138 -0.2087766 -0.1894149 -0.18647236 -0.18840185
0.009818791 -0.19971807 -0.19024567 0.04377635 -0.002011392 -0.33707297 0.030621836 0.0044745537
0.34154952 0.010483458 -0.21105753 0.0282495 -0.015241832 -0.21495588 -0.21247931 -0.2133537
-0.19862562 0.017097846 -0.18061087 -0.16930787 -0.18563385 0.026938356 0.04246844 -0.21173432
-0.050523516 -0.20111553 -0.19619755 0.028778587 -0.1918346 -0.18900178 -0.19337642 -0.20325275
0.05166799 0.24137338 -0.1857322 -0.2155822 -0.20494586 0.04084773 -0.19330586 0.016950136
0.03796318 0.04222414 0.0024751248 0.00958291 -0.18841916 -0.21066193 0.037623998 -0.20138906
