youtube-ppo/tmp/ppo/ppo-actor.pth (torch, 270876 bytes, 5 tensors)

fc1.weight f4 [256, 3]
00000000: d5be d93d b10e 793e 86d6 afbe 4182 3c3d
00000010: 4439 f0be afe6 a9bb 3fe4 aabc dcec 14bf
00000020: 9252 563e 8aa0 6e3e bb52 1b3e ce6f e4bd
00000030: 9314 97be c029 ce3e 2601 b63e 6bbd f0bd
00000040: 8ce6 de3e a560 c03e 8360 c43d 645b 813e
00000050: 2367 96be 6a90 303f 439f 1f3e 58fe 7cbd
00000060: 28f1 13bc 39b2 fa3e 3ffe bebe e781 a2be
00000070: 5f1d f9be c85f 523e eaf5 01bf 28cb 14be
00000080: 19dc 283f e780 87bd 080b 543e e426 dc3e
00000090: 0d28 383f 5e0b 09be 98b8 febc 72dd ad3e
000000a0: 77ec 393a 8a29 e53e a4a1 7a3e f5f9 1dbf
000000b0: 70e5 20bf ad5e 39bf 06fc 783d 708c 7d3e
000000c0: 8c18 16bf b0c5 acba f26c 433e 3edc 0abf
000000d0: 76d0 94be e841 84be e27a 893e 08ed 54bf
000000e0: 102b 17be 6dd5 693e af9e 0ebf 0039 15be
000000f0: a424 65be e563 94bd 7a3e f93e 68a0 053f
00000100: 2c7e 00bb f328 28bf 1344 ea3d 9f53 febe
00000110: 7ffe 353f de03 e03e 1d6a 66be e512 a3be
00000120: 1fcd 753e e034 ad3e d2bf 0ebf d4ea 1b3f
00000130: f219 16be e79b 9abe 1cd9 07bf bbd1 c8be
00000140: 5739 b1be d4e2 913e d822 653d 8903 debc
00000150: d8ae 153e 47cb 983e 8639 ae3d a4cc 02bf
00000160: 4944 a73e ec0a 013f 7587 be3e f95f f7be
00000170: 84a2 0bbf 39ac f03e 9ca9 073e ef6c 5cbd
00000180: 986f b3be f734 8abd 2dae 123f b3b8 1abf
00000190: fb3d 18bf 961b 1f3f 599d 37be fe75 9a3e
000001a0: dd68 903b d44d 1ebd 2157 02be d50c 613e
000001b0: 2d99 23be 3a60 05bf 73e7 00bf e07b c4be
000001c0: 0f49 0bbf fa0d fbbd f938 cabe 1974 d73e
000001d0: c569 2a3f 679f 0fbf b388 a53e e8c4 96bd
000001e0: fd88 463d 3b7e d73e ad62 cebe 279a 04bf
000001f0: cf6f 0f3e 6e54 a03e f0fe 8c3e ea27 67be
00000200: 59f1 113f 6b94 093e 7b46 643e edd1 c3be
00000210: b813 c93e 36c6 16bf b7dc f8be 80f0 2c3f
00000220: 8dec d9bd 1848 83bd de8c 553e d8cb 0f3d
00000230: f288 f8be bcb7 873e d16a a6bd 6f92 d4bc
00000240: b686 1bbe 5181 fb3e 2357 1d3f 3e8e 00bf
00000250: e8bb e6be 6ff7 1e3f 34d9 0b3f 4827 2abf
00000260: f13e dabe 7584 09bf 7f16 fd3e b093 2d3f
00000270: c4b6 353f b4aa 75bd 628e 00bf 8055 703e
00000280: f9cc 20bf 9d5f 18bf a147 323e 3f0e be3e
00000290: 7158 c1be 0ecf f9bc 1fc0 98be 4102 073f
000002a0: 4af7 023f 7551 2fbf 9501 40bf 555f 003e
000002b0: 3664 093e f583 023f 3abd bdbe d787 2d3e
000002c0: f0e0 073f def4 40be a919 b1be 4eca 543e
000002d0: b5fe 8d3e 40db c7be 17f3 1e3f 3d82 91be
000002e0: daa6 a2bd 02b3 9dbd 7907 ac3e 0f6e b5bd
000002f0: 6413 223f e5dc d2bd aa67 0d3e 1378 cb3e
00000300: b073 8f3e 899b f6bd ba5c 79be 9567 c1be
00000310: 7db3 9bbe c23c fc3e f8f3 073f fb68 53be
00000320: f30a 09bf 63b0 193e 0467 8a3d a7a0 e03e
00000330: 9aa3 943e d5be 48bf 8320 e8be 37e5 e63e
00000340: 88c5 983e 9561 3abd bde4 8b3e 50d6 28be
00000350: 50d7 693e 5ee8 e73e bf29 363f a093 023e
00000360: b9ad acbe 5fc0 d63e c5f7 c1bd 686b cebd
00000370: 9187 1c3f 606e f43e 4d4f 5a3e 1a73 a73e
00000380: d156 e6be 0284 78be b8bc 203f 9a01 08be
00000390: a31d c33e 44ea e23e 359c 57be 3bec 083f
000003a0: 5371 2cbf 8c67 29bf 675c 083e 2131 03bf
000003b0: b811 26be ab13 3b3f fbec 0e3f 95fb 6c3d
000003c0: b3a6 3f3e 3777 46be 444f a3bd 5dcf 093f
000003d0: b5bb 793e 2e92 d6be a70e 8c3e 150b ce3e
000003e0: 5088 023f 6646 8abe 063e d0be 3004 a5bd
000003f0: 9f96 24bf ac07 33bc 3238 aabd 1656 493f
0.106321014 0.2432201 -0.34343356 0.046022657 -0.4691869 -0.0051849703 -0.02086079 -0.5817392
0.20929936 0.23303428 0.15168278 -0.111541376 -0.29507884 0.40266228 0.3554775 -0.117548786
0.43535268 0.37573734 0.09588721 0.25265038 -0.29375562 0.6897036 0.15588097 -0.061766
-0.009029664 0.48964098 -0.3730335 -0.31739733 -0.4865522 0.2054435 -0.5076586 -0.14530623
0.6596084 -0.06616383 0.20707333 0.4299842 0.7193611 -0.13383242 -0.03109388 0.33958012
0.0007092426 0.44758254 0.24475724 -0.6170953 -0.62850094 -0.7241009 0.060787223 0.24760604
-0.58631206 -0.0013181474 0.19084528 -0.5424231 -0.29065293 -0.25831532 0.26851565 -0.8317418
-0.14762521 0.22835322 -0.5571088 -0.14572525 -0.22377259 -0.07245616 0.48680478 0.52197886
-0.0019606454 -0.65687484 0.114387654 -0.49673173 0.71091455 0.4375295 -0.22501417 -0.31850353
0.24004029 0.33829403 -0.55761445 0.60905194 -0.14658335 -0.3019707 -0.5306566 -0.39222512
-0.3461406 0.2849337 0.055941433 -0.027101295 0.14617479 0.29842588 0.085070655 -0.51093507
0.32669285 0.5040729 0.3721272 -0.4831541 -0.54544854 0.47006395 0.13248295 -0.053814825
-0.35046077 -0.067483835 0.5729702 -0.6043808 -0.59469575 0.6215147 -0.17931117 0.30168146
0.004407032 -0.03864844 -0.1272855 0.21977551 -0.159764 -0.52099955 -0.50353163 -0.3837576
-0.54408354 -0.12258525 -0.39496592 0.42080763 0.6656764 -0.56102604 0.32330856 -0.07361776
0.048470486 0.42088494 -0.4030966 -0.5179772 0.14007495 0.31314415 0.27538252 -0.2257382
0.5700889 0.13435523 0.22292511 -0.38246098 0.39272857 -0.58896196 -0.48605892 0.67554474
-0.106408216 -0.06410235 0.20854518 0.03510651 -0.4854198 0.26507366 -0.08125842 -0.025948731
-0.15188107 0.49122098 0.61461085 -0.50217044 -0.45065236 0.62096304 0.546283 -0.6646619
-0.42626145 -0.5371774 0.49431226 0.6780348 0.70982003 -0.05997725 -0.5021726 0.23470116
-0.62812763 -0.59520894 0.17410137 0.37120244 -0.37762788 -0.03049424 -0.29834077 0.52737814
0.51158583 -0.6848367 -0.75002414 0.12536366 0.13417134 0.509826 -0.3705843 0.1694635
0.530776 -0.1884341 -0.3458989 0.20780298 0.2773339 -0.39034462 0.62089676 -0.28419676
-0.07941981 -0.07700159 0.3359945 -0.08858883 0.6331084 -0.102960385 0.13809076 0.39740047
0.2801795 -0.12041385 -0.24351779 -0.3777434 -0.30410376 0.49265105 0.5310664 -0.20645516
-0.5353233 0.15008692 0.0675793 0.43872568 0.29031068 -0.78416187 -0.45337304 0.45096752
0.29838204 -0.045503218 0.2732295 -0.16488004 0.22836041 0.4529447 0.7115745 0.12751627
-0.3372629 0.41943642 -0.094710864 -0.1007908 0.6114436 0.4774046 0.21319313 0.32705003
-0.4498811 -0.24269107 0.6278796 -0.13281861 0.3810855 0.44319355 -0.21055682 0.5348546
-0.6736042 -0.66173625 0.13316499 -0.5124684 -0.16217697 0.73076886 0.55830353 0.057857115
0.18715934 -0.19381414 -0.07974103 0.53832036 0.24388011 -0.419084 0.2735493 0.4024283
0.50989246 -0.27006835 -0.4067232 -0.08057439 -0.6429233 -0.010927122 -0.083115 0.7864698

fc1.bias f4 [256]
00000000: 6b44 00bc b793 07bf e199 263c a195 82bd
00000010: 58fe c33e ec7c 803e f4b1 80be e7a0 f03e
00000020: 4676 04bf 6228 a4bd 175e a9bd 2098 bfbd
00000030: 3869 c43e f072 ffbd 417c b0bd a0ff b93e
00000040: 4211 a03e 45e1 23be abf3 403e 6ec7 043e
00000050: fce7 423d a132 20be 877d c33e 78ef 0e3e
00000060: 33bb f8be c6a5 903e fc83 afbd 2a43 d8be
00000070: 8829 d33e 89e9 6d3e 8101 733d 378b 353f
00000080: e96d 913e 4152 43be 44ad c8be 585c e53d
00000090: 90a4 62be b9ac bbbc a03d cebe 17e2 36be
000000a0: d4c0 22be dfd3 253e c9c9 6f3e 8932 b9be
000000b0: a616 293d e8c2 1c3f 16b6 b9be 7cff 043f
000000c0: 07d8 a13e 56de 8bbe cc5e 843d f9a9 b9be
000000d0: 9ae6 803e 4b95 b5bd f2da bdbe ba51 bc3e
000000e0: 5324 9fbe fa3e 0fbf b46b ad3e 05c7 f33d
000000f0: e587 493e b929 71bd c365 823d 6cc2 31bf
00000100: 70a5 103f 3ad5 dc3e 733b 4b3e c244 24bd
00000110: de47 cb3e 2ac2 3d3f b8a1 01bf 72c5 fe3e
00000120: 924f 9c3e fca4 aa3e 5e02 d3be eed9 093f
00000130: 78bf b83d b3cd 86bd 0820 023f e0fe 60bc
00000140: c1ad 313f 3dcb 20bd 2c7a 06bf 63c6 59bd
00000150: 7cf2 3d3d 71d5 2c3e 60b2 123e 4188 c3be
00000160: ea91 213f 54c6 a63d 29be eb3c 4943 933d
00000170: 2eec 4d3d 247b 923d d925 093e efe6 193f
00000180: 010f 783e cc13 f33d 1708 aebd ad16 7a3e
00000190: a0f4 80be 6a3b 953e 9d98 0dbe 3760 1cbe
000001a0: 8c42 0e3f 08b2 8ebe d437 a7be 5b5b 4abe
000001b0: 1a5f ddbe b048 293e 5d00 53be 64ca d13e
000001c0: 5179 1f3e 4590 d03e 1d34 f33e 94f6 9c3e
000001d0: 092a c4bb d2fb 3c3e 7693 24bd bc2f 11bf
000001e0: 295e cf3e d3d0 d83d d364 de3e 812a e53e
000001f0: 8f1f f6be ff9c ccbe 8fd5 a5be 29f7 07bf
00000200: 90f7 8ebd e3d6 dfbe dd60 94be 34b8 88bd
00000210: 0611 a93e 8c5e f03e 4555 b4be 0df9 14bd
00000220: dd09 cb3e e9bf 613e 8d0f 90bd 2c82 2c3f
00000230: b410 03be c8fa a13e 88d7 743e 9424 8f3e
00000240: 6b0a d1bd ea1f a3be 2e9c 1cbd fce3 40be
00000250: 0d8f 5dbe c884 4d3d ff6c 0abe 9f8b a63d
00000260: c3eb 453c 3d80 403e d8e9 e6be 3a7d 19be
00000270: 59dd 19bf 71af 64be 73ec 05bd 6b29 cbbe
00000280: 08cc 20be 0b44 e9be 54ef 143f 62c7 e0bd
00000290: 8726 d7be 431f b43e b751 b0be 0315 b63e
000002a0: 4639 783e acf9 ecbe c7b7 503e 0a82 d3be
000002b0: 83fa 6bbd 2a3b e93e eb93 713d 6273 29bd
000002c0: 36e2 f4bd 041e 973e 6f92 0fbf 2400 3c3e
000002d0: 6223 e3be 2f8a c43e 53b5 cebd cc36 4f3e
000002e0: 4b53 74be 709e 583e 799f 1fbf 1198 04bf
000002f0: 5320 a5be 28bf bd3e 97c9 fabe 6626 cd3e
00000300: e1ad 3e3e 582d d63d ea0f 0e3e 35d4 e1bd
00000310: b4ff dcbe 557a 1ebe 5b3f 873e b4b8 213f
00000320: 431b 663e 7eec acbe 8b5f c03e 9b58 123f
00000330: fac8 dabe f715 e8be 4bb3 493e bfa5 55be
00000340: 88aa 3f3f 6ed4 10bf 2c05 0fbd 9c99 5e3e
00000350: 48ae 843d 58a5 d4bc e92c 00bf e04e e43e
00000360: fef4 8bbe 9648 85bd b086 05bf f5fc 0e3e
00000370: 5c00 b03e a48a 29bd bf24 243e 6cb6 07bc
00000380: 1e24 6c3e 01eb d73e d4ca a23c fcd1 edbd
00000390: 0b83 86bc e078 e9be 3db1 c6be 3032 963d
000003a0: 7c53 57be 253d aebe 125c a5be 40a9 863e
000003b0: 9f62 2b3f bf46 ba3e 3bc3 953d f9b5 8abe
000003c0: 2bc9 88be 9f0a 003f 0c2f dbbd 59bf 213f
000003d0: 7180 9c3e 6bb2 6b3d 49a0 df3d d454 283e
000003e0: f84b a6bc 4abe 093f 1cdd 19bf bdfb fbbd
000003f0: c397 263e 2d80 99bd c91e 5fbe 0d97 21bf
-0.007828812 -0.5295977 0.0101685235 -0.06376196 0.38279986 0.25095308 -0.25135767 0.4699776
-0.5174297 -0.08015515 -0.08269899 -0.093551874 0.38361526 -0.124730945 -0.086174496 0.3632784
0.31263167 -0.16003902 0.18842952 0.12966701 0.04758452 -0.15644313 0.38181707 0.13958538
-0.48580322 0.28251475 -0.08570096 -0.42238742 0.41242623 0.23233618 0.059327606 0.7091555
0.28404167 -0.19074346 -0.3919469 0.11199254 -0.22133088 -0.022909509 -0.4028139 -0.17859684
-0.1589387 0.16194104 0.23416819 -0.36171368 0.041281365 0.61234903 -0.36271733 0.5195234
0.31610128 -0.27318066 0.064633936 -0.3626249 0.25175935 -0.08866366 -0.37081105 0.36781102
-0.310824 -0.5595547 0.33871233 0.11903194 0.19680746 -0.05887768 0.06367066 -0.6943729
0.5650244 0.4313143 0.19846897 -0.040104635 0.39703268 0.74124396 -0.5063739 0.49760014
0.30529457 0.33328998 -0.41212744 0.5384816 0.09020895 -0.06582203 0.50830126 -0.013732642
0.6940575 -0.039256323 -0.5253017 -0.053167712 0.04637383 0.16878296 0.14325857 -0.3818989
0.6311327 0.08143297 0.028777199 0.07190568 0.050274067 0.071523935 0.13393344 0.60118
0.24224474 0.1186901 -0.08497637 0.24422713 -0.25186634 0.29146892 -0.13827749 -0.15271078
0.5557029 -0.27870202 -0.3265978 -0.19761412 -0.4323662 0.16531634 -0.20605607 0.40974724
0.15573622 0.4073507 0.47500697 0.30656874 -0.0059864563 0.18455437 -0.040179692 -0.5671346
0.40501526 0.10586705 0.43436298 0.4475899 -0.48070952 -0.3996353 -0.32389495 -0.5311151
-0.069808125 -0.43718633 -0.2898015 -0.06675759 0.330208 0.46947134 -0.35221305 -0.036370326
0.39655963 0.22045864 -0.07034216 0.67386127 -0.1279934 0.31636643 0.23910344 0.27957594
-0.10207065 -0.31860286 -0.038234882 -0.18836969 -0.21636601 0.05017546 -0.13518141 0.08132099
0.012080136 0.18798919 -0.45100284 -0.14989176 -0.60103375 -0.2233255 -0.0326962 -0.39680037
-0.15702832 -0.45559725 0.58177686 -0.10975529 -0.42021582 0.351801 -0.34437343 0.35562906
0.24240598 -0.46284235 0.20382605 -0.4131015 -0.057611953 0.4555295 0.058978956 -0.041369803
-0.11957209 0.29515088 -0.56082815 0.18359429 -0.44362932 0.38386676 -0.100931786 0.20235747
-0.23859899 0.21154189 -0.6235271 -0.51794535 -0.32251224 0.37059903 -0.48981926 0.40068358
0.18621017 0.104578674 0.13873258 -0.110268034 -0.43163836 -0.15476353 0.26415524 0.6317246
0.22471337 -0.3377418 0.37572894 0.5716645 -0.42731458 -0.45329258 0.19697301 -0.20864008
0.74869585 -0.5657414 -0.03491704 0.21738285 0.06478554 -0.025957748 -0.5006853 0.44591427
-0.27335352 -0.06507985 -0.5215864 0.13963683 0.34375274 -0.041391984 0.16029643 -0.008283239
0.23060653 0.4217148 0.019872107 -0.11612317 -0.016419908 -0.45600033 -0.38807097 0.07333791
-0.2102794 -0.34031025 -0.32296807 0.26301003 0.6694736 0.363821 0.07312628 -0.2709196
-0.2671598 0.50016207 -0.10702333 0.631826 0.30566743 0.0575432 0.10919244 0.1643861
-0.020299897 0.53805983 -0.6010301 -0.12303875 0.1626883 -0.07495151 -0.21789087 -0.6312111

fc2.weight f4 [256, 256]
00000000: 6a32 89bd 4005 0bbb 3918 843c af59 153c
00000010: c2af 71bd 1eaf 483c 7508 ba3c 6b7e 2fbd
00000020: dc09 033d c8d6 a8bc b67f 83bd 7615 8d3c
00000030: 5f31 40bc b153 ecbc 1295 39bd 6c1e 193d
00000040: 3967 98bc 8d79 23bc 011e 97bd 4b03 31bd
00000050: f703 b13c 2228 edbc aac1 51bd db63 89bd
00000060: 6a31 c1bc c73d 4a3c 31d2 2c3d f887 22bd
00000070: fc04 60bd 0762 47bd bf89 85bb 2667 0abd
00000080: bf22 87bd 5a8e 993b 8df3 e63c 279d a4bd
00000090: 365c e33c 9eda 9abd 33b8 843c 1a7e 83bb
000000a0: 7197 2e3c 374e acbc d533 e3bb 0c83 66bd
000000b0: 3347 343b f693 8d3c 3926 e3bc f7ac 8bba
000000c0: f9f8 b3bc bbe6 88bd bcb9 84bc 8078 c2bb
000000d0: cd74 b33c 87b6 f6bc 3686 54bd fe8b 9fbd
000000e0: 4c3a c83c 6f2b 403d bfa8 b9bb 1474 aebc
000000f0: 84c7 7dbd 076f c03c 76f4 c03c 6ad7 8a3c
00000100: e8a6 49bd 04a2 7dbd 0b4d 52bd a1b4 f5bc
00000110: 0cd5 3ebd d64c 40bc 0705 49bd 6105 4abc
00000120: 218b 2b3d ee31 84bd 551b bcbb d4bd f93c
00000130: 470e 323d 2b18 173c 9b1f e73c e77d 8bbc
00000140: 56d7 3dbc cbb7 70bd 21a8 7cbc 9f82 9a3a
00000150: 032c c4bc 8ea0 3bbd 6e81 fdbc 9aee 31bb
00000160: e290 25bc e9f2 99bd 717c b13c 6ef6 eb3c
00000170: 596b 90bd 9339 2fbd c54d 4e3c 3006 cd3c
00000180: b8b2 e73c e981 e53c cb77 a93c 810e e7bc
00000190: af07 90bc 0621 3f3c 5729 55bd c9e2 3bbd
000001a0: fa27 74bd ee3f 09bd a18a d0bc 5af8 44bc
000001b0: 647d 5d3d fde2 2fbd 0a39 62bd c423 83bd
000001c0: 2beb cfbc f479 b43c 645f 3ebc 185b 4a3c
000001d0: 8660 8cbc e42a 33bc 5e30 58bd 1f9b 6dbd
000001e0: 691c 273d 0f42 3fbd 823f 00bd deaa 103d
000001f0: df28 8fbc 3228 ba3c 643e 90bb 2c15 48bd
00000200: 9a4c 67bd 1d4e 453d 559c b1bc 30fb 24bd
00000210: 1cd3 35bd 0f04 5d3d 99f2 933b 8fdb 86bd
00000220: 2092 8cbd 9c74 c53c 7e00 103d 519d 6dbc
00000230: e958 2fbd ee05 3cbd 53cb b5bb b51f 60bd
00000240: cebb 88bd 0c60 29bd 9d91 a5bd d2f7 17bd
00000250: 1f46 65bd ff81 593c 9063 2abd 981c 36bc
00000260: 7833 1e3c 9f24 353d 1ed4 973c a575 f1bc
00000270: ad1c 51bd 45f6 17bd 7f33 9bbd 8f1d 20bd
00000280: 00ec 8abd 6b2c ff3c 069f 4bbd 3532 a3bd
00000290: 9fa8 7b3c 4224 8fbd fa45 2ebc f38c 8ebd
000002a0: 9bfc b23c 9894 49bc d8b2 f83b df35 afbc
000002b0: 4561 2f3d a43d 28bc 7b3c 1cbc a1d1 2ebd
000002c0: 6081 c1bb 362a 6fbc defc 0a3d fd46 31bd
000002d0: bc6f 1d3d 82ba 03bd 48f1 34bc 25c5 de39
000002e0: fc67 0abd aac4 47bc a624 8f3b 0c05 e4bc
000002f0: 01d3 2cbd b525 acbd d4d7 3b3d e3f6 87bd
00000300: 5f4e adbc 171d 99bd d376 12bd b726 5bba
00000310: fa18 04bd fd28 17bc 0b2a 143c b463 4abd
00000320: dbb7 8dbd f54c 093d 3455 053d b839 1cbd
00000330: 2623 b13c f0ad 693c abe8 2ebd 958f a73a
00000340: 1c97 ddbc 4532 9abc c00c 52bc f2b5 3d3c
00000350: 6d1b 86bb 5408 43bd ee26 82bd be08 eabc
00000360: a2b0 9abd 42d5 11bc c89e 67bd 1ead abbc
00000370: a84e f5bc 674e 853c 1221 473d 9d51 83bd
00000380: 6e6f 20bd fa85 28bd 2565 56bc b1f7 97bc
00000390: 214c 043d b29c 81bd 1151 5bbd 0f0a a53b
000003a0: fed7 61bd a2eb fd3c c3fa 1d3c acd4 083d
000003b0: de2a cebc 1015 443b c694 49bd 6bd9 24bd
000003c0: 0a91 103d aa13 9fbd 87c8 94bd 9f1b 38bc
000003d0: 3659 8abc 8e45 71bd d98c ecbc aba6 bb3c
000003e0: 28ea 11bd ab4b 7cbd 3118 87bd ba08 373d
000003f0: 0c44 24bd 78a5 3ebd caf5 76bd 5636 9f39
-0.06699069 -0.0021212846 0.016124832 0.0091156205 -0.059005506 0.012248782 0.02270911 -0.04284517
0.031991825 -0.020610228 -0.06420843 0.017222147 -0.011730521 -0.0288485 -0.04530818 0.03738253
-0.018603908 -0.00997771 -0.0737877 -0.04321603 0.021608336 -0.0289498 -0.051210083 -0.06708499
-0.023583133 0.01234383 0.04219264 -0.03968045 -0.054692253 -0.04867747 -0.0040752585 -0.033789776
-0.06598424 0.004686159 0.028192306 -0.08037787 0.02775393 -0.07561229 0.016201114 -0.004012835
0.010656224 -0.02103339 -0.006933669 -0.05627732 0.0027508258 0.017282467 -0.027728187 -0.0010656406
-0.021969305 -0.06684633 -0.016201846 -0.005934775 0.02190628 -0.030116333 -0.051885806 -0.07790373
0.02444186 0.04691642 -0.005665868 -0.021295585 -0.06195785 0.023490442 0.023554068 0.01694842
-0.04923144 -0.06192209 -0.051343005 -0.029993357 -0.046589896 -0.011737069 -0.04907706 -0.012330384
0.04188073 -0.06454836 -0.005740563 0.030486025 0.043470647 0.009222071 0.028213313 -0.017027808
-0.011586985 -0.05876903 -0.015420944 0.0011788196 -0.023946768 -0.045807414 -0.030945506 -0.0027150274
-0.010105344 -0.075170346 0.021665784 0.02880403 -0.07051725 -0.042779516 0.012591784 0.025027364
0.028283462 0.028016048 0.020687005 -0.028205158 -0.017581789 0.011665588 -0.052041378 -0.045870576
-0.059608437 -0.033508234 -0.025456728 -0.012022102 0.05407466 -0.042941082 -0.055230178 -0.06403306
-0.025380692 0.022030808 -0.011619423 0.01235082 -0.01713587 -0.010935519 -0.0527805 -0.058009263
0.04079858 -0.046693858 -0.031310566 0.0353192 -0.017475544 0.022724245 -0.004401969 -0.048848316
-0.056469537 0.048170198 -0.02168099 -0.040278614 -0.044390783 0.05395895 0.004515004 -0.06584846
-0.06863809 0.024103455 0.03515672 -0.014502839 -0.0428094 -0.045904092 -0.00554792 -0.05471774
-0.06676446 -0.041351363 -0.08084414 -0.037101574 -0.055975076 0.013275622 -0.041598856 -0.011115216
0.009655826 0.044224378 0.018533763 -0.029475043 -0.051052738 -0.037100095 -0.075781815 -0.03909069
-0.06783295 0.03114911 -0.049712203 -0.079685606 0.015360027 -0.069893375 -0.010636801 -0.06960478
0.021848967 -0.012303494 0.007589679 -0.021387992 0.042817373 -0.0102686025 -0.009535904 -0.042680386
-0.0059053153 -0.014597466 0.03393256 -0.04328059 0.038436636 -0.03216029 -0.011043854 0.00042490024
-0.033790573 -0.012192884 0.0043683825 -0.027834438 -0.042193417 -0.084056295 0.045860127 -0.06638887
-0.021155534 -0.074762516 -0.03575785 -0.0008359956 -0.032250382 -0.009226081 0.009043227 -0.04941149
-0.06919833 0.033520658 0.03255196 -0.038140982 0.021623205 0.014262661 -0.04270236 0.001278388
-0.027049594 -0.018822799 -0.012820423 0.011579024 -0.004092625 -0.047615364 -0.063550815 -0.028568622
-0.07553221 -0.008900942 -0.05654791 -0.020956572 -0.029944733 0.016272737 0.048615523 -0.06412051
-0.039168768 -0.041143395 -0.013085638 -0.018550726 0.032299165 -0.063287154 -0.053544108 0.0050365995
-0.055137627 0.030996148 0.009642306 0.033405945 -0.025166925 0.002991978 -0.049214147 -0.04024641
0.03529457 -0.077674225 -0.0726481 -0.011237054 -0.016888242 -0.058904223 -0.028875755 0.022906622
-0.0356237 -0.0615956 -0.06596411 0.044686057 -0.040103957 -0.046544522 -0.060292996 0.00030367327

fc2.bias f4 [256]
00000000: 5e05 fb3c 4ddc c03b 7857 d6bc 9472 113d
00000010: 554b a5bd 6e9c 013d ea96 67bd 4666 3bbd
00000020: 5092 2ebc 8bb4 673b 97f7 10bd b2d6 14bd
00000030: 7152 93bd 8b6a 98bd 7029 b7bc bd66 943d
00000040: 4c24 3d3b 1226 03be 7ffe f43b 44f2 5ebd
00000050: 8c69 25bd 53dc 96bd 794d 3ebc 8977 dbbc
00000060: 9495 bebd f4e2 563c 4b18 8bbd 1cec 57bc
00000070: ff39 7a3d 8c09 7cbd 0e44 8a3e d566 80bd
00000080: 744f f9bd 711d 66bd 88c6 33bd 331a 8abd
00000090: 605a fe3c 6299 ecbd 7f1e 1cbe d786 b73b
000000a0: 4ad6 82bd d853 153d f854 393d a8d9 8bbd
000000b0: 6343 23be e445 93bd ab24 623c 18bb 92bd
000000c0: 3683 cd3c 97dd 78bc aba1 993d 1137 9cba
000000d0: 531a 54bc a5fc 183d a534 f4bc fb31 8dbd
000000e0: a9bb 613d dd2e a23c 55a9 d3bd befd c63c
000000f0: e0a8 9ebd 14b3 afbd c9ba 8ebd ccf9 4bbc
00000100: 6616 c03c cc3c b43a b020 8abd 4c51 1c3d
00000110: 2562 3bbc 759e e8bd a0ad d6bd e785 fe3c
00000120: 148e 90bd 6bf5 98bd a622 67bc e8eb 2e3b
00000130: 1060 9c3b 3502 9bbd 78af 27bd 3420 fa3c
00000140: 21b8 06be 3db6 41bd 699c 163d da6f 003b
00000150: 88d8 bdbc d264 54bd f1bd 3f3c 8f10 53bd
00000160: cbbf 03bd c915 c03c c11a 1fbd b738 a13c
00000170: 684e 88bc 65e6 3fbc 77f3 edbc 27c9 16be
00000180: 36a1 ccbc b565 d13a fcf4 31bd d8b9 003d
00000190: 584c 663c ec81 38bd e4ac bbbc d43d 003d
000001a0: abcc f2bb 440d 953c 9ff3 3ebd 75ce ee3c
000001b0: a112 6f3c 0f52 0bbd 6d92 78bd 97ed 3dbd
000001c0: 6509 c7bc eba8 2d3d 2325 543c 9d20 65bd
000001d0: 78c1 c9bc 694f b1bd 7ea8 70bd 72c9 47bc
000001e0: d79a e9bb be06 883c bb6b 183d 4498 6f3c
000001f0: 2685 4d3e 5961 4abd d3fe ea3c cf9b 59bd
00000200: 52ed 103c e78d 80bd b8f4 9c3c 28ac 1f3c
00000210: fe3b a1bb 02b6 1a3d 917b 9ebd eb60 3bbd
00000220: d7cb 17bd a197 77bc 4227 113d da48 843c
00000230: 2ed2 bcbc 7bd4 49bd f2d9 87bc d6b7 87bc
00000240: 4d79 81bc 6f45 08bd 6bf2 8abd b4a9 4dbd
00000250: 7f73 e6bc 6bfa 75bd a05c 84bc 8455 5b3c
00000260: fb23 6bbd 8221 e9bd 60d2 a23d d597 ebbc
00000270: 62af 2dbd 13ad 603c 2d99 fabb be44 6dbd
00000280: e089 6c3d fd13 86bc 601d b9bc 69be 803b
00000290: 549a 5abd 0501 563d 3a00 bebc 0cfc b9bc
000002a0: e118 f93b b900 19bd c2a4 9a3c 6390 b4bd
000002b0: e840 e7bc 6598 c7bd d29c 0c3c 2144 03be
000002c0: b841 8d3d 5e9d 08bd aa55 21bc 1e06 df3c
000002d0: aa34 48bc 867c 9ebd 2872 f43b fe26 8c3e
000002e0: ba53 823b fdc7 0c3d 800c 313a 0e96 0e3d
000002f0: fd2e 8ebd aa35 42bd 9ce0 5dbd bf01 64bd
00000300: 3e4f 053d ebbb 403d 9844 543d 426f 09bd
00000310: 8655 05be c679 0abe 509b bcbb 5e5f 90bb
00000320: 8c85 b63c e8ed 943c 39be 96bd ce82 6cbd
00000330: b396 483d c77e 163d ebde 8cbc 5591 7fbd
00000340: 909a 043d ec74 b23c af2f 88bd cf7d 74bc
00000350: d9ca 48bc 7ede 5dbd cad6 c1bd a3b1 01be
00000360: dfeb f23c 5496 f2bd 8011 253d c7b9 0abd
00000370: cc21 283d 0bcd 26bd 2745 153b 5b16 2fbe
00000380: 7cf7 2abd 6eb2 1ebd 5310 08be 20ac 61bd
00000390: 0a09 02be 2732 b8bd 1427 58bd 79e9 c43c
000003a0: f923 1cbd 72cd 603e c4d2 febc 2bda c83c
000003b0: 8ff6 12bd d56f eb3b 4d06 3a3d 3aea f9bb
000003c0: 73eb 61bd 4cf8 9f3c 0e23 b0bd d8e2 35bc
000003d0: 1f76 5cbc 7c1c 78bd 08a0 85bb 1f2b 54bd
000003e0: ca73 0c3d 6891 13bd e6f3 64bc b47d 0a3d
000003f0: 975a 29bc 431c 3f3b faf0 143d 57cf 203d
0.030642208 0.005885637 -0.026164755 0.03550966 -0.08071009 0.031643324 -0.056540407 -0.045751832
-0.010655001 0.0035355415 -0.03539237 -0.036337562 -0.07193459 -0.074421965 -0.022358626 0.07246158
0.0028860746 -0.12807491 0.0074766274 -0.05443026 -0.04038386 -0.07366242 -0.011615151 -0.026790397
-0.093058735 0.013115633 -0.06791743 -0.013178851 0.061090466 -0.061532542 0.27005047 -0.06269614
-0.121733576 -0.05618042 -0.043890506 -0.06743278 0.031048954 -0.11552693 -0.15246008 0.005600791
-0.06388529 0.036456913 0.04524705 -0.06828624 -0.15943675 -0.07191065 0.013802688 -0.071645916
0.02508698 -0.01518955 0.07501539 -0.0011918267 -0.012945729 0.037350316 -0.02981026 -0.06894299
0.055110607 0.019797737 -0.10335032 0.024290916 -0.07747054 -0.08579078 -0.0696922 -0.012449693
0.02344818 0.0013751029 -0.06744516 0.03816347 -0.011436974 -0.11358348 -0.10482335 0.031069709
-0.07058349 -0.07468685 -0.014107382 0.0026690904 0.0047721937 -0.0756878 -0.040938824 0.030532934
-0.13156177 -0.047292937 0.036770258 0.0019597919 -0.02317454 -0.051853962 0.011703 -0.051529463
-0.03216533 0.023447888 -0.038843874 0.019680364 -0.01663895 -0.011712645 -0.029046757 -0.14725171
-0.024979215 0.0015975746 -0.043446526 0.031427234 0.014056288 -0.04504578 -0.02290959 0.031308964
-0.007409652 0.018194802 -0.046619054 0.02915118 0.014591844 -0.034013804 -0.060686518 -0.04636916
-0.024296472 0.04239742 0.012948307 -0.055939306 -0.024628386 -0.086577244 -0.058754437 -0.012194024
-0.007129054 0.016604777 0.037212115 0.014623705 0.20070323 -0.049409244 0.028685963 -0.053127106
0.008845644 -0.06277066 0.01915966 0.009745635 -0.0049204817 0.037771232 -0.07738412 -0.045746725
-0.03705963 -0.015111835 0.03543783 0.01614802 -0.02304944 -0.049274903 -0.016583417 -0.016567152
-0.015804911 -0.033269342 -0.06784519 -0.05021067 -0.028131245 -0.06005327 -0.016157448 0.013387088
-0.05740736 -0.11383344 0.07950282 -0.028758923 -0.042403586 0.013713139 -0.0076476545 -0.057926886
0.057748675 -0.016366953 -0.022597015 0.0039289487 -0.053369835 0.052247066 -0.023193467 -0.022703193
0.0076018427 -0.037354205 0.01887739 -0.08816602 -0.028229192 -0.09745864 0.008582311 -0.12818958
0.068973005 -0.033353202 -0.009847084 0.027224597 -0.012219587 -0.07738595 0.0074598975 0.273735
0.003977266 0.03437041 0.0006753877 0.034811072 -0.06942556 -0.04741446 -0.054169282 -0.055665728
0.032546274 0.047054213 0.05182323 -0.03355337 -0.13020906 -0.13523015 -0.0057558194 -0.0044059
0.022280477 0.018179849 -0.07360501 -0.057741933 0.048971843 0.036741998 -0.01719614 -0.06239446
0.032373965 0.021784268 -0.0664972 -0.014922573 -0.012255394 -0.054167263 -0.09464796 -0.1266542
0.029653488 -0.11845079 0.040299892 -0.033868577 0.041047856 -0.040722888 0.0022776814 -0.17098372
-0.041739926 -0.038744383 -0.13287477 -0.05509579 -0.1269876 -0.08993941 -0.052771643 0.02403711
-0.038120244 0.21953371 -0.03110636 0.024518093 -0.035879668 0.0071849623 0.045416165 -0.007626799
-0.055156182 0.019527577 -0.08600436 -0.011101447 -0.013455897 -0.06057404 -0.004077915 -0.051798936
0.034290113 -0.036027342 -0.013974166 0.033811286 -0.01033654 0.0029161132 0.036362626 0.039260235

mu.weight f4 [1, 256]
00000000: 358a 913b 8e82 5d3e 4463 313a da6b 2fba
00000010: 908d bc3c 06d0 0c3d 14aa 8c3e 2335 a1bc
00000020: ee8c 36bd 0db6 a63b f699 053d 1dab 613e
00000030: 4739 033c 8372 4b3e 1d17 f83b a421 313e
00000040: b806 ebbb d5bc 263e 3ea6 5c3e 2ba0 09b9
00000050: 2457 9039 0133 503e ad94 823c 949e 443e
00000060: 9e3a 163c 233b f73c e6ab 453e 9973 513e
00000070: 0f67 863e c21f 58bd 3f8e a2be cd24 983b
00000080: b2a1 5b3e 7666 a8bc 7139 393c 333f 503e
00000090: a95b ddbc a8d2 eb3b 2d66 c43d 63fc f2bb
000000a0: f84d b53c e6bb 28bc be86 2c3d 8fac 573e
000000b0: 972a 353e 673f a83a c2c6 db3c 4275 c4bc
000000c0: 368c 9d3b a9c1 cc3b a1c5 94bd 7194 413d
000000d0: 0aea 263d b247 88bc 7d65 853b 84b2 463b
000000e0: 2672 d0ba cf38 35bd 6740 de3b 0bc4 be3b
000000f0: 26b6 c53a 7a16 3c3c 06f3 eb3b 5d71 03bc
00000100: 315a c339 3904 febb 28dc 553e 64fe 873a
00000110: 9521 f63b a9d2 88bb 84c7 513e 213c 203b
00000120: 4d39 deb9 3edc 0e3d 00c9 b43c bfa8 61b9
00000130: 327a a6bb a4e7 663e 3ba8 49bd e1a7 13bd
00000140: c6e4 683e 3bb1 3b3c 0222 fcbc f22b 503e
00000150: 63b6 e23c 9266 1d3d 40c0 05bd bb00 5e3e
00000160: 7b2f 9d3a f4ca 10bd af5d d239 c766 93bb
00000170: 5c52 413d 3765 2fbd 655e 823c c24d 2c3e
00000180: 00d6 423c 4fcf 22bd 09e8 163d 0ce0 313b
00000190: 24e7 b33c c773 703d 03ba 3c3e 32bd 583c
000001a0: 1a56 0fbd 500b 47bd b296 16bd bbe3 5d39
000001b0: 2d79 bdbb 8d55 21bd e020 5b3e 042d 7abc
000001c0: ef55 02bd 65ec e23b 074b 75bb 1b43 7abb
000001d0: 3892 46bc 5043 553e 4a03 ccbc 79dc 31bd
000001e0: 104e 5cbc f1cb 51bd d6ea 16bd 1830 bb3b
000001f0: 8efa 6cbe d32b 74bd 505c 98bb 46c0 623e
00000200: f1d2 b0bb 9504 17bb f69b 023d 4c16 edbb
00000210: d9b0 47bb b78a 1fbd 692b c0bc 3fdd 8a3e
00000220: 7455 2ebd 1d79 09bb a29f 0f3c 9c54 4eb9
00000230: 57e7 c5bc ec0d f7bc a62a 13bd 9259 9a3c
00000240: 2ce0 b23b 8d3b 39bd ed3b c93d d85a 313e
00000250: 0364 12bc 3fd8 8b3c 98dd b93c e746 14bd
00000260: 93dd 0abb 87e1 633e 54a0 8cbe ec75 fe3a
00000270: c9f0 123c 8a18 c83b 54cd a23a 1274 13bd
00000280: a1d4 963c 27f6 47bd b538 c4bc 4f2c f83b
00000290: c8a1 203d 2b88 a43c 2c24 93bc 037f 523e
000002a0: dc6c 23ba 17bc 0b3b c440 ab39 5963 5b3e
000002b0: 2977 0a3d bb7c ed3d c716 473b bf1d 413e
000002c0: 5702 04be 8fec 83ba ed28 323b da86 28bd
000002d0: ce46 ab3c d757 6dbc f62a 063d fc1c 85be
000002e0: 77bb 36bd 2ccf f2bc 1ccb 5dbd fd2c cebc
000002f0: c3e3 4c3e a849 c4bb c33c 383e 512d da3c
00000300: b4c8 a0bc 82f9 533c d71d c7bc 6e2c 2ebd
00000310: eb95 543e ea66 5c3e c496 62bd 9813 26ba
00000320: d0b6 193d 4ed5 92bb 3cb1 673e 8eb1 4cbd
00000330: 30d7 3b39 08f7 043e 9041 16bc 84a7 533a
00000340: f56c 563e 7df1 a7bc 1467 593e 63c5 533b
00000350: 8747 a33b 3b8c 9cbc 5487 743e 5396 4d3e
00000360: 7751 483b 587f 593e 8726 703a 5c32 b4bc
00000370: 11db e3ba 224b 08bc 80f9 92bc a184 413e
00000380: 4e3d 4f3d 9fc2 193c ce51 663e 7428 393c
00000390: d50b 6f3e 087e 2b3e 9c4f f6bc ddd1 2a3b
000003a0: 022b 25bd 6a77 3ebe 31c6 253d ce61 feb9
000003b0: 5c26 593d 3ae6 d4bc d363 d7bc 45a7 9a3c
000003c0: 6419 febc 1c08 cb3c 9b6d f33d 168f 923c
000003d0: 904f f5bc 2229 f63c 406d e4ba ad0c f8bc
000003e0: fac3 11bc 85f6 ffbc fd2b d5bb befe 62bc
000003f0: c05f bcba 7136 ffbc 63b0 103c 4da9 383b
0.0044415244 0.21631834 0.0006766806 -0.00066917914 0.023016721 0.034378074 0.2747351 -0.019678658
-0.044567995 0.00508762 0.03261753 0.22037931 0.008009261 0.19867902 0.0075711147 0.17297989
-0.007172432 0.16282971 0.21547791 -0.00013125005 0.00027530745 0.20331956 0.015940035 0.19201118
0.009169249 0.030179566 0.19303855 0.20454253 0.26250502 -0.05276466 -0.3174915 0.004643059
0.214484 -0.02055667 0.011305199 0.20336609 -0.027021246 0.007196743 0.09589801 -0.0074153407
0.022131905 -0.010298705 0.042120688 0.2106192 0.17692028 0.0012836278 0.026828174 -0.023981694
0.004807974 0.006248672 -0.07264257 0.047260705 0.04075054 -0.01663575 0.0040709362 0.0030318806
-0.001590316 -0.04424363 0.0067825797 0.00582171 0.0015084192 0.011479968 0.0072006015 -0.008022633
0.00037260496 -0.007751968 0.20884764 0.0010375497 0.0075113275 -0.0041755033 0.20486265 0.0024449902
-0.00042385832 0.034878008 0.0220685 -0.00021520535 -0.005080485 0.22549301 -0.049232703 -0.036048774
0.2274352 0.011455829 -0.030777935 0.20329264 0.02767486 0.038427897 -0.032654047 0.21679966
0.00119923 -0.0353498 0.0004012412 -0.004498336 0.047197685 -0.042821135 0.015914151 0.16826537
0.011891842 -0.039748486 0.03684238 0.00271416 0.021960802 0.058704164 0.18430333 0.013228701
-0.034994222 -0.048594773 -0.036764808 0.00021161039 -0.0057822675 -0.03938823 0.2139926 -0.015269522
-0.031820234 0.006925153 -0.0037428753 -0.003818697 -0.012119822 0.20826459 -0.024903912 -0.04342315
-0.013446346 -0.051219884 -0.03684505 0.0057125203 -0.23142454 -0.059612107 -0.0046496764 0.22143659
-0.00539624 -0.0023043503 0.031887017 -0.007235324 -0.00304704 -0.03895065 -0.0234582 0.27121922
-0.042561963 -0.002097673 0.008766087 -0.0001967721 -0.024158163 -0.030158006 -0.035929345 0.018841539
0.0054588523 -0.045222808 0.09825883 0.1731981 -0.008934977 0.017070888 0.022688672 -0.03620043
-0.0021189197 0.22254 -0.2746607 0.0019413806 0.0089685405 0.006106441 0.0012420812 -0.035999365
0.018411936 -0.048818734 -0.023952821 0.0075736414 0.039216787 0.020084461 -0.017961584 0.20556264
-0.0006234178 0.0021321827 0.00032663916 0.21424617 0.033805046 0.11596056 0.0030378567 0.18859003
-0.12891518 -0.0010065007 0.0027185038 -0.04114423 0.020907786 -0.014486275 0.032755814 -0.25998676
-0.044612374 -0.029639803 -0.05414878 -0.025167936 0.20008759 -0.005990226 0.17991929 0.026632937
-0.019626953 0.012937905 -0.024306221 -0.04252284 0.20760314 0.21523634 -0.055319563 -0.0006335317
0.03752786 -0.0044809943 0.22626203 -0.049974017 0.00017913873 0.1298486 -0.009170905 0.0008073973
0.20940001 -0.020500893 0.21230727 0.0032313697 0.004982892 -0.019109836 0.23879749 0.20076875
0.0030566135 0.21239984 0.00091610145 -0.02199667 -0.0017384012 -0.008318694 -0.017941236 0.1889825
0.050595574 0.00938478 0.22492144 0.011301149 0.23344357 0.16747296 -0.030067258 0.002606503
-0.04032422 -0.1860024 0.040472213 -0.00048519525 0.053015098 -0.025988687 -0.026292717 0.018878588
-0.031017967 0.02478414 0.1188614 0.017890494 -0.029945165 0.03004891 -0.0017427579 -0.030279482
-0.008896822 -0.03124548 -0.006505488 -0.013854681 -0.0014371797 -0.03115389 0.008831116 0.0028177083
