youtube-ppo/tmp/ppo/ppo-critic.pth (torch, 271014 bytes, 5 tensors)

critic.0.weight f4 [256, 3]
0	0x3daab41f	0.083351366
1	0xbe3a2ce2	-0.18181184
2	0x3acc249c	0.0015574875
3	0xbf3ab18b	-0.7292716
4	0xbf6743a3	-0.9033758
5	0xbeb2b59a	-0.34904176
6	0xbf6435a5	-0.89144355
7	0xbf1649e7	-0.58706516
8	0xbec2e7d5	-0.380675
9	0x3da0fd6c	0.078608364
10	0x3e905df0	0.2819667
11	0x3eb722a3	0.35768613
12	0xbe81e0ed	-0.25366917
13	0x3f8776be	1.0583112
14	0x3edb5411	0.42837575
15	0xbf70d059	-0.94067913
16	0x3e5d53a6	0.2161394
17	0xbdedd5f7	-0.11613076
18	0x3f8bb045	1.0913168
19	0xbeacfefd	-0.3378829
20	0xbf0b664c	-0.5445297
21	0x3e304935	0.17215426
22	0x3ed83ff4	0.42236292
23	0xbe0e36dc	-0.13888115
24	0x3f40e843	0.75354403
25	0xbf7f1f99	-0.9965759
26	0x3e1a9ceb	0.15098922
27	0x3f25f679	0.6482921
28	0xbd99bb16	-0.07506387
29	0xbe2a7798	-0.16647184
30	0x3f760500	0.9610138
31	0x3f5f406b	0.8720767
32	0x3ec586dc	0.38579452
33	0x3f5620b4	0.8364365
34	0x3de7c49d	0.11316798
35	0xbe2ba74e	-0.1676304
36	0x3f5f221c	0.8716142
37	0x3f221aab	0.6332194
38	0x3ec4d797	0.38445732
39	0xbf2b148c	-0.6682823
40	0x3f2a6ea8	0.665751
41	0x3eb2bb1e	0.34908384
42	0xbf5e5c6e	-0.86859787
43	0xbf24185d	-0.64099675
44	0xbec09c1b	-0.376191
45	0xbf16aa6c	-0.58853793
46	0x3f367bda	0.7128273
47	0xbd94ea43	-0.072712444
48	0x3f434ce0	0.76289177
49	0xbd8bec9c	-0.06832239
50	0xbd85f860	-0.065415144
51	0xbfb57ad3	-1.4178108
52	0x3daee0dd	0.08538983
53	0xbef1f890	-0.4725995
54	0x3f82b8ab	1.0212606
55	0xbf63c48f	-0.889718
56	0xbece34e8	-0.4027474
57	0xbe955e25	-0.2917339
58	0x3f14a01e	0.5805682
59	0xbe17f1d2	-0.14838341
60	0xbe9a829d	-0.30177775
61	0xbf631d62	-0.8871671
62	0x3d829479	0.06375975
63	0x3e9ea73f	0.30986974
64	0x3f8f5c62	1.1200068
65	0x3eafa762	0.3430739
66	0x3e65fa5b	0.22458784
67	0xbf7831c3	-0.9695093
68	0xbd8daa6a	-0.069172695
69	0x3e167716	0.14693865
70	0x3f97bbf3	1.1854233
71	0x3ef625b1	0.4807563
72	0xbd832eeb	-0.06405433
73	0x3f8d0673	1.1017593
74	0xbe2b536a	-0.16731039
75	0xbf6c1dbc	-0.9223287
76	0xbee78289	-0.45216778
77	0xbc636b48	-0.013880558
78	0xbeb496f4	-0.35271418
79	0x3f93e04e	1.1552827
80	0x3ebea207	0.37232992
81	0xbf41c5ec	-0.7569263
82	0xbf9b8bd3	-1.2152046
83	0xbeec5fd8	-0.46166873
84	0xbec73742	-0.38909346
85	0xbf4b254a	-0.79353774
86	0x3d85df43	0.065367244
87	0x3eccd0ee	0.4000315
88	0x3e1eb313	0.15497999
89	0x3db58087	0.08862405
90	0xbf3d3626	-0.7391075
91	0xbf127e23	-0.5722372
92	0xbea58753	-0.32329807
93	0x3f007bc6	0.50188863
94	0xbeb278f3	-0.34857902
95	0xbe4de9a8	-0.20108664
96	0x3f8fbc84	1.1229405
97	0xbe1ecb47	-0.15507232
98	0xbef01956	-0.4689433
99	0xbea16de5	-0.31529155
100	0xbe2983bc	-0.16554159
101	0xbda1bfb7	-0.07897895
102	0x3edfdbae	0.4372229
103	0x3e474cea	0.19462934
104	0xbdf12411	-0.11774457
105	0x3e3c7013	0.18402128
106	0x3ea360f1	0.31909898
107	0x3dfcdd8e	0.12346946
108	0x3e338724	0.17532021
109	0xbf2d28bd	-0.67640287
110	0xbee35f46	-0.44408625
111	0x3f28de5b	0.6596429
112	0xbe5bd62f	-0.21468423
113	0x3e423eac	0.1896922
114	0x3fa5e4d2	1.2960455
115	0x3c9aa360	0.018876731
116	0x3e6c84f3	0.23097591
117	0xbd1ab12e	-0.037766628
118	0x3f88b391	1.0679799
119	0x3f0a15e2	0.5393964
120	0x3fb416db	1.4069475
121	0x3edf50ed	0.4361643
122	0xbe00d95e	-0.12582919
123	0x3f93b38d	1.153917
124	0x3f06391f	0.5243091
125	0xbd8bdbaa	-0.06829007
126	0x3f8a25d4	1.0792794
127	0x3ebeea68	0.37288213
128	0xbeb31f9e	-0.3498506
129	0x3c1de6c0	0.009637535
130	0x3f2e6112	0.6811687
131	0x3ea62c02	0.3245545
132	0x3f468fe3	0.77563304
133	0xbf50a1bb	-0.8149678
134	0x3cdc231e	0.026872214
135	0xbf1ea943	-0.6197702
136	0xbecf3252	-0.4046808
137	0xbc91b637	-0.017787082
138	0xbef86fad	-0.48522702
139	0x3f005873	0.5013496
140	0x3eefb61b	0.46818623
141	0xbe14b8cb	-0.14523618
142	0xbf94d366	-1.1627014
143	0xbde446f2	-0.11146344
144	0xbf03ac33	-0.5143463
145	0x3f1318fb	0.5745999
146	0x3e561254	0.20905429
147	0xbdb2cde4	-0.08730677
148	0xbe1117f0	-0.14169288
149	0x3e314c46	0.17314252
150	0x3f5741a7	0.8408455
151	0x3f02e7b9	0.5113483
152	0x3eb893a9	0.36050156
153	0x3f9aac82	1.2083895
154	0x3ef5dc2c	0.4801954
155	0x3c38929d	0.011265424
156	0xbf4beb50	-0.79655933
157	0x3eca8c15	0.3956
158	0x3ec134f3	0.3773571
159	0x3f351d64	0.7074797
160	0x3efcc78d	0.49370995
161	0x3ea083aa	0.31350452
162	0x3f1d5d31	0.61470324
163	0xbf17aee8	-0.5925126
164	0x3deebf25	0.11657552
165	0x3f3538a9	0.7078958
166	0xbc20a4b5	-0.009804894
167	0xbe39980d	-0.18124409
168	0x3f078032	0.52929986
169	0x3f80a31f	1.0049781
170	0x3ea673a2	0.32510096
171	0xbeaf7664	-0.34270012
172	0xbe9639b9	-0.29340914
173	0x3e05d9b7	0.13071333
174	0xbdfdfdac	-0.124019
175	0xbeca41ab	-0.39503226
176	0xbe6b230e	-0.22962591
177	0xbd3d41c3	-0.046205293
178	0xbfa4b3df	-1.2867392
179	0x3e097ec3	0.13427262
180	0x3ec29de7	0.38011095
181	0x3f0127d0	0.50451374
182	0xbb92dfb6	-0.004482235
183	0xbf2a0429	-0.664126
184	0x3f28fe23	0.6601278
185	0xbc039c71	-0.008032904
186	0xbd6e75ef	-0.05821794
187	0x3f561eef	0.8364095
188	0xbea26792	-0.31719643
189	0x3ecb18c4	0.39667332
190	0xbf40943c	-0.7522619
191	0xbcddc797	-0.02707271
192	0xbeac603d	-0.33667174
193	0x3f8ad9be	1.08477
194	0xbe2433b9	-0.16035356
195	0x3edc11bf	0.4298229
196	0xbd2ea408	-0.0426369
197	0x3db4a2ab	0.08820089
198	0x3fa3bfcb	1.2792906
199	0x3e297d26	0.16551647
200	0x3e6d5553	0.2317708
201	0xbe8c02c9	-0.27345875
202	0xbb1a838a	-0.0023576939
203	0x3e4a6089	0.19763388
204	0x3f8ae265	1.085034
205	0x3f191409	0.59796196
206	0xbe1765d2	-0.14784935
207	0xbea77b5d	-0.32711306
208	0x3f876a77	1.0579365
209	0x3e9741da	0.29542428
210	0xbf0be70d	-0.5464943
211	0xbf5830a1	-0.844492
212	0xbe49ff51	-0.19726302
213	0xbe296b8c	-0.16544932
214	0xbf8ca569	-1.0987979
215	0xbde603aa	-0.112311676
216	0x3eb969f0	0.36213636
217	0xbe75ef57	-0.24017082
218	0xbf18a79f	-0.5963077
219	0xbf477c72	-0.77924263
220	0xbf072b9c	-0.5280092
221	0xbeab92e7	-0.33510515
222	0x3fa14850	1.2600193
223	0x3e9cf667	0.3065674
224	0xbdcd83a6	-0.100348756
225	0xbe7b04ab	-0.245135
226	0x3e871759	0.26385
227	0x3d53b639	0.051687453
228	0xbf1720ac	-0.5903423
229	0xbec7bd85	-0.3901178
230	0xbe80ecdc	-0.2518071
231	0x3f2c7820	0.67370796
232	0x3f2c617b	0.67336243
233	0x3eabf898	0.335881
234	0xbedc8341	-0.4306889
235	0xbf7653a6	-0.9622139
236	0x3d2bfd31	0.04198951
237	0x3fa4bca0	1.2870064
238	0x3f1ef73d	0.62096006
239	0xbd78ef14	-0.060774878
240	0x3f8a20f0	1.0791302
241	0xbd17a82f	-0.037025627
242	0xbd8bf56b	-0.06833919
243	0x3f9bd18b	1.2173322
244	0x3e4d29db	0.20035498
245	0xbef70832	-0.4824844
246	0x3f188d30	0.59590435
247	0xbebfa165	-0.37427822
248	0x3e30525b	0.17218916
249	0xbf0b0581	-0.54305273
250	0xbeab6968	-0.33478856
251	0xbe4b831a	-0.1987423
252	0x3f95ae74	1.1693864
253	0x3e4b5dd1	0.19860007
254	0xbe85f6db	-0.26164898
255	0xbe37ff0a	-0.17968383

critic.0.bias f4 [256]
0	0xbe5a4a18	-0.21317327
1	0x3eeff696	0.46867818
2	0x3f637b00	0.8885956
3	0xbf4732a8	-0.7781167
4	0x3e7f2374	0.24915868
5	0xbd623537	-0.05522653
6	0xbe27a307	-0.16370784
7	0x3f145213	0.57937735
8	0xbf24ad15	-0.643266
9	0x3f7fc445	0.9990886
10	0xbf540682	-0.8282243
11	0x3f55e9f4	0.8356011
12	0xbf5e5c7c	-0.8685987
13	0x3f4c7c6b	0.79877347
14	0x3f587566	0.84554136
15	0x3f23aa51	0.6393176
16	0x3eba80c5	0.36426368
17	0x3e64a718	0.22329366
18	0xbd082b8e	-0.033244662
19	0x3f5f513e	0.8723334
20	0x3ec6ffb1	0.38866952
21	0xbd7e332b	-0.062060516
22	0xbe8b4e25	-0.27208057
23	0xbe06fdc7	-0.13182746
24	0xbc8cae03	-0.017172819
25	0x3ee908e9	0.4551461
26	0xbf34bcd6	-0.7060064
27	0x3eefd30b	0.468407
28	0x3ea64639	0.3247545
29	0x3f53b204	0.82693505
30	0x3f35a425	0.7095359
31	0x3eea2beb	0.45736632
32	0xbeacbb3b	-0.33736596
33	0x3ea07cca	0.31345206
34	0x3f866e33	1.050238
35	0x3f5af017	0.855226
36	0x3f2d782f	0.6776151
37	0x3f5afba2	0.8554021
38	0xbedb3580	-0.42814255
39	0xbc25dafd	-0.010123012
40	0x3ea6a7ed	0.32549992
41	0x3e5d392f	0.21603845
42	0x3e00f73a	0.1259431
43	0x3f0eaf88	0.5573659
44	0xbedabfba	-0.427244
45	0x3f0c2bec	0.5475452
46	0x3edbeab1	0.42952493
47	0x3dd64d98	0.104640186
48	0x3f03a584	0.5142443
49	0x3f63fe4a	0.8905989
50	0xbf5a090b	-0.8517005
51	0x3e903747	0.28167173
52	0x3f41fd3e	0.7577704
53	0xbf34be25	-0.7060264
54	0x3f5f8f9d	0.8732851
55	0x3f718eb3	0.94358367
56	0xbe8643c2	-0.2622357
57	0x3f21325e	0.6296748
58	0x3dd4df87	0.10394197
59	0x3e224564	0.15846783
60	0x3f053218	0.5202956
61	0xbede3e90	-0.43407106
62	0x3e3b65dc	0.18300575
63	0xbedfb3cd	-0.43691865
64	0x3e7370d0	0.23773503
65	0x3f415173	0.75514907
66	0xbef559c0	-0.47920036
67	0x3f821d1f	1.0165137
68	0x3ded0bbf	0.11574506
69	0xbf1e8594	-0.61922574
70	0x3ea4ceb6	0.32188958
71	0x3ea883f2	0.32913166
72	0x3f12f0c8	0.57398653
73	0x3f457b00	0.7714081
74	0x3ef1a1d8	0.4719379
75	0x3f2a604c	0.6655319
76	0x3f145c81	0.5795365
77	0xbfaa8aab	-1.3323568
78	0x3eda9aa9	0.4269612
79	0x3e36da3a	0.17856684
80	0x3f1ec91b	0.6202561
81	0xbe9e6a16	-0.30940312
82	0x3f73073b	0.9493291
83	0x3f6993dd	0.91241246
84	0x3ec7fd60	0.39060497
85	0x3e02f585	0.12788971
86	0x3f38f67b	0.722511
87	0x3c9f81dc	0.019471101
88	0x3ee66e4a	0.4500602
89	0x3f0bf175	0.5466531
90	0xbfa696a3	-1.3014721
91	0x3f70a196	0.9399656
92	0x3eae52de	0.34047598
93	0x3f53cd93	0.82735556
94	0xbf1f2f9d	-0.6218203
95	0x3f622216	0.8833326
96	0x3f1909e1	0.597807
97	0x3f5d8cc0	0.8654289
98	0xbf59a1ff	-0.8501281
99	0x3f82826d	1.0196053
100	0xbee67e43	-0.45018205
101	0x3f4aa8be	0.7916373
102	0x3f5a4aa1	0.85270125
103	0x3eb445c9	0.35209492
104	0xbe0c84b3	-0.13722496
105	0x3dcde943	0.10054257
106	0x3f16ef44	0.5895884
107	0x3ebfa89f	0.37433335
108	0xbe9ac9d5	-0.3023211
109	0x3f3c4072	0.73535836
110	0x3f3de914	0.74183774
111	0xbf03a600	-0.5142517
112	0x3f33a25c	0.70169616
113	0x3f3ed256	0.745397
114	0x3f1d85b9	0.6153217
115	0xbcfc80a7	-0.030823065
116	0x3f7b0162	0.98048985
117	0x3f3c8b1a	0.7364975
118	0x3f79d2e3	0.9758741
119	0x3ee3b7ea	0.44476253
120	0xbf63950a	-0.8889929
121	0xbee97c41	-0.4560261
122	0xbee491f0	-0.4464259
123	0x3de2385d	0.11045907
124	0x3f52f602	0.8240663
125	0x3f6a368c	0.9148948
126	0x3ecb0e64	0.39659417
127	0xbf860579	-1.047042
128	0x3f333168	0.6999726
129	0x3e0083ee	0.12550327
130	0xbd89c0c9	-0.06726224
131	0x3ed02818	0.4065559
132	0x3efd765f	0.49504372
133	0x3f7360d0	0.950696
134	0x3e9bce2d	0.30430737
135	0x3f7841a2	0.9697515
136	0x3f2929ca	0.6607939
137	0xbf19758e	-0.59945
138	0xbf722894	-0.9459317
139	0x3db87aca	0.09007795
140	0x3ebaff2e	0.36522812
141	0xbf161dbf	-0.5863914
142	0x3d2608fd	0.040535916
143	0xbf5e65c8	-0.86874056
144	0x3f4dfe41	0.80466086
145	0x3ecb4c42	0.39706618
146	0x3eb8e59d	0.3611268
147	0x3f37c6ac	0.71787524
148	0x3f5f307e	0.8718337
149	0x3de26e51	0.110561974
150	0xbf2e722f	-0.6814298
151	0x3f44d0fd	0.7688139
152	0xbf390103	-0.7226717
153	0x3f5b9919	0.85780483
154	0x3f1d5045	0.61450607
155	0x3e07a749	0.13247408
156	0x3f313fe5	0.6923812
157	0x3e4bd037	0.19903646
158	0x3e75a2bb	0.23987858
159	0x3f0e45fc	0.5557554
160	0x3f58d244	0.8469584
161	0x3e6493cf	0.2232201
162	0xbe7c2ab5	-0.24625666
163	0xbeded927	-0.4352505
164	0xbf396cad	-0.7243145
165	0x3f9b59f9	1.2136832
166	0x3f5ba81d	0.85803396
167	0x3f437e92	0.76365006
168	0x3dbc9840	0.09208727
169	0x3f5c342b	0.860171
170	0xbf6c64c3	-0.9234125
171	0x3e2700cd	0.16308899
172	0xbf07cdfa	-0.5304867
173	0x3f31fe7d	0.69528943
174	0x3f332f18	0.69993734
175	0xbeb7788f	-0.35834166
176	0x3f850faf	1.0395411
177	0xbe83765d	-0.25676242
178	0x3f4b2320	0.7935047
179	0x3f07071e	0.52745235
180	0xbf538f82	-0.8264085
181	0xbf511a49	-0.8168073
182	0x3f0b4206	0.5439762
183	0x3f99172b	1.1960195
184	0x3f3d7455	0.74005634
185	0x3f093961	0.5360318
186	0xbe6695ee	-0.22518131
187	0x3f02a09e	0.5102633
188	0x3f63e996	0.890283
189	0x3ee55355	0.4479014
190	0x3f8302d5	1.0235239
191	0x3f4eb917	0.80751175
192	0x3ef57c02	0.47946173
193	0x3eb759d3	0.35810718
194	0x3eb5f7a8	0.3554051
195	0xbf8eff0d	-1.1171585
196	0x3e2adcc6	0.16685781
197	0xbf27552d	-0.6536434
198	0xbeb162ce	-0.34645694
199	0x3ed06c27	0.40707514
200	0x3e920f36	0.2852723
201	0x3d48f8fd	0.04906558
202	0x3f3f3b55	0.7469991
203	0xbf37fbdd	-0.7186869
204	0x3f5092f9	0.8147426
205	0xbdc60aa8	-0.09670001
206	0xbf476c8e	-0.77900016
207	0x3f31add1	0.6940585
208	0xbedf2770	-0.43584776
209	0x3f4fba29	0.8114343
210	0xbdfcf921	-0.12352205
211	0x3f8f2ce6	1.1185577
212	0x3e7af562	0.24507669
213	0x3f19ddff	0.60104364
214	0x3f6d5979	0.9271465
215	0xbecd5f4a	-0.40111762
216	0x3f1bc1ec	0.60842776
217	0x3e906ec9	0.28209522
218	0xbf0f461c	-0.55966353
219	0x3f0072e5	0.50175315
220	0x3f19fd02	0.60151684
221	0x3eadbca5	0.33932987
222	0xbdf733c0	-0.120704174
223	0xbed5ef55	-0.41784158
224	0xbf2d4c60	-0.67694664
225	0x3ed602db	0.41799054
226	0x3f871af2	1.0555098
227	0x3f44fe83	0.76950854
228	0xbf254a42	-0.64566433
229	0x3ea9f2b8	0.33192992
230	0x3ea3d027	0.31994745
231	0x3eed3397	0.46328422
232	0xbeed5be6	-0.46359175
233	0xbdd72954	-0.105059296
234	0x3bb5ee29	0.0055520725
235	0x3f0cade9	0.54952866
236	0x3e1b7e59	0.15184917
237	0xbf10fdf4	-0.566375
238	0x3f260a76	0.6485971
239	0xbe1c32d3	-0.15253763
240	0x3f4c8f71	0.79906374
241	0x3f0bb1bf	0.54568094
242	0x3ec662c0	0.38747215
243	0x3f4b75a8	0.79476404
244	0x3ec90db2	0.3926826
245	0xbf51d606	-0.819672
246	0x3f34372c	0.70396686
247	0xbf693a1e	-0.91104305
248	0x3f3c45e5	0.7354415
249	0x3f84188a	1.0319989
250	0xbed20c65	-0.4102508
251	0x3d54c52b	0.051945847
252	0xbecc95c8	-0.39958024
253	0x3f6d6993	0.9273922
254	0x3efa4b58	0.48885608
255	0x3f24680c	0.6422126

critic.2.weight f4 [256, 256]
0	0x3c817cac	0.015806518
1	0xbcab7399	-0.020929145
2	0x3d280354	0.0410188
3	0x3ca03d24	0.019560404
4	0x3c4a5ed5	0.012351711
5	0x3c3054c1	0.010762394
6	0xbc8d9f06	-0.017287742
7	0x3d24e4ac	0.04025714
8	0xbd7b8552	-0.06140644
9	0xbb25b695	-0.002528583
10	0x3bf22180	0.0073892474
11	0x3b523597	0.00320754
12	0xbc8da590	-0.01729086
13	0x3c08fe78	0.008361451
14	0xbd87d8f4	-0.066331774
15	0xbd8ab683	-0.067730926
16	0xbd54cb59	-0.05195174
17	0xbd06fa4f	-0.032953557
18	0x3d5a3722	0.053275235
19	0x3d475e65	0.048674006
20	0xbc5edc90	-0.013602391
21	0x3d0a079a	0.033698656
22	0xbd2e2534	-0.04251595
23	0xbd09bcfa	-0.033627488
24	0x3cd68e41	0.026190879
25	0x3d52f938	0.051507205
26	0xbd65e803	-0.056129467
27	0xbd05bdc9	-0.032651696
28	0xbc6d405b	-0.014480676
29	0x3c9f1c04	0.019422539
30	0x3cad7b93	0.021177089
31	0x3cb4d1c4	0.02207268
32	0x3d44a66b	0.04801027
33	0x3abe7f40	0.0014533773
34	0xbd398762	-0.045295127
35	0xbce18be2	-0.027532522
36	0x3d440c4b	0.047863286
37	0xbc569c46	-0.013098782
38	0x3d651cf0	0.0559358
39	0x3baa74b0	0.0052018985
40	0x3cb3617b	0.021897068
41	0x3bb49310	0.0055106953
42	0x3d3efe8f	0.046629485
43	0xbc17d70f	-0.009267583
44	0xba8deac0	-0.0010827407
45	0xbd2cdb49	-0.042201314
46	0xbd49e07c	-0.04928635
47	0xbd3e3421	-0.046436433
48	0xbcef8935	-0.02924023
49	0x3d3c002c	0.0458986
50	0x3d104a46	0.035227083
51	0xbc795918	-0.0152189955
52	0xbd602c2f	-0.054729637
53	0xbd7daba8	-0.061931282
54	0x3d57fb6c	0.05273001
55	0x3ce20084	0.027588136
56	0x3b61361a	0.0034364522
57	0xbcb5c898	-0.022190377
58	0xbd2393aa	-0.039935745
59	0x3bf0e400	0.0073513985
60	0xbd048a62	-0.032358535
61	0x3d7f2fb2	0.062301345
62	0xbcfc9728	-0.030833796
63	0xbd4c4326	-0.049868725
64	0x3d32a99e	0.04361879
65	0x3cb84000	0.022491455
66	0x3d3ea78a	0.046546496
67	0x3c532fac	0.012889784
68	0xbd0a1f52	-0.033721276
69	0x3ce3d6f2	0.027812455
70	0xbc7ac228	-0.0153050795
71	0xbd446033	-0.047943305
72	0xbd893147	-0.06698852
73	0x3c36da46	0.011160439
74	0xbb452dc0	-0.0030087084
75	0x3d6308c2	0.055428274
76	0xbd704bd3	-0.05866606
77	0xbd4fda50	-0.05074531
78	0x3d3085a6	0.043096207
79	0xbd2c432a	-0.04205624
80	0x3d13a840	0.036049128
81	0xbd47d307	-0.048785236
82	0xbcda98d8	-0.02668421
83	0x3d000d65	0.031262774
84	0xbd383705	-0.044974346
85	0x3c94d86e	0.018169608
86	0xbb0d1b31	-0.00215311
87	0xbd5eac64	-0.054363623
88	0x3cf477ae	0.029842224
89	0x3d31a824	0.043373242
90	0xbcb40f20	-0.021979868
91	0xbd7eea7f	-0.06223535
92	0xbd6d343d	-0.057911146
93	0xbcd87ec3	-0.026427632
94	0xba1c2407	-0.0005956296
95	0xbce29d40	-0.027662873
96	0xbca75c2f	-0.020429699
97	0x3cbfd35d	0.023416216
98	0xbd289d04	-0.041165367
99	0x3d284f5e	0.041091315
100	0xbd5cc7ca	-0.05390147
101	0xbc824a71	-0.015904637
102	0xbc697644	-0.014249388
103	0x3c951eb0	0.01820311
104	0xbd33c608	-0.04389003
105	0xbd739a0e	-0.05947309
106	0xbccaa612	-0.024737392
107	0xbb94c3d6	-0.004539947
108	0xbd366f50	-0.04453975
109	0x3c5c33aa	0.013440052
110	0x3d670201	0.056398395
111	0x3ce23304	0.027612217
112	0xbd898927	-0.06715613
113	0xbd42af79	-0.047530625
114	0xbd4a5f06	-0.049407028
115	0x3d410d46	0.0471318
116	0x3d24000e	0.040039115
117	0xbd810177	-0.062991075
118	0x3d5fce92	0.05464036
119	0xbd595507	-0.053059604
120	0x3aadadc0	0.0013250634
121	0x3d4579b0	0.048211753
122	0x3cfd949b	0.03095465
123	0xbd771f16	-0.06033238
124	0xbd8800ae	-0.06640755
125	0x3d5c5567	0.053792384
126	0xbd7285e8	-0.059209734
127	0xbb89d020	-0.0042057186
128	0xbced2d6f	-0.028952328
129	0xbce85388	-0.028360143
130	0x3d74042a	0.059574284
131	0xbcff2d44	-0.031149514
132	0xbd371ee8	-0.04470721
133	0x3b512516	0.0031912974
134	0xbd32a314	-0.043612555
135	0x3d198e02	0.037488945
136	0xbcc3c16d	-0.023895944
137	0xbc41736c	-0.011807304
138	0xbc49cab0	-0.012316391
139	0x3d7d9318	0.061907858
140	0x3d6616a6	0.056173943
141	0x3bf10550	0.0073553696
142	0x3d3d32f8	0.046191186
143	0xbc8db65c	-0.01729887
144	0x3cf8d58c	0.030375265
145	0x3cf804a8	0.030275658
146	0xbc5eced2	-0.0135991145
147	0xbc420af8	-0.0118434355
148	0xbc9184b3	-0.017763471
149	0x3cfa49cd	0.03055277
150	0x3d3b6f5a	0.04576049
151	0xbc761b18	-0.015021108
152	0xbd201a12	-0.039087363
153	0xbd76b1fe	-0.06022834
154	0x3bcfd0c2	0.0063420245
155	0x3d1c7b0c	0.038203284
156	0xbd4451a6	-0.04792943
157	0xbcf284f8	-0.02960442
158	0x3c934eec	0.017981969
159	0xbb3b8ee7	-0.0028619112
160	0x3cd7597e	0.02628779
161	0xbd2b4d36	-0.04182168
162	0xbd1d6a3c	-0.03843139
163	0x3c97ea90	0.018544465
164	0xbce1e362	-0.027574245
165	0xbcf104d7	-0.029421253
166	0xbcbc2a5d	-0.02296942
167	0x3c668a9f	0.014071136
168	0xbd031a7f	-0.03200769
169	0x3c31ffd8	0.010864221
170	0xbccb0fe4	-0.02478785
171	0xbcb28ad2	-0.02179471
172	0x3d510722	0.051032193
173	0xbd03c139	-0.032166693
174	0xbc7ca604	-0.015420441
175	0x3c8a6dd8	0.01689808
176	0x3d45017d	0.048097122
177	0xbd7389c3	-0.05945755
178	0xbd8049c5	-0.062640704
179	0x3ca39999	0.019970702
180	0xbd5bfd14	-0.05370815
181	0x3aa2fe40	0.0012435392
182	0xbd3cebe6	-0.046123408
183	0xbd16edb6	-0.036847793
184	0xbd6ee538	-0.05832407
185	0x3ad27740	0.0016057268
186	0x3c79e400	0.015252113
187	0xbd02d3d9	-0.031940315
188	0x3d1fccf0	0.039013803
189	0xbd32fdec	-0.04369919
190	0x3d354155	0.04425176
191	0x3d0b59c4	0.034021154
192	0x3c483d7f	0.012221693
193	0xbd1daa52	-0.03849251
194	0x3c338eb0	0.010959312
195	0xbb3ef960	-0.0029140338
196	0x3cf652cc	0.030068778
197	0x3d2ce35e	0.04220902
198	0x3c772208	0.015083797
199	0xbcefda3f	-0.029278873
200	0x3d54d31c	0.051959142
201	0xbaa5d900	-0.0012653172
202	0xbd684e6f	-0.056715425
203	0x3d07f1ee	0.033189707
204	0x3cdf02b9	0.027222978
205	0xbd1ed356	-0.038775764
206	0xbb9e73e0	-0.0048355907
207	0x3c771c83	0.015082481
208	0x3d0960ac	0.03353946
209	0xbd152245	-0.036409635
210	0xbd85c0ea	-0.06530936
211	0x3c53d6c9	0.012929627
212	0xbd4a2c62	-0.049358733
213	0x3c969823	0.018383091
214	0x3ca37dc9	0.01995744
215	0xbd268b22	-0.04066003
216	0x3cd9888e	0.026554372
217	0x3cabd585	0.020975837
218	0xbd185864	-0.03719367
219	0xbd8146dc	-0.063123435
220	0xbd04e44b	-0.03244428
221	0xbd6106c6	-0.0549381
222	0xbc0f86d0	-0.008760169
223	0x3c638259	0.013886058
224	0xbcb485e7	-0.022036506
225	0x3c849886	0.01618601
226	0x3c580f22	0.013187202
227	0xbafbf2ba	-0.0019222118
228	0x3cef6712	0.029223952
229	0xbc038b80	-0.008028865
230	0x3ca9e2f5	0.020738104
231	0xbc7be820	-0.015375167
232	0xbcff5910	-0.031170398
233	0xbd069f26	-0.03286662
234	0x3caf2770	0.02138111
235	0x3c3b892f	0.011446281
236	0xbd10be45	-0.035337705
237	0x3d4c9ba4	0.049953118
238	0xbca784a1	-0.020448985
239	0x3c234a24	0.009966407
240	0x3c8ad484	0.016947038
241	0xbd7545fc	-0.059881195
242	0xbd563c12	-0.05230338
243	0x3d5b3529	0.053517494
244	0xbd417e98	-0.04723987
245	0xbcb9596c	-0.022625647
246	0x3b9dae49	0.004812036
247	0x3d374f32	0.04475326
248	0xbc919212	-0.017769847
249	0x3c92a1fc	0.017899506
250	0xbd34c59c	-0.044133767
251	0x3d152167	0.036408808
252	0x3c9f064a	0.019412179
253	0x3d365d73	0.044522714
254	0xbd5764c9	-0.05258635
255	0xbc76154c	-0.015019726

critic.2.bias f4 [256]
0	0xbd79d587	-0.06099465
1	0x3e97f7d5	0.29681268
2	0x3ec470b5	0.3836724
3	0xbcef60b0	-0.029220909
4	0x3ec83c7c	0.39108646
5	0x3eb36c8c	0.35043752
6	0x3d7055d9	0.05867562
7	0xbcef6fd6	-0.029228132
8	0xbcedc2fe	-0.029023644
9	0x3d1798ad	0.037010837
10	0xba34e336	-0.0006900312
11	0x3ecd6c40	0.4012165
12	0x3ea4fc2b	0.3222364
13	0x3ec47613	0.38371333
14	0xbc94d79a	-0.018169213
15	0x3eaa5eee	0.3327555
16	0x3e994c49	0.29941013
17	0x3ebb663e	0.36601442
18	0x3ea6a72e	0.32549423
19	0x3ea4809e	0.32129377
20	0xbd710b7f	-0.058848854
21	0xbe272c39	-0.16325463
22	0xbd0fc4b2	-0.035099693
23	0x3bbce976	0.0057651354
24	0xbce1c5b7	-0.027560098
25	0x3ea2306e	0.31677574
26	0x3c694267	0.014237023
27	0xbd81e8d2	-0.06343235
28	0x3e946f93	0.28991374
29	0x3c9dcb8c	0.019262098
30	0xbd80f54a	-0.06296785
31	0x3be94838	0.007119205
32	0x3d3a348b	0.045460265
33	0x3ec4c168	0.38428807
34	0xbd33ee72	-0.04392857
35	0x3e9a26f8	0.30107856
36	0xbd696ed3	-0.056990456
37	0x3ea66d38	0.32505202
38	0x3d635022	0.055496342
39	0xbd45eca1	-0.04832137
40	0x3ec631d9	0.38709906
41	0x3d3c7c25	0.04601683
42	0x3eccb04c	0.39978254
43	0x3ec371fd	0.38172904
44	0xbbc3066b	-0.005951693
45	0x3eb33715	0.35002962
46	0xbd5de3a8	-0.054172188
47	0x3ed84721	0.42241767
48	0x3caa8672	0.020816062
49	0x3c1140b5	0.008865525
50	0x3d1767fc	0.0369644
51	0x3c953e64	0.018218227
52	0xbd5ec155	-0.054383595
53	0x3c86997d	0.01643061
54	0x3e972d3e	0.29526705
55	0x3d32f172	0.04368729
56	0x3d25b8f1	0.040459577
57	0x3eb97075	0.3621861
58	0x3ea11eb2	0.3146873
59	0xbc004458	-0.007828794
60	0x3e9f5693	0.31120738
61	0x3d54ea7c	0.051981434
62	0x3ed1894f	0.4092507
63	0xbd840f08	-0.064481795
64	0x3ecf601f	0.40503022
65	0xbb63bf13	-0.003475134
66	0x3eafbf48	0.34325624
67	0x3eb2ef9e	0.34948438
68	0x3e9ca27e	0.30592722
69	0xbb7a8662	-0.003822707
70	0x3ec5bc9f	0.3862047
71	0x3c290a8c	0.010317456
72	0x3ec422e0	0.38307858
73	0xbd6aa525	-0.0572864
74	0x3ead372a	0.3383115
75	0xbd51be8c	-0.05120711
76	0x3e9bcd91	0.30430272
77	0x3e9efaa4	0.310506
78	0x3b0b1861	0.0021224248
79	0x3a496bfe	0.00076836336
80	0x3cc1becd	0.023650551
81	0x3e9b6bdd	0.3035573
82	0x3ea086c0	0.31352806
83	0xbc90eff4	-0.017692544
84	0x3ec88be3	0.39169225
85	0x3e9f2ad0	0.3108735
86	0x3ea70f0c	0.32628667
87	0x3ea6b3fd	0.32559195
88	0x3ec176dd	0.37785998
89	0x3cb677ea	0.022273976
90	0xbd31e5eb	-0.043432157
91	0x3cc31cf6	0.02381752
92	0x3ec56e3b	0.38560662
93	0xbe35eb51	-0.17765547
94	0x3c8e538c	0.017373823
95	0x3ea51b38	0.3224733
96	0xbc5c86c5	-0.013459866
97	0xbbd747d5	-0.0065698423
98	0x3eb49dc0	0.35276604
99	0xbd64caae	-0.055857353
100	0xbd260f94	-0.0405422
101	0x3ed3274b	0.41240916
102	0x3e999fdb	0.30004773
103	0x3ec9bece	0.39403385
104	0xbd1cc497	-0.03827342
105	0xbc8daea1	-0.017295184
106	0xbd576efc	-0.052596077
107	0xbce3c5e1	-0.027804317
108	0x3ea26734	0.31719363
109	0x3eb98d8d	0.36240807
110	0xbd11eb51	-0.035624806
111	0x3e8f70ac	0.2801565
112	0xbd84d4fc	-0.06485936
113	0x3ec09d19	0.37619856
114	0x3e9e6128	0.309335
115	0x3d1cad0c	0.038250968
116	0x3ea444fd	0.32083884
117	0x3eb14026	0.34619254
118	0x3ea0ff1f	0.31444642
119	0xbd299274	-0.041399434
120	0x3c840662	0.016116325
121	0xbc665c48	-0.0140600875
122	0x3e9b6b7b	0.3035544
123	0x39968ed3	0.00028716642
124	0xbd06ff25	-0.03295817
125	0x3ea9b568	0.33146214
126	0x3ea5e136	0.32398385
127	0x3e9bcc77	0.30429432
128	0x3e940397	0.2890899
129	0xbd95d118	-0.07315272
130	0x3ed6b86a	0.41937572
131	0xbb37033d	-0.0027925514
132	0xbd4f35f6	-0.05058857
133	0x3ea7c954	0.3277079
134	0x3c753770	0.014966831
135	0x3c491de8	0.012275197
136	0x3cf771e6	0.030205678
137	0xbd14dd0e	-0.036343627
138	0x3ed9d8b0	0.42548132
139	0x3ec8849a	0.39163667
140	0x3ea0e668	0.31425786
141	0x3eb2cb69	0.34920815
142	0x3ebb5d66	0.36594695
143	0x3ea32af1	0.318687
144	0xbd7e350c	-0.06206231
145	0x3e997092	0.29968697
146	0x3d24b179	0.040208314
147	0x3cfac46e	0.030611243
148	0x3ec95a65	0.39326778
149	0xbd8e1e4f	-0.06939375
150	0xbd8479e8	-0.06468564
151	0x3ec209c5	0.3789808
152	0xbc1d09ae	-0.009584827
153	0x3ea0b641	0.3138905
154	0xbd2556d7	-0.04036602
155	0x3f0389e1	0.5138226
156	0x3eab8514	0.33499968
157	0x3b3680e5	0.0027847823
158	0x3ec6cceb	0.38828215
159	0xbcd52e6d	-0.026023114
160	0xbc1efa51	-0.009703235
161	0xbd510426	-0.051029347
162	0x3ea2db6a	0.31808025
163	0xbd5eb192	-0.054368563
164	0xbc8fc843	-0.017551547
165	0x3ea1b5ff	0.31584165
166	0xbd6e398e	-0.058160357
167	0x3b60fba6	0.0034329682
168	0xbd969fd1	-0.07354701
169	0x3e929844	0.28631794
170	0xbd8f7d86	-0.070063636
171	0xbc4c3f87	-0.012466318
172	0x3c552eca	0.013011644
173	0x3ecf304a	0.4046653
174	0xbbf469cb	-0.0074589006
175	0x3ecdaf88	0.40172982
176	0xbc29f797	-0.010373971
177	0x3c8e3afe	0.017362114
178	0xbd3988d6	-0.045296513
179	0xbcf758e3	-0.030193752
180	0x3bb1f2bf	0.005430549
181	0xbd756e2f	-0.059919532
182	0xbcc30249	-0.0238048
183	0x3d0d3f1a	0.034484006
184	0xbd60d3c5	-0.05488946
185	0x3e9b4e8d	0.30333367
186	0x3ecb7785	0.39739624
187	0x3eb1a57b	0.34696564
188	0x3c4e3ed6	0.012588223
189	0x3eb86912	0.36017662
190	0x3c57b799	0.013166332
191	0xbd5695b8	-0.052388877
192	0x3ec57a55	0.38569894
193	0x3eb63681	0.35588458
194	0xbcc5aad1	-0.024129303
195	0x3ec7ba61	0.39009383
196	0x3b8724b9	0.0041242507
197	0x3ecbfcea	0.39841396
198	0x3d1ed1a5	0.03877415
199	0x3ea0ae9c	0.31383216
200	0x3d0e0091	0.03466851
201	0x3cf9ddbc	0.030501239
202	0xbcd55c38	-0.02604495
203	0x3ea10ce6	0.31455153
204	0x3d12191d	0.03566848
205	0x3cb5bfd1	0.022186192
206	0x3ec018b6	0.37518853
207	0xbc898675	-0.016787747
208	0xbbc10993	-0.005891034
209	0x3eb7e8c7	0.35919783
210	0x3ec123b2	0.37722546
211	0x3e9baa8c	0.30403554
212	0xbd88c6eb	-0.066785656
213	0x3ea529a3	0.3225833
214	0xbc68b687	-0.014203674
215	0x3d35608b	0.044281524
216	0x3e94e572	0.29081303
217	0x3eb0599d	0.3444337
218	0x3e92b0c9	0.286505
219	0xbd63933e	-0.055560343
220	0x3ee17eca	0.44042045
221	0x3eacacd0	0.33725595
222	0x3ec9c636	0.39409035
223	0x3ca71694	0.020396508
224	0x3ea20651	0.31645444
225	0x3eb2bf3a	0.3491152
226	0xbd1e04d8	-0.038578838
227	0x3ecfae00	0.4056244
228	0xbcc9990a	-0.024609108
229	0xbd148d80	-0.036267757
230	0x3ebda131	0.37037042
231	0x3ed5befb	0.4174727
232	0xbc9bfc7c	-0.019041292
233	0xbcca004b	-0.024658343
234	0xbe2041c6	-0.1565009
235	0x3e9742b0	0.29543066
236	0x3eacca5d	0.3374814
237	0x3ecbfcb8	0.39841247
238	0x3ebefa35	0.37300268
239	0x3eaf7088	0.34265542
240	0x3c66a47c	0.014077302
241	0x3eb27b08	0.3485949
242	0x3ea7ab1e	0.3274774
243	0x3eb80149	0.3593848
244	0x3edb2d87	0.42808172
245	0x3ed2da19	0.4118202
246	0x3eafae98	0.34312892
247	0x3ead8e8b	0.33897814
248	0x3e9c01b1	0.3047004
249	0x3eb7545a	0.35806543
250	0x3ec412be	0.3829555
251	0x3cbe1a5c	0.023205929
252	0xbd82fdd3	-0.063960694
253	0x3d521531	0.05128974
254	0x3eb1208c	0.34595144
255	0x3e9f812e	0.31153244

critic.4.weight f4 [1, 256]
0	0x3cb121b0	0.021622509
1	0xbe9262e3	-0.2859107
2	0xbea521bc	-0.322523
3	0xbdb78516	-0.08960931
4	0xbe8dc6a5	-0.27690616
5	0xbe87bd77	-0.26511738
6	0x3bca9748	0.006182585
7	0x3aa44cb5	0.0012535068
8	0x3bb0adb7	0.005391802
9	0x3c40385a	0.011732185
10	0x3b9d7c2e	0.004806063
11	0xbe9affc2	-0.30273253
12	0xbe9bb0d8	-0.3040836
13	0xbe8769ee	-0.26448005
14	0x3d56d848	0.052452356
15	0xbe8ac222	-0.27101237
16	0xbe9f3bb2	-0.3110023
17	0xbe84dafa	-0.25948316
18	0xbe9f0e49	-0.31065586
19	0xbe7936df	-0.24337338
20	0xbbaad731	-0.005213641
21	0x3fd23dea	1.6425145
22	0x3ca82d7e	0.020529505
23	0x3c7f7389	0.015591511
24	0x3cc9a535	0.02461491
25	0xbe94ea7c	-0.29085147
26	0x3d212a50	0.039346993
27	0x3b7a6fbd	0.0038213574
28	0xbe90f6fa	-0.28313428
29	0x3d5eccd4	0.054394558
30	0x3caf78b4	0.02141986
31	0x3d557827	0.05211654
32	0x3c972969	0.018452363
33	0xbe962553	-0.2932535
34	0xbb02ae43	-0.0019940294
35	0xbe98bb61	-0.2983046
36	0x3d4eefdb	0.050521713
37	0xbe9ff7c3	-0.31243715
38	0xba376180	-0.00069954246
39	0x3d626385	0.05527069
40	0xbea45681	-0.32097247
41	0x3cbf2042	0.023330811
42	0xbe98e8af	-0.29865023
43	0xbe8a35b4	-0.26994097
44	0xbb4e6602	-0.0031493907
45	0xbe838bc6	-0.25692576
46	0x3c74bc59	0.014937484
47	0xbe89c9c9	-0.26911762
48	0x3d181cc4	0.037136808
49	0x3d477fa8	0.048705727
50	0x3cf046e6	0.029330682
51	0xbd1a8d90	-0.03773266
52	0x3d3c5e1e	0.045988195
53	0x3bd7261d	0.0065658228
54	0xbe8da1ba	-0.2766245
55	0x3ba4fc3f	0.005034953
56	0x3c40d193	0.011768716
57	0xbe967448	-0.2938559
58	0xbe8b3f2d	-0.27196637
59	0x3b88d661	0.0041759466
60	0xbe9cd464	-0.3063079
61	0x3b55a052	0.003259678
62	0xbe9f1166	-0.3106796
63	0x3d5fe8a3	0.05466522
64	0xbe858257	-0.26076004
65	0x3d5657df	0.052329894
66	0xbe8c5008	-0.2740481
67	0xbe85f869	-0.26166084
68	0xbe8a1b7e	-0.269741
69	0x3ce34eb1	0.027747484
70	0xbe7d78e7	-0.24753152
71	0x3c2bca79	0.010485285
72	0xbe849383	-0.25893793
73	0xbbf3abfd	-0.007436274
74	0xbe98ebcc	-0.298674
75	0x3d142559	0.03616843
76	0xbe8e2804	-0.27764904
77	0xbe8f67b3	-0.28008804
78	0xbb1650d5	-0.0022936363
79	0x3ced4c35	0.028967002
80	0x3bb78140	0.0056001246
81	0xbeabf5b5	-0.33585897
82	0xbe95ef22	-0.29284006
83	0x3d9676c5	0.07346872
84	0xbe878adc	-0.2647313
85	0xbe9a46ff	-0.3013229
86	0xbe9fc29a	-0.31203157
87	0xbe9ad302	-0.3023911
88	0xbe9f2261	-0.31080917
89	0xbbba9bf6	-0.0056948615
90	0x3d56cc77	0.052441087
91	0x3cb86fc5	0.022514233
92	0xbe82a95d	-0.2551984
93	0x3fdca913	1.7239097
94	0x3d1982d6	0.03747829
95	0xbe9d236a	-0.3069108
96	0x3be8e1fb	0.007107017
97	0x3ce7c69c	0.028292947
98	0xbe9f4d8e	-0.31113857
99	0x3b301616	0.0026868633
100	0x3ba3d22c	0.0049994197
101	0xbe9d80fb	-0.30762467
102	0xbe8178ff	-0.25287625
103	0xbe818c64	-0.25302422
104	0x3d0aa2ee	0.033846788
105	0x3a017d90	0.000493967
106	0x3cca3380	0.02468276
107	0x3d3fe903	0.046853077
108	0xbe90903d	-0.28235045
109	0xbe845321	-0.25844672
110	0x3d35b096	0.04435786
111	0xbe7d61e5	-0.24744375
112	0x3c78c779	0.015184277
113	0xbea249ce	-0.31696934
114	0xbe97ed30	-0.29673147
115	0x3cbb6517	0.022875352
116	0xbe8ed360	-0.2789564
117	0xbe9f3265	-0.31093135
118	0xbe8ed478	-0.27896476
119	0x3c93fec4	0.018065818
120	0x3d1821b6	0.037141524
121	0xbc31c728	-0.010850705
122	0xbe9ddee7	-0.30834123
123	0x3d025e55	0.031828243
124	0x3cbc7810	0.023006469
125	0xbe8288d5	-0.2549502
126	0xbe9fc972	-0.31208378
127	0xbe958779	-0.2920492
128	0xbe90dc8d	-0.28293267
129	0x3c4491e8	0.011997677
130	0xbe800198	-0.25001216
131	0x3c86bc4f	0.016447214
132	0x3d60354f	0.05473834
133	0xbea4de7b	-0.3220099
134	0x3c5c2198	0.013435744
135	0x3ced42c3	0.028962499
136	0x3cdcd628	0.026957586
137	0x3b8de3a1	0.004330114
138	0xbe844cdc	-0.2583989
139	0xbe99c7ac	-0.3003515
140	0xbe7fd71e	-0.24984404
141	0xbe984ee4	-0.2974769
142	0xbe9accd2	-0.3023439
143	0xbe9363b7	-0.28787014
144	0x3d0c5d3b	0.0342686
145	0xbe8c5147	-0.2740576
146	0x3b679d77	0.003534166
147	0x3c31b547	0.010846443
148	0xbe923d2f	-0.28562304
149	0x3d03ee20	0.032209516
150	0x3cc80cd0	0.024420172
151	0xbea5b52f	-0.32364795
152	0xbc19a3f6	-0.00937747
153	0xbe83b587	-0.25724432
154	0x3cfc7222	0.030816142
155	0x3fe6f1c4	1.8042531
156	0xbe7dd034	-0.24786454
157	0x3b883f50	0.004157938
158	0xbe8b052b	-0.2715238
159	0x3d3a6ea6	0.04551568
160	0xbc0e76a6	-0.00869528
161	0x3a33f33d	0.00068645534
162	0xbe8d6c6c	-0.27621782
163	0x3cdba2b5	0.026810983
164	0x3d4ae4ad	0.04953449
165	0xbe966537	-0.29374096
166	0x3cefc867	0.029270364
167	0x3c1f858b	0.009736429
168	0x3baa3571	0.005194359
169	0xbe7bde1f	-0.24596451
170	0xbd14c191	-0.03631741
171	0x3c9e410c	0.019318126
172	0x3a026ae8	0.0004975037
173	0xbe9678d3	-0.29389057
174	0x3d0be929	0.034157906
175	0xbe9e388f	-0.30902526
176	0xbb075388	-0.0020649154
177	0x3d67d824	0.056602612
178	0xbd57b882	-0.052666195
179	0x3b2fd658	0.002683064
180	0x3d11516e	0.035478048
181	0x3d464289	0.048403297
182	0x3ccffe68	0.025389865
183	0x3caf660e	0.021410968
184	0x3d28eac2	0.041239507
185	0xbe93689e	-0.28790754
186	0xbea0919d	-0.31361094
187	0xbe792d8f	-0.24333785
188	0x3b041c06	0.0020158305
189	0xbe8fce0f	-0.28086898
190	0x3c1ab18e	0.009441746
191	0x3d5b4ac4	0.0535381
192	0xbe830248	-0.25587678
193	0xbe7dd16e	-0.24786922
194	0x3b813990	0.0039436296
195	0xbe80f77f	-0.25188825
196	0xbbe510d2	-0.0069905305
197	0xbe8a95b6	-0.27067345
198	0x3c175517	0.009236596
199	0xbea415da	-0.3204792
200	0x3c138d3e	0.009005843
201	0x3d4137a2	0.047172196
202	0xbc548288	-0.012970574
203	0xbe8ef748	-0.27923036
204	0x3c7dee11	0.015498654
205	0x3c9a5374	0.018838622
206	0xbe9c7b01	-0.30562595
207	0x3c8b6f39	0.017020809
208	0x3c00e13f	0.007866203
209	0xbe80abd5	-0.25131097
210	0xbe7f3987	-0.24924289
211	0xbe9bd430	-0.30435324
212	0x3d07f6a1	0.033194188
213	0xbe957c76	-0.2919652
214	0x3d3ab84c	0.045585915
215	0x3ce08e0a	0.02741148
216	0xbea18dd2	-0.31553513
217	0xbe9928b3	-0.29913864
218	0xbe977ef2	-0.2958904
219	0x3cdd45d8	0.027010843
220	0x404c6d28	3.1941624
221	0xbe87e71c	-0.2654351
222	0xbea489b7	-0.32136318
223	0xbcc7aad0	-0.024373442
224	0xbe94732c	-0.2899412
225	0xbe801c6a	-0.25021678
226	0x3d67744b	0.05650739
227	0xbe924e41	-0.28575328
228	0xba719796	-0.00092160085
229	0x3bdcc345	0.006737145
230	0xbea496a0	-0.32146168
231	0xbe87cd1a	-0.26523668
232	0x3d1d5c94	0.038418368
233	0xbe75551f	-0.23958252
234	0x3fdd2f66	1.728009
235	0xbe99f249	-0.3006766
236	0xbe8da46f	-0.27664515
237	0xbe8ef02f	-0.2791762
238	0xbe92562f	-0.28581378
239	0xbe853707	-0.26018545
240	0x3cab0796	0.02087764
241	0xbe93db2c	-0.28878152
242	0xbe85a1a5	-0.26099887
243	0xbe8f9731	-0.28045037
244	0xbe84b177	-0.25916645
245	0xbe8b6fc5	-0.2723371
246	0xbe8a9778	-0.27068686
247	0xbe83653f	-0.25663182
248	0xbe92fc30	-0.2870803
249	0xbe8d05cb	-0.27543482
250	0xbe9daf36	-0.30797738
251	0xbcbf6aa4	-0.02336628
252	0x3d570b7c	0.052501187
253	0x3cf46874	0.029834963
254	0xbe8cba80	-0.27486038
255	0xbe82095f	-0.25397775
