youtube-ppo/tmp/ppo/PPOActor.pth (torch, 270930 bytes, 5 tensors)

fc1.weight f4 [256, 3]
000000 0b 3e 3a be 25 09 ca 3e 0a ec a6 3c bf 0f 2d bf
       -0.1818773 0.39460102 0.020376224 -0.6760215
000010 6e 3e ae be 51 14 ea 3e cf cd 70 be ec 1e 9e 3e
       -0.34032005 0.45718625 -0.2351601 0.30882967
000020 9d 33 07 bf 74 c5 e1 bd 58 be 09 bf 25 c5 74 be
       -0.5281313 -0.11023989 -0.53806067 -0.2390333
000030 77 58 38 3e f9 b4 fb be 72 e4 d9 3e 1d 3c ae be
       0.18002497 -0.4916151 0.42557102 -0.34030238
000040 6b 3f 4d be 8b 84 16 bf f8 18 06 bf cc bb e4 3e
       -0.20043723 -0.58795995 -0.5238185 0.44674528
000050 60 84 a2 be 50 fa 75 bd b8 73 25 3f 3d 5a dd 3d
       -0.3174162 -0.06005317 0.646297 0.10808227
000060 58 6d c0 be 15 88 ff 3e c1 5f 0b 3e c4 f6 82 3e
       -0.37583423 0.4990851 0.13610746 0.25578892
000070 a8 be 6a bf 24 89 f0 bd 2c 4a b1 3e bf bc 33 bf
       -0.9169717 -0.117449075 0.346269 -0.7020988
000080 84 c9 71 3d 4e 3e f9 3e 24 fd a7 3e 2d ee 27 3e
       0.05903007 0.48680347 0.32810318 0.1639945
000090 66 78 27 3f 6a 9b 9d be ad e8 08 3e 3a 57 85 3d
       0.6541809 -0.30782634 0.13370009 0.06510778
0000a0 61 ed 1f be 04 19 a4 3e 5f ea 32 bf 22 96 8b 3e
       -0.15617897 0.32050335 -0.6988887 0.2726298
0000b0 6a 8e 9c bd 48 42 54 3f 70 37 18 bf 8a 91 01 bf
       -0.07644351 0.8291364 -0.5945959 -0.506127
0000c0 b8 dd fc be 11 d8 cc 3e 09 f8 ee 3b 9d 05 ee 3e
       -0.49387908 0.40008596 0.0072927517 0.46488658
0000d0 78 47 84 be 9a e9 d7 be dd 74 c1 3c 05 74 bc 3e
       -0.25835776 -0.4217041 0.023615295 0.36807266
0000e0 0a 00 1f be 91 c1 cc 3e 00 af 72 be c2 ae b9 3d
       -0.15527359 0.3999143 -0.2369957 0.090665355
0000f0 8b e2 89 be 6c 5d af 3e e4 3e b5 be 3d e6 2a be
       -0.2693065 0.34250963 -0.35399544 -0.16689391
000100 5d b0 ce 3e 97 45 94 3d b9 98 32 be 70 ac 59 be
       0.4036893 0.07239836 -0.17441072 -0.21257186
000110 d5 d6 d1 be 66 a8 5a bf 7c ac 60 3e 12 62 e5 3e
       -0.40984216 -0.85413206 0.21940798 0.44801384
000120 78 48 b5 be 3a 35 c4 3e 2d f2 31 bb 35 57 18 bf
       -0.35406852 0.3832186 -0.0027152405 -0.5950807
000130 ce 5b 14 be d3 ae aa 3e 03 b5 2e 3e e5 dd 0b bd
       -0.14488146 0.33336505 0.17061238 -0.034147162
000140 bf 56 77 3e 4f 8f aa bc 11 2d 9f 3c 65 f5 4b 3e
       0.24154185 -0.020820288 0.019430669 0.1991783
000150 80 57 01 be 8a 9a 4e be 14 9e 77 3e 78 e4 fe bd
       -0.12631035 -0.2017614 0.24181396 -0.12445921
000160 ab ac f1 3e 88 a9 f4 3d 53 29 e6 3d 11 d3 ba 3e
       0.47202048 0.11946398 0.11238351 0.36489156
000170 05 f2 3b 3e a1 85 a9 3e 6c 22 78 3e 59 4f 18 3e
       0.18354042 0.33109763 0.24231881 0.14874019
000180 1c 21 c4 3e 6c da 8c bd 2b 45 a7 be 32 31 83 be
       0.3830651 -0.06877598 -0.32669958 -0.2562347
000190 c8 27 1b 3e 95 57 c3 3e 9c ac 89 3e e9 53 a5 3e
       0.15151894 0.38152757 0.26889503 0.3229058
0001a0 2c 13 f2 3d 66 90 4a 3e fb 37 0d 3e 98 b6 7a be
       0.11820063 0.19781646 0.13790886 -0.24483716
0001b0 d6 ca b4 bd 03 51 a7 3e a3 e3 de 3d 68 35 0d bf
       -0.088277504 0.32678995 0.10883262 -0.55159616
0001c0 97 87 b9 be fa db c8 3e 54 81 cc 3e 92 62 05 bf
       -0.3623626 0.3923033 0.3994242 -0.5210353
0001d0 d4 b6 37 be 3a 0d 08 3f d6 a5 e5 3e d9 53 63 3e
       -0.17940837 0.5314518 0.44853085 0.22199954
0001e0 d9 b9 13 3f d2 51 75 be 66 67 48 3e 32 e9 36 3e
       0.57705456 -0.23956993 0.19570693 0.17862394
0001f0 e9 f3 cd 3d 98 9c 40 3e 86 c5 3f be 5d fc a6 3e
       0.10056288 0.18809736 -0.18727693 0.32614413
000200 15 66 13 be 5c bf 61 be a7 84 ae bc 8a c4 30 be
       -0.1439441 -0.22045654 -0.021303488 -0.17262474
000210 5e ad db 3e 99 3f 2d bf 43 a5 49 be c1 f3 83 be
       0.42905706 -0.6767517 -0.19691949 -0.25771907
000220 c8 cd 03 3f 27 32 20 be a3 09 f0 be 38 87 fc be
       0.5148587 -0.15644132 -0.46882352 -0.49321914
000230 17 f3 c9 3e 33 85 1b bf 88 b8 f1 bd cf 6f ca 3e
       0.39443275 -0.6075012 -0.11802775 0.39538428
000240 35 ac c2 3d 7c c6 fc be 50 05 6f bd f9 17 11 bf
       0.09505502 -0.49370182 -0.058354676 -0.56677204
000250 63 d9 02 bf ba 43 7c 3e 4c 8c 21 be 1e ef ac 3e
       -0.51112956 0.2463521 -0.15776175 0.33776182
000260 41 7f 10 3e 9f ca 14 bf 7f 46 2f be 33 a0 93 b9
       0.14111044 -0.58121675 -0.17116736 -0.00028157383
000270 c7 92 3a bd ed 67 c4 bd 98 d5 34 3e 7f 7e a4 bd
       -0.045550134 -0.09590135 0.17659605 -0.0803194
000280 ab 30 f0 bc 9b 90 24 3d ca a0 9b 3d 34 8f 10 bd
       -0.029320082 0.04017697 0.075990275 -0.03529282
000290 ef 35 a8 3e c9 c2 11 3f 62 e2 1e 3f 01 74 63 3e
       0.32853648 0.56937844 0.6206418 0.2221222
0002a0 a7 8b 89 be 9c e9 0a bc 28 a5 8d 3e 3a f2 da be
       -0.2686436 -0.008478548 0.27665067 -0.4276293
0002b0 a8 8d b0 be c4 8c 99 bd 0d 98 ac be 4a 81 f3 3e
       -0.34483075 -0.07497552 -0.33709756 0.47559577
0002c0 f4 04 e9 bb b1 00 ba be db b7 d0 be 17 50 4e 3d
       -0.007111186 -0.36328653 -0.4076527 0.05036935
0002d0 2d 82 dc 3e eb de e4 3e 93 71 26 3e 3c db 3e 3e
       0.43068066 0.44701323 0.16254263 0.18638319
0002e0 6d 38 34 3f 02 f7 9d be 68 6a 68 bf e8 fb 24 3f
       0.703986 -0.30852515 -0.90787363 0.6444688
0002f0 2c 26 14 3d 32 4f f0 be 84 7c 83 be cb f4 93 3e
       0.036169216 -0.4693542 -0.25680935 0.288977
000300 03 47 f2 be 98 59 80 3e 4c aa 28 3e 96 81 ce be
       -0.47319803 0.25068355 0.16471213 -0.4033324
000310 58 ee 1b bf c1 bb 19 be 6c ca 37 bf 22 a2 ec 3e
       -0.6091056 -0.15013029 -0.71793246 0.46217448
000320 0c 1b b6 bd e6 84 94 3a a1 ef 8b bd 48 d6 ad be
       -0.088918775 0.0011331111 -0.06832815 -0.33952546
000330 dd 8a 52 3e ab be 14 bf 0c 9b ba bd 8a 64 3c 3e
       0.20560785 -0.58103436 -0.09111604 0.18397728
000340 49 e8 82 bd 45 28 ed bd f7 dc 95 3d 1c 78 c5 3e
       -0.06391961 -0.115799464 0.07317536 0.385682
000350 60 cf f9 bd 09 bc 46 3f 79 01 2b bf 53 e9 96 3e
       -0.12197757 0.7763067 -0.6679912 0.29474887
000360 a4 ab 1d bf 86 cb 05 bf 64 e3 a9 3d de 45 1a bf
       -0.6159003 -0.5226368 0.082953244 -0.6026286
000370 8d d7 52 bd 36 5c 11 bf 1a 04 c0 3e a7 19 b2 3e
       -0.051475096 -0.5678133 0.3750313 0.34785196
000380 12 cc 7f be 0e 32 a8 3e 52 6d 12 bf 79 dc 36 be
       -0.2498019 0.3285069 -0.5719806 -0.17857541
000390 bd 04 ab 3e c2 9f 3d 3e d2 80 1d 3e d0 03 c6 3e
       0.33402053 0.18517974 0.15381172 0.38674784
0003a0 d0 21 5d 3e 62 60 94 3e ea c6 94 3e 5d 0d 1f 3f
       0.2159493 0.28979784 0.2905801 0.62129766
0003b0 65 54 b8 3e ad de d6 bd 93 c3 8a be a9 54 ea be
       0.36001888 -0.10491691 -0.27102336 -0.45767716
0003c0 3f bb 42 3e 6e 7d c9 3e 28 a7 9c 3e 7e 64 8c be
       0.19016741 0.39353508 0.3059628 -0.2742042
0003d0 d6 02 06 bf e3 f9 59 bd 3b a0 17 3f fd 49 93 be
       -0.5234808 -0.053216826 0.5922887 -0.28767386
0003e0 67 5d cb be 80 4c 63 be e8 5c f4 be dc ba d0 be
       -0.39719698 -0.22197151 -0.47727132 -0.40767562
0003f0 5b 8c 3f 3f ae c9 43 be da 6f 49 be e4 27 3c 3f
       0.7482354 -0.19119903 -0.19671574 0.7349837

fc1.bias f4 [256]
000000 37 8b 21 bf 62 07 f3 3d 60 72 cc bd 2e 9e d3 3e
       -0.6310305 0.118666425 -0.09982753 0.4133162
000010 0a 9c 9a be 93 d4 c6 be 96 17 08 3f b3 75 c6 3e
       -0.30197173 -0.38834056 0.5316099 0.38761672
000020 ab 94 f6 3e b9 77 eb 3c 4c 56 70 bd d9 35 b8 be
       0.481603 0.028743612 -0.05867605 -0.35978583
000030 42 8d 8a 3d d0 ef 05 bf 59 a3 85 3e ee 91 c0 be
       0.06765224 -0.5231905 0.26101187 -0.37611336
000040 98 03 09 3f df 18 4d be 1f bd 61 be 3a 39 e6 be
       0.5352111 -0.20029019 -0.220448 -0.44965535
000050 00 9a c2 3d 3d 77 d7 be 93 98 00 3f f7 3e 24 3e
       0.095020294 -0.4208316 0.5023281 0.16039644
000060 3d 0f b8 3e e3 de 14 3e 39 3d 23 bf 05 33 46 3e
       0.35949126 0.1453815 -0.63765293 0.193554
000070 7a 89 90 3e d5 84 fc be 62 75 3a bd 6b e5 aa bd
       0.28229886 -0.49320093 -0.0455221 -0.08344539
000080 c9 a9 b3 3e b5 1b 12 bf 12 21 e1 3e 21 07 dd 3e
       0.35090473 -0.5707353 0.43970543 0.431695
000090 f1 af 22 3f 8b 58 21 be 77 1f 67 3e 36 13 5b be
       0.63549715 -0.15756433 0.22570597 -0.21394047
0000a0 47 79 87 3e 92 6f ef be f8 c5 b7 3c 91 0c a1 bd
       0.26459715 -0.4676481 0.022433266 -0.07863725
0000b0 c8 52 c5 3e 58 8a 37 bf 75 1d 59 3e df ed 23 3e
       0.3853972 -0.7169547 0.21202643 0.1600871
0000c0 7e a1 fc 3e d9 82 61 3d 8e b1 39 bf 0e b7 ee 3e
       0.4934196 0.055056427 -0.7253655 0.46624035
0000d0 5d 85 a7 be b2 10 9e bb ee 4a ef be 4f 6c 85 bc
       -0.32718936 -0.0048237676 -0.46736854 -0.016286997
0000e0 61 4e 2a be 82 32 0a 3f f7 59 ef 3e 14 1c 30 3d
       -0.16631462 0.5398332 0.46748325 0.042995527
0000f0 1e c8 85 be 06 5c ea be 58 a9 8f 3e b1 cf e7 be
       -0.2612924 -0.45773333 0.28058887 -0.45275643
000100 5e 38 29 be 5b e3 28 3f 5d 3e 1b 3e 75 df 7c 3e
       -0.16525409 0.65971917 0.15160508 0.24694617
000110 85 c8 9f 3d 14 5b fc 3e 27 d9 c8 bd ff 3c 1b bf
       0.07801918 0.49288237 -0.098070435 -0.6063995
000120 40 c4 58 bd 8f 70 fd be a3 8f e5 be 6d f6 5c bd
       -0.052921534 -0.49499938 -0.4483615 -0.053945947
000130 e5 c3 64 be 9a ad a4 be a4 02 e4 ba 11 7b df 3e
       -0.22340353 -0.32163697 -0.0017395806 0.4364858
000140 3c 5f 03 be f3 a8 be 3e a6 4a 9e 3e 51 8d 7d be
       -0.12829298 0.37238273 0.30916327 -0.24760939
000150 71 47 c9 3b 7e a5 2e bc c2 f6 f3 be 73 c5 02 3f
       0.0061425497 -0.010659574 -0.476492 0.51082534
000160 db 84 54 3e e6 92 73 3e 86 e5 88 be 7e ee 3d be
       0.20753805 0.23786506 -0.26737612 -0.18548009
000170 5c ca cc 3e 4d f1 36 bf ab 99 1e 3f ea b8 17 3e
       0.39998138 -0.71461946 0.6195323 0.14816633
000180 6e 1c b6 3e f1 ec 35 be f0 e9 ae bd cd d1 c8 3e
       0.35568565 -0.17766167 -0.08540714 0.39222565
000190 e4 43 2e be f3 bf f5 3e 26 7d 24 3e 42 c6 96 be
       -0.17018086 0.47998008 0.16063365 -0.29448134
0001a0 f9 a4 b5 bc 31 93 e1 be 03 55 9f be 46 8f 11 bf
       -0.022173392 -0.4405761 -0.31119546 -0.5685924
0001b0 57 33 ef be 94 77 08 bf e6 89 06 be 7f e4 99 be
       -0.46718857 -0.5330746 -0.13138542 -0.3005714
0001c0 d1 73 93 be 65 c4 18 3e 72 b5 e3 be ff c0 a0 be
       -0.28799298 0.14918669 -0.4447437 -0.31397244
0001d0 a4 cb 1d be 67 28 04 3f d2 7a 17 be 03 ad cb 3e
       -0.15409714 0.5162415 -0.14792946 0.39780435
0001e0 84 f9 1b bf 0a cd 6c be 4d 6d 86 3d b6 4c 2c bf
       -0.60927606 -0.23125091 0.06563816 -0.6730455
0001f0 d4 1a ab be f3 8e 22 3f 7e 91 d7 3e 34 0e 9c 3e
       -0.33418906 0.63499373 0.4210319 0.30479586
000200 20 47 04 bd 07 11 0e 3f b5 2d a4 3e fd 99 70 3e
       -0.032294393 0.5549473 0.32066122 0.23496242
000210 eb c7 d7 3e 3e ad 88 be 6e 04 83 3e a1 27 57 3e
       0.42144713 -0.26694673 0.25589317 0.21011211
000220 9b 07 34 3f e7 ab b5 be c6 88 f5 3d a9 87 35 be
       0.70324105 -0.35482714 0.11988978 -0.17727531
000230 4e 62 75 3e d7 87 9d 3e 6d 44 08 3f c0 5c 0c 3d
       0.23963282 0.307677 0.5322941 0.03426814
000240 d3 98 91 bd 0c 52 70 bd 02 ee 6d be 1a 8a ba be
       -0.07109227 -0.058671996 -0.23235324 -0.36433488
000250 5e 47 2d 3e 67 c1 95 3e 4f 8f df 3e 4c 2e 1d bf
       0.16921756 0.29249117 0.43664023 -0.6139877
000260 9e 59 68 be 80 9d 1f be 02 91 07 bd 30 7c 97 3e
       -0.22690436 -0.15587425 -0.033097275 0.29586935
000270 30 92 d1 be 1d d2 9a 3d 50 67 6f 3c 1d cd e9 3e
       -0.40931845 0.07559607 0.014612034 0.45664302
000280 66 bf 07 bf d9 6c 8e be cf 99 ab 3a d3 99 e3 3d
       -0.53026426 -0.2781742 0.0013092103 0.11113324
000290 77 a1 19 be da db 06 3c 25 3d b7 bd 3a cb 8f 3e
       -0.15003 0.008231128 -0.08947209 0.28084737
0002a0 a3 f1 73 be 4a 9c bf be 63 dc 15 3f 5c bb 55 be
       -0.23822646 -0.37423927 0.5853941 -0.20872253
0002b0 f3 ee 80 3c d3 04 32 be 7e 1a 0c 3f cf 2b 73 3e
       0.01573894 -0.17384653 0.54727924 0.2374718
0002c0 92 fd 38 be d5 9e 64 3e b0 d0 88 be a2 a1 f1 3d
       -0.1806548 0.22326215 -0.26721716 0.11798407
0002d0 0c 36 34 3e ba b0 05 3f 7f 03 93 be f8 2a dd 3e
       0.17598742 0.5222279 -0.28713605 0.43196845
0002e0 30 64 b0 3e ba df 01 bf 84 d0 1d be 57 29 72 3e
       0.34451437 -0.50732005 -0.15411574 0.23648582
0002f0 bd c5 17 bf b5 07 14 3d 70 2f f7 be 6a 42 f1 be
       -0.592861 0.036140162 -0.4827838 -0.47120982
000300 7d 40 bb be 43 c0 40 bf 23 d8 38 be d9 58 c9 be
       -0.36572638 -0.7529337 -0.180512 -0.39325598
000310 5d a6 10 bf 40 05 e4 be de cf 3a 3e 4f cd 0e be
       -0.5650385 -0.44535255 0.18243358 -0.13945507
000320 f0 ad c0 3e ab 27 11 3e cf 5c 3a 3d 3a ca 0d bf
       0.37632704 0.14175288 0.045498665 -0.553867
000330 20 c6 18 3f ee 39 0c bf c5 2b 58 bd 78 08 c0 bd
       0.59677315 -0.54775894 -0.052776117 -0.09376615
000340 8c de 3f be db 34 17 bf 03 61 eb 3e d2 95 fd 3e
       -0.18737239 -0.59065026 0.45972452 0.49528366
000350 8e 4f c6 be 79 ba 4c 3e fe b0 0b bf c2 95 0a bf
       -0.3873257 0.19993009 -0.54566944 -0.5413476
000360 82 7c 9f 3e 15 16 34 be 89 f2 0b bf 7c 4c 18 bf
       0.3114968 -0.17586549 -0.54666954 -0.59491706
000370 8d 32 7b 3e ce a5 c6 3e 59 2c 35 be 92 37 c7 be
       0.24531002 0.38798374 -0.17692699 -0.38909584
000380 0b 38 a6 bd 07 e5 bd be 5b 63 9f be ca 11 17 bf
       -0.08116158 -0.37088796 -0.3113049 -0.5901152
000390 30 b7 84 3e 0d a6 85 be a1 91 05 be 52 3d e4 3e
       0.2592101 -0.2610325 -0.13043834 0.44578034
0003a0 e8 48 55 be 75 9f 57 be 6d 38 67 3e c1 02 1a 3f
       -0.20828593 -0.21056922 0.22580118 0.6016045
0003b0 3a 62 f4 3e 21 19 13 3f 21 b3 95 be 76 8c 81 be
       0.4773119 0.5746022 -0.29238227 -0.25302476
0003c0 51 17 04 bf a2 ea 84 3d ab 3f 58 3e 2a 7e f6 3e
       -0.5159808 0.06490065 0.21118037 0.4814313
0003d0 59 01 f9 be 7b 86 42 be f9 b7 ae bc fc ea 23 bf
       -0.4863384 -0.18996613 -0.02132796 -0.6403043
0003e0 3d 6f 1e 3e 92 21 c3 bd 4a fc 6f 3d 27 90 05 be
       0.15472122 -0.095278874 0.05859021 -0.13043271
0003f0 74 87 a3 be 13 04 21 3f dc 80 16 3f 9e 44 c1 3d
       -0.3193928 0.6289684 0.58790374 0.09436916

fc2.weight f4 [256, 256]
000000 ba 1b 45 3d 7f 72 93 3c be 22 2a 3d 32 bd 67 3d
       0.048122145 0.017998932 0.04153704 0.056576915
000010 b1 36 76 bd 86 e8 12 3b 46 90 fd 3c 9f e0 17 3d
       -0.06011075 0.0022416427 0.030952584 0.03707945
000020 18 04 27 3d 5f 7b 85 bd 5a 45 4d bd a0 b8 7d 3c
       0.04077539 -0.06517672 -0.050114967 0.015485913
000030 b3 6b a5 bd da 27 35 3d 2d dc 65 3c d2 ab 0b bd
       -0.080771826 0.04422746 0.014029545 -0.034099407
000040 5c 90 30 3d 7f ca be 3a 4e af 56 bd b8 36 c1 bc
       0.04310642 0.0014556198 -0.052413277 -0.023585662
000050 19 00 31 bd 1e 3b 05 bc f4 85 92 3c 42 46 08 3a
       -0.043212984 -0.00813177 0.01788614 0.00051984575
000060 38 87 18 bd a5 a4 01 3d d5 7d 61 b9 05 5c 8e 3c
       -0.03723833 0.031651158 -0.00021504548 0.017377863
000070 70 fe 8b bc 08 88 ba bd c5 8d af bc 0b bc 15 bd
       -0.017089099 -0.09107977 -0.021429906 -0.036556285
000080 18 ac aa bd 31 eb 89 bd dc 44 50 3d 39 69 d9 3c
       -0.083336055 -0.06734312 0.05084692 0.026539432
000090 9e cc 84 bd ff 8b 33 bd 35 ed 88 bc 5a e5 53 3c
       -0.0648434 -0.043834683 -0.016714672 0.0129331
0000a0 be f4 09 3c 8c d3 2a bd c3 89 e0 bc 98 a6 29 bd
       0.0084201675 -0.041705653 -0.02740944 -0.04141864
0000b0 e3 4a 40 bd 42 66 57 3c 87 38 23 bd b7 61 a1 39
       -0.046946418 0.013146939 -0.03984883 0.00030781116
0000c0 97 77 8c bd 43 cc e5 3c 9e 2a 66 3c 82 24 18 3d
       -0.068587475 0.028051501 0.014048247 0.03714419
0000d0 02 74 89 3c b3 2e 5c bd 0a 53 8e bc f8 7c fc bc
       0.01677895 -0.053755473 -0.01737358 -0.030821308
0000e0 18 e1 3d 3c 18 c5 d4 3c 6e a3 32 bd 17 79 65 bd
       0.011589311 0.025972888 -0.04361289 -0.056023683
0000f0 ad bd c0 ba 1b 86 e9 3c 78 c7 da bc 93 30 42 3d
       -0.0014704965 0.02850633 -0.026706442 0.047409605
000100 91 b0 40 bd 45 88 4e 3d f7 4b 09 3d 87 5d 19 3d
       -0.047043387 0.050422926 0.03351971 0.03744271
000110 03 02 a3 3c 8b c6 01 3b 7b 0b e8 3c 11 d2 bd 3b
       0.01989842 0.0019802179 0.028325787 0.005792864
000120 db c9 12 bd 25 55 bb bd c6 41 6d bd 4c 7b 47 bd
       -0.035837036 -0.091470994 -0.057924055 -0.04870157
000130 07 ed d9 3c d3 da 1e 3d fe d5 92 bc 56 25 df bb
       0.026602281 0.038782906 -0.017924305 -0.0068098707
000140 14 f3 19 3d a9 a4 8b 3b dd 56 a2 b9 ce c2 8b bd
       0.037585333 0.0042615724 -0.00030963766 -0.068242654
000150 41 cd bf 3c 28 73 cb bc a9 c9 19 3c 3b 8d 1c bd
       0.023413302 -0.024835184 0.009386458 -0.038220625
000160 de 5d 31 bd b1 2c ba 3c fc c5 dc bc fe c3 01 3c
       -0.04330241 0.022726389 -0.026949875 0.007920263
000170 ab 05 da 3c f8 e9 21 3c 58 dd 35 bc e1 53 24 3d
       0.02661403 0.009882443 -0.011100136 0.040119056
000180 37 6e 88 bd 4d c3 62 bd 25 0c 34 3d 1e 3c 46 3d
       -0.06661647 -0.055362035 0.043956894 0.048397176
000190 95 5e 8d bd f6 ca ce 3b 84 fe ff bb a5 d0 98 bd
       -0.06902806 0.006310816 -0.007812323 -0.07461671
0001a0 5f 42 c0 bc aa c1 06 bd 42 bf 0b 3d 5e a2 5b bd
       -0.023469148 -0.032899536 0.034117945 -0.053621642
0001b0 c6 5a 5c bd 0f 9d f9 bb a7 b3 50 bd f9 6f 0b 3d
       -0.053797506 -0.0076176 -0.05095258 0.034042332
0001c0 2d 53 a2 3c 88 ca c4 bd 8e c6 fa 3c e2 a8 f2 bc
       0.019815052 -0.09608942 0.030612256 -0.029621545
0001d0 ca d6 54 bd 18 8f 9b 3c ba 87 15 bd ca 9f 3d bd
       -0.05196265 0.01898913 -0.036506392 -0.046294965
0001e0 cf bc 9d bc be 70 ac 3b 9a 82 d9 bc d0 26 f8 bb
       -0.01925507 0.0052624634 -0.026551533 -0.007572986
0001f0 52 93 25 bd 97 62 77 bc 58 68 17 bd b4 47 aa bd
       -0.0404237 -0.015099189 -0.036964744 -0.083144575
000200 42 79 ae bc 69 8a 72 bd d6 5a 34 bd 02 2f 3a 3c
       -0.021298055 -0.05921403 -0.04403194 0.011363747
000210 c4 16 24 39 fa c4 b0 bd ff 2c 85 bd b1 7f 7c 3b
       0.0001564874 -0.0863132 -0.06502723 0.0038528258
000220 10 72 24 ba f2 17 7c 3d 01 51 7f bd 98 c4 97 3c
       -0.00062731 0.061546274 -0.06233311 0.01852636
000230 12 76 55 bd e1 a7 b6 bd e6 9f 38 bd 14 08 18 bd
       -0.052114554 -0.08918739 -0.045074366 -0.03711708
000240 68 8b 85 bc f8 dd 61 bd 2f 18 2b bd e0 a2 14 3d
       -0.016301826 -0.055143327 -0.04177111 0.036288142
000250 ef d0 04 bd 28 7c 10 3d 85 08 98 bd d8 bf bb 3c
       -0.032425817 0.035274655 -0.074235 0.022918627
000260 61 2a 38 bc ac 88 b3 bb 4f f8 42 bd 4a e5 e6 bd
       -0.011240573 -0.005478939 -0.047600087 -0.11274202
000270 a8 94 a7 bc 4f 76 47 3d 7c 7f c9 bc cd 1d b2 bd
       -0.020456627 0.048696812 -0.024596922 -0.0869709
000280 78 28 d1 bc 34 28 d1 bc bc 0f a1 3c c3 54 03 bd
       -0.025531992 -0.025531866 0.019660823 -0.032063257
000290 37 38 a5 3c bc f6 af bd 79 be f0 bc 28 3b 54 3c
       0.020168407 -0.08591983 -0.0293877 0.012953557
0002a0 dd 2c 3b bd 14 22 fe bc 16 97 80 bc 20 e3 37 bd
       -0.04569708 -0.03102211 -0.015697043 -0.044894338
0002b0 e4 8b 0c 3b 00 17 50 bc 3d 10 96 bc 53 1e 34 3d
       0.0021445686 -0.012700796 -0.01831829 0.043974232
0002c0 73 f1 37 3d f2 38 c9 bd df b2 90 bd 40 4f 07 bd
       0.044908 -0.098253146 -0.07065367 -0.033034563
0002d0 d2 bf 11 3d d9 d5 8a bd cb a8 03 3c b8 61 f5 3c
       0.035583325 -0.067790695 0.008035849 0.029953822
0002e0 1c f1 22 bc 13 c1 e5 3c 4b 79 9a bc 93 e6 bc 3c
       -0.00994518 0.028046167 -0.018856665 0.023059165
0002f0 be d1 52 bd 70 af 5b 3d 30 25 41 bd bb b3 90 bd
       -0.051469557 0.053634107 -0.047154605 -0.07065531
000300 10 9a d5 bc 0b c8 00 3d c8 5a 18 bb 75 ea 40 3d
       -0.02607444 0.031440776 -0.002324747 0.047098596
000310 fc 01 a2 bc ef c3 a2 bd 15 c2 44 3c 0c ee 05 bc
       -0.019776337 -0.079475276 0.012009163 -0.008174431
000320 8c 52 a6 bc e2 90 69 bd 71 01 70 bd 58 32 44 3d
       -0.020303033 -0.057022937 -0.058595125 0.047899574
000330 7f 84 00 bc b0 56 17 bc 9a c6 8e bc ad 28 8d 3d
       -0.0078440895 -0.0092369765 -0.017428685 0.06892524
000340 55 78 a5 bb e8 e8 43 bd fe 9a 8e 3c ee 0e 95 bd
       -0.005049745 -0.04782954 0.01740789 -0.07278238
000350 b0 be 97 ba cd df b3 bc 1e 3d f1 3c 45 a9 24 3b
       -0.0011577215 -0.021957302 0.029448088 0.0025125307
000360 ac ea 50 bd 49 14 99 bb 30 f9 84 bd c8 fb 62 3c
       -0.05100505 -0.0046716076 -0.06492841 0.013853975
000370 dd 23 30 3d d4 80 64 bd 6c 13 fe 3c 1b e2 14 bd
       0.043002952 -0.055786923 0.03101512 -0.036348443
000380 26 fa 1e bd 37 4b 8d bd 5a 80 05 3c 9d e3 50 3c
       -0.03881278 -0.06899112 0.008148277 0.01274958
000390 06 44 6f bd 81 46 7b 3a fa 29 0a 3b 04 f6 a1 39
       -0.05841448 0.0009585396 0.002108215 0.0003089161
0003a0 38 cc a8 bc ea 90 a9 bd f4 c8 e1 bc ce 3b f7 ba
       -0.020605192 -0.08279593 -0.027561642 -0.0018862428
0003b0 7b 5b 27 bc af 90 c1 3b 0d 22 11 3d 47 74 64 bc
       -0.010214682 0.00590714 0.035432864 -0.013943738
0003c0 82 b9 6a bd 31 e0 77 bd 8b f8 1c bd d6 5f 1a bd
       -0.05730582 -0.06051654 -0.038322967 -0.037689053
0003d0 61 a0 02 bd a8 c7 d6 3c 04 c7 7c bc 08 62 77 bd
       -0.03189123 0.02621825 -0.015428308 -0.060396224
0003e0 7e e7 ce bc b4 76 d8 3c 9b d2 7d 3d 9f 60 64 bd
       -0.025256868 0.02642379 0.061968427 -0.055756208
0003f0 e6 02 0e 3d 01 64 4e bd 7a 2e 5b bd ae d6 88 3c
       0.034670733 -0.05038834 -0.05351112 0.01670393

fc2.bias f4 [256]
000000 25 12 d9 bc 0c 44 e2 bc 4c 62 8e 3c c6 0a 08 3e
       -0.02649791 -0.027620338 0.017380856 0.1328536
000010 d5 bc 22 bd 3b f2 2b bd f1 72 22 bd bd 22 c3 ba
       -0.039730866 -0.041979056 -0.039660398 -0.0014887672
000020 be a1 11 3d 6d 00 68 3d e7 5b a4 3b 08 f0 41 bd
       0.03555464 0.05664103 0.0050158384 -0.047348052
000030 f6 40 5a bd 5a f3 5e bd 71 e7 11 bd 5e 8e a5 bd
       -0.053284608 -0.054431297 -0.03562111 -0.08083795
000040 80 4b 71 bd 61 9b fa bc cc d1 7e bb 49 95 02 ba
       -0.058909893 -0.030591669 -0.0038882373 -0.00049813517
000050 57 d5 da bb 8e 03 07 3e 27 1d 03 be 9f 85 1c 3d
       -0.006678264 0.1318495 -0.1280409 0.03821337
000060 9d eb fa 3c d2 17 5f bd 55 c2 27 bd 1a ff 34 bd
       0.030629927 -0.054466076 -0.040956814 -0.044188596
000070 1d 59 93 3c cd 96 ae bd 7c 08 a3 3c ef 22 9a 3c
       0.017986828 -0.08524857 0.019901507 0.018815486
000080 7a 51 84 bd c2 3e b2 bd 75 e1 1c 3e c7 7e d6 bd
       -0.06460853 -0.08703376 0.1532038 -0.104733996
000090 32 32 ce 3c d6 cd cd bd cf b8 8e bd d4 ef f6 3d
       0.02517042 -0.10049026 -0.06968843 0.12057462
0000a0 6d f1 ed bd 10 36 7b bd b3 fe 04 3d bc 10 12 bd
       -0.11618314 -0.061330855 0.032469463 -0.03566049
0000b0 c5 d3 2a 3d e1 6a fe 3b 94 d9 fa 3d a8 d6 6d bb
       0.041705865 0.007764206 0.12248531 -0.0036291275
0000c0 6e 84 d8 3d a1 66 7b 3d bd e7 dc bc 47 68 11 be
       0.10572134 0.06137717 -0.02696597 -0.14199935
0000d0 e1 79 dd bd 80 49 5d bd 06 f6 9d bd 7a 44 99 3a
       -0.10814262 -0.054025173 -0.07712941 0.0011693381
0000e0 3e f2 fa bc 42 78 5c bb d7 6a b9 bd df b5 71 bd
       -0.030633088 -0.0033641015 -0.09053581 -0.059011336
0000f0 1b 2b 92 bd 2b b5 d1 bc 54 17 28 bd f2 f1 0a bd
       -0.07137128 -0.025599083 -0.041037872 -0.033922143
000100 92 3e 87 3c b0 b0 2d 3d f7 67 cd 3d 39 7c 6f bd
       0.016509328 0.04240483 0.10029595 -0.058468077
000110 b2 b2 a8 bc 55 1d cc 3c b2 dd bc bc c7 c4 7a 3d
       -0.020593021 0.02491633 -0.023054931 0.061222818
000120 19 36 39 bd c1 60 35 bd e8 ac a8 bc 67 de 3b bc
       -0.045217607 -0.044281725 -0.02059026 -0.011466599
000130 80 bc 3c bc 31 86 df 3c ba 47 6b bd 1f 4b 60 bd
       -0.011519551 0.027285667 -0.05744145 -0.05475914
000140 39 b0 82 bd 7e 94 8c bd fb b1 b1 3c 90 ab 51 bd
       -0.06381268 -0.0686426 0.021691313 -0.051189005
000150 c7 67 4f 3d 69 26 e1 3d 2b 6a 03 bd f6 4d d8 ba
       0.05063608 0.10993654 -0.03208367 -0.0016502726
000160 33 07 03 3d 6a 39 3f bd 62 cf 41 3c 37 c6 ef 3d
       0.031989288 -0.046685614 0.011829229 0.11707728
000170 aa 91 6f bd c0 d3 91 bd 3d 1c 92 bd fa 5d 48 bc
       -0.058488525 -0.07120466 -0.07134292 -0.012229437
000180 54 b2 83 bc 8e 47 81 bc 84 4c f8 bc c8 c9 61 3d
       -0.016076244 -0.01578119 -0.030309923 0.055124074
000190 c3 04 ff 3c 1e d2 80 bc 85 4e 90 3c ad 16 07 be
       0.0311302 -0.015725192 0.017615566 -0.13192244
0001a0 b6 ae 60 bd 94 fa 77 bd 44 d9 3f 3e 85 aa 16 bd
       -0.054854117 -0.060541704 0.18735224 -0.036783714
0001b0 29 eb a2 bd 8a 50 14 3c c1 9c b1 3c 46 17 f3 3b
       -0.079550095 0.009052405 0.021681191 0.007418546
0001c0 84 7d fc bc f0 54 14 bc 1b 6d 60 bd a7 bc 33 bd
       -0.03082157 -0.009053454 -0.05479155 -0.043881085
0001d0 c4 ac 7a bd e2 ef 22 3d ef b5 95 3c 32 29 f5 3c
       -0.06119992 0.03977955 0.01827523 0.02992687
0001e0 fe d8 10 3d ed 14 37 3c 35 aa c9 bc 9f e8 81 3d
       0.03536319 0.011174423 -0.024617294 0.06343197
0001f0 67 2e 71 bd 14 de 8f bd 11 ac 03 3e fe 61 95 3b
       -0.058882143 -0.0702478 0.12858607 0.0045588007
000200 e6 8e 42 bd e6 62 89 3b 20 ff 24 3c 68 61 23 3e
       -0.04749956 0.004192698 0.010070592 0.15955126
000210 e8 c4 8d bd 92 39 99 3d 94 25 a0 bb 40 67 79 bb
       -0.069223225 0.07481684 -0.004887292 -0.0038055927
000220 5f 80 87 bc 89 4b 2a 3c 8b f9 f4 3c 55 57 08 3e
       -0.016540704 0.010393986 0.029904148 0.13314565
000230 f0 2e 4a 3d 33 c2 08 3e 15 3a 2b bc 8b aa be 3d
       0.04936117 0.13355331 -0.01045086 0.09309872
000240 d4 f7 8a bc 02 c2 88 3c 15 50 f8 3c e2 b9 42 bd
       -0.016963877 0.016694073 0.030311624 -0.047540553
000250 d6 ae 26 3c 7d e2 b6 3c 4e 88 88 3c 16 cd e4 bd
       0.01017352 0.022324795 0.016666558 -0.111719295
000260 4d 55 05 bd 8e 4a f3 3d 05 d2 30 3d b4 d1 2e 3d
       -0.032552052 0.118794546 0.04316904 0.042680457
000270 da 1b e3 3b df 63 c3 3d 68 7b 6b bd e4 2f 86 bd
       0.0069308104 0.09540533 -0.057490736 -0.06552103
000280 53 57 ed bc d2 5d 89 bd 7a 4a 8f bc 45 88 34 bd
       -0.028972303 -0.06707348 -0.017491568 -0.04407527
000290 aa 87 e5 3b db c5 52 3d 47 9a 56 bc 27 ce cc 3c
       0.007004698 0.05145822 -0.013098306 0.025000645
0002a0 12 f8 24 bd f7 03 ec 3c 4f c3 ad bc 02 da b9 3d
       -0.04027564 0.028810484 -0.021211294 0.09074785
0002b0 95 8b ee bc b8 45 24 bc f6 e7 68 bd e7 cd 85 bd
       -0.029119292 -0.010026388 -0.05686184 -0.065334134
0002c0 4b 41 fc 3c 3c 8e 4f bd f3 e1 29 bd 19 49 eb bc
       0.030792853 -0.050672755 -0.041475248 -0.02872138
0002d0 9b e1 03 bd d0 df 02 bc b4 47 82 3d ad 9d 81 bc
       -0.032197576 -0.007987931 0.063613325 -0.015822256
0002e0 e9 28 bc 3c 97 71 b1 bd 08 4f 01 3e 71 8f 32 bd
       0.022968726 -0.08664244 0.12627804 -0.043593828
0002f0 5a 04 00 be 87 d0 87 bd 09 71 42 bd 96 c3 5d bd
       -0.1250166 -0.0663157 -0.04747108 -0.054141603
000300 de 9d 92 bc 41 f2 97 bd 7a b7 17 3d f4 75 6e bd
       -0.017897543 -0.07419253 0.03704021 -0.058217958
000310 27 f4 43 bd 4b ae f9 bd bc b4 5c bb 50 4f d0 bc
       -0.047840264 -0.12191447 -0.0033677062 -0.025428444
000320 85 aa c1 3d e4 8f cc 3d a0 d3 13 3d 77 16 83 bd
       0.09456352 0.099883825 0.036090493 -0.06400769
000330 13 bb 5c 3d 1c 89 60 3d 50 96 b2 3b a0 94 25 3c
       0.053889345 0.054818258 0.0054500476 0.010106236
000340 d0 82 11 bc 57 23 53 bd cc 9f fc 37 af 99 d0 bd
       -0.008881286 -0.051547375 3.0115152e-05 -0.10185563
000350 34 d6 fd 3d 27 1a fd 3d e3 00 a7 3d fc f3 61 bb
       0.12394372 0.12358504 0.08154466 -0.0034477701
000360 23 d3 ed bd d4 fc 01 bd ed 93 bd bc f2 8d b2 bd
       -0.11612537 -0.031735256 -0.023141826 -0.0871848
000370 08 6d 0a bd 51 0e 9d 3c f9 58 7e 3c 16 c0 77 bd
       -0.033795387 0.019171866 0.015524142 -0.06048592
000380 61 1e fa bb d5 da 30 3e 87 50 0f bd 57 fc 3a 3c
       -0.007633016 0.17270978 -0.034988906 0.011412702
000390 30 4f f5 bc d2 0d 10 3e ad 67 b6 bd ae ae e7 bd
       -0.029944986 0.14067772 -0.08906493 -0.113126144
0003a0 27 9f ea bc a6 af 00 be 73 d6 ec bb ee 4e 87 bd
       -0.028640343 -0.12567005 -0.007227713 -0.066068515
0003b0 77 e3 76 3b 21 60 8e 3c aa 1a 7f 3c ae ae 17 bd
       0.00376722 0.017379822 0.015570322 -0.037031822
0003c0 3b a4 87 3d bb c8 2c 3c 38 af ea 3a a7 0f 31 bd
       0.06623121 0.010545905 0.0017905002 -0.043227818
0003d0 97 ad 85 bc 91 5a c3 bd 49 d0 d0 bd 28 ba 6b bc
       -0.016318126 -0.095387585 -0.10195977 -0.014387645
0003e0 85 92 77 bd 8f 40 90 ba ba 4c 74 bd 65 ce 8c 3d
       -0.060442466 -0.0011005568 -0.059643485 0.06875304
0003f0 d5 58 b6 3a e7 40 99 bc 90 2d b1 3c bb 2a 80 bd
       0.0013911972 -0.018707706 0.021628171 -0.0625815

mu.weight f4 [1, 256]
000000 3e df c3 3b 58 5e 09 bd d0 35 28 bc a7 34 b5 bc
       0.0059775403 -0.03353724 -0.010266736 -0.022119833
000010 e2 78 fe bb 18 4a a0 bb 0b fa 0e bd c3 50 42 be
       -0.007765875 -0.004891645 -0.03490643 -0.1897612
000020 78 bd 4e 3d 3c 2f 74 3d f5 0d 9c bb cc 01 bd 3c
       0.05047366 0.05961536 -0.004762406 0.023072146
000030 9a ea 16 bd cf e3 ef bb 6e 2a c1 bc c2 a8 40 3e
       -0.036844827 -0.007320858 -0.023579802 0.18814376
000040 f0 ff b0 bb cc 47 83 3c 58 65 69 3c 2e 4f 5b 39
       -0.005401604 0.016025446 0.014245354 0.00020914964
000050 fb 77 a1 bb eb 5d aa bd 44 77 bf 3d 32 ba d6 bc
       -0.004927633 -0.08318695 0.0934892 -0.026211832
000060 85 a7 74 ba ec f0 eb bc 31 5c 03 3e fd 14 53 3d
       -0.00093328237 -0.028801404 0.12828137 0.051533688
000070 e9 cd 25 3b d9 3c 98 3c 81 ce 79 3b ba bc 66 bb
       0.0025299734 0.018583702 0.003811747 -0.0035207705
000080 c0 81 95 bd a3 2d 0b 3e 3b 5c 33 bd 06 43 e1 3d
       -0.073001385 0.13591628 -0.04378913 0.10999112
000090 e8 ad a4 3b dc 21 2b be 31 03 36 bc fe c1 ee bd
       0.005025614 -0.16712135 -0.011109159 -0.11658095
0000a0 02 16 17 bb b2 37 0a 3d f3 e5 07 3e da 9e 29 3d
       -0.002305389 0.03374452 0.13271312 0.04141126
0000b0 36 4c 95 3c 8d 0b e8 3d ef 97 bc bd 65 fc c6 3c
       0.018224817 0.11330328 -0.092086665 0.024290273
0000c0 00 76 75 bd 74 31 30 be a3 38 26 bc fd 50 83 3c
       -0.059926987 -0.17206365 -0.010145339 0.01602983
0000d0 6f 76 eb 3d 2d e2 b5 b9 3a c4 28 bd 66 b3 1c 3a
       0.11497199 -0.00034691524 -0.04120276 0.000597766
0000e0 f6 bd 19 3d 12 a7 24 ba 98 eb 26 3b 26 ac ec 3c
       0.037534676 -0.0006280999 0.0025470015 0.02889068
0000f0 e4 e0 d4 bc 49 ff 02 3c 15 31 0e 3c a4 9d e7 bc
       -0.025986142 0.007995435 0.008678694 -0.028273411
000100 bc f9 8f 3c 07 fd 3a be 50 11 99 bc 4f 1b c0 3d
       0.017575137 -0.18260585 -0.018685013 0.09380209
000110 7f 48 3f 3d 8a 36 59 bd 0e 5e 3c 3d c4 ad fe bc
       0.046699997 -0.053030528 0.045988135 -0.031088717
000120 33 de 24 bc 37 c0 3b bb e3 18 86 3b 42 b4 b1 bb
       -0.010062742 -0.0028648505 0.004092322 -0.0054230997
000130 e9 c7 1d 3d aa de c9 3b 34 00 06 bd 31 27 41 3e
       0.038520727 0.006160577 -0.032715037 0.18862607
000140 1c b0 cd 3b 15 15 64 3d d6 d1 73 3d 2a 1a 5a 3d
       0.0062770974 0.055684168 0.059526287 0.05324761
000150 08 04 d9 3a 40 d5 56 bd c6 5e 1f 3d b5 7d c6 bb
       0.0016556988 -0.052449465 0.038908742 -0.006057466
000160 ef c5 b8 3d 04 fc 58 3d e8 b2 9e bb d8 30 f0 bd
       0.09022128 0.052974716 -0.0048431046 -0.11728066
000170 30 de a7 3c 41 dc 91 3c 35 10 44 bb 62 4b 5b be
       0.02049169 0.01780522 -0.0029916887 -0.21415475
000180 9a a6 ee 3b bd f8 b5 3c 31 ff 44 3c 03 a9 6f bd
       0.007283044 0.022213334 0.012023733 -0.05851079
000190 15 0c e3 bd 82 fe 2d bd 2c f2 09 3c 41 e9 94 3c
       -0.11086289 -0.042479046 0.008419555 0.01817763
0001a0 aa d1 ac 3c 25 27 97 3c 6c 8b 3c be 83 b8 b1 bc
       0.02109607 0.018451283 -0.1841256 -0.021694427
0001b0 77 77 49 3c 3b 9e f7 3b 57 4b 63 bd 03 2b 7c bd
       0.012296549 0.0075567043 -0.05549177 -0.061564457
0001c0 25 bc d9 3a 00 af f4 bc df ed 36 be 1d ed c3 ba
       0.0016611858 -0.029868603 -0.17864178 -0.0014947985
0001d0 ec 1e cb 3d e9 9a 96 3c ed 3d af 3a 07 d0 b6 3d
       0.09918007 0.018384414 0.0013369896 0.08926397
0001e0 ef 4d f6 3c ef 1b e1 3c 78 ac 7b 3a 60 19 0e bc
       0.030066459 0.02747914 0.000960059 -0.008673042
0001f0 6d ba a4 3c e3 81 5c 3a 26 fe 93 bd 9b c5 f9 b9
       0.020108426 0.00084116886 -0.07226209 -0.00047640209
000200 bd 4d 04 bc 67 ea 2b 3d 4d b8 f4 3b c0 8f b3 bd
       -0.008075175 0.04197159 0.0074682594 -0.087676525
000210 9e 27 78 3c 95 cf 3c bd 69 99 2d bd 1e b9 4f bd
       0.015146164 -0.046096403 -0.04238263 -0.05071365
000220 eb 87 e5 bc e0 f5 2c 3d e9 b3 49 3e c1 ea e0 bd
       -0.028018912 0.042226672 0.19697537 -0.10982276
000230 dd dc 15 3d 04 cb 71 be e0 a5 35 3d bf 48 82 bd
       0.036587585 -0.236126 0.044347644 -0.063615315
000240 84 62 fc 3d 3c 64 05 3d 87 ad d0 ba 27 3e 13 3c
       0.12323478 0.032566294 -0.0015920856 0.008986986
000250 3b 52 00 bd db 52 df 3b ba 53 6f 3c 48 9c 4a 3d
       -0.03132842 0.006815297 0.014607364 0.049465448
000260 da e6 c2 3a 84 bf 8e bd da ef b8 bd c5 5d 09 3b
       0.0014869825 -0.069701225 -0.09030123 0.0020960432
000270 4a 45 2c 3a 26 49 3e 3e 6f ce 03 bb 3e 20 62 3a
       0.0006571604 0.18582591 -0.0020112058 0.000862602
000280 41 26 c7 bd 54 9a 04 3d 65 cf 16 3d 89 52 0c 3d
       -0.09724093 0.03237374 0.03681888 0.0342584
000290 21 72 d6 bb de 60 ae 3d ea 11 61 3d 63 cb f8 3b
       -0.006544367 0.0851457 0.054948725 0.007592605
0002a0 ef b9 ac 3d 4a 73 53 3d 03 80 1b bc 72 d1 22 be
       0.084339015 0.05162362 -0.00949097 -0.1590021
0002b0 b8 7e 89 bc 0a ae c3 3c 29 21 83 3c bd 8f 77 3c
       -0.016784057 0.0238867 0.016007023 0.0151099535
0002c0 79 5e b3 3c cf e8 09 3e 7e 1f 24 3c d5 81 60 3d
       0.021895634 0.13467716 0.010017274 0.054811317
0002d0 f5 21 ac 3d e4 e4 6e 3d b5 69 6e bd e7 9a 68 bd
       0.08404914 0.058323756 -0.05820628 -0.05678835
0002e0 ac 64 41 bd 47 30 28 3c 4c d7 89 bd d5 8c ad bc
       -0.04721515 0.0102654165 -0.06730518 -0.021185318
0002f0 bb b0 1a 3c 78 30 35 3d 3c d7 29 3e e7 97 5f bc
       0.00944155 0.044235677 0.16586012 -0.013647056
000300 4b 03 15 be 6a 70 19 3c 75 13 b4 3b 75 6b 7d bd
       -0.14552037 0.0093651805 0.0054954835 -0.061870057
000310 2b 6c 55 3d 54 ac 2c 3d e7 6c 69 bd 30 3a a3 3c
       0.05210511 0.042156532 -0.056988623 0.019925207
000320 88 76 8e bd 10 73 4d bd b8 c5 6a 3a 24 fa 89 3b
       -0.06956202 -0.05015856 0.0008955854 0.0042107273
000330 b2 61 9a bc b7 4a bb bc 50 7d bd 3c b7 3b fc bd
       -0.018845413 -0.022862775 0.023131043 -0.12316077
000340 30 89 c2 3c fc 10 8b bd ff fe 2b 3c f7 0b 18 bb
       0.023747057 -0.06790349 0.0104978075 -0.002320049
000350 dc b8 c6 bd 30 81 d8 bd 67 93 23 be a3 59 80 3a
       -0.09703228 -0.105715156 -0.15974198 0.0009792339
000360 19 9c 9a 3c fd a0 ae 3c 2a 45 14 3d cd 55 18 ba
       0.018873261 0.021317 0.036198772 -0.0005811125
000370 fc 9e 94 3c 0b fc 12 bb 88 c5 84 bd f9 8f f6 bc
       0.018142216 -0.0022428061 -0.064829886 -0.030097948
000380 d8 39 46 3c 23 4e 34 be 3b 32 1a bb 6b b2 0b bd
       0.012098752 -0.17607932 -0.0023528475 -0.0341057
000390 92 b7 39 3a c0 ec 1b be 5f ef d1 3d 9e c4 9a 3c
       0.0007084544 -0.15227032 0.102507345 0.018892583
0003a0 82 80 0b 3d cc 74 2a 3b 89 fb 87 bd 55 82 f9 3c
       0.0340581 0.0026009558 -0.066397734 0.030457655
0003b0 2c 40 a2 3a 9b cd 33 3d 66 9d 5e bc 35 d2 af 3a
       0.0012378744 0.043897253 -0.013587331 0.0013414087
0003c0 79 ee 02 3c f6 65 8c 3c e1 44 48 bb 2b d8 07 3c
       0.007991427 0.017138463 -0.0030558633 0.008291285
0003d0 51 49 fe 3d 2d d5 37 bd 8f 08 fe 3b 11 c0 d4 ba
       0.12416328 -0.044881035 0.007752485 -0.0016231557
0003e0 8b 9d a7 3c fe a1 05 3c 59 da 42 bd 4b 95 02 be
       0.020460865 0.008156298 -0.047571514 -0.12752263
0003f0 6c cc 07 bd 1d 09 c4 bb 56 df a7 bb 96 2f 5a 3c
       -0.033153936 -0.0059825317 -0.0051230593 0.013317009
