youtube-ppo/tmp/ppo/PPOActor.pth (torch, 270866 bytes, 5 tensors)

fc1.weight f4 [256, 3]
0	0x3ef63774	0.48089182
1	0x3f381839	0.7191196
2	0xbecf8918	-0.40534282
3	0x3ebf65b4	0.3738228
4	0xbf003834	-0.5008576
5	0x3e94eb00	0.2908554
6	0x3ece29a8	0.40266156
7	0xbe932b5f	-0.28744027
8	0xbebe582a	-0.3717664
9	0x3eae5e87	0.34056494
10	0xbe83cc0a	-0.25741607
11	0xbe26bbc5	-0.16282566
12	0x3e2b611c	0.16736263
13	0x3e5429d5	0.20719083
14	0xbe9422ff	-0.2893295
15	0xbf261616	-0.6487745
16	0xbe7bc6ae	-0.24587509
17	0x3cb8675e	0.022510227
18	0x3f48a870	0.78382015
19	0xbead3ae7	-0.33834
20	0xbe88b108	-0.26697564
21	0xbefd680b	-0.4949344
22	0xbf00260a	-0.50058043
23	0x3e537ce0	0.20653105
24	0x3e9dd91f	0.30829713
25	0xbf564de5	-0.8371261
26	0xbed59b7f	-0.41720197
27	0x3ee5c654	0.44877875
28	0x3f0edb98	0.55803823
29	0x3ea9ae88	0.3314097
30	0xbf1419ee	-0.57852066
31	0x3e98eda0	0.29868793
32	0x3e1c5a32	0.15268782
33	0x3eb6eba6	0.3572666
34	0xbecce936	-0.40021676
35	0x3ebf9742	0.37420088
36	0xbf34f84e	-0.7069138
37	0x3eba2086	0.36352938
38	0x3e229980	0.15878868
39	0x3f179675	0.59213954
40	0x3ef947bf	0.4868755
41	0xbe98cc83	-0.2984353
42	0xbf15e9e4	-0.58560014
43	0xbe0ce502	-0.13759235
44	0x3ee221c9	0.441664
45	0xbd5e3ac7	-0.054255273
46	0xbf44901b	-0.7678239
47	0xbe08bbba	-0.13352862
48	0x3dd73477	0.10508054
49	0x3de4f9be	0.11180447
50	0xbdb1c0f9	-0.08679385
51	0x3f2e70e3	0.68141
52	0xbeff4222	-0.49855143
53	0x3e6c8fc7	0.23101722
54	0x3f050b6b	0.5197055
55	0xbf4a45ca	-0.7901274
56	0xbe07be23	-0.13256125
57	0x3eacaf61	0.33727553
58	0xbeaa1d17	-0.3322532
59	0x3e6a296f	0.22867368
60	0x3e8d4760	0.27593517
61	0xbebd0306	-0.3691637
62	0x3e3a129f	0.18171166
63	0xbea2d457	-0.31802627
64	0x3e907eed	0.28221837
65	0x3e540319	0.20704307
66	0x3eea2ce7	0.45737383
67	0xbf7e44f6	-0.99323976
68	0xbe0a543f	-0.135087
69	0xbe891857	-0.26776382
70	0xbee8e9f5	-0.45490995
71	0x3e2f7d1c	0.17137569
72	0x3dd519a6	0.10405283
73	0xbea9331f	-0.33046815
74	0xbd9302c7	-0.07178264
75	0xbf037576	-0.51351106
76	0x3e778811	0.24172999
77	0xbee4b085	-0.44665924
78	0x3f045616	0.51693857
79	0x3e3d2e52	0.18474701
80	0x3e330506	0.17482385
81	0x3f112ee4	0.56712174
82	0xbeae4f11	-0.34044698
83	0xbe97ec90	-0.2967267
84	0x3ebde3a7	0.37087747
85	0xbdcb094e	-0.09913884
86	0x3c9b25da	0.018938947
87	0x3e341314	0.17585403
88	0xbe4d7ec9	-0.20067896
89	0x3d2608d1	0.04053575
90	0xbe0b2995	-0.13590081
91	0xbf3cf8ce	-0.73817146
92	0xbe8ea95f	-0.27863595
93	0xbe1d43f7	-0.15357958
94	0x3f357183	0.7087633
95	0xbef73633	-0.48283538
96	0x3dd47b02	0.103750244
97	0x3e220d2f	0.15825342
98	0xbd5334e7	-0.051564123
99	0x3ea003dd	0.31252947
100	0xbc8649b2	-0.016392563
101	0xbe0c89f5	-0.13724501
102	0xbedecd0c	-0.43515813
103	0x3f24c05e	0.6435603
104	0xbe93f95f	-0.28901193
105	0xbbe26862	-0.006909416
106	0xbefadaf9	-0.48995188
107	0xbe5db55c	-0.21651214
108	0x3e9f1f13	0.31078395
109	0x3eaa189a	0.33221895
110	0xbe50e35b	-0.20399229
111	0x3f277a36	0.65420854
112	0x3ec48dd8	0.38389468
113	0x3e311487	0.17292987
114	0x3f07e594	0.53084683
115	0xbea05089	-0.31311443
116	0x3e7e1a2c	0.24814671
117	0x3e60e917	0.21963917
118	0x3efe17cd	0.49627534
119	0xbe9fc08e	-0.31201595
120	0xbefb913a	-0.49134237
121	0x3f145532	0.579425
122	0xbef0b75d	-0.47014895
123	0xbeb820c9	-0.35962513
124	0xbc17d1b0	-0.009266302
125	0x3dc92e8e	0.09823333
126	0x3f245240	0.64188004
127	0xbeec14b7	-0.46109554
128	0xbece6921	-0.40314582
129	0x3f2cbe4c	0.6747787
130	0x3e445327	0.19172345
131	0x3e142902	0.14468768
132	0xbf070c67	-0.527533
133	0x3e98a169	0.29810646
134	0x3d217955	0.039422352
135	0x3e74de07	0.23912822
136	0x3f0c3bc2	0.54778683
137	0x3cccd02b	0.025001606
138	0x3f02aded	0.5104664
139	0xbf3fba14	-0.7489331
140	0xbe099764	-0.13436657
141	0xbf1136a7	-0.5672402
142	0xbc82221e	-0.015885409
143	0xbcf540de	-0.029938158
144	0xbedd56d2	-0.432303
145	0x3f21e9d7	0.63247436
146	0xbe0c94d4	-0.13728648
147	0xbdcf28b3	-0.10115185
148	0xbdf08225	-0.11743573
149	0x3dcd8934	0.10035935
150	0xbec813f5	-0.39077726
151	0xbe30ac8e	-0.17253324
152	0x3d8e1da0	0.06939244
153	0x3f4c866d	0.7989262
154	0xbe96eb0d	-0.29476205
155	0x3e86a24f	0.26295707
156	0x3e3ccc7b	0.18437378
157	0xbef1bdf8	-0.47215247
158	0xbecd7824	-0.40130723
159	0xbec3df52	-0.38256317
160	0x3eb1c74d	0.34722367
161	0xbdc7b39f	-0.09751057
162	0x3f119b9f	0.56878084
163	0x3e419d59	0.1890768
164	0x3e0d4956	0.13797507
165	0x3e9d1989	0.30683544
166	0x3f29ce72	0.66330636
167	0x3dc9d8fa	0.09855838
168	0x3e553ef1	0.20824791
169	0xbefe1b35	-0.49630132
170	0xbe8ea39b	-0.27859196
171	0xbed31454	-0.41226447
172	0x3d25deac	0.04049556
173	0x3e3249cf	0.17410968
174	0xbee4e714	-0.4470755
175	0x3ef55af9	0.4792097
176	0xbeb48bae	-0.35262817
177	0xbe608d51	-0.21928908
178	0xbedc3098	-0.43005824
179	0x3ec3aa16	0.38215703
180	0xbe346e50	-0.17620206
181	0x3f2d5acc	0.6771667
182	0xbed19ca6	-0.40939826
183	0x3eb1dcad	0.34738675
184	0xbebf3c4e	-0.37350696
185	0xbe7980cd	-0.2436554
186	0x3df2a3e8	0.11847669
187	0xbf012ccb	-0.50458974
188	0x3e0cebf3	0.13761882
189	0x3f053f29	0.520495
190	0xbe923ac4	-0.2856046
191	0xbeab3a20	-0.33442783
192	0xbe63c0c3	-0.22241502
193	0x3f04f37c	0.5193403
194	0xbecd1d07	-0.4006121
195	0xbf2f556b	-0.6848971
196	0x3ec92190	0.3928342
197	0x3e8fc017	0.2807624
198	0xbf07dcbc	-0.5307119
199	0x3ed11609	0.40837124
200	0x3e575fba	0.2103261
201	0x3ef4405a	0.47705346
202	0xbef44080	-0.4770546
203	0xbe0267a5	-0.1273485
204	0x3f2fd205	0.6867984
205	0xbef553f5	-0.47915617
206	0xbec46c42	-0.38363844
207	0xbee7d3df	-0.45278832
208	0xbe477919	-0.19479789
209	0xbe6813bb	-0.22663777
210	0x3ed2406e	0.4106478
211	0xbe9b5dba	-0.30344945
212	0xbe1f491b	-0.15555231
213	0x3f00faf8	0.5038295
214	0x3e6dbdb0	0.23216891
215	0xbe1ee67b	-0.15517609
216	0xbf1c7ef0	-0.6113119
217	0x3ec7f7e8	0.39056325
218	0xbf0c7f24	-0.548815
219	0x3de2951b	0.11063596
220	0x3f1abcc3	0.6044428
221	0xbef4d2cd	-0.47817078
222	0xbed776a8	-0.42082715
223	0x3dd72cfb	0.10506626
224	0xbe059c91	-0.13048007
225	0x3d185c24	0.037197247
226	0xbe93d204	-0.28871167
227	0x3ea91135	0.3302094
228	0x3e92900a	0.28625518
229	0x3e7e5d97	0.24840389
230	0x3dead0bb	0.114655934
231	0xbd9bfe28	-0.07616836
232	0xbf104368	-0.56352854
233	0x3e424c89	0.18974508
234	0xbe1181eb	-0.14209716
235	0xbe57a60d	-0.21059437
236	0x3e676ac2	0.22599319
237	0x3e39c660	0.1814208
238	0xbf1e84d5	-0.61921436
239	0x3e9c3afd	0.30513754
240	0x3e04d5b1	0.12972142
241	0xbdd3245f	-0.103096716
242	0xbae6df79	-0.0017614207
243	0xbe28494e	-0.16434214
244	0x3e071179	0.13190259
245	0x3e1a3dd2	0.15062645
246	0xbec8ce0e	-0.39219707
247	0x3d986e27	0.07442885
248	0xbe4ed36e	-0.20197842
249	0x3e98cff1	0.29846147
250	0xbeda3123	-0.42615613
251	0x3e496bf8	0.19670093
252	0xbe499407	-0.19685374
253	0x3eece182	0.462658
254	0xbe5c8121	-0.21533634
255	0x3f47be6e	0.7802495

fc1.bias f4 [256]
0	0x3f009f9f	0.5024356
1	0xbebe4984	-0.37165463
2	0x3eab0674	0.3340336
3	0xbf27698a	-0.65395415
4	0x3efb2789	0.490536
5	0x3ed7adf6	0.4212491
6	0x3e6ff3e2	0.23432878
7	0xbdda489c	-0.106583804
8	0xbdc7e093	-0.09759631
9	0x3ec18c68	0.37802434
10	0xbed4f6c6	-0.41594523
11	0x3eb721b4	0.357679
12	0xbe2f5da7	-0.1712557
13	0xbf02cbca	-0.5109221
14	0xbf2cc210	-0.67483616
15	0x3e90b5af	0.28263614
16	0xbf42c9ab	-0.7608897
17	0x3ebede29	0.3727887
18	0xbd90e0b1	-0.070741065
19	0xbec13f33	-0.3774353
20	0xbeb1abfa	-0.3470152
21	0xbf525edb	-0.8217599
22	0xbe270b34	-0.16312867
23	0x3e30cdc3	0.17265992
24	0xbef01099	-0.46887663
25	0x3e0d3514	0.13789779
26	0xbd5b20fb	-0.05349825
27	0xbd8d8071	-0.06909264
28	0x3ef5afb9	0.47985628
29	0x3eaeffca	0.34179527
30	0xbf1d205a	-0.6137749
31	0x3eef3c9d	0.46725932
32	0xbf0a4bb6	-0.54021776
33	0xbecdd606	-0.4020235
34	0x3eefa43f	0.46804997
35	0x3dce4368	0.100714505
36	0xbf014a88	-0.5050435
37	0x3ce57a9b	0.028012564
38	0xbf27ae53	-0.6550037
39	0x3e9f4ba3	0.31112394
40	0xbc6b85f7	-0.014375201
41	0x3d652d64	0.05595149
42	0x3e847367	0.25869295
43	0x3eb51c11	0.35372975
44	0x3e3df723	0.18551306
45	0x3f06fa5c	0.5272577
46	0xbd9314d5	-0.07181708
47	0x3e499584	0.19685942
48	0x3ef6cd12	0.4820333
49	0xbe233d43	-0.15941338
50	0xbe463914	-0.19357711
51	0x3c39dc42	0.011344017
52	0xbecb8fe4	-0.39758217
53	0xbe5c93ce	-0.21540758
54	0x3e294f69	0.16534199
55	0xbf04d295	-0.5188382
56	0xbf0314c8	-0.51203585
57	0x3ed6542a	0.41861087
58	0xbf1dbce1	-0.6161633
59	0xbe808afe	-0.25106043
60	0x3e03abe4	0.1285854
61	0x3ea28201	0.3173981
62	0xbea98060	-0.33105755
63	0x3da1bb8b	0.07897099
64	0x3ee8c362	0.45461565
65	0x3e42b3a1	0.19013835
66	0x3d78df62	0.06075991
67	0xbea180f0	-0.31543684
68	0xbe6f2727	-0.23354779
69	0xbeef3e60	-0.46727276
70	0xbe67070c	-0.22561282
71	0xbe576677	-0.21035181
72	0x3e697a18	0.22800481
73	0x3e84f637	0.25969097
74	0xbeff3a82	-0.49849325
75	0xbf00a169	-0.5024629
76	0x3d605520	0.05476868
77	0x3de7f543	0.11326077
78	0x3e443b89	0.19163336
79	0xbeb4ab8f	-0.3528714
80	0xbe4034c5	-0.1877013
81	0xbefcdaf6	-0.49385804
82	0x3ec3a54e	0.38212055
83	0xbe8dc122	-0.2768641
84	0x3e6587e3	0.22415118
85	0x3e0020e0	0.12512541
86	0x3e37e5e2	0.17958787
87	0xbf3847b2	-0.719844
88	0xbe093bae	-0.13401672
89	0x3e54ecc1	0.2079344
90	0xbed1e985	-0.40998474
91	0x3e0afe6b	0.13573615
92	0x3e40b9eb	0.18820922
93	0xbd5d924b	-0.054094594
94	0xbeefb83a	-0.4682024
95	0xbebb7bde	-0.3661794
96	0xbdb3a48c	-0.08771619
97	0xbe87d020	-0.26525974
98	0xbe9fcf61	-0.31212905
99	0xbec28e2d	-0.37999097
100	0x3e825eec	0.25463045
101	0x3ec5b5ba	0.3861521
102	0x3c344a4a	0.01100404
103	0xbedd9c84	-0.43283474
104	0x3dccc7cf	0.09999048
105	0x3e1d52f8	0.15363681
106	0x3e75b871	0.2399614
107	0xbdaf0e13	-0.08547606
108	0xbe2352cd	-0.15949555
109	0xbe654307	-0.2238885
110	0x3ee55939	0.44794634
111	0xbf1677ed	-0.5877674
112	0x3eddb7af	0.43304202
113	0x3da02321	0.078192
114	0xbeeafdc2	-0.45896727
115	0xbe77286b	-0.24136512
116	0xbea6316c	-0.3245958
117	0x3ed3960e	0.4132542
118	0xbf083e41	-0.5321999
119	0xbf2fd0e3	-0.6867811
120	0xbe5e12bc	-0.21686834
121	0xbc4bc369	-0.012436726
122	0x3f0b6b82	0.5446092
123	0x3da22977	0.07918065
124	0xbf0dbd34	-0.55366826
125	0x3e0c71d2	0.13715294
126	0xbe60dea6	-0.21959934
127	0xbd6d5361	-0.057940844
128	0xbf0ff6da	-0.5623604
129	0xbf0bde39	-0.5463596
130	0xbf2dbff9	-0.6787105
131	0xbf1430a7	-0.5788674
132	0xbedd8c1b	-0.43270954
133	0x3f06e0f7	0.5268702
134	0xbed6074c	-0.41802442
135	0x3ee48729	0.4463437
136	0xbd8b86d2	-0.06812824
137	0xbeffd991	-0.49970677
138	0xbea7abd2	-0.32748276
139	0xbf4529d4	-0.7701695
140	0xbe945a7d	-0.28975287
141	0x3d16d905	0.03682806
142	0xbed9f1c1	-0.42567256
143	0x3dcfab45	0.10140089
144	0xbeb93235	-0.36171117
145	0x3f053b30	0.5204344
146	0xbeb3247c	-0.34988773
147	0xbeaebdb1	-0.34129098
148	0x3d03ff5f	0.032225963
149	0x3e5f4204	0.21802527
150	0x3ed86c48	0.42270112
151	0xbd02656b	-0.031835
152	0xbc9604f8	-0.018312916
153	0x3e785271	0.24250199
154	0x3ea64371	0.3247333
155	0xbe96c835	-0.2944962
156	0xbccf96bb	-0.025340429
157	0x3eb6e298	0.35719752
158	0xbf112885	-0.5670245
159	0x3e9b094c	0.3028053
160	0xbec0ea4f	-0.37678763
161	0xbdcfa8df	-0.101396315
162	0x3e3f3752	0.18673447
163	0xbf05dbed	-0.52288705
164	0x3eea7022	0.45788676
165	0xbf0afe95	-0.5429471
166	0x3c1f4b87	0.009722597
167	0x3e88233b	0.2658938
168	0x3f04e7ea	0.5191637
169	0xbec6d0d2	-0.38831192
170	0x3e846efc	0.25865924
171	0x3e592f1f	0.21209382
172	0xbf1d0367	-0.61333317
173	0xbec4b0ad	-0.38416043
174	0xbeaad9f9	-0.33369425
175	0xbdc28866	-0.09498672
176	0xbf4de4fa	-0.80427516
177	0x3e0ca02b	0.13732974
178	0xbeeafd02	-0.45896155
179	0xbf0f1efb	-0.5590665
180	0x3ec644f0	0.3872447
181	0xbeed117a	-0.46302396
182	0x3e220532	0.15822294
183	0xbf299acf	-0.66251844
184	0xbe5dd87a	-0.2166461
185	0xbefc4f6c	-0.49279344
186	0x3f09236e	0.53569686
187	0x3ecd6327	0.4011471
188	0x3df2ae4c	0.11849651
189	0xbd9920ae	-0.07476936
190	0xbf2604c1	-0.64851004
191	0xbed806f9	-0.4219282
192	0x3ec5306c	0.38513505
193	0xbf0b9cdb	-0.5453622
194	0xbd292b28	-0.041300923
195	0x3ef4a526	0.47782248
196	0xbd3bc4f3	-0.045842122
197	0xbe585228	-0.2112509
198	0x3e81c833	0.25348052
199	0xbf2e88e1	-0.6817761
200	0x3e7b08f9	0.24515142
201	0x3e8ca836	0.27472085
202	0xbf3927c6	-0.72326314
203	0xbf149eb8	-0.58054686
204	0x3c3f573d	0.011678514
205	0x3ead4d92	0.33848244
206	0xbea6df84	-0.32592404
207	0xbe0de0e8	-0.13855326
208	0x3ee92893	0.45538768
209	0x3ee92b19	0.45540693
210	0x3e862e69	0.26207283
211	0x3c8550e3	0.016273921
212	0x3e9574d6	0.291907
213	0x3e629303	0.22126393
214	0xbe99bf49	-0.30028751
215	0xbed62a1d	-0.41829005
216	0xbed79db8	-0.42112517
217	0xbeffb3eb	-0.49941954
218	0x3eb4a771	0.35283998
219	0xbeb41fdc	-0.35180557
220	0xbe6b88ba	-0.23001376
221	0x3eb4b4df	0.35294244
222	0x3de4b372	0.11167039
223	0xbe1b8c7d	-0.15190311
224	0x3eebf6af	0.46086642
225	0xbef91b2c	-0.48653543
226	0xbe948b82	-0.29012686
227	0x3d76eadb	0.06028257
228	0xbdcb7e09	-0.09936149
229	0x3f0c6966	0.54848325
230	0xbf2eb78a	-0.6824881
231	0x3ebb51ad	0.3658575
232	0xbccff418	-0.025384948
233	0xbe835f49	-0.25658634
234	0xbe8675f5	-0.2626187
235	0xbf281d5e	-0.6566981
236	0xbe9f128f	-0.31068847
237	0xbe2011ec	-0.15631837
238	0xbe895c0b	-0.26828036
239	0x3e559c08	0.20860302
240	0xbeae5a4c	-0.34053266
241	0xbf09a28f	-0.5376367
242	0x3eb88cac	0.36044824
243	0xbdb19c01	-0.086723335
244	0x3b385ba3	0.0028130792
245	0x3ed266eb	0.41094145
246	0x3df1a837	0.117996626
247	0xbea7de99	-0.32787016
248	0x3e7817b2	0.24227789
249	0x3ef9aff8	0.48767066
250	0x3dae1ec6	0.08501963
251	0x3da9d2be	0.08292149
252	0xbd9a2b0c	-0.07527742
253	0xbdde19db	-0.10844775
254	0xbd87a594	-0.066233784
255	0x3eba593b	0.36396202

fc2.weight f4 [256, 256]
0	0x3c9c9ce2	0.019117776
1	0xbdf70d45	-0.12063078
2	0xbd0bf4b0	-0.0341689
3	0x3d0737ce	0.033012204
4	0x3cfc71a5	0.030815909
5	0xbdc7737d	-0.097388245
6	0x3d5a05b3	0.05322809
7	0xbe00afa6	-0.12567005
8	0xbd8d3d38	-0.06896442
9	0xbd980462	-0.07422711
10	0xbce5eb48	-0.028066292
11	0xbc92c95e	-0.017918285
12	0xbd2edaa7	-0.042688992
13	0xbc670c6d	-0.014102084
14	0x3cacde9f	0.021102248
15	0xbdbc1a57	-0.091847114
16	0xbc711ab5	-0.01471584
17	0xbcab593e	-0.020916577
18	0xbc2a25fb	-0.010385032
19	0xbd8f2b4c	-0.0699068
20	0xbdbd011a	-0.09228726
21	0xbc72abab	-0.014811437
22	0x3e283aa5	0.16428621
23	0xbe4a1790	-0.19735551
24	0xbbdc584e	-0.006724394
25	0xbd79ff9a	-0.061034776
26	0xbdd98498	-0.106209934
27	0x3cd697dc	0.026195459
28	0x3d68daa9	0.056849156
29	0xbc39b05d	-0.011333552
30	0x3c4d8c6e	0.012545688
31	0xb95cfe4f	-0.00021075572
32	0xbcf22cbb	-0.029562345
33	0x3bd56b34	0.0065130237
34	0xbc7cb7e1	-0.0154246995
35	0x3ca067a1	0.019580664
36	0x3c89df6a	0.016830165
37	0xbd43392c	-0.047661945
38	0x3d18c037	0.037292685
39	0x3cabc106	0.020966064
40	0xbbf6d1e6	-0.007532346
41	0xbdaa2627	-0.08308058
42	0x3d6f2058	0.058380455
43	0xbccefbf9	-0.025266634
44	0xbe4b7199	-0.19867553
45	0xbe663877	-0.22482477
46	0x3dfd1e1b	0.12359258
47	0xbe13de46	-0.1444026
48	0xbe2f7b69	-0.17136921
49	0x3cd9748e	0.026544835
50	0xbd62862f	-0.05530375
51	0x3b3ee2d6	0.0029126904
52	0x3d24bd8e	0.040219836
53	0xbcb7fa55	-0.022458235
54	0xbdeadb76	-0.1146764
55	0xbbf2a40c	-0.00740481
56	0x3d1f857d	0.038945664
57	0xbe621fdf	-0.2208247
58	0x3ca2689d	0.019825274
59	0x3d276188	0.040864497
60	0x3c93184a	0.017955918
61	0xbd61a763	-0.055091273
62	0x3d674959	0.056466434
63	0x3ba86447	0.005138907
64	0xbd3aec62	-0.04563559
65	0x3bfb5677	0.0076702195
66	0xbd7e54cd	-0.06209259
67	0x3da65911	0.08122457
68	0x3d6e2e47	0.058149602
69	0xbd872771	-0.0659932
70	0xbd462de2	-0.0483836
71	0x3ca96914	0.020679988
72	0xbdb43ec6	-0.088010356
73	0xbc0b61df	-0.008507221
74	0xbd265a12	-0.04061324
75	0x3d41f330	0.047351062
76	0xbe115743	-0.14193444
77	0xbdced7ac	-0.1009973
78	0xbdedc733	-0.1161026
79	0xbda048ac	-0.07826361
80	0x3b45fdb5	0.0030211036
81	0xbd076f4e	-0.033065133
82	0xbdc69df2	-0.096980944
83	0xbdb0022d	-0.08594165
84	0xbda3d2a3	-0.0799916
85	0xbda4f490	-0.08054459
86	0xbd22c105	-0.03973486
87	0xba6f0e00	-0.00091192126
88	0xbd0c1920	-0.03420365
89	0x3d4b2e5f	0.04960477
90	0x3d756ee0	0.05992019
91	0xbc9743ca	-0.018464942
92	0xbdeec026	-0.11657743
93	0xbd3b52eb	-0.045733374
94	0xbda7bbe7	-0.081901364
95	0x3d57244a	0.052524842
96	0xbcefdc18	-0.029279754
97	0xbdeac8e7	-0.114641
98	0x3cc2d275	0.023781994
99	0xbd3b6822	-0.045753606
100	0x3d87f0eb	0.06637748
101	0xbe241a91	-0.1602576
102	0xbda234cd	-0.07920227
103	0xbd4d2a8c	-0.050089404
104	0xbe2cc38c	-0.1687147
105	0xbe502bcb	-0.20329206
106	0xbde5a112	-0.11212362
107	0xbe25e1e9	-0.16199459
108	0xbc9fa835	-0.019489387
109	0x3cf34b1c	0.0296989
110	0xbd5d3014	-0.05400093
111	0xbcfc05e0	-0.03076452
112	0xbdc10b60	-0.09425998
113	0xbd7fa38e	-0.062411837
114	0x3c9cc103	0.019135004
115	0x3cc997fc	0.024608605
116	0x3dcfd007	0.101471
117	0x3d39df34	0.04537888
118	0xbd97ca4e	-0.074116334
119	0xbc9cd947	-0.019146575
120	0x3c17b158	0.009258591
121	0x3d25e7c5	0.040504236
122	0xbe05f924	-0.13083321
123	0xbe1b22c2	-0.15149978
124	0xbd1ba550	-0.03799945
125	0xbe0166e5	-0.12636907
126	0xbd72af4f	-0.05924922
127	0xbbc575cd	-0.006026006
128	0xbbfdd9c2	-0.007746906
129	0x3c46bdcc	0.012130212
130	0x394b09bf	0.0001936322
131	0xbca1611b	-0.019699624
132	0x3c884f71	0.016639443
133	0x3c61a8ce	0.013773156
134	0xbd70bca0	-0.058773637
135	0xbd8c5b54	-0.06853357
136	0xbe54e1ae	-0.20789215
137	0xbbedc77d	-0.007256447
138	0xbd95a00c	-0.07305917
139	0xbd75a5ff	-0.05997276
140	0x3c9d2ef2	0.019187424
141	0xbdc80543	-0.097666286
142	0xbd236730	-0.03989333
143	0xbd0b3a91	-0.0339914
144	0x3d476f69	0.048690233
145	0xbd44a833	-0.04801197
146	0xbd2012e4	-0.039080516
147	0xbca67cc0	-0.020323157
148	0xbe31cc66	-0.17363128
149	0xbdc47250	-0.09592116
150	0xbca08665	-0.019595334
151	0xbd45b389	-0.04826692
152	0x3b89b776	0.0042027785
153	0x3d42f881	0.047600273
154	0xbd8ff0ab	-0.07028326
155	0xbdcf9a9e	-0.10136913
156	0xbc94417d	-0.018097633
157	0xbe1880d3	-0.14892893
158	0x3b9c8dab	0.0047776303
159	0xbc4e2f3d	-0.012584505
160	0x3d48eca2	0.049053796
161	0xbddd8c11	-0.10817731
162	0xbcaed96d	-0.021343911
163	0xbd1909c7	-0.03736284
164	0xbdaf400e	-0.08557139
165	0xbcabaac1	-0.020955445
166	0xbcceee54	-0.025260128
167	0xbc27353e	-0.010205565
168	0x3acf8ef0	0.0015835445
169	0x3d419d2d	0.047269035
170	0xbde927a0	-0.11384511
171	0xbdf97450	-0.12180388
172	0x3d6ac081	0.057312492
173	0x3d2cc8ec	0.0421838
174	0xbd8f6cb4	-0.07003155
175	0xbe2fbb6f	-0.17161344
176	0xbce38622	-0.02777392
177	0xbddd9014	-0.10818496
178	0xbd5b304a	-0.05351285
179	0xbd285b2a	-0.041102566
180	0xbe118157	-0.14209495
181	0x3d004761	0.031318072
182	0xbc9e5f22	-0.019332472
183	0x3d67dda5	0.05660786
184	0xbb9c0e19	-0.0047624228
185	0x3b606ad5	0.0034243364
186	0xbe2db55c	-0.16963714
187	0xbd923e7a	-0.07140823
188	0xbe1731f1	-0.14765145
189	0x3d8fc1ee	0.07019411
190	0xbcc80c24	-0.024419852
191	0xbd94221f	-0.072330706
192	0xbde59628	-0.11210281
193	0xbd85f67e	-0.06541155
194	0x3c9b07c1	0.018924596
195	0xbd1e1070	-0.038589895
196	0x3a8c3849	0.0010697927
197	0xbd792def	-0.06083482
198	0xbe11db4b	-0.1424381
199	0xbc0e36d7	-0.008680067
200	0xbdc2ebce	-0.095176324
201	0xbdc5ccca	-0.09658201
202	0xbd3defe2	-0.04637135
203	0x3d068e76	0.032850705
204	0xbdd8a5d8	-0.10578507
205	0xbc71afcd	-0.014751387
206	0x3d4aebc2	0.049541242
207	0xb9e1bb50	-0.00043054903
208	0x3c5400bb	0.012939627
209	0xbdb4367a	-0.08799453
210	0xba3b4c53	-0.0007144857
211	0xbe11abec	-0.14225739
212	0xbe012aef	-0.12614034
213	0xbdca2e15	-0.09872071
214	0xbc32fcde	-0.010924546
215	0x3c389514	0.011266012
216	0xbd3670d5	-0.0445412
217	0x3cb14223	0.021637982
218	0xbdece6f1	-0.11567486
219	0xbd1e2c56	-0.0386165
220	0xbcb62b2e	-0.022237387
221	0xbd49e50d	-0.049290705
222	0xbde1d764	-0.110274106
223	0x3d5b51fd	0.053544987
224	0xbd35a76c	-0.04434912
225	0x3b8362f4	0.004009599
226	0xbd72aa77	-0.0592446
227	0x3dbab84e	0.091171846
228	0x3ba0d5da	0.0049083056
229	0xbba901c1	-0.00515768
230	0xbd0acd23	-0.03388704
231	0xbdc33852	-0.095322266
232	0xbd1ff438	-0.039051265
233	0xbd0bfa77	-0.03417441
234	0x3c6b3494	0.014355797
235	0x3d33ef22	0.043929227
236	0xbcfc74c1	-0.030817391
237	0xbd846144	-0.064638644
238	0x3c4ec56b	0.01262031
239	0xbce7ca0b	-0.028294584
240	0x3de7f045	0.11325125
241	0xbcd34761	-0.025790872
242	0xbe05e233	-0.1307457
243	0xbe1162d3	-0.14197855
244	0xbd2f0cd4	-0.042736843
245	0xbe4228f5	-0.18960936
246	0x3d817ecb	0.06323012
247	0xbd429b5e	-0.04751145
248	0x3d054385	0.032535095
249	0xbda628b4	-0.08113232
250	0xbd6608ae	-0.05616062
251	0xbdd47e89	-0.10375697
252	0xbc11d41a	-0.008900667
253	0xbdacac47	-0.08431297
254	0xbe115be3	-0.14195208
255	0xbd68ec2e	-0.056865864

fc2.bias f4 [256]
0	0xbd1c22d0	-0.038119137
1	0x3d2ef308	0.04271224
2	0x3c7d0c1d	0.015444783
3	0xbd8e38a4	-0.06944397
4	0xbbd93c55	-0.0066295066
5	0xbd8840da	-0.066529945
6	0xbdc04ec0	-0.0939002
7	0xbce01ee9	-0.02735849
8	0xbd473f9f	-0.04864466
9	0x3d7f28a8	0.062294632
10	0xbd197df1	-0.037473623
11	0x3c0eb3c1	0.008709849
12	0xbd16baff	-0.036799427
13	0xbcee6a06	-0.02910329
14	0xbd32cdaa	-0.043653168
15	0x3e013634	0.12618333
16	0x3d456982	0.048196323
17	0xbd448dc8	-0.047986776
18	0xbc9a9659	-0.01887052
19	0xbc3d371f	-0.011548786
20	0xbc8871d5	-0.016655842
21	0x3ce041f5	0.0273752
22	0x3d68d1b7	0.056840625
23	0x3b6d8bf7	0.0036246756
24	0x3d17ffc8	0.037109166
25	0x3d07ec7f	0.033184525
26	0xbcc8b7d4	-0.024501719
27	0x3b92e9df	0.004483446
28	0xbd0eed6e	-0.0348944
29	0xbdcf26d8	-0.10114831
30	0xbce6f780	-0.02819419
31	0x3c772756	0.015085062
32	0x3dc40d1c	0.09572813
33	0xbbd0c000	-0.0063705444
34	0xbd453876	-0.04814955
35	0xbd889800	-0.06669617
36	0x3d043a27	0.03228202
37	0xbbfed1a0	-0.007776454
38	0x3a8835fe	0.0010392067
39	0x3d492d78	0.049115628
40	0x3b724928	0.0036969874
41	0x3cf044e0	0.029329717
42	0x3e10e64d	0.14150353
43	0xbd2abc38	-0.041683406
44	0xbd4bc561	-0.049748782
45	0xbd494c22	-0.04914487
46	0x3cba4605	0.022738466
47	0x3c68ac07	0.014201171
48	0x3c9b74ef	0.018976657
49	0x3cf69649	0.030100958
50	0x3d0dcae0	0.034617305
51	0xbdaf99b7	-0.08574241
52	0xbb79fc6e	-0.0038144845
53	0x3c6a15fa	0.014287466
54	0xbde09fa5	-0.1096795
55	0x3d7f59cf	0.062341508
56	0x3c55bb37	0.013045124
57	0x3d2401a8	0.040040642
58	0x3d839a73	0.06425943
59	0xbd094a87	-0.03351834
60	0xbcec433d	-0.028840655
61	0xbd4b77a8	-0.04967466
62	0xbd1a9345	-0.037738103
63	0x3ca8553c	0.020548455
64	0xbd8fa495	-0.070138134
65	0xbc066eea	-0.008205155
66	0x3aec78b3	0.0018041342
67	0xbd61b11d	-0.05510055
68	0xbc00948c	-0.007847916
69	0xbc44aae4	-0.012003634
70	0x3d647980	0.055779934
71	0xbd30e71e	-0.04318916
72	0xbd622b9e	-0.055217378
73	0x3cf65504	0.030069835
74	0xbdd9441d	-0.10608695
75	0x3cd12594	0.025530614
76	0xbd28dfb2	-0.041228957
77	0x3d025905	0.031823177
78	0xbc8ec702	-0.017428879
79	0xbd2f6b4f	-0.042826947
80	0xbc3d367c	-0.011548635
81	0xbca945c8	-0.020663157
82	0x3d447d8b	0.04797129
83	0x3b0627a9	0.0020470417
84	0x3d1090d0	0.035294354
85	0x3d5d770b	0.054068606
86	0xbcd070ab	-0.02544435
87	0x3ce15353	0.027505552
88	0x3c0ef659	0.008725726
89	0xbd019f03	-0.031645786
90	0x3cb60066	0.022216987
91	0xbd38cc49	-0.045116697
92	0x3d134c5a	0.035961486
93	0x3b76ddf6	0.003766892
94	0xbd4233e0	-0.047412753
95	0xbdb0db1e	-0.08635543
96	0xbd2a5912	-0.04158885
97	0x3d4a7af3	0.04943366
98	0xbc411949	-0.011785814
99	0x3bb9a25a	0.005665106
100	0xbd548659	-0.051885936
101	0x3cc5167a	0.02405857
102	0xbc8b42c7	-0.016999615
103	0x3d44013e	0.047852747
104	0xbd3f4710	-0.04669863
105	0xbd89dfd7	-0.06732147
106	0x3c703aad	0.014662427
107	0xbc9aaa15	-0.01887993
108	0xbd870618	-0.06592959
109	0x3d26b284	0.04069759
110	0xbd9569da	-0.0729558
111	0x3de9cbdb	0.114158355
112	0xbc481af8	-0.012213461
113	0xbd455458	-0.04817614
114	0xbdb80253	-0.08984818
115	0xbd7305f3	-0.059331845
116	0x3c980548	0.018557206
117	0xbb649bc3	-0.003488288
118	0xbd62ff69	-0.05541936
119	0xbd94d053	-0.07266297
120	0x3cddae33	0.027060604
121	0x3c9c9a88	0.019116655
122	0xbc63356f	-0.01386772
123	0x3d8659b6	0.0656008
124	0xbc91cc6d	-0.017797673
125	0xbd2d4f78	-0.042312115
126	0x3cd73663	0.02627105
127	0x3cd50095	0.026001254
128	0x3db54816	0.0885164
129	0x3cf6e2b1	0.030137392
130	0x3d0f8815	0.035041887
131	0xbd8eab41	-0.06966258
132	0xbd885a9b	-0.066579066
133	0x3c1a30a4	0.009411011
134	0xbcfc6eac	-0.030814491
135	0x3d2f7e50	0.04284507
136	0x3aef91ca	0.0018277701
137	0xbcedb2f6	-0.029016
138	0x3be11549	0.0068689925
139	0x3ccf653c	0.025316827
140	0xbda37836	-0.07981913
141	0xbcb8c46c	-0.022554599
142	0xbb8e5b4e	-0.0043443805
143	0xbcd7d3c2	-0.026346091
144	0xbb24af3e	-0.0025128867
145	0x3d06cfbd	0.03291296
146	0xbd5d1972	-0.053979345
147	0x3d328f42	0.043593653
148	0xbd579013	-0.052627634
149	0x3d156b66	0.036479376
150	0xbcbf6d7e	-0.02336764
151	0xbbd47d44	-0.0064846594
152	0xbdb43d07	-0.088007025
153	0x3d05d3b7	0.03267261
154	0xbd86fab6	-0.06590788
155	0x3dad1843	0.08451893
156	0xbd917ec4	-0.07104257
157	0xbd3434d5	-0.043995697
158	0xbd5e0060	-0.054199576
159	0x3c26a265	0.010170554
160	0xbcb3207a	-0.021866072
161	0xbd4880e1	-0.048951034
162	0xbd5de271	-0.05417103
163	0xbd77df34	-0.060515597
164	0xbd506dc0	-0.050885916
165	0x3bfe8221	0.0077669774
166	0x3dc7e24b	0.09759959
167	0xbd8bfb2e	-0.06835018
168	0x3c6e66e6	0.0145509
169	0xbd219791	-0.039451186
170	0xba487194	-0.0007646319
171	0x3d100d63	0.035169017
172	0x3c7c0da8	0.015384115
173	0x3d50def0	0.05099386
174	0x3c8c175d	0.017100984
175	0xba8ce18d	-0.0010748372
176	0xbd4fa785	-0.05069687
177	0xbd1314e5	-0.0359086
178	0xbceba861	-0.028766813
179	0xbd25ca51	-0.040476147
180	0x3c0cc0db	0.008590902
181	0xbba643c0	-0.0050739944
182	0x3cda9774	0.026683547
183	0xbcb48a57	-0.022038622
184	0x3d23af39	0.039962027
185	0xbb5c4845	-0.0033612412
186	0x3c1fd8e7	0.009756303
187	0xbd0fc065	-0.03509559
188	0xbd237b20	-0.039912343
189	0x3b9837ab	0.004645308
190	0x3e3ccb13	0.18436842
191	0xbd8056fc	-0.06266591
192	0xbdc1c7f9	-0.0946197
193	0x3c90dc96	0.017683309
194	0xbc15d548	-0.0091450885
195	0x3d1b9adf	0.037989493
196	0xbd32d11a	-0.043656446
197	0x3c8b9d5b	0.017042806
198	0xbcc81b57	-0.0244271
199	0x3ce1e013	0.027572667
200	0xbccf28a4	-0.025287934
201	0xbcd6f1d4	-0.02623836
202	0xbd1bf862	-0.038078673
203	0xbd4084f7	-0.047001805
204	0xbbd8f966	-0.0066215275
205	0x3c9952dd	0.01871627
206	0xbd3053b4	-0.043048576
207	0xbcf3a193	-0.02974013
208	0x3c8facb8	0.017538413
209	0xbd21f7c8	-0.039542943
210	0x3ad3151d	0.0016104315
211	0x3bebc1bc	0.007194726
212	0x3c77c08c	0.01512159
213	0x3d2807ac	0.04102294
214	0x3d719a64	0.05898513
215	0xbd437ffd	-0.04772948
216	0xbd5d1549	-0.053975377
217	0x3b8b4eaa	0.004251321
218	0xbd06e3bb	-0.032932024
219	0x3d2388e7	0.039925482
220	0xbcf1a993	-0.029499805
221	0x3dcf50ce	0.10122834
222	0xbdce9ea8	-0.10088855
223	0x3d829463	0.06375959
224	0xbd4f5da0	-0.050626397
225	0xbcee8541	-0.029116275
226	0xbda60724	-0.08106831
227	0x3e2b24b3	0.16713218
228	0xbacfe736	-0.0015861753
229	0x3cb4d484	0.022073992
230	0x3d931a4e	0.071827516
231	0xbd7ef3f5	-0.062244374
232	0xbc7dc668	-0.015489198
233	0xbc54c1d6	-0.012985667
234	0xbd8957b8	-0.06706184
235	0xbdbad100	-0.09121895
236	0xbcb5e522	-0.022203986
237	0xbd92387d	-0.071396805
238	0x3d844726	0.06458883
239	0xbd83c59f	-0.064341776
240	0x3e35882a	0.17727724
241	0x3d45acb4	0.048260406
242	0x3d891a74	0.06694499
243	0x3d236c84	0.03989841
244	0x3c28b4ff	0.010297059
245	0xbc512697	-0.012765548
246	0xbc7c545f	-0.015400975
247	0xbd64f60b	-0.055898707
248	0x3d8e3a0d	0.06944666
249	0x3d3633ea	0.044483103
250	0x3d71b13c	0.059006914
251	0xbc8caf31	-0.017173382
252	0xbc925a4b	-0.01786532
253	0xbcf1a872	-0.029499266
254	0xbd69e8f5	-0.05710693
255	0xbc70f67b	-0.014707203

mu.weight f4 [1, 256]
0	0x3d5e341d	0.054248918
1	0x39d2a9e9	0.00040180914
2	0xbc220157	-0.009888015
3	0xbac9e3d8	-0.0015402986
4	0x3a043246	0.0005042892
5	0x3c9198ee	0.017773118
6	0x3ca91ad5	0.020642677
7	0x3ce74201	0.028229715
8	0x3d45f2ed	0.048327375
9	0xbd9d9413	-0.076942585
10	0xbe024ff3	-0.1272581
11	0x3d7de9ff	0.061990734
12	0xbbf486ce	-0.007462359
13	0xbda4bf71	-0.08044327
14	0x3cd451b4	0.025917865
15	0x3e2a97d1	0.16659476
16	0x3d13b3b5	0.036060054
17	0xbd40a800	-0.047035217
18	0x3af9767b	0.0019032502
19	0xbd4dc195	-0.050233442
20	0x3d6e8bd2	0.05823881
21	0x3be328b7	0.006932344
22	0xbdda45b6	-0.106578276
23	0x3be34771	0.0069360067
24	0x3bf8fb91	0.0075983484
25	0x3c86e405	0.01646615
26	0xbcb8f3f8	-0.02257727
27	0x3c62bf5c	0.013839569
28	0xbc88231c	-0.016618304
29	0x3cb75550	0.022379547
30	0xbb833293	-0.0040038317
31	0xbd31b7bc	-0.043388113
32	0xbd2b37bd	-0.041801203
33	0x3d495f13	0.049162935
34	0x3d68283d	0.056679
35	0xbc15d2b0	-0.00914447
36	0xbd66b86e	-0.05632823
37	0xbd0f1fe3	-0.03494252
38	0xbbeadfd4	-0.0071677957
39	0xbdb066ba	-0.086133435
40	0x3c0dac12	0.008646982
41	0xbce785ff	-0.028262137
42	0x3e463d58	0.19359338
43	0x3c054461	0.008133979
44	0x3d5b3354	0.053515747
45	0xbd18b282	-0.037279613
46	0xbc003084	-0.007824067
47	0x3c2cc017	0.010543845
48	0xbcefbbd2	-0.029264364
49	0xba51891e	-0.00079931493
50	0x3d5c4f7e	0.053786747
51	0xba490a04	-0.0007669034
52	0xbd06b92c	-0.032891437
53	0x3c179cfc	0.009253737
54	0xbbef9fd3	-0.0073127537
55	0xbd85cfdc	-0.06533787
56	0xbd2e8910	-0.04261118
57	0xbd6a9d8c	-0.057279155
58	0xbd42b4ed	-0.047535826
59	0x3c861b7a	0.016370524
60	0x3d329d30	0.043606937
61	0xbbb055d8	-0.005381327
62	0xbc9250ed	-0.017860854
63	0x3c838a72	0.016057227
64	0x3c048cd1	0.008090214
65	0xbde9ede4	-0.11422327
66	0x3d364b39	0.04450533
67	0x3c38e02a	0.011283914
68	0x3d8d4365	0.0689762
69	0xbbd84699	-0.006600213
70	0xba1d3be1	-0.00059979974
71	0x3d255231	0.040361587
72	0xbc19b57a	-0.009381646
73	0xbd3b2d81	-0.045697693
74	0xbd3eda50	-0.046594918
75	0x3c2b65de	0.010461299
76	0x3ca36eb8	0.019950256
77	0xbaae5f1d	-0.0013303492
78	0x3c1d8cec	0.009616118
79	0x3b84fb41	0.004058272
80	0xbae6c9ef	-0.0017607788
81	0xbbca6314	-0.006176362
82	0xbd2e3365	-0.042529482
83	0xbd60df2a	-0.054900326
84	0xbbd8e658	-0.006619256
85	0xbda042a1	-0.078252085
86	0xbd73ed7e	-0.059552662
87	0xbd9bcc59	-0.076073356
88	0xba341405	-0.0006869438
89	0x3d6ebd77	0.058286157
90	0x3d286ce9	0.04111949
91	0x3b28595e	0.0025688033
92	0xbdb0ffdb	-0.086425506
93	0x3cc702b7	0.024293287
94	0x3d3c5eb3	0.04598875
95	0x3a04b6e7	0.0005062655
96	0x3c88e96a	0.016712863
97	0xbbe4a7c0	-0.006978005
98	0x3c0cabde	0.008585898
99	0xbd8e2e93	-0.06942477
100	0x3c98fa66	0.018674087
101	0xbdaa4756	-0.083143875
102	0x3c84406d	0.016144002
103	0x3bc74f1b	0.006082428
104	0x3bf1c1ef	0.007377855
105	0x3c4d777f	0.012540697
106	0xb9eba6ee	-0.00044947065
107	0xbdce36e6	-0.10069065
108	0x3d14961e	0.036275975
109	0xbdd06025	-0.10174588
110	0x3aa76409	0.0012770902
111	0x3dd784f9	0.105234094
112	0xbda19032	-0.07888831
113	0xbd123474	-0.035694554
114	0xbbd8682c	-0.006604215
115	0xbc087099	-0.008327627
116	0x3d1f5e3d	0.038908232
117	0x3d30818b	0.04309229
118	0xbbdb8448	-0.0066991188
119	0x3c16140a	0.009160051
120	0x3d2a4270	0.041567266
121	0xbd261768	-0.040549666
122	0x3c837bc2	0.016050223
123	0xbd90f9ac	-0.07078871
124	0xbc971210	-0.01844123
125	0xbdbbb24b	-0.09164866
126	0x3d20eec2	0.039290197
127	0xbc059cd6	-0.008155068
128	0xbdb1ba0f	-0.08678066
129	0x3d22169d	0.039572347
130	0xbd22101d	-0.039566148
131	0x3be56e86	0.007001701
132	0x3b68c9b9	0.0035520627
133	0x3cab9cfd	0.020948881
134	0x3cd9055b	0.026491811
135	0x3ae0159f	0.0017096287
136	0xbcd1d456	-0.025613945
137	0x3d3504f3	0.044194173
138	0xbddfdd7e	-0.10930918
139	0xbab6c753	-0.0013944901
140	0x3cb1b878	0.021694407
141	0xba99a7ac	-0.0011722944
142	0xbaa2cc46	-0.0012420497
143	0x3d2aeabb	0.041727763
144	0xbd066211	-0.032808367
145	0xbdd27bbc	-0.10277507
146	0xb97354eb	-0.0002320592
147	0xbda1d9bf	-0.0790286
148	0xbd07c6ac	-0.033148453
149	0xbcecdbe3	-0.028913444
150	0xbca0a655	-0.019610563
151	0x3d43cdf5	0.047803838
152	0x3d81931b	0.06326886
153	0x3d4a5558	0.049397796
154	0xbd392a03	-0.04520608
155	0x3e02e8d2	0.12784126
156	0x3dd9e68a	0.10639675
157	0x3abe6a21	0.0014527478
158	0x3ae129c3	0.0017178584
159	0x3d341ebe	0.04397463
160	0xbd350293	-0.044191908
161	0xb9873917	-0.00025791742
162	0xbc0a46ae	-0.008439703
163	0xbd788eb6	-0.060682975
164	0xbd2d65d1	-0.042333428
165	0xbd947c2f	-0.07250249
166	0xbd3c2836	-0.045936786
167	0x3c9aaf2a	0.018882353
168	0x3c9fab1e	0.019490775
169	0x3b25f890	0.0025325157
170	0x3d1d5c88	0.038418323
171	0xbbc27a9d	-0.005935027
172	0x3d855d58	0.065119445
173	0xbc41561c	-0.011800315
174	0xbcddb64c	-0.027064465
175	0xbc04245a	-0.0080653075
176	0x3b6e72e3	0.0036384396
177	0x3d47b859	0.048759792
178	0xbd3b2bc4	-0.045696035
179	0xbb65ad97	-0.0035046095
180	0x3ca68147	0.020325316
181	0xbc91f584	-0.017817266
182	0xbd7279bb	-0.059198122
183	0x3d1b1f98	0.037871927
184	0xbc1072d2	-0.008816438
185	0x3c085c1e	0.008322744
186	0xbd1eb427	-0.038746025
187	0x3d141b14	0.036158636
188	0xbdd8dd35	-0.10589067
189	0xbd92e3ef	-0.07172381
190	0x3e24a747	0.16079436
191	0x3d08e233	0.033418845
192	0x3c89d11e	0.016823348
193	0xbd66f2c1	-0.056383852
194	0x3aafb54d	0.0013405472
195	0xbe04e53c	-0.12978071
196	0x3d666933	0.05625267
197	0xbb928ae4	-0.0044721235
198	0x3c3dd64c	0.011586737
199	0x3c854220	0.016266882
200	0xbb9740b1	-0.004615866
201	0x3d1131ef	0.03544801
202	0x3d0f02a3	0.034914624
203	0xbb6adac3	-0.0035835959
204	0xb97e1fdf	-0.000242352
205	0xbd8dfea7	-0.06933337
206	0x3b793ccc	0.0038030623
207	0x3ccdef20	0.025138438
208	0xbd517e6f	-0.051145967
209	0x3c41ea6e	0.011835678
210	0x3d09a7a3	0.033607136
211	0xbd6a4275	-0.057192285
212	0x3d38f073	0.045151185
213	0xbdb233b8	-0.08701271
214	0x3e1a028f	0.15040039
215	0xbd8b1654	-0.06791368
216	0xbda70382	-0.08154966
217	0xbbbcbc2f	-0.005759738
218	0x3b5bb1eb	0.0033522795
219	0xbaad71a9	-0.0013232726
220	0x3d10ab79	0.03531978
221	0x3e46c77e	0.19412038
222	0x3ce317a6	0.027721237
223	0xbd439cc7	-0.047756936
224	0x3a9e2435	0.0012065234
225	0x3c2b748c	0.010464799
226	0x3ae9904e	0.0017819495
227	0x3e029436	0.1275185
228	0xbd71fcad	-0.05907886
229	0x3e38c87c	0.18045229
230	0xbd753992	-0.059869356
231	0x3bf2f6f4	0.007414693
232	0xbd2d8f05	-0.042372722
233	0x3c19d400	0.009388924
234	0xbdcb62ed	-0.09930978
235	0xbbb7c606	-0.005608323
236	0xbc1943e1	-0.0093545625
237	0xbc10bbcf	-0.00883384
238	0xbda30981	-0.07960797
239	0xba03fe7d	-0.0005035175
240	0x3e17a8c1	0.14810468
241	0xbd941eab	-0.07232412
242	0xbda5bbbe	-0.080924496
243	0x3c98ac87	0.018636955
244	0x3cfbff66	0.030761432
245	0x3d402818	0.046913236
246	0x3cc6d939	0.024273502
247	0x3ccdec40	0.025137067
248	0x3dd4eab0	0.103963256
249	0x3d3b2206	0.045686744
250	0xbd797834	-0.06090565
251	0x3c99a87d	0.0187571
252	0xbd7ae46b	-0.061252993
253	0xbba0ecb4	-0.0049110297
254	0xba1cb7e6	-0.0005978331
255	0xbadbd695	-0.0016772324
