data/pendulum/models/lsac-pendulum-v.pth (torch, 271064 bytes, 5 tensors)

fc1.weight f4 [256, 3]
00000000: f59c 7d3f c450 bebf b2e2 e6be f328 4dbf
00000010: df18 44bf efa8 85be 21a5 85bf 4954 733f
00000020: b400 f03c 985b 9abe 2c57 003f f7c8 793e
00000030: 2091 7abf b926 e13e d608 a23e 7381 3a3f
00000040: 2dc5 8dbf 3670 063e 692c 1c3e 808c 06bf
00000050: a8ab 213f 7824 adbd be51 b6be 34f6 bb3e
00000060: 4ae6 8fbf 6cb1 ba3f 6bff d43e 71e9 83be
00000070: 51c2 773f f7f4 c93e c188 203f 71b2 62be
00000080: 5e91 993e d688 04bf 0a83 7b3d a97a 0a3f
00000090: b4b4 303f fd4b 853f 993e 8d3e ce73 0cbf
000000a0: b254 aabf 6ff2 e1be 8ef6 12bf 8587 38bf
000000b0: ffa3 5abe 67bf 56bf 50c4 103f f2ae 5dbe
000000c0: 7da8 babe 66f0 1e40 2d6f 073f 2f64 d1bd
000000d0: 1339 5d3f 3fea 5e3e fe71 57bf ed57 c2bf
000000e0: e9a5 8ebe 75bf b4bd 7aaa 283f 933b 0bbf
000000f0: 4e01 62be cabd d43e 3195 04bf c3fa 57be
00000100: 9917 4ebf 13fa 62be 42e0 113f d0e8 c6be
00000110: 9fb1 803e aee2 3cbf 760a 583f 250c 9f3e
00000120: 265a f7bf f712 77bd 5f17 173f a644 8abf
00000130: 54de 87bf 3f78 bebe fcf8 afbe 1896 f8bf
00000140: 48ff d0be d510 54bf 1df3 e23e 11dc 943e
00000150: b51e 73be a619 843d 7b49 ffbe 39e7 c43e
00000160: d35e debd 3245 5b3d ca45 e13e 0cee 5c3f
00000170: 7908 afbe cac1 d93e 6a7f cf3e fac1 91bd
00000180: a959 88be 59bf 50be 1805 abbd 29ba 033f
00000190: 632d 9d3e de8a bfbe e883 6c3f 4b34 983e
000001a0: 34e1 253d 1f8a 2e3e 5ae1 78bf 090e b83e
000001b0: dba7 6e3f 251b 373f 14e0 9b3e c99f 053f
000001c0: a16f e23f fd3d dd3e ce07 52bf b4ff 75be
000001d0: b727 78be 3891 eabe 4e5b 623f e035 9fbd
000001e0: ee4f d1be 4d87 a1bf 2c33 a8be 7a4c 4dbf
000001f0: 6763 023f 5b71 843e 188d 7bbf 4a27 243f
00000200: 2c21 a23e 1a9e c23e 9793 13bf 8ed0 08bf
00000210: d0a2 fd3e 7b9c febe c249 0dbf 8964 82bf
00000220: 29a0 1cbf 64f2 9cbe d019 20bd c6c1 b1bf
00000230: c322 96be ff8d 863f 53b5 023f 0dde 083e
00000240: f0e7 d6bd cb90 32be ae48 3c3f 975a 993f
00000250: ce4e eb3e 0fd3 8a3e 3ccd dabe 699c 043e
00000260: c375 06bf 2781 f43e 0da6 f73e 0fe0 e1be
00000270: b3b6 e7be 8408 a6be f39f 073e cd24 10bf
00000280: 5d9a 533f c1e8 cdbd 9417 9bbd 889d 8c3f
00000290: 7d4b 443f 5eeb f43d 5c45 59bf 2576 9e3e
000002a0: f3bc 03bf c4ea 823f f084 c4bd 5f85 eebd
000002b0: 3c02 e8be 9272 17bf 7a0f 2fbf 9410 d13e
000002c0: ddca 793e 0dff 06bf bce2 f13d 4d64 17be
000002d0: e011 453f d5b6 32be 944d ad3e cc0f 22bf
000002e0: 7f98 81bf f197 8dbe 7e33 85bf a4da 36bf
000002f0: 1931 9ebe fa87 3c3f f66c 9d3d 4a0b 063f
00000300: aef7 38bf 19bc 9dbf c1eb af3d a076 f1be
00000310: 8e80 533e 3f4e fdbe 93fa a9bf 2d1c a43f
00000320: a9fd db3e 3e5b fabf a4a8 08bf 9d97 e33e
00000330: 4ccd 46bf 7d43 383f 83d2 7e3e b73a b6bf
00000340: 2ab0 043f ad02 953e 95dd d8be 97e6 8ebf
00000350: dd1c 28bf 9fb6 87be 7454 fcbf 6fb4 efbe
00000360: 420b 07bf 7325 8e3d fd38 523e 49ef afbe
00000370: dc1c 0a40 c136 f73e 9fda 8fbe 9929 243f
00000380: 872b 25bf be99 1bbe 4574 403f 103a 2e3f
00000390: b6b6 02bf d12c 3dbf 3618 5abe 2bb5 643f
000003a0: 34da e13e d28c 8b3e f9da 02bf 51c4 ddbf
000003b0: c5d2 cebe f841 2ebf d865 69bf 2fb0 a93d
000003c0: 9f69 02bf b09d 61bf 7e8b 15bf 899c a33f
000003d0: bd39 ee3b f30a 243f e79f 4bbf 5a2e dc3d
000003e0: 59b8 863e 4fb9 56bf 18a5 303f b077 893e
000003f0: cca4 0bbf e146 0c40 4aaa ae3e 4168 b73e
0.9906762 -1.4868398 -0.4509483 -0.8014061 -0.7660045 -0.2610545 -1.0441018 0.95050484
0.02929721 -0.30148005 0.50133014 0.24393068 -0.97877693 0.43974856 0.31647366 0.72853774
-1.1075798 0.13128743 0.15251316 -0.52558136 0.6315255 -0.084542215 -0.3560924 0.36711276
-1.1242154 1.4585395 0.41601118 -0.2576404 0.9678088 0.39444706 0.6270867 -0.22138382
0.2999372 -0.51771295 0.061404265 0.54093415 0.6902573 1.0413815 0.2758682 -0.54864204
-1.3307097 -0.44130275 -0.5740746 -0.72081786 -0.21351622 -0.83885807 0.5654955 -0.21648768
-0.3645667 2.4834228 0.52904016 -0.10224187 0.86415213 0.21769045 -0.84158313 -1.5183083
-0.27860954 -0.0882558 0.65885127 -0.5438778 -0.2207081 0.41551048 -0.5179015 -0.21091752
-0.8050476 -0.22165708 0.56982815 -0.38849497 0.25135514 -0.73783386 0.8439096 0.31063953
-1.9324386 -0.06032082 0.59020036 -1.08022 -1.0614724 -0.37201115 -0.34369648 -1.9420805
-0.40819764 -0.82838184 0.44326106 0.29074147 -0.23742183 0.064502046 -0.4986075 0.3845766
-0.1085793 0.053532787 0.43998557 0.8630073 -0.34186152 0.42530662 0.40526897 -0.07117076
-0.26630905 -0.20385493 -0.08350581 0.5145593 0.3069869 -0.37410635 0.9238877 0.29727396
0.040497974 0.17044877 -0.9721886 0.35948208 0.9322488 0.71525794 0.30444396 0.5219694
1.7690316 0.43211356 -0.8204316 -0.24023324 -0.242339 -0.45813918 0.8842057 -0.07773948
-0.40881294 -1.2619416 -0.3285154 -0.8019482 0.50932926 0.25867733 -0.98262167 0.6412245
0.31665933 0.38011247 -0.5764708 -0.5344323 0.4953828 -0.4972876 -0.5519067 -1.0186931
-0.61181885 -0.3065368 -0.039087117 -1.388726 -0.29323396 1.0512084 0.5105793 0.13365956
-0.10493457 -0.17438047 0.735484 1.1980771 0.4595856 0.2711415 -0.42734706 0.1295029
-0.5252344 0.47754785 0.48368874 -0.44116256 -0.45256576 -0.32428372 0.1324461 -0.56306154
0.82657415 -0.1005416 -0.075728565 1.0985575 0.76677686 0.11958955 -0.8487146 0.30949512
-0.5146019 1.0227895 -0.09595668 -0.11646532 -0.45314205 -0.59159195 -0.6838299 0.4083296
0.24393792 -0.52732927 0.11810824 -0.14784355 0.769804 -0.17452557 0.3384825 -0.63305354
-1.0124663 -0.27654985 -1.0406339 -0.7142737 -0.30896834 0.73644984 0.07686798 0.52360976
-0.7225293 -1.2323028 0.08589888 -0.47160816 0.20654508 -0.4947376 -1.3279594 1.2821099
0.42966965 -1.9559095 -0.53382325 0.4445161 -0.7765701 0.7197798 0.24884991 -1.4236668
0.51831305 0.29103604 -0.42356554 -1.116412 -0.6566904 -0.26506516 -1.9713273 -0.46817347
-0.52751553 0.069407366 0.20529552 -0.34362248 2.1580114 0.4828396 -0.28096482 0.64125973
-0.6451954 -0.15195367 0.75177413 0.68057346 -0.51060045 -0.7389651 -0.21298298 0.8933894
0.44111788 0.27255875 -0.51115376 -1.7325536 -0.4039518 -0.6806941 -0.91171026 0.082855575
-0.50942415 -0.8813124 -0.58415973 1.2782146 0.0072700665 0.6407921 -0.79540867 0.10751028
0.2631252 -0.8387651 0.69001913 0.26849127 -0.54548335 2.191826 0.34114295 0.35821727

fc1.bias f4 [256]
00000000: ac92 01bf e5cf ef3e c121 d6bd 2f3c 873f
00000010: 02e5 623f ade7 2ebf 7c40 aabd 13fe 38bf
00000020: c1d8 013e 2e35 36be 7bd6 c2bd 7bdd 0bbf
00000030: 0f2a 9fbe e6cb 9f3d b1e0 383f 4e35 933e
00000040: 31a1 dabe b7b6 b63e 4812 af3e 9313 4fbe
00000050: 0e08 9abe 2930 da3e a528 2f3f 2dd0 693f
00000060: 36e7 b33d 6843 203f ac58 74be 2194 523f
00000070: 2fb8 9abe e0d3 993f 0cee 923e 8c8f 403f
00000080: 23d9 f73e 5ed2 013f f6a9 a13e 6325 debd
00000090: acd8 1fbf a7b4 7ebf 48f7 303f 4d3e bbbe
000000a0: b37f 343f 67f0 223f e082 443f 5c83 7a3f
000000b0: d985 cd3e 6a71 3a3f 4af1 dd3e e0e4 8d3e
000000c0: fca4 09bc 0f30 f2be af4f 04bf 1fe7 273e
000000d0: 68f7 e93e e2c1 17bf 17a5 58bd 53db 903e
000000e0: 4be1 7c3e b312 f8bd fecc 2d3f 09fd 11bf
000000f0: f59f 4a3f 382e 7e3e 9712 323f 3c24 42bf
00000100: a16c d33e 915b 13bf 36fa 433f 021f 1bbc
00000110: 340a ec3e 6ae1 863e 91ff cdbe 2e52 a4be
00000120: 0876 2f3f 9d9d a8be 7fac 1dbf 84a6 f4bd
00000130: ea7d 2c3f e053 32bf e5dc 42bd eaeb ca3e
00000140: cd8a f6be e917 1dbf f67c 553f 42e0 0e3f
00000150: be6c 93bd 2d2d 4d3e 0a52 303f 961c 533f
00000160: badf 023e aeb4 8a3e 5d6f 303f 854f c7bd
00000170: 5582 4f3f 8211 763f 8add 563f c744 1d3f
00000180: 2cc1 183f a0b5 2d3f c382 88be 161d 20bb
00000190: 9548 13bf 74e1 073f bcff d0be 356d 013f
000001a0: 9895 b4be 6f12 dcbd 4d51 1b3f d61a 01bf
000001b0: 03d4 913e b1b8 533f 92e9 963c b3bf 0b3f
000001c0: 2023 b1bd d4e7 953d d3c2 e73e d745 b53e
000001d0: dde4 4d3f 60ab d5be 36fc 603f b25b 72be
000001e0: 165a 643f dffc 8dbd 6672 033f 1b77 4fbe
000001f0: 5fe9 27bf e581 4cbe 1615 1e3f 7611 c73e
00000200: 593b cebe 5dff 24bf ee8c bc3e 68b7 653f
00000210: bc22 15bf 68d2 b23e 8a8a 0bbf 8d70 273f
00000220: a31f 853e 65e7 283f 1c9e 87be 652b d83e
00000230: 346e 88bd 0b1c c4be 6320 21bd c951 043f
00000240: 20c6 8d3f 8238 7fbf 247a 18bf af56 393f
00000250: d2e2 a7bd 4461 fb3e a7d6 2e3f 2b56 2cbf
00000260: 4eed 46bf 01e3 623f 5741 663e 9cae f4be
00000270: c981 2b3f 16be 273f 1871 353f 14da 15bf
00000280: 15c9 dbbe 614c 5bbf b259 f13e 6de3 753e
00000290: 410b 2dbe 73e2 2c3f 9be1 15bf ca7b ed3e
000002a0: 2034 2dbf 7a83 063f c9d6 e03d 55da b8bd
000002b0: 074a 07bf dda6 c43e 19c0 0b3f 6efb 9a3d
000002c0: e431 403f 6a8d c6be fbd0 68bc af91 9ebe
000002d0: 4964 863e 8c9e 213d 6cf0 9dbe 2547 12bf
000002e0: 6a73 a13e ce3f d43e b61c 9dbe 6f81 acbd
000002f0: 164c 433f 853c cf3e 1e6a 783f 899e 79be
00000300: 9188 323b 57ac 113f c10d c0bd 15a0 6e3f
00000310: 95de 3a3f 06d0 94bc ae7e 6fbf 469d 363f
00000320: 54fc 623f 6baa 94be aefd d0be 086e de3d
00000330: e1e1 cebe 17dd aa3e be58 16bf 8eee c63e
00000340: 86c4 88be d8f5 adbd 9c72 333f 8468 0dbf
00000350: c2ce 1abf 0a90 0d3f 98ef 233f 3095 873e
00000360: 44aa f23d 731c 243f 3e5f 1a3f ef96 db3e
00000370: 1dba 79bf 7521 563f c4ce adbe e1fa 513d
00000380: 3f64 ee3e 7db8 f8be 679a 9dbd a729 61bf
00000390: 9e09 473f ed2d d23d d675 39bd 7c37 983e
000003a0: 76a7 5e3f 12fe 4bbf d110 c7be 832a 2a3f
000003b0: b863 3bbf 5e8b 6f3e 9959 163f 1288 5e3f
000003c0: 0a06 543d c3ef 743e dc20 083f 699d 333f
000003d0: d516 f2be fa58 be3b 5065 db3d 2802 bc3e
000003e0: ba2d f5be 0469 373f 651b c0be c9f7 97be
000003f0: ca5c 46be 9351 433f b330 5a3f 754c bb3e
-0.5061443 0.46838298 -0.10455657 1.0565242 0.8863069 -0.6832226 -0.08313081 -0.72262686
0.12680341 -0.17793724 -0.09513565 -0.5463483 -0.31086776 0.078025624 0.7221785 0.28751606
-0.42701104 0.35686275 0.34193635 -0.2022231 -0.3008427 0.42614868 0.68421394 0.91333276
0.08784334 0.62602854 -0.2386195 0.82257277 -0.30218646 1.2017784 0.2869724 0.75219035
0.4840785 0.5071162 0.31574982 -0.10846975 -0.6243999 -0.99494404 0.6912732 -0.3657097
0.70507354 0.63648075 0.767622 0.9785669 0.4014118 0.72829306 0.4334815 0.2771368
-0.008401152 -0.4730229 -0.5168409 0.1639676 0.45696568 -0.59280217 -0.052891817 0.2829233
0.24695317 -0.121129416 0.6789092 -0.57026726 0.79150325 0.24822319 0.69559616 -0.7583654
0.41293815 -0.57561594 0.76553667 -0.009467842 0.46101534 0.26343852 -0.40234044 -0.32093948
0.68539476 -0.3293275 -0.61591333 -0.11945823 0.6737963 -0.69659233 -0.047573943 0.39633113
-0.48152772 -0.6136461 0.833938 0.5581094 -0.07198475 0.20036764 0.6887518 0.82465494
0.12780657 0.27090973 0.68919927 -0.09731964 0.81058246 0.96120465 0.8393179 0.6143307
0.59669757 0.6785526 -0.26662263 -0.00244314 -0.57532626 0.5307839 -0.4082011 0.5055726
-0.3527038 -0.107457034 0.6067093 -0.50431573 0.28482065 0.8270369 0.018421922 0.54589385
-0.08649278 0.07319608 0.45265827 0.35404846 0.8042734 -0.4173231 0.87884843 -0.23667791
0.8919996 -0.06932997 0.51346433 -0.20260279 -0.6559047 -0.19971426 0.61750925 0.3888051
-0.40279654 -0.64452153 0.3682627 0.8973298 -0.58256125 0.34926152 -0.5450827 0.65406114
0.260007 0.6597808 -0.26487815 0.42220607 -0.066616446 -0.38302645 -0.039337527 0.51687294
1.1076088 -0.996956 -0.5956137 0.72397894 -0.081975594 0.49097645 0.68296283 -0.6731898
-0.7770585 0.8862763 0.22485863 -0.47789466 0.6699491 0.65524423 0.7087569 -0.58535886
-0.4292685 -0.8566342 0.47138745 0.24012537 -0.16898824 0.67533034 -0.5854737 0.46383506
-0.6765766 0.5254437 0.10978467 -0.090260185 -0.5284733 0.38408557 0.5458999 0.07567488
0.7507613 -0.38779765 -0.014209981 -0.30970523 0.26248387 0.039457843 -0.3084749 -0.5713981
0.31533366 0.4145493 -0.30685967 -0.08423125 0.7628797 0.4047586 0.9703692 -0.24376883
0.0027242044 0.56903595 -0.09377623 0.93213016 0.72995883 -0.0181656 -0.9355267 0.7133373
0.8866627 -0.2903627 -0.40818542 0.108608305 -0.40406707 0.33371803 -0.5872916 0.38853878
-0.26712435 -0.084941566 0.70096755 -0.55237603 -0.6047174 0.5529791 0.64037466 0.2648101
0.11848882 0.6410591 0.6030158 0.4288859 -0.9754961 0.836448 -0.33946812 0.051264647
0.46560857 -0.48578253 -0.076954655 -0.8795418 0.7774905 0.10262666 -0.045278393 0.2972983
0.86974275 -0.79684556 -0.38880017 0.6647112 -0.73199034 0.23393008 0.58730465 0.86926377
0.05176357 0.23919587 0.5317514 0.70162064 -0.47283044 0.0058089467 0.10712683 0.36720395
-0.4788645 0.71644616 -0.375209 -0.29681233 -0.19371334 0.7629635 0.8523056 0.3658177

fc2.weight f4 [256, 256]
00000000: a708 ba3c 293c 593d 610a 44bd 235a f03b
00000010: b606 933c 7ebb a73c 7bea 69bd c8f5 453d
00000020: 5262 653c 7469 0e3d 50b9 31bc f659 9bbb
00000030: f6e8 18bd e70c b23b d5d6 0ebc 888b 453c
00000040: 3486 843b de4a 333d 4c61 fdbc 7591 183d
00000050: 3906 5c3d 0d18 04bd 582b b53c 7ee3 98bc
00000060: 44b7 7abd f729 a3bc ddc8 05bd 9376 6bbc
00000070: d943 4cbd 5da4 893c 588a 3abd 94b5 06bc
00000080: 3ff7 353d ad39 81bd 06dd 14bd f127 50bd
00000090: 374f bb3c 8a3a 5fbd 2d5b 0abd 7781 3c3c
000000a0: e34f e0bc 6b11 76bc 2036 c4bc 5aa0 603c
000000b0: e288 633c 6d98 05bd 67fd 3e3d 0dad 193c
000000c0: 6662 91bc fcfa f9b8 b47b 73bd 7ff2 3b3d
000000d0: 2ed1 a0bc 508f 38bd 0eb8 93bc d7d5 bc3c
000000e0: de3d 18bd 90b7 433c 2625 2f3d be25 a83c
000000f0: 8f28 ad3c 3859 b1bb 38e9 4b3d 195e 513d
00000100: bae0 5bbd 5872 3ebd ced3 9ebc 7f57 27bd
00000110: 3015 b7bc 804c c63c 2917 5b3d 36ca 9abc
00000120: 5056 4ebd 4bbf 65bd 3812 413d 7bb6 fa3c
00000130: 4f9a b23b 9038 3bbd 3229 55bd 4c3b fb3a
00000140: c002 cb3c befc 19bc 2875 43bd bb9e e6bc
00000150: 1ba8 66bd a734 bb3b caf8 513d 1d4e 0ebd
00000160: 0984 d93a 2d37 903c e323 78bd 5803 c43c
00000170: b922 513d 7dfd 83bd a671 1c3c f31b 6bbd
00000180: fbb2 ecbc 49cd d23b 8769 ba3c 475d a2bc
00000190: d8d7 593d 5147 44bc b55f 993c d8b4 353d
000001a0: 1df5 07bd 5c74 78bc a14f 46bd 4321 e1bc
000001b0: 4ef1 173d 81c3 47bd c3b4 703d c9f7 4dbd
000001c0: 95e3 0fbd 597d d13c 81fb 5f3d 7f36 b93b
000001d0: 4d7f 913c 95ef 8dbc 732a f33c 3b18 723b
000001e0: 6e86 213b 10b4 4e3c 28c9 4e3d e7ad 2cbd
000001f0: c4e6 70bd 01d4 573d 20c0 463d 86e8 293d
00000200: b265 663d bbaf f83c 6c23 f33c 1179 43bb
00000210: 9213 d6bc 8afd e43c bbfe efbc 4138 59bb
00000220: dc78 8a3c 46ca 94bc f5a5 06bd 7e65 14bd
00000230: 882b 3cbc 15db 1f3c 4399 ff3c 2b77 64bd
00000240: 5eef 223d 9dfe 143d 2c24 76bc e601 9f3c
00000250: ec6c 063c 81a9 43bd 6a80 57bc 0e81 313c
00000260: 68a3 4d3b 8e1d 1abd 7383 00bc 1451 043d
00000270: f891 4c3d d4c9 0c3d 8ac9 5cbd 7fbd afbc
00000280: d78e b33c c14f d33b 1d2e 8bbc 5557 84bd
00000290: 5293 e13c 759c 923c 1b4a 65bd 0812 3a3d
000002a0: 35ba 0cbd 38e3 b3bc 8e27 10bd be74 1fbd
000002b0: 2b89 e1bc bdfe 08bd f620 18bc ffa5 353d
000002c0: e8a8 b1bc 80a8 3fbd ef2e 3abd c2d0 633d
000002d0: 6f35 22bd 7122 d33b 29db cbbc 9cbc 03bd
000002e0: 43ac 67bc eedf a93c 06cc 1bbd bc26 fabc
000002f0: 5fbe bf3c e75f 393d 1959 d63c 3937 d83a
00000300: ecad 77bd d439 8b3c 420b 6d3d 9234 5dbc
00000310: 9d8c 0ebd f422 073d 48cf 413c 8df6 133d
00000320: bf62 3b3d 769e 1ab9 4f9d 3e3b f05e b2bc
00000330: 9ead 15bd f2ea 6e3c 5105 cfbb 4184 44bb
00000340: b78b b33b b2fc 6a3a 5d70 013d c59c 0dbd
00000350: 338b 66bd 870f 303c de74 2c3d 59d9 4abd
00000360: 687b 433d 27cb 24bd b140 4fbc c041 343d
00000370: fa40 663d f8ad bfbc 5f86 a7bc dc89 03bd
00000380: c6b1 af3c a8c0 453d 3e33 13bd 9f74 abbc
00000390: 705a 39bc f60a a43c 8629 1bbd b5fb 18bd
000003a0: fe30 23bd 5c2a 7cbc 5f69 b03c 5ed8 11bd
000003b0: 1cd2 f8bc 6ee5 26bd f2db 643d 023f 5bbd
000003c0: 2a97 e73c 0ff8 323c c873 313c 54c7 823b
000003d0: b21c ee3c 84f6 df3c 894d 47bd 2c04 73bd
000003e0: f4c7 78bd 7cbb 8e3c 9f47 3f3d a9d4 4abd
000003f0: 276d bc39 b521 9b3c 35a7 8bbc f94b c7bb
0.022709204 0.05303589 -0.04786146 0.007334964 0.017947536 0.020475145 -0.057108384 0.0483301
0.014000492 0.034768537 -0.010847405 -0.004740949 -0.037331544 0.005433667 -0.008718212 0.012057193
0.0040443186 0.04377257 -0.030930184 0.037248094 0.053716872 -0.0322495 0.022115394 -0.018663164
-0.061209932 -0.019917471 -0.03266226 -0.014371532 -0.049869392 0.016802007 -0.04554209 -0.008222003
0.044425245 -0.06309829 -0.036343597 -0.05081934 0.022864921 -0.054499187 -0.03377836 0.011505476
-0.027381843 -0.015018801 -0.02395159 0.013710106 0.013887616 -0.032616068 0.046628382 0.009379637
-0.017747115 -0.00011919995 -0.059444144 0.04588556 -0.019630995 -0.04505855 -0.0180321 0.023051186
-0.037168376 0.01194562 0.042760037 0.02052581 0.021137504 -0.005412247 0.04978296 0.05111513
-0.053681113 -0.046495765 -0.019388106 -0.040854927 -0.02234897 0.0242064 0.053488884 -0.01889525
-0.050375283 -0.056090634 0.047136515 0.030604592 0.005450524 -0.04570824 -0.05204124 0.0019167452
0.024781585 -0.009398637 -0.04771915 -0.02815186 -0.05631266 0.0057130638 0.051262654 -0.034742463
0.0016595136 0.017604435 -0.0605811 0.023927376 0.051058505 -0.064448334 0.00954858 -0.0573997
-0.028893938 0.0064331633 0.022755397 -0.019819869 0.05318436 -0.011979894 0.018722394 0.04436192
-0.033192743 -0.015164461 -0.048415784 -0.02748168 0.03709536 -0.04877043 0.058766138 -0.050285134
-0.03512915 0.025572466 0.054683212 0.0056522484 0.017760897 -0.017326156 0.029683327 0.0036940712
0.0024646777 0.012616172 0.050484806 -0.042158034 -0.058813825 0.052692417 0.04852307 0.041481517
0.056249328 0.030357232 0.029679976 -0.00298268 -0.026132379 0.027952928 -0.02929627 -0.0033145102
0.016903333 -0.018162858 -0.032873113 -0.036229603 -0.011484988 0.009756823 0.03120101 -0.05577771
0.03977906 0.03637563 -0.0150232725 0.019410085 0.00820468 -0.047769073 -0.013153175 0.010833992
0.0031377915 -0.03762584 -0.00784384 0.032303885 0.049943894 0.034372166 -0.05390314 -0.021452663
0.021918697 0.0064487164 -0.016989762 -0.0646197 0.027536068 0.01789687 -0.055978876 0.045427352
-0.03435727 -0.021958932 -0.035193972 -0.038929693 -0.027531227 -0.033446062 -0.009285202 0.04434776
-0.021686986 -0.046791553 -0.045454916 0.05561901 -0.03960174 0.0064433147 -0.024884777 -0.032162294
-0.0141401915 0.02073666 -0.03803637 -0.030536048 0.023406206 0.045257475 0.026165532 0.001649595
-0.0604686 0.016995348 0.057872064 -0.013501303 -0.034802068 0.03299232 0.011829205 0.0361238
0.04574847 -0.00014745616 0.0029085462 -0.021773785 -0.036542527 0.0145823825 -0.0063177724 -0.0029986056
0.005479302 0.0008964046 0.0316013 -0.034573335 -0.056285094 0.0107458895 0.04210364 -0.049523685
0.04772511 -0.040232804 -0.012649701 0.044008017 0.05621431 -0.023398384 -0.020449815 -0.032113895
0.021447074 0.048279434 -0.03593754 -0.020929633 -0.011313066 0.020024758 -0.037881397 -0.03734942
-0.039841644 -0.015390959 0.02153462 -0.035606734 -0.030373625 -0.040746145 0.05587382 -0.053526886
0.028270323 0.0109234 0.010830827 0.003991047 0.029066417 0.027339227 -0.048657928 -0.05933015
-0.060737565 0.017423384 0.046699163 -0.049519215 0.0003593948 0.018936971 -0.017047504 -0.0060820547

fc2.bias f4 [256]
00000000: 5794 303d 79be 6f3d de7d 1ebd 942f 453e
00000010: 2f38 d63b 3d92 183d e83f d63d f41a 7cbd
00000020: 3a68 54bd e279 803d 0668 9bbc bf25 ef3d
00000030: 2f38 763e bb76 f53b f9ff 2e3e fb0e e6bb
00000040: 4efc 2a3d c526 103d 2c8e 75bd 751c 86bd
00000050: 60d5 513e 8764 dd3e 2b47 3ebc b546 b33c
00000060: 5e4d 243d 678d a7bc 460a 143e 18a2 623d
00000070: edb9 ff3d 9020 083c e311 033e 56bc a13c
00000080: 8895 4e3e 9dd5 1f3d 4948 4bbd 72de 55bd
00000090: 3d9b 4e3e 9adb bc3d 8f74 ea3c ba69 5abd
000000a0: 7c02 e23c 313d da3c ba46 0c3e 885b b63d
000000b0: 9813 313e f99e 4ebd 2d52 433d bfa8 ba3d
000000c0: 8d72 103d bb05 893e 3ac6 fe3d 5f9c 363d
000000d0: d464 0839 eac4 e13e 044b 043e 525b e43d
000000e0: 3be9 5a3e c6be 263e fa54 52bd 8a76 6e3c
000000f0: 4ebe 13bb b28d 1f3e 52ec ab3d 93a7 67bd
00000100: c088 763e 29ec 44bd 2f46 1b3e 223c b63d
00000110: f36e 1c3e bdb0 183e 4f5d 383c 5ea6 91bc
00000120: 3f37 953e 4cfd af3d 30a4 cd3c 61a8 4bbd
00000130: 6c76 aa3d bd54 9c3c a403 453e 492a 733d
00000140: 2292 d6bc 8d76 703e bbbf 6dbd 34cf 833d
00000150: 6888 453d 6387 243e 717d 403e 7f4f a0bb
00000160: ac04 0e3d 8320 e53e 0b91 1b3e 8497 78bd
00000170: dc68 313e 578f 143e ef59 253e 9fa5 5f3e
00000180: d84d 9e3d c0ad 1d3e 6288 e13b 8587 c03d
00000190: 5885 3fbd 5771 183e b780 20bd 34f7 a93e
000001a0: 6e83 ae3c 134b 16bb a6af 983e 2f53 453e
000001b0: 70ac 113e 424f 933d fac6 133e a381 173e
000001c0: b858 1d3e cc32 d43d 8ef6 493e 4ed2 ed3d
000001d0: 508b 413c 91f7 49bd aeae 2c3d 4655 9bbd
000001e0: 3a55 d3bc 5672 1b3e cb3d 203e 01ae d73d
000001f0: d08a 8d3e 8183 41bd a5f7 483e dc48 453e
00000200: cf88 6c3e 351d e93d 2aba bbba 4424 063d
00000210: 920d 2c3e fef3 c23e 8562 85bd 08b2 073e
00000220: 0872 b93e 7b16 6bbd c1b9 f43d e53d 523d
00000230: feb9 b13e 986d 703e cb20 323e a27f 3d3e
00000240: 409f 4e3d cef4 253d 1a91 903d d502 fb3d
00000250: 0b1a 253e 9d57 02bd 396d ab3e fc48 7f3e
00000260: 5f3a e33d c430 593e b140 0d3d b11a 4dbd
00000270: 8113 af3d 3893 3d3e 421c 533e d9d7 013e
00000280: 7d1f 093e fa88 123e d001 2f3e c353 a93c
00000290: 5499 79bd 5e11 ae3c 0b02 313e 0ce5 1d3e
000002a0: 54c2 8c3e 2428 893b 7f61 b63c 48de b2bc
000002b0: 682c 203e 5b5e ba3c d2d4 d33d 8d87 bf3d
000002c0: 7950 593c f586 143e 90c0 8e3d bf61 52bd
000002d0: b1e0 d13d 3405 f4bb 8af0 e23c 4c78 75bc
000002e0: 62cb d83e 2e6a ce3d 6b56 1d3e cb2c f33c
000002f0: d4b1 f7bc f1a7 143e f00a 583e baa1 033e
00000300: 6994 dc3c 1019 acbc da1c 5fbd 5d4c 87bd
00000310: 929c 2b3d 35fd 85bd 2cb9 4c3e 1e88 15bd
00000320: df44 193d 0ab2 4e3e c498 393e f5a0 7c3e
00000330: 6469 fbbc 806d 34bd d21b deba c830 38bc
00000340: 689e 053e 516f 573d 1951 4fbd bc30 893c
00000350: 3958 4a3e 37e2 7d3e 0c71 1e3e 188c 413d
00000360: 7c19 2a3e 3257 5ebc b5ea 06bd cd30 9c39
00000370: 87f2 383b edc7 143d fc6e 473e f0c0 943e
00000380: 9732 393d 26ee d33d a6cf 243e 74a6 a63d
00000390: 9605 1bba 0f99 8d3e 792d 4a3c cdd9 2a3e
000003a0: 7476 77bd 04f2 8b3d fcd5 193e c164 dc3c
000003b0: 8581 04bd 7cb0 fbbc 94c3 e83d 80fe bd3d
000003c0: 8015 98bd c987 4fbc 9042 20bd b50e 81bd
000003d0: 1cfa 3f3e 29be 4e3e b170 1d3e 0e06 203d
000003e0: 009d 533d 75d6 80bd 2381 ac3d fbcc 513e
000003f0: 68a1 c538 947a 80bd e31f 68bd e709 3f3d
0.043110218 0.05853126 -0.038694255 0.19256431 0.0065374593 0.03724884 0.10461408 -0.061549142
-0.05185721 0.06273247 -0.0189705 0.11677121 0.2404487 0.0074909604 0.17089833 -0.007020829
0.041744523 0.035193224 -0.05995004 -0.065483965 0.20491552 0.4324076 -0.011613647 0.021884302
0.040112846 -0.020453168 0.14457044 0.055330366 0.124866344 0.008308545 0.12799792 0.019743126
0.20174229 0.039022077 -0.049629483 -0.052214094 0.20176406 0.09221573 0.028620033 -0.053323485
0.027589075 0.026640506 0.13698855 0.08904177 0.1729263 -0.050444577 0.04768579 0.09114217
0.035265494 0.26762185 0.124401525 0.04458272 0.00013007532 0.44095546 0.12919241 0.111502305
0.21378033 0.16283712 -0.05135057 0.014554629 -0.002254385 0.15581396 0.08394684 -0.056556296
0.24075603 -0.048076782 0.15163492 0.08898188 0.15276699 0.1491117 0.011252715 -0.017779525
0.29143712 0.085932344 0.025102705 -0.049721126 0.083233684 0.019083375 0.1923967 0.0593665
-0.026192728 0.23482724 -0.058044177 0.06436005 0.04822579 0.16067271 0.18797852 -0.004892289
0.034672424 0.44751367 0.15192048 -0.06069137 0.17325157 0.14507805 0.16147588 0.21840523
0.07729691 0.15398312 0.006882713 0.09400848 -0.046758026 0.14886986 -0.039185252 0.33196414
0.021302905 -0.0022932931 0.2982151 0.19270013 0.14225936 0.071928516 0.14431372 0.14795546
0.15365875 0.10361251 0.1972296 0.11612378 0.011813 -0.049308363 0.042158775 -0.07584624
-0.025797475 0.15180334 0.15648572 0.105312355 0.27644968 -0.047244553 0.19625719 0.19266075
0.23099063 0.11382524 -0.0014322449 0.03274943 0.16802052 0.38076776 -0.06512932 0.13251507
0.3621981 -0.057394486 0.11949492 0.05132856 0.34712213 0.23479307 0.17395322 0.1850572
0.05044484 0.040516667 0.07058926 0.122563995 0.16123216 -0.031821836 0.33481768 0.24930185
0.11095118 0.21210009 0.034485523 -0.050074283 0.08548642 0.18513191 0.20616248 0.12679996
0.13390918 0.14310065 0.17090535 0.020669824 -0.06093724 0.021248516 0.17285936 0.15419406
0.2749201 0.0041856933 0.022263287 -0.021834508 0.1564194 0.02275007 0.10343327 0.09352026
0.013263815 0.14504607 0.06970322 -0.05136275 0.102479346 -0.0074469093 0.027702589 -0.014982294
0.4234267 0.10078846 0.15364997 0.029684445 -0.030236162 0.1451719 0.21097922 0.12854663
0.026926236 -0.021008044 -0.054470874 -0.06606362 0.041897364 -0.06542436 0.19992512 -0.036506765
0.037419196 0.20185104 0.18124682 0.24670775 -0.030689903 -0.04404974 -0.0016945547 -0.011242099
0.13048708 0.052596394 -0.05061445 0.016746871 0.19760217 0.24793325 0.15472811 0.047252744
0.16611284 -0.013570594 -0.032938678 0.00029790998 0.002822073 0.036323477 0.19475931 0.2905345
0.04521426 0.103481576 0.16094837 0.08137217 -0.0005913613 0.27655837 0.012339943 0.16684647
-0.0604157 0.0683327 0.15023035 0.026903512 -0.032350082 -0.030723803 0.113654286 0.09277058
-0.07425976 -0.012666651 -0.03912598 -0.06301633 0.18747753 0.20189728 0.1537502 0.039068274
0.0516634 -0.062909044 0.084230684 0.2048835 9.423756e-05 -0.0627338 -0.056671035 0.046640303

value.weight f4 [1, 256]
00000000: 4223 693d e24c 2e3f 9e34 253d fe1f 81be
00000010: 7b15 2b3d f228 6d3d c2cc e73e d05c 2bbd
00000020: ad83 963c ea67 063f f929 55bd 9054 8cbe
00000030: 7eaf 91be 5f89 b33b d234 bcbe a571 1cbd
00000040: 6b90 fe3c 7222 ec3c 8123 d13c a250 633d
00000050: cabe 0d3f 51f0 c23f d527 413f 02ec 6c3d
00000060: 918d ca39 c7d8 35bd 229a a9be cf3f 0340
00000070: cdfd acbe 0ec4 4cbd c3af 8abe 4dcd 9d3c
00000080: 1082 adbe d828 c43c abd1 f03c b006 483d
00000090: e95e 10bf 1d4b d8be 8157 993f 9ce1 04bd
000000a0: 8406 6a3d ffcf 2e3d 0cd3 99be 1a05 93be
000000b0: 94f1 79be ff8e 3d3d 3627 563f b85e 7abe
000000c0: f1a6 d83c 4bb2 b73f 2b92 6ebe f630 653f
000000d0: 0184 5c3c f63e c53f 1c4a 443f 4c04 a4be
000000e0: d6b2 88be a6c0 aabe 38b6 473c 0e02 293d
000000f0: be11 a33c 95d9 abbe 9cef a3be eeb8 a33c
00000100: dc7b 243f b202 6a3d f257 87be face 6abe
00000110: 8215 a2be 974a 94be 6ee4 a23c 2dcd 103d
00000120: 5d4c e5be 0526 7abe f83f 493d 5b2b 673d
00000130: c05a 64be a770 313d 072c 90be 08cb 86be
00000140: 7de3 183d 203b a2be f9e0 5c3c a492 eb3e
00000150: e649 2cbd 08a4 99be c97f 6ebe 64aa 053d
00000160: 25c7 143c 6775 c43f e34f 6dbe 6956 5e3d
00000170: 4e32 8dbe f759 8ebe 1bf7 8abe 8583 98be
00000180: 6603 9dbe 2295 8ebe d95e d43c a120 6cbe
00000190: 176c 3e3d 8134 8dbe 8293 683d ad74 bd3f
000001a0: b82e cf3c 403c de3e ac5b c93f b374 88be
000001b0: 800f 8fbe 2c19 88be d11c 90be cbff a8be
000001c0: 455e 83be e47d 81be f4dc 8cbe 6468 633f
000001d0: f657 2cbd 4b34 f83c 2881 c13c e1f7 dd3b
000001e0: 71ed 5f3d 1133 96be 8f07 9ebe 9bf0 e83e
000001f0: 3ba1 febe 0e28 2bbd e92c afbe a540 83be
00000200: 3146 8fbe 0e91 153f 9472 f93e b90f 503d
00000210: 34ac a4be 96e4 d83f d04f cd3b 1a76 6fbe
00000220: cbff cb3f b635 a03c cf53 84be 9269 f93e
00000230: 532b 963f 6aa8 a7be fb8e a9be 6184 80be
00000240: 1831 183c 8084 453c 6cef 8ebe b983 babe
00000250: db26 8bbe 674b 323d d952 ba3f f0a7 bebe
00000260: 45cb acbe ec46 67be cdb6 013f ff99 b73c
00000270: 7d7e ee3e 928f b8be 153f a03f b4e8 adbe
00000280: de4e 75be 6ea0 8dbe 45f8 8fbe 3e55 2d3f
00000290: 4263 ef3b e1e2 d43c 4235 92be e7d9 89be
000002a0: 211a ba3f ba35 eb3c 9cc7 003d 7eaf 293c
000002b0: c449 86be 4b61 003f 6250 8ebe 8184 90be
000002c0: 5564 1f3d 4318 7fbe aa9f 173f 439b 1c3b
000002d0: 68e3 85be 84b5 0cbd 3cb9 053d a8e0 483d
000002e0: 0732 c93f 8a16 87be 60fe a1be 46e9 133d
000002f0: e532 1b3d 4d31 93be 43ae e3be c24f 93be
00000300: c190 5d3d 5aef 0fbd 4efc 2a3d e687 aa3b
00000310: eb32 0c3f b6df 253d 31fb 313f 02e9 e03b
00000320: 1f7a 5c3f e02f a5be 1053 88be 9976 c33f
00000330: 8994 50bd 8001 c6ba 9555 963c 3631 273d
00000340: 74be aabe 4db4 f53e 6f7a 3c3a 6e28 003d
00000350: da84 7cbe 5b50 aebe e4df a6be 093c ccbb
00000360: 0d7d 8cbe d03a 443d 070c 3b3c cbf4 f3bc
00000370: 06fc ac3c 1f9c b33c b131 86be 9e48 bc3f
00000380: 068c 2ebd 69c6 a4be fabb 92be baf8 9abe
00000390: 5909 5c3c ccf8 eabe 0b36 663b 0058 75be
000003a0: 95f8 183d 9620 a43f 4c90 a33e 773b 373c
000003b0: 029b ed3b 3381 f03c 061e 9cbe fd45 90be
000003c0: 4359 95bd 9bac 783c 9c5e 01c0 d46c 0f3d
000003d0: 0998 423f d719 a1be 1500 97be edc3 9d3c
000003e0: 24f9 f73e 02d0 e03c 8d4c acbf e1e7 81be
000003f0: 8932 d8bc 3edc 553f f6a1 28bd 367c a73c
0.05691839 0.68086064 0.040333383 -0.2521972 0.041768532 0.057900377 0.45273405 -0.04183656
0.018373335 0.5250231 -0.05204198 -0.27408266 -0.28454202 0.0054790224 -0.3675905 -0.038194317
0.031074723 0.028825019 0.025529625 0.05549682 0.55369246 1.5229589 0.75451404 0.057842262
0.00038633918 -0.044396188 -0.33125407 2.0507696 -0.33787385 -0.04999166 -0.2708722 0.019262934
-0.33888292 0.023945257 0.029396852 0.048834503 -0.5639482 -0.42244807 1.1979829 -0.03244172
0.05713512 0.04267883 -0.30043828 -0.2871483 -0.24408561 0.04627895 0.8365358 -0.24450195
0.026446791 1.4351286 -0.23297946 0.89527833 0.013459207 1.5409839 0.7667558 -0.32034528
-0.2669894 -0.33350104 0.01218944 0.041261725 0.019905921 -0.3356444 -0.32018745 0.019985642
0.64251494 0.057131477 -0.26434284 -0.22930518 -0.31657034 -0.28963158 0.019884314 0.03535192
-0.44784823 -0.24428566 0.04913327 0.05643783 -0.22300243 0.043320324 -0.2815859 -0.26326776
0.037326325 -0.31685734 0.013481372 0.46010315 -0.042062663 -0.30007958 -0.23290934 0.0326332
0.009080683 1.5348328 -0.23175006 0.054281626 -0.27577442 -0.27803013 -0.27141652 -0.2978784
-0.30666655 -0.27848154 0.025924133 -0.23059322 0.0464898 -0.2757912 0.0567813 1.4801232
0.025290832 0.43405342 1.5731101 -0.26651534 -0.27941513 -0.26581705 -0.28146985 -0.33007655
-0.2565786 -0.2529136 -0.27512324 0.8883116 -0.042076074 0.030298373 0.023621157 0.0067739342
0.0546698 -0.29335836 -0.30865142 0.45496067 -0.49732384 -0.041786246 -0.3421395 -0.25635257
-0.2798324 0.5842446 0.4872023 0.050796244 -0.3216263 1.6944759 0.006265618 -0.23384896
1.5937437 0.019556861 -0.2584519 0.48713356 1.1731972 -0.32745677 -0.33116898 -0.25100997
0.009289049 0.012055516 -0.2791704 -0.3642862 -0.27178082 0.04352894 1.4556533 -0.372375
-0.33748832 -0.22585648 0.50669557 0.022412298 0.46580878 -0.36047035 1.2519251 -0.339666
-0.23955867 -0.2766146 -0.28119102 0.67708194 0.0073055336 0.02598709 -0.28556257 -0.2692406
1.4539224 0.028712142 0.031440362 0.010356782 -0.26228154 0.5014846 -0.27795702 -0.28226092
0.038914043 -0.24911599 0.59228003 0.0023896254 -0.2615006 -0.034352794 0.032647356 0.049042374
1.5718392 -0.26384383 -0.31639385 0.03611114 0.037890334 -0.2874855 -0.4446889 -0.28771788
0.054093126 -0.035140373 0.041744523 0.0052041886 0.54765195 0.04049655 0.6952391 0.006863714
0.8612384 -0.32263088 -0.26625872 1.5270568 -0.050922904 -0.0015106648 0.018351356 0.040818416
-0.3334843 0.4798912 0.0007189875 0.031288557 -0.24660054 -0.3404568 -0.3259269 -0.0062327427
-0.27439156 0.04790765 0.011416442 -0.029779812 0.021116268 0.02192503 -0.26209787 1.4709661
-0.042614006 -0.32182625 -0.2865904 -0.30267888 0.013429963 -0.45892942 0.0035127427 -0.2395935
0.03734644 1.2822444 0.31946027 0.011183611 0.0072511444 0.029358482 -0.30491656 -0.28178397
-0.07292416 0.015177871 -2.0213995 0.035015896 0.7601324 -0.31465027 -0.2949225 0.019258464
0.48432267 0.027442936 -1.3460861 -0.25372222 -0.026391285 0.8353919 -0.041170083 0.02044497
