data/pendulum/models/lsac-pendulum-v.pth (torch, 271064 bytes, 5 tensors)

fc1.weight f4 [256, 3]
000000 0d 31 22 bf 6b 47 da be 7d ac a4 be 48 08 88 bf
       -0.63356096 -0.42632613 -0.32162848 -1.0627527
000010 c5 68 90 bf fd d6 cc be 9c c3 0e bf 29 4b 4c bf
       -1.1281973 -0.40007773 -0.55767226 -0.79802185
000020 6f e7 c4 3e e1 7f 5d 3f e1 59 14 3f 22 d6 d6 3e
       0.3845782 0.8652325 0.57949644 0.41960245
000030 9d ee 25 3f cb 6e 73 3f 48 78 57 3f 38 53 5c bf
       0.6481722 0.9509093 0.8416791 -0.8606448
000040 f7 60 51 3f 93 2a 2d 3e 2c 2f 5a bd 16 f6 69 3f
       0.8178858 0.16910772 -0.053267643 0.9139112
000050 70 15 33 3f e5 07 3b bf b6 77 d2 3e 4e 93 a7 3e
       0.69954586 -0.7305892 0.41106957 0.32729572
000060 bb 65 22 3e d4 65 a5 3d f2 9e 1a bf 0c a1 57 bf
       0.1585912 0.08076063 -0.6039878 -0.84230113
000070 25 fd 0b bf ba 09 98 be 0f e1 ca bf 2c 08 75 bf
       -0.5468314 -0.2969492 -1.5849932 -0.95715594
000080 72 a4 dd 3e 64 7d 6b 3c 25 dc 40 3e 1c dc 4d 3f
       0.43289524 0.014373157 0.18833978 0.80413985
000090 54 bd 80 bf 38 80 a6 3f f7 58 d1 3e 71 80 80 bf
       -1.0057778 1.3007879 0.40888187 -1.0039197
0000a0 b1 33 59 3f 69 ed 84 3e 30 65 95 bf 20 96 97 3f
       0.848445 0.2596238 -1.1671505 1.184269
0000b0 c1 5b c2 3c 62 7b 59 3f 68 8f 8a 3f 6f 4d 23 bf
       0.023725392 0.8495389 1.0825014 -0.6379003
0000c0 5e 0b 96 bf 9c 3d e8 3e bc 6c 6b 3e b5 de 1d 3e
       -1.1722219 0.45359504 0.22990698 0.15416987
0000d0 dd b2 b7 bf c7 19 34 bd 4e 3d ab bf 27 e6 63 3f
       -1.435146 -0.043969896 -1.3378084 0.8902306
0000e0 8d 66 e9 3e 01 73 9c 3f 5a b8 73 3f 4c 62 c6 3e
       0.45586053 1.2222596 0.95203173 0.3874687
0000f0 52 e3 2b 3e b6 12 08 bf e0 bb 26 bd 52 ed 03 c0
       0.16785935 -0.5315355 -0.040706515 -2.06136
000100 fb 7a 80 be 41 6d 2a 3f 2f 72 fa bd 89 7a 04 bf
       -0.25093827 0.6657296 -0.1222881 -0.51749474
000110 4d 18 01 3f 82 16 f6 bf c1 9d 81 3f 37 44 d4 3e
       0.50427705 -1.9225619 1.0126268 0.41458294
000120 d2 9c 95 3e a0 3c ff bf de 65 3f bf 57 35 f2 be
       0.29221207 -1.9940376 -0.7476481 -0.4730632
000130 7f b7 10 40 77 96 93 3e 99 72 b9 be 03 43 24 be
       2.2611997 0.28825733 -0.36220244 -0.16041188
000140 46 99 29 be 3b 85 fa be 43 b9 10 40 71 cf 12 3f
       -0.16562375 -0.48929772 2.2613075 0.5734778
000150 ea 6d c8 be 6d 62 fa 3d 42 0e 7a 3e ef 4a 23 be
       -0.39146358 0.122258045 0.24419501 -0.15946554
000160 42 4c ee bf 05 ff c5 bd 52 bd b3 bf b2 fa 8b bf
       -1.8617022 -0.09667782 -1.4042151 -1.0935881
000170 0d 68 f7 be de a2 bc bf b1 9d d2 3f 38 cf 53 3e
       -0.48321572 -1.4737203 1.6454374 0.20684516
000180 d6 cf 08 bd ef a8 eb bc bc 19 2a 3f 36 6e 88 3f
       -0.033401333 -0.028767077 0.6644552 1.0658634
000190 cb b8 1a 3f d7 f4 a4 3e 3b 09 9d bf f6 0b 4a 3f
       0.6043822 0.32218048 -1.2268442 0.789245
0001a0 39 91 c3 3e cd 4f 7a bf b8 5a 25 3f a5 5c b6 3e
       0.38196734 -0.97778016 0.6459155 0.35617557
0001b0 f1 0b 7c bd f2 a4 21 40 60 b6 0a 3f 3e 64 16 3f
       -0.061534826 2.5256925 0.5418453 0.5874671
0001c0 c0 17 9d bf f3 b7 05 3f 3b 69 09 3f 01 c7 c2 3f
       -1.2272873 0.5223381 0.53676194 1.5216981
0001d0 e7 80 cc 3e f0 e5 72 bf 9f 21 2a 3e 08 1f 98 be
       0.39942095 -0.94882107 0.16614388 -0.29711175
0001e0 99 50 30 3f e5 54 67 3f 8b e2 19 3f 9e a0 79 bf
       0.6887298 0.90363914 0.601113 -0.9751071
0001f0 19 c6 ee be d3 27 f4 3e 00 2f 99 bf 59 98 4d 3f
       -0.46635512 0.47686633 -1.1967468 0.8031059
000200 53 49 d5 3e 7d 38 67 bf 7e 0e d3 3e 0d bf a0 3e
       0.41657504 -0.9032057 0.41221994 0.3139576
000210 f5 d8 ad bf 71 ec 5d 3d 6b 8f 0f 3e 47 aa d9 bf
       -1.3581835 0.054180566 0.14019553 -1.700509
000220 2e e4 13 3f dc 6b a0 3e 8d f6 52 be 02 de d8 3f
       0.5777005 0.3133229 -0.20601864 1.6942751
000230 62 ab fa be 31 3d b1 be 51 c9 8a bf d4 4d c7 be
       -0.4895888 -0.34616998 -1.0842687 -0.38926566
000240 cb cc 14 bf da a5 1d c0 f7 8e 0c bf 83 3a 5d 3f
       -0.5812499 -2.4632478 -0.5490565 0.86417407
000250 19 c4 6d 3d 63 84 be 3d 08 dc 25 c0 8a b6 ff 3e
       0.05804834 0.093025945 -2.5915546 0.49943954
000260 a9 8c 2f bf af 3e 61 be 7e 99 b4 3f 88 d6 28 3f
       -0.68574005 -0.21996568 1.4109342 0.6595235
000270 62 1b a1 bf 7a 8d a8 bf 85 5a 50 be 18 b1 89 bf
       -1.2586482 -1.3168175 -0.2034703 -1.075717
000280 7d 2f de bf 1a 05 ba bc f3 ce 63 3e 1f 25 a5 3f
       -1.7358242 -0.02270751 0.22246914 1.2901953
000290 1b de 56 be 20 4d 81 bf a0 97 7c 3f a0 ad bb 3e
       -0.20983164 -1.0101662 0.9866886 0.36655903
0002a0 5d 34 99 bf 3e 6f 30 bf 30 62 45 bf 76 e6 63 bf
       -1.1969105 -0.6891974 -0.7710295 -0.8902353
0002b0 4e 84 9b 3e 0b f9 b1 be 2d aa e3 3e b1 fa 1d 40
       0.30374378 -0.34760317 0.4446577 2.468426
0002c0 7c 28 fb 3e 54 9d 63 bf 0e 2e 20 bf 79 6a 9a 3e
       0.49054325 -0.8891194 -0.62570274 0.30159357
0002d0 32 a4 7c be 46 9c 8d 3f 59 c2 ce 3c 1d 20 24 3f
       -0.2467201 1.1063316 0.025239157 0.641115
0002e0 0d 27 6e be 49 7e ff be 58 cd 07 3f 2e f1 df bf
       -0.23257084 -0.49901035 0.53047705 -1.7495477
0002f0 eb c4 c3 be e3 e3 40 bf 82 8b df bf a5 d3 d0 be
       -0.38236174 -0.7534773 -1.746445 -0.40786472
000300 8a d1 33 3e 99 9e a9 bd 90 35 5b 3e a9 e7 d2 bd
       0.17560402 -0.08282203 0.21407151 -0.10298092
000310 cb 2b 69 bf 1a ba 31 bd 30 0e d1 3e b9 08 e0 bf
       -0.9108245 -0.04339037 0.40831137 -1.7502662
000320 81 a8 56 be 19 e3 10 c0 2c 03 9d bf d2 5c f3 be
       -0.20962717 -2.263861 -1.2266593 -0.47531754
000330 5e 9e c6 3e 05 0a 95 3f 6c 4a c8 be cd 2d 3d bf
       0.387927 1.1643683 -0.3911928 -0.7389801
000340 97 9e c3 bf d0 bb ce be 03 d4 dc bf c2 07 04 c0
       -1.5282773 -0.40377665 -1.7252201 -2.0629735
000350 da ad 10 be 09 2b bd bc bd 68 4d 3f 1d 7d 20 3f
       -0.14128819 -0.02309181 0.8023794 0.6269091
000360 25 20 d9 be eb 3f 9b bf 4d 5d 13 bf c0 bc 55 bf
       -0.42407337 -1.2128881 -0.5756424 -0.83491135
000370 02 9f bd 3e 68 3e b6 3e 8d ae 7e bf d0 3f 1a bf
       0.37035376 0.35594487 -0.99485093 -0.6025362
000380 02 e9 97 be 3e c2 6a 3e 5b bf 51 bf ef 39 78 3f
       -0.29669958 0.2292566 -0.8193261 0.969634
000390 b6 00 83 be ec 85 b6 bf ee 24 0d bf 1e 4f 3e bf
       -0.2558648 -1.425962 -0.55134475 -0.74339473
0003a0 e7 c8 e1 be 30 30 9a be 29 cb 3f 3e ce 5d 9a 3f
       -0.4409859 -0.3011489 0.18729843 1.2059877
0003b0 fa 54 b4 be 68 6d 5c 3f f5 af ce bf e5 66 f1 be
       -0.35221082 0.8610444 -1.6147448 -0.47148815
0003c0 e2 82 a0 3f c2 4b 58 bf fe a2 2a bf 9c 45 b9 bd
       1.2539942 -0.844906 -0.66654956 -0.0904648
0003d0 e0 4a 00 bd 80 dd 02 3d 68 45 7a be 73 75 8d 3f
       -0.031321406 0.03194952 -0.24440539 1.1051468
0003e0 8e 09 e7 3c 0b 93 02 3f 4b 81 c2 be 7a d0 2b 3f
       0.028202798 0.5100562 -0.37989268 0.67114985
0003f0 34 c0 ad bf 06 e3 96 3c fb be 28 3f 24 57 b7 bf
       -1.3574281 0.0184188 0.65916413 -1.4323468

fc1.bias f4 [256]
000000 3b d5 82 3f f6 f0 0c 3f 3e 56 45 bf 22 82 9b bf
       1.0221323 0.5505518 -0.7708472 -1.2149088
000010 73 1f 24 3f ae 03 05 3f ab 09 73 be 5b ce 7f 3f
       0.6411049 0.5195874 -0.23734157 0.9992425
000020 8d eb 72 3f 91 5b 28 3f 90 2e 78 be 0d f5 2f bf
       0.9489067 0.6576472 -0.24236512 -0.6873329
000030 83 b6 f6 3e ea e9 2f 3f 24 77 0e 3f 44 cc 49 3f
       0.4818612 0.687163 0.55650544 0.7882731
000040 23 8a a4 3d 0c 20 9c 3f 6f a5 76 3f 8b 68 12 bf
       0.0803416 1.219728 0.9634618 -0.5719077
000050 c3 17 3c 3f 18 6f a9 3e c8 dd 46 bf 20 14 ba 3e
       0.7347376 0.3309257 -0.7768216 0.3634348
000060 96 5a a5 3e f1 d1 45 3e 08 e3 07 3f f0 70 8e be
       0.32295674 0.19318368 0.530808 -0.2782054
000070 19 1f 7b 3f ef 10 9b 3e bd 6d 64 3f 8e 8f 1c 3f
       0.98094326 0.30286357 0.8922995 0.6115655
000080 91 b2 2a bf 89 86 15 bf d5 75 4a 3f d2 65 56 3f
       -0.6667872 -0.5840841 0.7908605 0.83749115
000090 9d 47 4d bf 81 c8 10 3f 3b 3c 40 3e c6 d6 44 3f
       -0.801874 0.56555945 0.18772976 0.7689022
0000a0 67 fe 23 3f c0 65 6d be ff a1 65 3f 3e 05 50 3f
       0.6406006 -0.23183346 0.8970031 0.81258
0000b0 e5 92 00 bf e9 ae 37 3d e5 51 5a 3f 3e d2 a6 be
       -0.50224143 0.04484454 0.8528121 -0.32582277
0000c0 d1 61 df be 89 e5 b3 be f1 58 6e 3d e1 68 46 bd
       -0.43629315 -0.3513606 0.05819029 -0.048439864
0000d0 e3 d8 cb 3e 9f 7a 49 3f e0 8a ea 3e 94 94 18 3f
       0.3981391 0.7870273 0.45809078 0.5960171
0000e0 67 6c cc 3e 06 8f c1 3e 03 95 a3 bf 6d d3 0e 3f
       0.39926454 0.3780443 -1.277985 0.5579136
0000f0 54 56 5a 3f 81 0d 1d bf 89 bb 8c bf 29 03 8a 3b
       0.85287976 -0.6134873 -1.0994731 0.0042118025
000100 24 b0 83 3f 2e 0d 3a 3f 46 50 98 be c2 34 c3 3b
       1.0288129 0.7267636 -0.29748744 0.005957217
000110 01 50 23 3f 3d 49 af 3d 7c 57 0b 3f 93 28 c3 3d
       0.6379395 0.08558891 0.54430366 0.09529223
000120 4f 67 2a be 16 c2 8a 3f 79 51 35 bf 82 c1 9f bd
       -0.16640972 1.084048 -0.7082744 -0.078005806
000130 c7 11 3a be 8a ea 4b 3f 9b 0a d1 3d ce 42 81 be
       -0.18170844 0.79654753 0.10207101 -0.2524628
000140 b8 00 a7 be b8 ec d2 be f0 57 55 3f 59 1e 98 3f
       -0.32617736 -0.41196227 0.83337307 1.1884261
000150 c9 39 0b 3f 08 00 4a 3f d5 f4 7b 3f 20 1a 88 3f
       0.5438505 0.789063 0.9842046 1.0632973
000160 e0 5f 6b 3f 95 59 11 3f f7 06 6c 3f 2f fe be bd
       0.9194317 0.56777316 0.9219813 -0.093258254
000170 92 bc 64 3f f9 2c f8 3e 81 7b 5e 3f cd 03 5d 3f
       0.89350235 0.4847181 0.869072 0.86333925
000180 17 f5 bd 3e 1f 1b 50 3f ec 5a 0c 3e af c7 a2 3e
       0.3710105 0.81291384 0.13706559 0.31792971
000190 2e 55 04 3f c5 3e 80 3e 39 47 5b 3e f2 2b 27 3f
       0.51692474 0.2504789 0.21413888 0.6530143
0001a0 08 1d 39 3f 0a b9 0f 3f 18 61 e1 3b 32 6f 4d 3f
       0.72309923 0.5614172 0.0068780296 0.80247796
0001b0 f8 8f 9d 3f d8 11 73 3f 16 1a 4a be 43 5c 54 be
       1.2309561 0.949491 -0.19736513 -0.2073832
0001c0 59 7f 55 3f cc 96 46 3f f8 5c fd bc f9 c5 09 3e
       0.8339744 0.7757385 -0.03092812 0.13454427
0001d0 2a 37 84 3f 79 e5 47 3f fe ae fe 3e 10 22 b1 be
       1.0329335 0.7808452 0.49742883 -0.345963
0001e0 6c 0d 18 3f ac df 0c 3f 5a ab 2e 3f 4f a8 81 3f
       0.5939548 0.55028796 0.6823021 1.0129489
0001f0 57 50 5c bf e0 cf 4d 3c ec 3e e2 bd 49 6d 45 bd
       -0.8606009 0.012561768 -0.11047158 -0.048199926
000200 5c 3f 8e 3d 56 eb 76 3f 01 57 64 3f e1 8a 87 3f
       0.069456786 0.96452844 0.8919526 1.0589257
000210 b2 9e 18 3f 46 0b b2 be 20 d0 29 be 3a 44 67 bf
       0.5961715 -0.34774226 -0.165833 -0.9033848
000220 39 25 27 bf 0c fb 5e 3f 22 b3 98 be ce 1b 3a 3c
       -0.6529117 0.8710182 -0.29824167 0.011359168
000230 56 f6 54 3f 86 64 34 3f 4c 7f ee 3d b7 81 f3 3d
       0.8318838 0.70465887 0.11645374 0.118899755
000240 a4 9f 25 bf 2f d5 02 3d 6f 8e 20 3f b6 33 5c 3f
       -0.6469672 0.03194159 0.62717336 0.86016405
000250 3d 7b ad 3e a8 32 e5 be 70 63 ea 3e 3a 7f 17 3f
       0.33883086 -0.4476521 0.4577899 0.5917851
000260 3f b4 87 3f 7e cc 0a bf 53 f4 85 3f 37 05 b4 bd
       1.0601882 -0.5421828 1.0465187 -0.08790057
000270 a3 d5 03 3f e6 55 9b 3d b1 34 fa 3e dd 7d 60 3f
       0.5149786 0.07584743 0.48868325 0.8769205
000280 54 26 35 3f a6 b6 c2 be 4f a4 41 3e ac 4e 1f 3f
       0.7076161 -0.38029975 0.18910335 0.6222942
000290 eb f6 38 bf 23 6d 75 3f b3 33 5d be 2d ea 41 be
       -0.72251767 0.95869654 -0.21601753 -0.18936987
0002a0 5e 8f 1c 3f 85 be 29 bf e4 6a 41 3f a8 60 4c 3f
       0.6115626 -0.66306335 0.7555373 0.79834986
0002b0 5f bb 44 3e 47 3b 5c 3f df 4d e7 be 11 6e 25 3f
       0.19212101 0.8602795 -0.45176598 0.64621073
0002c0 6b 0f 42 bf f5 71 2d 3f 61 04 24 3f 1f a9 5a 3f
       -0.75804776 0.6775201 0.6406918 0.8541431
0002d0 69 b8 43 3f a5 97 f8 be d6 83 92 3e 1e e8 3c 3f
       0.7645326 -0.48553196 0.28616208 0.7379168
0002e0 ca de a9 bd 8b bf 2c 3f 6c c4 75 3f e0 df 98 3e
       -0.08294447 0.6747977 0.9600284 0.29858303
0002f0 25 80 17 3e b5 27 13 3f 45 09 b0 be 65 f6 6e bf
       0.14794977 0.57482463 -0.34382072 -0.9334472
000300 52 a1 02 bf 01 40 0b 3d 2f 4b 6e 3f 3e 73 c1 bd
       -0.51027405 0.033996586 0.9308347 -0.09445809
000310 d1 73 f9 3e 99 f2 63 bf 89 30 32 3f de 9a 56 bc
       0.48721173 -0.8904205 0.6960531 -0.013098447
000320 b2 ec 3f 3e 44 6a 12 3e ab 2f 6f bf 4f b5 86 3f
       0.18742636 0.1429835 -0.9343211 1.0524081
000330 dc e8 35 3f a7 33 20 3f be a6 a9 3e 7a d2 79 bf
       0.7105844 0.62578815 0.33135027 -0.97586787
000340 66 25 8b 3f 03 52 00 bf ec b6 8a 3e e9 fa 1f bf
       1.0870788 -0.5012514 0.27092683 -0.62492234
000350 9f f1 64 be c1 11 8b 3f ce 39 87 3f aa 2d ef 3e
       -0.22357796 1.0864793 1.0564516 0.46714526
000360 60 24 c2 3e e2 46 a0 3e 0e f6 62 3f 0f 5d 6c 3f
       0.37918377 0.3130408 0.886567 0.92329496
000370 70 d6 c3 3d 4d 6b 10 be 63 ca 8d 3f 54 65 2f 3f
       0.09562385 -0.14103432 1.1077389 0.6851399
000380 70 92 4c 3f 37 b3 24 3f 3f d5 3b bf 3d 5a a5 bc
       0.79910946 0.6433596 -0.7337226 -0.02018463
000390 10 bf 4e 3e f2 f8 a3 3d 2b df 3d 3f ae 04 ba 3e
       0.20190072 0.08006467 0.7416865 0.36331695
0003a0 a5 77 53 3f a5 e9 30 3e 91 63 95 bf af 7d 07 3f
       0.8260444 0.17276628 -1.167101 0.5292615
0003b0 11 32 32 3e 41 91 34 3f 09 d2 16 bf 9d 24 c8 3e
       0.17401911 0.7053414 -0.5891424 0.39090434
0003c0 ac 6d 1d 3f 6f 6d 87 3f 94 75 32 be 36 97 4c 3f
       0.6149547 1.0580271 -0.17427665 0.7991823
0003d0 5c 1c 6e 3f 80 4e 50 3f a4 18 49 3f 07 d9 65 bd
       0.9301202 0.8136978 0.78553224 -0.056115177
0003e0 4d cd 10 be f4 8a ab be 0b a8 b3 3d da 36 dd 3e
       -0.14140816 -0.3350445 0.08772286 0.4320591
0003f0 83 ac 34 3f 9b e8 67 3f b3 15 8d 3d c4 9a 15 bf
       0.7057573 0.905893 0.068889044 -0.5843928

fc2.weight f4 [256, 256]
000000 ff c2 71 3e b6 5e b3 bf cc 26 ba 3e 17 09 93 3f
       0.23609541 -1.4013278 0.36357725 1.1487149
000010 b3 ab 62 3e 12 7c 8d bf ad f7 10 3f a1 ed b4 be
       0.2213581 -1.1053488 0.56627923 -0.35337546
000020 28 c9 14 3e e8 72 ea be 81 43 f4 3e 0d ea 02 3f
       0.1452986 -0.45790792 0.4770775 0.51138383
000030 55 1f 55 c0 a5 3a 57 bf 57 a8 99 be 1e e9 b6 3e
       -3.3300374 -0.8407386 -0.30011246 0.3572473
000040 63 c9 71 3d 2e a5 bd be 6c 1a 7d bf 04 43 85 be
       0.059029948 -0.37040085 -0.9886844 -0.2602769
000050 66 bf 2a 3e fa 25 01 3f 91 ab ce 3e ed e3 4f 3e
       0.16674575 0.5044857 0.4036527 0.2030179
000060 75 8e d0 be 50 b1 05 c0 45 cd 4c 3e 9c 21 03 c1
       -0.40733686 -2.0889473 0.20000179 -8.195705
000070 d1 cb 48 3d f5 8f 43 bf ac ff 80 bf 25 52 d5 bf
       0.0490225 -0.76391536 -1.0078025 -1.6665694
000080 50 c4 4c 3f ba 84 51 3e 45 1d a4 bf 9a 8a 41 bf
       0.7998705 0.20460787 -1.2821432 -0.75602114
000090 45 af 1b c1 f8 a3 ea 3e 13 56 c7 be af f8 77 3e
       -9.73029 0.45828223 -0.38932857 0.24215959
0000a0 45 e6 ae 3e 5e ad e0 3e af c0 4a bf 30 cf 31 bf
       0.34160057 0.4388227 -0.7920026 -0.6945677
0000b0 7a 0c dc be 58 11 f2 be fd 53 5f 3e 99 91 dd 3d
       -0.4297827 -0.47278857 0.21809383 0.10818786
0000c0 36 b9 1d c0 44 ca 6c 3f 21 b3 ec 3e 05 5b 9b be
       -2.4644294 0.9249613 0.46230415 -0.3034288
0000d0 88 e6 c5 bf f4 d9 61 bf 80 7f d1 3e c8 a6 00 c0
       -1.5460978 -0.88223195 0.40917587 -2.0101795
0000e0 73 0a 3b bd ec 5b 01 3f 0b 80 fd c0 14 ab 91 bd
       -0.045664262 0.50530887 -7.9218802 -0.07112709
0000f0 a9 68 4b 3e 2d 16 68 3e cd 91 00 c1 f9 a1 fd bf
       0.19864143 0.2266471 -8.035596 -1.9815055
000100 55 d7 ce 3e 95 a8 38 3e 47 c9 c7 bf a1 2e 0d 3f
       0.4039866 0.18033059 -1.56083 0.55149275
000110 b1 13 a5 3e 5d fd fa bf 6f 7c 77 bd 0b fc bb 3e
       0.32241586 -1.960857 -0.060421403 0.3671573
000120 13 94 41 bd 41 c5 dd be 49 6b 2c 3f 23 27 bf 3e
       -0.047260355 -0.43314555 0.67351204 0.37334546
000130 da 1b de bc ae cf 62 bc 7e 1c c1 3e 55 f8 72 bf
       -0.02711289 -0.01384346 0.3771705 -0.94910175
000140 19 aa 94 bd ee f0 52 3d 20 c0 bf 3e da 28 d3 3e
       -0.07259006 0.0514993 0.37451267 0.41242105
000150 a2 1d c9 3e 41 0e 84 bf 5b e8 b1 3d 25 f3 86 3d
       0.3928042 -1.031685 0.086868964 0.06589345
000160 23 dd 8d 3e a0 71 33 3f a0 0c 10 bf 3e 86 99 3e
       0.27707776 0.70095253 -0.56269264 0.2998523
000170 b5 b5 a1 be 26 70 cb bf 1f 0a de 3e 21 a2 19 bf
       -0.31583944 -1.58936 0.43367097 -0.60013014
000180 95 a1 94 c0 7e 96 b2 bd b5 ec b6 be 96 64 34 3e
       -4.6447244 -0.0872011 -0.35727468 0.17616495
000190 e6 e6 71 be b0 f0 96 be 0d 9b f8 3e 52 ad 51 3e
       -0.23623237 -0.29480505 0.48555794 0.20476273
0001a0 c2 30 e3 be 98 29 aa 3e 5d 22 b1 bd 14 fe 1e bf
       -0.44373137 0.3323486 -0.086491324 -0.6210644
0001b0 9c 5e c0 be 61 10 58 3e ed e6 79 3f 6f 29 9b 3f
       -0.3757218 0.21099998 0.9761799 1.212202
0001c0 8d ae a3 be 22 6c 8c be 21 78 22 bf fb 03 3c 3e
       -0.3196911 -0.2742625 -0.6346455 0.18360893
0001d0 28 57 b7 3d 1f 6c a3 bc 59 7f e1 bf b1 d5 96 3f
       0.089521706 -0.019949017 -1.7616988 1.1783963
0001e0 17 97 6e bf a0 6f 97 bf 3f 1e 54 bf e5 6e 82 bf
       -0.93199295 -1.183094 -0.8285865 -1.0190092
0001f0 92 0e a4 c0 86 c2 64 3f c5 44 18 bf 00 26 ad bf
       -5.1267786 0.8935932 -0.59479934 -1.3527222
000200 e7 fc ae 3b 97 a9 82 3e 68 fb 89 3e 58 aa 75 be
       0.005340207 0.25520012 0.2694962 -0.23990762
000210 7d 49 de 3e 91 95 d8 3e c8 0a 42 c0 a2 f8 08 3f
       0.43415442 0.4230161 -3.031908 0.53504384
000220 fa 69 e6 3e 52 97 c2 bc 73 57 9f 3e c8 4c 4d 3e
       0.4500273 -0.023753796 0.31121406 0.20048821
000230 62 72 24 bf 01 8d 1a c0 95 24 af bf 8c 0e 04 3f
       -0.64237034 -2.4148562 -1.3683039 0.51584697
000240 6b bb f4 3d 3e f6 f7 bf bf 45 f4 3e 9e 5e 2c bf
       0.1194981 -1.9372022 0.47709462 -0.67331874
000250 37 05 02 3f 88 4e 2b 3d 01 2e 26 3e dd 21 2c bc
       0.5078921 0.04182294 0.16228487 -0.0105061205
000260 43 b3 e9 3e cb d2 11 3f 8e 24 e6 be 0e d5 cf 3e
       0.45644578 0.5696227 -0.44949764 0.40592235
000270 da 9d 8b 3e 3e 1c 7e 3d 6d 1a ce 3e e7 b0 8d bf
       0.2726887 0.062038653 0.40254536 -1.1069611
000280 1c 19 ae 3e 5c da 1a c1 31 4c 5c bf 62 6f cd bf
       0.34003532 -9.67831 -0.8605376 -1.6049616
000290 4f 91 8a 3e 1f 3b 4e 3e f3 08 d6 3e ce aa a8 be
       0.27063987 0.2013974 0.41803703 -0.32942814
0002a0 5d fa 84 3e fd 4b 03 3f 60 33 b0 3e 70 f9 a4 be
       0.25972262 0.51287824 0.34414196 -0.32221556
0002b0 2c f7 d4 bf be bf d7 bf b4 90 1c bf ef ed 1a 3f
       -1.6637931 -1.685539 -0.611583 0.6051931
0002c0 84 19 d5 be 5b c9 d3 3e 55 cc 13 bf f2 a2 86 bd
       -0.4162103 0.4136456 -0.5773366 -0.06574048
0002d0 7a b7 95 3e 37 75 24 3f 7b 2c 6c 3e 55 ce 24 bf
       0.29241544 0.64241356 0.23063843 -0.6437734
0002e0 6c b4 13 be 39 63 7d bf 12 0d 95 3e 89 8b 96 3e
       -0.14424294 -0.98979527 0.29111534 0.29403332
0002f0 eb eb 9b 3e 4e 04 29 bf 72 1a 0c 3e 40 18 fa be
       0.3045343 -0.66022193 0.13681963 -0.48846626
000300 1b 01 47 be 05 92 09 3f d2 bd 00 3d a9 3e 5b 3e
       -0.19434015 0.53738433 0.031431027 0.21410622
000310 f7 90 b9 3e 23 a6 3a 3f 74 78 dc be 6f 69 23 3f
       0.36243412 0.72909755 -0.43060648 0.63832754
000320 57 f0 26 c0 3e 90 bb be b5 16 f4 c0 64 34 04 be
       -2.6084192 -0.36633486 -7.627772 -0.1291061
000330 2d 0f 3d 3e c4 88 03 3e 3a 23 79 3e d8 07 f8 3e
       0.1846282 0.1284514 0.24329844 0.48443484
000340 dc 5e 3e 3e d1 5b 10 3f 1c 71 0c c0 21 f1 b1 3d
       0.18590873 0.563901 -2.1944036 0.0868857
000350 ce 23 4c be 26 30 4b 3e 32 68 9c 3d 22 a5 68 3e
       -0.19935533 0.19842586 0.07637061 0.22719243
000360 d5 22 17 3f 97 62 e0 bf 17 78 de 3d eb e7 50 3e
       0.59037524 -1.7530087 0.10862749 0.2040097
000370 6b 33 c7 c0 70 a9 14 3f e8 b3 16 bc 6b 50 08 3e
       -6.2250266 0.5807104 -0.009198166 0.13311927
000380 cf 75 f3 3d f4 57 3b bf ad a7 be 3e fd 9e 89 bf
       0.118877046 -0.7318108 0.372373 -1.0751644
000390 d9 77 84 3f f0 75 a1 be 92 d0 b2 3e 45 d4 ca 3e
       1.0349075 -0.31535292 0.34924752 0.39615074
0003a0 44 2d c3 3d 10 47 ee 3e 04 d0 be c0 ef a8 64 3e
       0.09530118 0.4653859 -5.9628925 0.22330068
0003b0 a4 3b 33 bf 98 39 b0 bf dd ee 91 c0 7d d6 d6 3e
       -0.7001288 -1.3767576 -4.560408 0.41960517
0003c0 97 15 d2 bc 39 f8 d7 3e 59 92 4e 3f 2f 05 3e 3d
       -0.02564506 0.42181566 0.8069206 0.046391662
0003d0 8a f9 67 3e 66 8c d2 3e 12 1d 09 3e 43 73 52 3f
       0.22653785 0.4112274 0.13389996 0.82207125
0003e0 da 85 9b bf 8c d2 9b be 8b 8f a3 3e b7 6b f3 3e
       -1.2150223 -0.30434072 0.31945452 0.47543117
0003f0 e9 b3 31 3e 0c 2c 18 bf 1c 73 b0 3e 74 6d 31 bf
       0.17353787 -0.5944221 0.3446282 -0.6930764

fc2.bias f4 [256]
000000 b6 b3 9c 3e eb ab 16 3e 59 9a 42 3f 00 2a 8a 3e
       0.3060586 0.14714019 0.76016766 0.26985168
000010 c0 dd 1b 3f 61 86 aa be a0 a3 b8 bc f7 87 a4 bc
       0.6088524 -0.33305648 -0.02253896 -0.020084364
000020 79 9e 82 be fd 80 85 bd 36 b1 77 be 4b cb 0d 3f
       -0.2551153 -0.06518743 -0.24188694 0.55388325
000030 c3 bf 6a bd 6d 71 98 3c 89 25 d6 3a 63 26 ac be
       -0.057311784 0.018608773 0.0016338091 -0.33623037
000040 33 fc 6b be db 23 fb 3b 99 79 42 bd aa c5 60 bd
       -0.23045425 0.0076641864 -0.047479246 -0.054876007
000050 cc 05 72 be 61 75 c7 bc f6 e4 21 3d db 8e 65 bd
       -0.23635024 -0.024347963 0.039524995 -0.05604444
000060 f0 7e 18 bd 19 e3 58 3d 16 0b 18 bb 14 d9 98 be
       -0.037230432 0.052950952 -0.0023199967 -0.29853117
000070 eb e3 28 3e a0 f0 cc be 88 81 36 bd f7 93 4a 3e
       0.16493194 -0.40027332 -0.044557124 0.19783007
000080 af 42 a5 bb f2 f5 0c 3f 60 e6 9a be cd b3 81 3e
       -0.0050433497 0.5506278 -0.30253887 0.2533249
000090 41 c7 d6 3c 04 c2 0c 3d 48 27 a3 3e b3 b2 e8 bd
       0.026218059 0.034364715 0.31865907 -0.11362209
0000a0 aa 1e a4 3e 2e 5a 54 be a4 44 15 3f d4 9e 8f 3a
       0.32054645 -0.20737526 0.5830786 0.0010957369
0000b0 04 57 17 be 5f f9 3c be 8d d3 84 bd b4 68 0b 3c
       -0.14779288 -0.18454503 -0.064856626 0.00850885
0000c0 f0 5e 7f bd f2 b4 5e bd 20 45 4e 3d d8 bd 7a be
       -0.0623464 -0.05437178 0.05035889 -0.24486482
0000d0 90 44 73 be 8d 0d 8c bd c2 b1 a9 be 70 84 7f be
       -0.23756623 -0.06838522 -0.3314343 -0.24952865
0000e0 ff 88 5e be fb 92 69 bd a7 8a 12 3f ad ea 09 bb
       -0.21731947 -0.057024937 0.57242817 -0.0021044419
0000f0 08 18 39 bd 37 cb 20 3f 9c 44 b3 be 0f 87 b0 3c
       -0.045188934 0.6281008 -0.35013282 0.021548776
000100 31 a6 55 3d 90 c8 3c bd 42 3b 87 be 19 a4 c1 3e
       0.052160446 -0.04608971 -0.26412398 0.3782051
000110 71 3c 51 be dd 45 51 3e e4 b6 97 be 88 09 b1 bc
       -0.20433213 0.20436807 -0.29631722 -0.02161099
000120 5a ca 85 be f2 e9 d1 b9 5f f1 90 be 91 e8 82 be
       -0.26130944 -0.0004003789 -0.28309152 -0.2556806
000130 21 b2 40 bd 6c 77 7e bc 70 5a 39 bc 79 e7 5d 3d
       -0.047044877 -0.015531402 -0.011313066 0.054175828
000140 af 48 19 3f 22 7a 5a bd ef 8c 3b 3c c0 b3 9d be
       0.5987653 -0.05333913 0.011447175 -0.308012
000150 c3 76 6d be 3e d6 55 3e dd 80 91 3c 37 7e 2f bd
       -0.23189835 0.20882508 0.017761642 -0.042844977
000160 80 2a 38 be 8e 12 92 3e cd 11 24 3e 4a f2 e9 3c
       -0.17984962 0.2852978 0.16022415 0.028557915
000170 57 f8 30 3d 78 10 3a bb 12 d3 15 be 11 4a 4f bd
       0.043205585 -0.0028391164 -0.14631298 -0.050607745
000180 2b ad 64 be 4d b8 94 3c cd 50 a7 3e 7a 61 2c be
       -0.22331683 0.018154288 0.32678834 -0.1683406
000190 16 30 78 be 30 9d ca 3b 63 d8 a5 be ee ad 90 bd
       -0.24237093 0.006183289 -0.32391652 -0.070644245
0001a0 5c 92 0c 3d a2 c3 54 bd 2c e5 8c 3c 03 c0 eb bc
       0.034319267 -0.051944382 0.017199121 -0.028778082
0001b0 78 4b 39 be fe 1f 62 be 20 59 ba bc 5c c5 77 bd
       -0.18095195 -0.22082517 -0.022747576 -0.06049095
0001c0 4e 0d 86 be 78 f3 42 3d 0e 26 81 be f3 00 fc 39
       -0.26182026 0.04759547 -0.25224346 0.00048065893
0001d0 86 72 2c 3d f4 b2 c0 3e ab ac 81 be e8 bf 12 bd
       0.042101406 0.3763653 -0.25327048 -0.035827547
0001e0 11 1f a9 be 0a 0d f6 3e c0 44 6c be c9 d2 a0 be
       -0.33031514 0.48056823 -0.23073101 -0.31410816
0001f0 25 08 8d 3e 03 ff 21 be 33 2e 6c be 69 9a 5b 3c
       0.27545276 -0.15819936 -0.23064499 0.0134035135
000200 fc f7 9e be 34 8a 9a be ba 5d dc bc fb 8c 6a bd
       -0.31048572 -0.30183566 -0.026900161 -0.057263356
000210 41 94 1d be 98 20 91 be 3b 35 e9 bc b5 16 a4 be
       -0.15388586 -0.2834518 -0.028467765 -0.32048574
000220 41 df 77 3e 0d a8 a4 be fc 19 f9 bb c4 2c 76 bd
       0.24206258 -0.32159463 -0.0076019745 -0.060101286
000230 1a 7b 93 be 95 56 81 bd ff f8 af be 9f 75 87 be
       -0.28804857 -0.06315342 -0.34369656 -0.26456925
000240 90 c9 25 be 23 12 63 bd 15 33 89 bd 55 f0 68 be
       -0.16190171 -0.05543722 -0.06699196 -0.2274793
000250 bf 53 5d be 6e f9 ab 3c 28 08 38 bd d2 da 55 be
       -0.21613978 0.02099296 -0.044929653 -0.20884255
000260 fb 6d 8d be 70 b8 3c 3e 24 6e d4 3e aa 9f 86 3e
       -0.2762297 0.18429732 0.4149028 0.2629369
000270 97 00 a7 bd 34 63 0e 3c 48 fb fc 3e 3f 00 1a be
       -0.081544094 0.008690644 0.49410462 -0.15039156
000280 bc 49 5d be b5 c1 91 3c a8 b4 52 be 2d d3 0f bd
       -0.21610159 0.017792562 -0.20576727 -0.035113502
000290 76 bd d4 3e 54 af 92 be f4 97 93 3e 3b 4a 11 3f
       0.41550797 -0.2864939 0.2882687 0.5675389
0002a0 66 42 0d 3d 54 64 f3 3e b0 21 37 bc 4a 76 d4 bc
       0.03448715 0.47537482 -0.011177465 -0.02593531
0002b0 7a bc 5e bd 28 a7 43 3d e8 c2 6d be b1 42 57 3d
       -0.054378964 0.047766834 -0.23218882 0.052553836
0002c0 5c 69 f1 bc 7e 3b 1b bd 2b 35 ef bc e8 83 4c 3c
       -0.029469185 -0.037898533 -0.029200157 0.012482621
0002d0 a5 3f 83 bd c7 88 21 bd 2c d7 6c be f6 27 51 be
       -0.064086236 -0.03943708 -0.23128957 -0.204254
0002e0 47 2f b2 3c e6 5c 8e be c9 06 32 be 51 6a 8b be
       0.02175106 -0.2780525 -0.17385401 -0.2722955
0002f0 05 d0 0a 3f 53 17 fe 3b 3a 27 99 bc d3 19 42 3f
       0.5422366 0.0077542453 -0.018695462 0.75820655
000300 f1 41 7c be 81 cb 61 be 90 f1 31 bd 13 c7 4c be
       -0.2463453 -0.22050287 -0.043443263 -0.19997816
000310 ec 9d 02 3d 3d b7 88 be e8 9c 8c 3e 60 d9 16 3f
       0.031888887 -0.267023 0.2746346 0.5892544
000320 5f af 74 be 83 82 8f 3e bb a6 83 be b2 66 51 bd
       -0.23895024 0.2802926 -0.25713143 -0.05112333
000330 e9 ed ac 3e 46 91 2a 3d a2 b8 55 be fd 79 6e be
       0.3377526 0.04164245 -0.20871213 -0.23288722
000340 67 9a 9a 3e c5 9a 85 bd 99 89 b5 bd 63 47 f0 3c
       0.30195925 -0.065236606 -0.08864135 0.029330915
000350 a9 ad 44 bd 4d eb 18 3c cd 0c 89 bd ca e4 19 3f
       -0.048017178 0.009333444 -0.06691895 0.6011473
000360 20 fe 43 be 2e ea 20 3d 7f 4e 89 3e 02 16 56 be
       -0.1913991 0.03928583 0.268177 -0.20906833
000370 1e 2c 1c bd 82 c5 e8 3c 6e e0 92 bd 3f 0d 17 3f
       -0.03812801 0.028414492 -0.07171713 0.59004587
000380 7b ef 2c be ec e8 ed 3e 44 4e 85 be e6 56 95 bc
       -0.1688823 0.46466768 -0.26036274 -0.018229913
000390 a7 28 24 bb 66 1b 39 be 18 ec 4a 3d f3 db e4 bc
       -0.0025048645 -0.18076858 0.049541563 -0.027936911
0003a0 d0 52 40 3d fc 11 0b 3d 1f 23 48 be 38 98 33 bd
       0.046953976 0.033952698 -0.19544648 -0.04384634
0003b0 7d 11 89 bc d2 46 5b bd a2 c9 53 bd 2f e7 ad bc
       -0.016731972 -0.053534336 -0.051705964 -0.021228401
0003c0 4d ed 22 be 82 40 4b be 18 db 80 be 2f 04 25 bc
       -0.15910836 -0.19848827 -0.25167155 -0.010071798
0003d0 c4 74 95 be 54 97 42 be 1f 8e 63 be c1 9c db 3c
       -0.29190648 -0.1900304 -0.22222184 0.026808145
0003e0 3f 70 3f 3d 0b e4 e2 bb 3c b3 6e 3f 84 d2 7a be
       0.046737906 -0.0069241575 0.9324224 -0.24494368
0003f0 25 e8 82 ba cb bf 67 bd 28 17 98 be 9b 97 91 be
       -0.0009987397 -0.056579392 -0.29705167 -0.28435978

value.weight f4 [1, 256]
000000 70 2d d6 3f a8 2c 0e 40 9f aa 10 40 1e 93 e0 3f
       1.6732616 2.2214756 2.260414 1.7544897
000010 b0 da 9b 3f fb 88 2c be 9b e4 77 3c 8f de 30 bd
       1.2176113 -0.16849129 0.015130187 -0.043181
000020 5e f0 78 be fd 0e 98 3c 80 75 06 be d2 f1 aa 3f
       -0.24310443 0.018561834 -0.1313076 1.3355048
000030 d8 59 40 3c 87 55 35 3d 15 b2 91 3c d3 e1 3b be
       0.01174017 0.04427102 0.017785111 -0.18347864
000040 1c 11 85 be 95 2b 1d bd 90 1d cc 3c 87 19 26 bd
       -0.25989616 -0.03837164 0.02491644 -0.04055169
000050 92 1c 32 be 8d 53 11 3c ef 6a b0 3b 19 99 dc 3b
       -0.17393711 0.008870018 0.005383841 0.006732118
000060 ac e8 1d 3d da c1 69 bd 40 2e 4a 3d 39 0d 5e be
       0.03855197 -0.057069637 0.049360514 -0.21684732
000070 10 72 14 bf 41 12 e6 bf f8 f4 c8 bc 46 57 18 40
       -0.57986546 -1.7974321 -0.024530873 2.3803267
000080 be 33 ae 3c f6 ef 01 40 4b bb 1c be 8b 27 c7 3f
       0.021264907 2.030271 -0.15305822 1.5558943
000090 6b 75 f6 bc 24 4c 03 3d e9 a9 17 40 ad b8 d3 be
       -0.030085286 0.032055035 2.3697455 -0.41351834
0000a0 db 78 d6 3f d4 76 db bf ce 3c 01 40 03 06 71 bd
       1.6755632 -1.7145638 2.0193362 -0.058843624
0000b0 79 9b 8c be c1 22 88 bf 5a e2 ee bc 06 2d 29 3d
       -0.27462366 -1.0635606 -0.029160667 0.041302703
0000c0 01 60 b0 40 d1 ce d5 bc 75 db 94 3c 11 34 80 be
       5.511719 -0.026099594 0.018171052 -0.25039724
0000d0 31 87 60 be 5a b3 61 3d 6d 2d 04 be 6d 60 25 be
       -0.21926571 0.055102684 -0.12907954 -0.16150065
0000e0 84 c6 69 bf 32 6c e7 3c 4d d9 05 40 69 99 d7 b9
       -0.91318536 0.028249834 2.091388 -0.00041122295
0000f0 2f fc b6 3c 9d 00 a1 3f e6 90 8e be 6d ed 14 3c
       0.022337047 1.2578312 -0.27844924 0.00908981
000100 9f ab 3f 3b e7 5f b9 3b ae b0 1e be 6c 62 a0 3f
       0.0029246581 0.0056571844 -0.15497085 1.2530036
000110 8b 31 62 be b1 a5 2c 40 ed f5 63 be 6d 8b 1c 3d
       -0.22089212 2.697613 -0.22261782 0.038218904
000120 9c ce 85 be d4 b7 0f bd b5 2b 62 be 7b e0 a6 be
       -0.26134193 -0.03508742 -0.22086985 -0.3259314
000130 86 14 ab 3c e6 cd af 3c 2f 35 3a 3d 1d 12 98 3c
       0.02088381 0.021460485 0.045460876 0.018563325
000140 08 bc 0e 40 09 80 49 bc 85 1c 99 3c 60 b3 5e be
       2.2302265 -0.012298592 0.018690357 -0.21748114
000150 fe 35 90 be f2 a9 01 bf 6c 60 06 3d 35 f0 9c 3c
       -0.28166193 -0.5064994 0.0328068 0.019157508
000160 8a 6a b0 be 6f a5 d2 3f 10 cf 46 bf d7 94 b2 3c
       -0.34456283 1.6456736 -0.776597 0.021799488
000170 85 cb 99 3c 91 7d 55 3b c0 10 77 bf 1d a2 99 3c
       0.018773803 0.0032576064 -0.96509933 0.01875406
000180 5d ce 66 be 4e de 2f bd 5c 81 a8 3f 7e 9a b1 be
       -0.22539659 -0.042936616 1.3164477 -0.3468818
000190 21 6a 03 be f1 86 55 3d 0d 87 95 be 28 58 cc 3c
       -0.12833454 0.052130643 -0.29204598 0.02494438
0001a0 31 cd db 3c 90 88 4f 3d 18 76 4d 3d 70 e6 43 3d
       0.026831241 0.050667346 0.05016145 0.047827184
0001b0 1b 78 86 be b9 2e 5a be ba 20 e2 bb 12 61 80 3c
       -0.26263508 -0.21306886 -0.006900874 0.015671287
0001c0 81 6b 1a be 8c 90 0b 3d 49 b8 13 be db 24 ff 3c
       -0.15080072 0.034073398 -0.14425768 0.031145504
0001d0 9b e6 ff 3b da 6e b7 3f 79 8a 6e be b4 8b a6 3c
       0.0078094727 1.4330704 -0.2329501 0.020330288
0001e0 12 94 47 be 88 68 b4 3f 0c 14 49 be 3b 02 21 be
       -0.19490078 1.40944 -0.19636554 -0.15723507
0001f0 85 43 02 40 7b b5 5e bf 81 e3 f7 bd eb 4b ff 3a
       2.035371 -0.8699567 -0.1210394 0.0019477581
000200 d0 39 5e be 27 7e 55 be d7 7e be 3c 1e 4e 27 3d
       -0.21701741 -0.20848905 0.023253841 0.040845983
000210 89 a3 29 be 1b 6b 7e be bd ac 1e bc c6 cb 1b be
       -0.1656629 -0.24845545 -0.009684739 -0.15214452
000220 0b 66 e4 3f 0e 71 89 be 25 3e 16 bd 0a ff ea bc
       1.7843641 -0.26844066 -0.03668036 -0.028686065
000230 52 04 24 be 7d 71 12 3a 1e 60 26 be 86 c4 3b be
       -0.16017273 0.0005586369 -0.16247603 -0.18336686
000240 cf 87 09 bf b5 2f 88 3d b6 11 26 3d e1 7f 1d be
       -0.5372285 0.066497244 0.040544234 -0.15380813
000250 6d 29 81 be ac 23 0d 3d 80 a9 e5 bb cd cc 2a be
       -0.25226918 0.034457847 -0.0070087314 -0.16679688
000260 14 83 9a be 10 af d5 3f a8 50 b8 3f 30 80 d8 3f
       -0.3017813 1.669405 1.4399614 1.691412
000270 a6 96 d8 be 81 a7 54 3d b7 58 aa 3f c9 c3 a8 be
       -0.42302436 0.051917557 1.3308324 -0.32961872
000280 1b f4 5a be 0f d2 30 bd 8b 8d 12 be b6 26 2f 3d
       -0.21382181 -0.043169077 -0.14311807 0.042761527
000290 c4 65 d6 3f e3 a8 45 be b9 c3 a9 3f 3c eb a9 3f
       1.6749806 -0.19302706 1.3262855 1.3274913
0002a0 8e 75 d3 bf 4c 26 f0 3f de 3f 80 3c 07 3f 3f 3c
       -1.652025 1.8761687 0.015655454 0.011672742
0002b0 22 13 00 bd 84 9b 08 3d f9 cf 82 be 2e 30 26 3d
       -0.031268246 0.033351436 -0.25549296 0.04057329
0002c0 e0 14 7c 3d 18 0a c6 3c 48 58 c0 39 a4 dd 8a bb
       0.061543345 0.024174735 0.00036686868 -0.0042378474
0002d0 c7 ec a1 ba 1f 4d 3c 3d b5 d3 50 be e6 3c 77 be
       -0.001235389 0.045971986 -0.2039326 -0.24144325
0002e0 71 80 54 3d 39 42 94 be bb 1b 81 be 92 ad c7 bd
       0.051880304 -0.28956774 -0.2521647 -0.09749903
0002f0 64 92 05 40 0a 8c e0 3c c5 6f bc be 63 f0 e8 3f
       2.08706 0.027410526 -0.36804023 1.819836
000300 76 9b 69 be a4 f8 32 be 89 ee 5a 3c 0f 28 70 be
       -0.2281321 -0.17477661 0.013362535 -0.23452781
000310 b7 29 bb 3c 3b 0b 57 be c4 c7 d7 3f 14 a8 9a 3f
       0.02284704 -0.21000378 1.6857839 1.2082543
000320 fa 36 2a be e4 4e db 3f 26 93 b9 be 03 8b f8 bc
       -0.16622534 1.713345 -0.36245078 -0.030339723
000330 ec af 18 40 97 94 31 3d 9c 7c 7f be a0 af a2 be
       2.3857374 0.043354597 -0.24949878 -0.31774616
000340 86 20 08 40 3e ff 23 3d 05 8b 13 bf 7b ed f5 3a
       2.126985 0.04003834 -0.57634 0.0018762791
000350 33 38 f8 3c 4e 1a 26 3c ea 84 e9 bc 27 69 57 3f
       0.030300235 0.010138107 -0.028505761 0.84144825
000360 f6 a1 1b be 61 bf 5c 3d 08 70 b7 3f 87 d1 6f be
       -0.15198502 0.05389345 1.4331064 -0.23419772
000370 05 82 06 bb fc 4a 0e 3d 7f 49 3a bc db 99 10 40
       -0.0020524275 0.03473948 -0.011370062 2.2593906
000380 7e a2 95 be fa 68 e6 3f c7 40 26 be ba 7e 63 3d
       -0.29225534 1.8000786 -0.16235648 0.055540778
000390 5f 60 be 39 1f 0f 4d be a4 7e 05 3d 57 1a bc b8
       0.00036311426 -0.200253 0.032591477 -8.969445e-05
0003a0 61 e4 da 3b a2 89 e6 3b ea c8 3c be d4 7d 08 3d
       0.006680057 0.00703545 -0.18436018 0.033323124
0003b0 58 9b 4c 3c 96 f5 25 3c 98 cc 49 3d 38 47 4d 3c
       0.012488209 0.010129353 0.04926738 0.012529187
0003c0 65 fe a0 bf 5c 77 58 be b3 86 28 be d5 66 90 3c
       -1.2577635 -0.21139282 -0.16457634 0.01762716
0003d0 5e a3 2e be f4 a1 1f be f9 4b 90 be 49 89 55 3d
       -0.17054507 -0.15589124 -0.28182963 0.05213288
0003e0 b8 05 da bc df e9 3e 3d 20 f9 96 3f 35 f1 82 be
       -0.026614055 0.046609756 1.1794777 -0.2557465
0003f0 fa 13 e1 3c 41 aa df 3b 74 5a 5f bf ac 2a c9 be
       0.027475346 0.006825716 -0.87247396 -0.3929037
