data/pendulum/models/lsac-pendulum-q.pth (torch, 272024 bytes, 5 tensors)

fc1.weight f4 [256, 4]
0	0xbf40d42b	-0.7532374
1	0xbf838385	-1.0274512
2	0xbe98445d	-0.29739657
3	0xbd6afa2a	-0.05736748
4	0xbeb518ff	-0.35370633
5	0xbf26a855	-0.65100604
6	0x3eeee105	0.4665605
7	0xbd6ba203	-0.057527553
8	0x3dc99b03	0.09844019
9	0xbf138cf5	-0.5763696
10	0x3eb92515	0.36161104
11	0x3e2a1b8f	0.16612075
12	0x3ea50246	0.32228297
13	0x3f37b058	0.71753454
14	0x3ed05ef2	0.40697438
15	0x3d045c4b	0.03231458
16	0xbf093423	-0.5359518
17	0x3f865ba0	1.0496712
18	0x3f15ba49	0.58487374
19	0x3db10966	0.08644371
20	0x3cc0c272	0.023530219
21	0x3f5d1183	0.86354846
22	0x3e5c4883	0.21512036
23	0xbedb15c0	-0.4279003
24	0xbf83951e	-1.0279882
25	0x3eba5575	0.36393324
26	0xbe635ae3	-0.2220264
27	0xbad66b17	-0.001635882
28	0xbe26b67c	-0.1628055
29	0xbf8670be	-1.0503156
30	0xbe783c67	-0.24241792
31	0xbccca0aa	-0.024978954
32	0x3e5073c8	0.20356667
33	0x3f10635b	0.56401604
34	0xbe915ff9	-0.28393534
35	0x3d246e54	0.04014428
36	0x3f79fe24	0.9765341
37	0x3f8344d8	1.0255384
38	0x3f284c00	0.65740967
39	0x3e37d88f	0.17953704
40	0x3eb2f22e	0.34950393
41	0xbe7a52ba	-0.2444562
42	0x3f1eb5a8	0.61995935
43	0x3ec33946	0.38129634
44	0xbf88d7cd	-1.0690857
45	0x3f7a788a	0.9784018
46	0x3e56897e	0.20950887
47	0x3b1e1be0	0.0024125502
48	0x3e6298c3	0.22128586
49	0xbf712d87	-0.94210094
50	0x3e802a8c	0.2503246
51	0x3d09e1e8	0.033662707
52	0xbf09be09	-0.53805596
53	0xbf893cef	-1.072172
54	0xbde6c12a	-0.11267312
55	0xbc99d0a5	-0.018776247
56	0xbeddfcc1	-0.43356898
57	0xbf969622	-1.1764567
58	0xbe4f2cda	-0.20231953
59	0xbd290388	-0.041263133
60	0x3f440d20	0.7658253
61	0x3e3c3df4	0.18383008
62	0xbefc0767	-0.49224398
63	0x3e86e1e2	0.2634421
64	0xbf216394	-0.6304257
65	0xbf66515a	-0.8996788
66	0x3e139f97	0.14416347
67	0x3d3b8e00	0.04578972
68	0xbf1a24a8	-0.60212183
69	0xc00be16d	-2.185634
70	0xbef6979a	-0.48162538
71	0xbda02b50	-0.07820761
72	0x3e2c337a	0.16816512
73	0xbf96ed54	-1.1791177
74	0xbe8686ce	-0.26274723
75	0xbd15bd4d	-0.036557484
76	0xbfa1c94d	-1.2639557
77	0x3e7e29ed	0.24820681
78	0xbd229072	-0.039688535
79	0x3de3e32f	0.11127316
80	0xbf1ca219	-0.6118484
81	0x3f433078	0.7624583
82	0xbe40155f	-0.18758152
83	0xbd183388	-0.03715852
84	0xbf295d01	-0.6615754
85	0xbe5a417c	-0.21314043
86	0xbeefc8da	-0.46832925
87	0xbd690ff5	-0.056899983
88	0xbe7f45c7	-0.24928962
89	0x4000e1e1	2.0137866
90	0x3efb2735	0.4905335
91	0x3d84a8f4	0.06477538
92	0xbed5a2cd	-0.4172577
93	0x3f82ba17	1.021304
94	0x3e80a16e	0.2512316
95	0x3dd2e7e9	0.102981396
96	0x3f76553d	0.96223813
97	0x3ec85f23	0.39135084
98	0x3ed5e400	0.41775513
99	0x3e1601cf	0.14649127
100	0xbd36be5a	-0.044615127
101	0x3ebabffa	0.36474591
102	0xbe844be2	-0.25839144
103	0xbe423bf7	-0.18968187
104	0x3fa470c8	1.2846918
105	0x3f4b5fc4	0.79443
106	0x3e769422	0.24079946
107	0x3d26dc95	0.040737707
108	0xbf190cda	-0.59785235
109	0x3fca4059	1.5800887
110	0x3e90330a	0.2816394
111	0x3d2b6ad7	0.041849937
112	0x3e2870fa	0.16449347
113	0x3f0497a0	0.5179386
114	0xbf02d7f7	-0.51110786
115	0xbdd6ac08	-0.10482031
116	0xbf0d0815	-0.5509046
117	0xbe0a2f71	-0.1349466
118	0xbe580306	-0.21094903
119	0xbcd1d665	-0.025614927
120	0x3e82a55d	0.25516787
121	0xbee24d4d	-0.441996
122	0x3f123134	0.5710633
123	0xbd8df777	-0.06931966
124	0xbec36b94	-0.38168013
125	0x3ea4e988	0.3220942
126	0x3d720d30	0.059094608
127	0xbd6cb037	-0.05778524
128	0xbf058123	-0.5215017
129	0xbf5ca1c3	-0.8618433
130	0xbe649e57	-0.22326027
131	0xbcfcb91f	-0.030849991
132	0xbfaf750d	-1.3707596
133	0xbe245aa8	-0.16050208
134	0xbf0a4614	-0.5401318
135	0xbf11ed18	-0.570024
136	0xbf1d7d29	-0.61519104
137	0xbe2dd612	-0.16976193
138	0xbe4a445f	-0.19752644
139	0xbd4f14a1	-0.050556783
140	0xbf23de71	-0.64011294
141	0x3eb56eb6	0.35436028
142	0x3e50b366	0.20380935
143	0x3ca5af7a	0.020225275
144	0xbf3238e5	-0.69618064
145	0x3f07d307	0.5305638
146	0x3e623a8b	0.22092645
147	0x3cbfd522	0.02341706
148	0x3f50ea83	0.81607836
149	0xbf5eee89	-0.87082726
150	0xbeb51303	-0.35366067
151	0xbe0a5650	-0.13509488
152	0x3e98f7e1	0.29876617
153	0x3fd4571f	1.6589087
154	0x3ec2e74f	0.380671
155	0x3d385861	0.04500616
156	0xbf7753f0	-0.96612453
157	0xbf381569	-0.7190767
158	0xbeb6cacb	-0.35701594
159	0x3f09bb70	0.5380163
160	0x3eb6ecd9	0.35727575
161	0xbe83a67f	-0.25712964
162	0xbe846fb3	-0.2586647
163	0x3f503949	0.8133741
164	0xbe7dcb84	-0.24784666
165	0x3d652c2d	0.055950332
166	0x3e3c1fda	0.18371525
167	0x3c4e828a	0.012604365
168	0xbf60f82c	-0.8787868
169	0xbf49c033	-0.788089
170	0xbe5fae43	-0.2184382
171	0xbcbf5b2a	-0.0233589
172	0x3f133335	0.5750001
173	0xbfe2f83d	-1.7732006
174	0xbeebd010	-0.46057177
175	0xbd65dce8	-0.056118876
176	0xbf520fca	-0.8205534
177	0x3fbb869f	1.4650458
178	0x3ec44bcc	0.38339078
179	0x3d1f6597	0.038915243
180	0xbf633971	-0.88759524
181	0xbf368c90	-0.7130823
182	0xbe786045	-0.24255474
183	0xbd3ae1ed	-0.045625616
184	0xbf44a5c9	-0.7681547
185	0x3f343aed	0.70402414
186	0x3e7a5ab9	0.2444867
187	0x3d232612	0.03983123
188	0xbfbd27c8	-1.4777765
189	0x3eec3a14	0.4613806
190	0x3ebaf1af	0.36512515
191	0xbedfa70d	-0.43682137
192	0x3eb8caff	0.36092374
193	0xbf44a7a2	-0.7681829
194	0x3e27c5e4	0.16384083
195	0x3ca80505	0.020510206
196	0xbe74f9d3	-0.23923425
197	0xbfbc8f30	-1.4731197
198	0xbea453a4	-0.32095063
199	0xbd80e34b	-0.06293353
200	0xbf0bf405	-0.5466922
201	0x3ee30d8e	0.4434628
202	0x3f067a70	0.52530575
203	0x3d510a79	0.051035378
204	0xbe0977e5	-0.13424642
205	0x3f2d19fc	0.67617774
206	0x3f169def	0.5883474
207	0x3d580721	0.052741174
208	0x3d2cac91	0.04215676
209	0xbf4f91f3	-0.81082076
210	0xbe9ec6f3	-0.3101116
211	0x3ec0370d	0.37542
212	0x3f086deb	0.5329272
213	0xbf4eaab3	-0.80729216
214	0xbee79cdc	-0.45236862
215	0x3ec73f36	0.38915414
216	0x3f112f3f	0.56712717
217	0x3f0b5805	0.5443118
218	0xbf0226bc	-0.50840354
219	0x3e8c4296	0.2739455
220	0x3f27e143	0.655781
221	0xbf95893e	-1.1682508
222	0xbea2a881	-0.31769183
223	0xbd3aa075	-0.04556318
224	0xbedd49f1	-0.43220475
225	0xbe402207	-0.1876298
226	0xbebacd39	-0.36484697
227	0x3e04bb95	0.12962182
228	0xbf7ed6a7	-0.99546283
229	0xbf36f4a4	-0.7146704
230	0xbea2c0f3	-0.31787834
231	0xbc0839c8	-0.008314557
232	0xbd45116e	-0.048112325
233	0x3f22e287	0.63626903
234	0xbe927801	-0.2860718
235	0xbe835279	-0.2564886
236	0xbe4f715c	-0.20258087
237	0x3f4f4f6a	0.8098055
238	0x3f00af5c	0.5026758
239	0x3d18550a	0.037190475
240	0xbf003f17	-0.5009627
241	0x3f5493ad	0.83037835
242	0x3e728fee	0.23687717
243	0x3d16aafa	0.03678415
244	0x3f373dc6	0.71578634
245	0x3f390f25	0.72288734
246	0x3e80cbec	0.2515558
247	0x3d187023	0.037216317
248	0xbeda5edd	-0.426505
249	0xbf616c55	-0.88055927
250	0x3e189800	0.14901733
251	0xbcd24855	-0.025669256
252	0xbf6e426c	-0.930701
253	0xbfb8d983	-1.4441379
254	0xbef8cfbb	-0.48595986
255	0x3f14120e	0.5784005

fc1.bias f4 [256]
0	0x3eede52e	0.46463913
1	0x3f1b9469	0.6077333
2	0x3e3897a3	0.18026595
3	0x3f5a55be	0.8528708
4	0xbef98dd4	-0.4874102
5	0x3ef95553	0.4869791
6	0x3d209380	0.039203167
7	0x3ecd5dc4	0.401106
8	0x3f847a34	1.0349793
9	0xbf0e8add	-0.5568064
10	0x3f258103	0.6464998
11	0xbe80151f	-0.25016114
12	0x3ec16164	0.37769616
13	0x3f52a46a	0.82282126
14	0x3e2736b6	0.16329464
15	0x3e7d1415	0.24714692
16	0x3ee976da	0.4559849
17	0x3ac5fa69	0.0015104535
18	0x3e0d1a3d	0.1377954
19	0x3f02eb0e	0.51139915
20	0x3ee17d3f	0.44040868
21	0x3f2e044f	0.67975324
22	0xbe80d159	-0.2515972
23	0x3f04dcea	0.5189959
24	0x3f21bc53	0.63177985
25	0xbf16a9eb	-0.58853024
26	0xbd22b211	-0.0397206
27	0x3e1142bd	0.14185615
28	0xbf0f5878	-0.5599437
29	0x3f441c97	0.76606125
30	0x3f22b46c	0.6355655
31	0x3f36fd71	0.7148047
32	0x3f25ab14	0.6471417
33	0xbe062306	-0.13099298
34	0x3f2acfa4	0.66723084
35	0x3f12655e	0.57185924
36	0x3f05fa79	0.52335316
37	0x3e68225b	0.22669356
38	0xbf2e124a	-0.67996657
39	0x3f026712	0.5093852
40	0x3ef81bfb	0.48458847
41	0x3f58f9b5	0.8475602
42	0x3f167438	0.58771086
43	0xbf7dae13	-0.9909374
44	0x3eaac32a	0.33352023
45	0x3f292ceb	0.66084164
46	0x3f078597	0.52938217
47	0xbef50149	-0.47852543
48	0x3ec3e212	0.38258415
49	0x3f0af82a	0.5428492
50	0xbf093854	-0.53601575
51	0xbdcf8b8c	-0.10134038
52	0x3f32700b	0.69702214
53	0x3ea32cb8	0.31870055
54	0x3eeb2f7a	0.4593466
55	0xbea01dd4	-0.31272757
56	0x3f3d7f68	0.7402253
57	0xbf5f90c2	-0.8733026
58	0x3f791ace	0.97306526
59	0xbe425858	-0.18979013
60	0x3f26e972	0.6519996
61	0xbef7a62f	-0.48368976
62	0x3f1514ff	0.5823516
63	0xbe93cc9f	-0.2886705
64	0xbec21ae1	-0.37911132
65	0x3f4174d8	0.75568914
66	0x3f0156dc	0.5052316
67	0xbf1b94c5	-0.6077388
68	0x3f636cca	0.88837874
69	0x3e7d71ce	0.24750444
70	0xbec176da	-0.3778599
71	0x3eb4ee05	0.35337844
72	0xbf715202	-0.9426576
73	0x3ef294c2	0.47379118
74	0xbede0eed	-0.43370762
75	0xbf22fedc	-0.63670135
76	0x3eb66ff5	0.3563229
77	0xbe58337f	-0.21113394
78	0x3c7000a1	0.014648587
79	0x3ee87ace	0.45406193
80	0x398c2643	0.00026731388
81	0xbf2a106e	-0.6643132
82	0xbf21894e	-0.63100135
83	0x3f22ab69	0.635428
84	0x3f21645f	0.6304378
85	0x3da8bb95	0.082389034
86	0x3f51d1de	0.81960857
87	0x3f2222e5	0.63334495
88	0xbc8b249c	-0.01698523
89	0x3f2828d2	0.65687287
90	0x3e3ed820	0.18637133
91	0x3e464870	0.1936357
92	0xbdebedaf	-0.11519944
93	0xbf29be4d	-0.66306
94	0xbf0e1838	-0.55505705
95	0xbf3bda6a	-0.7338015
96	0x3f2c4be9	0.6730333
97	0x3f23c1b5	0.6396745
98	0x3f2f2a3e	0.6842383
99	0x3ed57fcc	0.41699064
100	0x3f4ef664	0.8084471
101	0x3ccf8fa3	0.025337046
102	0x3f294e6f	0.66135305
103	0xbede42d3	-0.43410358
104	0xbf198de2	-0.5998212
105	0x3f505d10	0.81392
106	0xbf8fd10a	-1.1235669
107	0x3de1b5dc	0.11021015
108	0xbeda1373	-0.42592964
109	0x3e6f9241	0.23395635
110	0x3f43c17a	0.76467097
111	0xbf65e8af	-0.8980817
112	0x3f239820	0.63904
113	0xbdf8e060	-0.12152171
114	0x3dcfd2e4	0.10147646
115	0xbed2207b	-0.41040406
116	0x3f1026f6	0.5630945
117	0x3f1d802a	0.6152369
118	0x3f02190c	0.5081947
119	0x3f2d8023	0.67773646
120	0x3f232d77	0.6374125
121	0xbdf4082f	-0.119156234
122	0x3f44ef08	0.7692723
123	0x3f4902ee	0.78520095
124	0xbc8397c7	-0.016063584
125	0xbf49afd1	-0.787839
126	0x3f039983	0.51406115
127	0xbe91be28	-0.2846539
128	0x3ec5c452	0.38626343
129	0xbdfa99f0	-0.122363925
130	0x3ef6b9ff	0.4818878
131	0x3f327a98	0.69718313
132	0xbf0eeb4e	-0.55827796
133	0xbd8140cc	-0.06311187
134	0x3e5bfd72	0.214834
135	0x3f03ddb5	0.51510173
136	0x3f17da84	0.59317803
137	0xbea88299	-0.32912138
138	0x3f0867d1	0.5328341
139	0xbeb0c244	-0.34523213
140	0xbf412865	-0.7545226
141	0xbf61101e	-0.8791522
142	0x3e76207b	0.24035828
143	0xbf1e3cbb	-0.6181142
144	0xbe1fb0bd	-0.15594764
145	0xbe89d1de	-0.26917928
146	0x3f32fc53	0.69916266
147	0xbe3cf46c	-0.18452615
148	0x3f0f0ac4	0.558758
149	0x3f739b7f	0.95159143
150	0x3e3f7d23	0.1870008
151	0x3f53cb87	0.82732433
152	0xbea10cff	-0.31455228
153	0x3e8eaf5d	0.27868167
154	0x3ef38641	0.47563365
155	0x3ed7cce7	0.42148516
156	0x3f771b38	0.9652591
157	0xbf0c9796	-0.549188
158	0x3f4bdb68	0.7963166
159	0x3eaf9ae1	0.3429785
160	0x3f0b2496	0.543527
161	0x3f0abf30	0.5419798
162	0x3f61c281	0.88187414
163	0xbe08e84f	-0.13369869
164	0xbe30d360	-0.17268133
165	0x3f1ad498	0.6048064
166	0x3e07504f	0.13214229
167	0x3f0cf6d9	0.5506416
168	0x3ea98557	0.33109543
169	0x3f0fde69	0.56198746
170	0x3f3ea0a6	0.7446388
171	0x3f225ee0	0.6342602
172	0x3f48034c	0.7813003
173	0x3f250b7e	0.6447066
174	0xbe7ac21e	-0.24488112
175	0x3ec1152b	0.37711462
176	0x3dc6ddee	0.097102985
177	0x3f550605	0.8321231
178	0x3f18ecb6	0.5973619
179	0x3f4822d6	0.78178155
180	0xbd83f862	-0.0644386
181	0x3e9c9091	0.30579045
182	0xbf1d606a	-0.6147524
183	0xbe49dced	-0.19713183
184	0xbe783b9f	-0.24241494
185	0x3edbbef5	0.42919126
186	0xbf55ba74	-0.8348763
187	0x3daf4caa	0.085595444
188	0xbf0dcde5	-0.55392295
189	0x3f0a0bbf	0.53924173
190	0xbf4649c7	-0.77456325
191	0x3f4a7db8	0.7909808
192	0x3f1c25bc	0.6099508
193	0x3f36490e	0.7120522
194	0x3f31fbf9	0.69525105
195	0x3eb925ef	0.36161754
196	0x3f45d8e3	0.7728407
197	0xbeb060e9	-0.34448937
198	0x3f09f259	0.5388542
199	0x3f521659	0.8206535
200	0xbf226eee	-0.63450515
201	0x3e76e535	0.24110873
202	0xbecc7097	-0.3992965
203	0x3f679f41	0.9047738
204	0x3ebccfdf	0.36877343
205	0x3f6ae83f	0.9176063
206	0x3f0e2b91	0.5553523
207	0x3f2c788e	0.6737145
208	0xbeb52581	-0.35380176
209	0xbe84880b	-0.25885043
210	0x3ecadd13	0.3962179
211	0xbd73abd2	-0.059490032
212	0x3f1e5f1e	0.6186389
213	0x3f5ca927	0.86195606
214	0x3eec58a8	0.4616139
215	0xbf12a9f0	-0.57290554
216	0x3f0dda14	0.55410886
217	0xbdd11e20	-0.10210824
218	0xbe96a853	-0.29425296
219	0xbf50d6ee	-0.81577957
220	0xbe766386	-0.24061403
221	0xbe97db92	-0.29659706
222	0x3f063e78	0.5243907
223	0xbbd2167f	-0.006411373
224	0x3f31690c	0.69300914
225	0x3f04362f	0.5164518
226	0x3eef117e	0.46693033
227	0x3e8f7c33	0.28024444
228	0xbf52ceaa	-0.82346594
229	0x3ecd5610	0.40104723
230	0x3e03746e	0.12837383
231	0x3f595049	0.8488813
232	0x3e4ddf97	0.20104824
233	0xbe7b0759	-0.24514522
234	0x3e302bc4	0.17204195
235	0xbdff8b85	-0.12477783
236	0x3f1de159	0.6167198
237	0x3eeb1f34	0.45922244
238	0xbf37cd0a	-0.7179724
239	0x3f58d0ea	0.8469378
240	0xbf005759	-0.5013328
241	0x3f2c2af8	0.67253065
242	0xbf5c1401	-0.85968024
243	0x3f23db03	0.6400606
244	0x3e198a8b	0.14994256
245	0x3d4d2adf	0.050089713
246	0x3e241c5d	0.16026445
247	0x3d970c9b	0.07375451
248	0xbeaabafe	-0.3334579
249	0x3f025ea2	0.5092565
250	0xbec98c62	-0.39364916
251	0x3e9b71a3	0.30360135
252	0x3e85f252	0.26161438
253	0x3f1dd493	0.6165249
254	0x3f46fb7d	0.7772749
255	0xbca07f89	-0.019592064

fc2.weight f4 [256, 256]
0	0xbd1ae5ae	-0.037816696
1	0x3d32c1a1	0.04364169
2	0x3c14ce57	0.009082398
3	0xbb481c9c	-0.003053463
4	0xbd50a27a	-0.0509362
5	0xbcc86be9	-0.024465518
6	0xbd1c32fa	-0.038134553
7	0xbcb8ee90	-0.022574693
8	0xbd1a7bb2	-0.03771562
9	0xbcb182c6	-0.021668803
10	0xbc0d41b8	-0.008621626
11	0x3d48bd9e	0.049008958
12	0x3c6419f6	0.013922205
13	0x3d3521a6	0.044221543
14	0xbc52ae2f	-0.012858911
15	0xbd18a5c6	-0.03726747
16	0x3d1d9724	0.038474217
17	0x3c0696ed	0.008214694
18	0x3bd6ee2a	0.006559153
19	0x3d4bddc4	0.04977204
20	0x3c631150	0.013859108
21	0xbd24599d	-0.040124524
22	0xbd1c3e14	-0.03814514
23	0x3d6c5503	0.05769826
24	0xbd057623	-0.032583367
25	0x3d57677e	0.052588932
26	0xbc6f1bb9	-0.014594012
27	0x3bfa8513	0.007645258
28	0xbcc12ded	-0.02358147
29	0xbc890f76	-0.016731005
30	0xbd60f55c	-0.054921493
31	0xbd1bb8ec	-0.038018152
32	0x3c0c3848	0.00855834
33	0xbc370db0	-0.011172697
34	0xbd40aa72	-0.04703755
35	0xbd4d9ddd	-0.05019938
36	0xbd739afc	-0.059473976
37	0xbd42ed30	-0.04758948
38	0xbb4c0940	-0.0031133443
39	0xbd0e3923	-0.03472246
40	0xbcfcf9b5	-0.030880788
41	0xbd399790	-0.045310557
42	0xbcb22b63	-0.021749204
43	0xbd38e92c	-0.045144245
44	0xbc93c35e	-0.018037494
45	0x3d2345c7	0.039861467
46	0x3c029247	0.007969446
47	0xbd414c9e	-0.04719221
48	0x3d18a57b	0.03726719
49	0x3c369ae1	0.011145324
50	0x3d0c26d9	0.034216736
51	0x3cf08f41	0.029365184
52	0x3d5f4d1b	0.054516893
53	0xbd18fb63	-0.037349116
54	0x3cd1f05c	0.025627308
55	0x3c3054a3	0.0107623665
56	0x3d6c0921	0.057625894
57	0x3cfe2f9f	0.031028567
58	0xbd860a8a	-0.06544979
59	0xbc836a94	-0.016042031
60	0xbd81536f	-0.06314742
61	0x3cde34c7	0.027124776
62	0x3cd94092	0.026520047
63	0x3c688885	0.014192705
64	0xbae4da76	-0.0017460126
65	0x3a996f06	0.0011706061
66	0x3bf9fe0b	0.0076291612
67	0x3bc9ec06	0.0061621694
68	0x3c1cb93d	0.009565649
69	0x3c42e21e	0.011894731
70	0xbcfc747c	-0.030817263
71	0xbc65d1a5	-0.014027034
72	0x3d26c817	0.040718164
73	0xbd330b9c	-0.043712243
74	0x3d6a9b4b	0.057277005
75	0xbd2310cd	-0.039810944
76	0xbbf3b55f	-0.0074373926
77	0xbd26e622	-0.040746816
78	0x3cd46cb9	0.02593075
79	0xbd2efd60	-0.042722106
80	0x3c2141a3	0.009842309
81	0x3d2b7752	0.04186184
82	0x3cf5951d	0.02997833
83	0xbae023fa	-0.0017100566
84	0xbc92c8d5	-0.01791803
85	0x3c87b6d3	0.01656667
86	0xbb97fef5	-0.0046385475
87	0x3ccfd28d	0.025368953
88	0xbc461b7d	-0.012091515
89	0xbd60e795	-0.054908354
90	0x3d69929b	0.05702458
91	0xbce30746	-0.02771343
92	0x3bbf9ecc	0.0058477875
93	0xbc871007	-0.016487135
94	0x3b643561	0.0034821855
95	0x3cce9f00	0.025222301
96	0x3d19d79c	0.037559137
97	0xbd85e9db	-0.06538745
98	0xbca9d43a	-0.02073108
99	0x3cee1c00	0.029066086
100	0xbd571e25	-0.052518982
101	0x3d5e7ac4	0.054316297
102	0xbd58b4cb	-0.052906793
103	0xbd504b85	-0.05085327
104	0xbcadc536	-0.021212202
105	0x3d5dec11	0.05418021
106	0x3d3a69cf	0.045511063
107	0xbd7e1c06	-0.062038444
108	0x3d63b05f	0.055588122
109	0xbcad19d9	-0.02113049
110	0xbce07db5	-0.027403692
111	0xbd6387ec	-0.055549547
112	0xbcc5ccdc	-0.024145536
113	0x3c718f9e	0.014743714
114	0xbb34de9d	-0.0027598508
115	0x39df8994	0.00042636378
116	0x3ca24db4	0.019812442
117	0xbd86207c	-0.06549165
118	0xbcc76f14	-0.024344958
119	0x3d65c84d	0.056099225
120	0xbd824507	-0.06360822
121	0x3d044e20	0.03230107
122	0xbbf6eab9	-0.0075353053
123	0xba9175e6	-0.0011097759
124	0xbd09deec	-0.03365986
125	0x3d12b48a	0.035816707
126	0xbd1d791a	-0.03844557
127	0xbcad4d23	-0.021154946
128	0xbce754b8	-0.02823864
129	0xbccf70b1	-0.02532229
130	0xbd84bb84	-0.06481078
131	0x3b6a60ea	0.0035763332
132	0xbc8f2164	-0.017471977
133	0xbd2b2a25	-0.04178824
134	0x3d59758a	0.05309061
135	0x3d5a982e	0.053367786
136	0xbce68762	-0.028140727
137	0xbb645419	-0.0034840165
138	0xbd7b03c1	-0.061282877
139	0x3b9d7c81	0.004806102
140	0xbc791d91	-0.015204803
141	0x3c346517	0.01101043
142	0x3cba02b2	0.022706363
143	0xbd6d7ae9	-0.057978544
144	0xbca9c3bd	-0.020723218
145	0xba95c25b	-0.001142572
146	0xbd5d0719	-0.053961847
147	0xbd31e945	-0.043435354
148	0xba6836cc	-0.0008858263
149	0x3d429490	0.04750496
150	0xbca11ee6	-0.019668054
151	0xbc650234	-0.013977576
152	0x3d47facb	0.04882316
153	0xbc0003c6	-0.0078134
154	0xbbf7b0e7	-0.00755893
155	0x3d5140d7	0.051087227
156	0x3d1a5122	0.03767503
157	0x3d54d8d6	0.051964603
158	0xbcfbc083	-0.030731445
159	0xbb6aa19a	-0.0035801888
160	0xbd123414	-0.035694197
161	0x3be2b06d	0.0069180042
162	0xbd4ba8de	-0.04972159
163	0x3c044e33	0.008075285
164	0x3c8c07ef	0.017093627
165	0x3cf3637b	0.029710522
166	0x3bfc2126	0.0076943813
167	0x3c435812	0.011922853
168	0x3cd357cc	0.0257987
169	0x3d35ceea	0.04438678
170	0x3d02caec	0.031931803
171	0xbc967096	-0.018364232
172	0xbc0566d2	-0.00814219
173	0xbd27d543	-0.040974867
174	0x3d6dd228	0.05806175
175	0x3c86558e	0.016398218
176	0xbc99d037	-0.018776042
177	0x3d516c5e	0.051128738
178	0xbd12f4d5	-0.03587802
179	0xbd7f114c	-0.062272355
180	0xbb8c99fd	-0.004290818
181	0xbd787e7a	-0.060667492
182	0xbd131feb	-0.03591911
183	0xbce38bf8	-0.027776703
184	0x3c91e6d4	0.017810263
185	0xbd83ed4b	-0.064417444
186	0xbce386cc	-0.027774237
187	0xbb62fe44	-0.0034636417
188	0x3c4ea17d	0.012611744
189	0x3c91e7b9	0.01781069
190	0xbd0c74f8	-0.034291238
191	0x3a181292	0.0005801107
192	0xbd67c60f	-0.056585368
193	0xb9301e58	-0.00016795972
194	0xbd1fc75c	-0.039008483
195	0xbd1f5274	-0.038896993
196	0xbd4babd0	-0.0497244
197	0x3d109da0	0.035306573
198	0xbcd2f8b6	-0.02575336
199	0xbce23d92	-0.02761725
200	0xbd4c58be	-0.04988932
201	0xbd7a4a3a	-0.061105944
202	0xbd65a075	-0.056061227
203	0x3d52afb1	0.051437084
204	0xbd783754	-0.06059964
205	0xbcc10b8a	-0.023565073
206	0x3d3eed8f	0.046613272
207	0x3d053ff9	0.032531712
208	0x3d349aaf	0.04409283
209	0x3c8e75b9	0.017390119
210	0x3d45a557	0.048253383
211	0x3cbc1518	0.022959277
212	0xbd7372a1	-0.05943549
213	0x3cde0ff6	0.02710722
214	0xba3484e9	-0.000688626
215	0xbc7a6229	-0.015282192
216	0x3c9db971	0.019253464
217	0x3d016b44	0.031596437
218	0x3d2efeb8	0.042723387
219	0xbca06f1e	-0.019584235
220	0xbd1b3538	-0.03789255
221	0xbc352d57	-0.011058173
222	0xbd0882aa	-0.033327736
223	0xbcb558e2	-0.02213711
224	0xbbf2c372	-0.007408553
225	0xbd4bf68c	-0.049795672
226	0xbd2ac237	-0.041689124
227	0xbd3c17ce	-0.04592114
228	0xbcf2c874	-0.0296366
229	0x3d4d62cc	0.05014305
230	0x3c2254bf	0.0099079
231	0x3d32a428	0.043613583
232	0xbd557a3d	-0.05211853
233	0xbd2b8095	-0.041870672
234	0x3cd7a544	0.026323922
235	0x3c75ee43	0.015010419
236	0xbd16d14a	-0.036820687
237	0x3d16df66	0.036834143
238	0xbd336084	-0.043793216
239	0xbd357cb6	-0.044308387
240	0xbb61d024	-0.0034456337
241	0x3b94be18	0.0045392625
242	0xbd3c3b56	-0.045955025
243	0x3d1c606e	0.0381779
244	0x3cf39680	0.02973485
245	0x3d6266c0	0.05527377
246	0x3bd0d8d6	0.006373505
247	0x3d443907	0.047905948
248	0x3d313f06	0.043272994
249	0x3d1a8928	0.03772846
250	0x3d6a94d6	0.057270847
251	0xbd2ab5a8	-0.041677147
252	0xbbdbbddc	-0.0067059826
253	0xbd77e453	-0.06052048
254	0x3d462d21	0.048382882
255	0xbd21ab54	-0.03947003

fc2.bias f4 [256]
0	0x3d1c89f2	0.038217492
1	0x3d552462	0.05203665
2	0xbc495561	-0.012288422
3	0x3e332751	0.17495467
4	0x3da29a31	0.07939566
5	0x3dded1de	0.10879873
6	0xbd8f026d	-0.069828846
7	0x3da021ba	0.07818933
8	0x3e745153	0.23859148
9	0x3d4a8187	0.049439933
10	0x3c805dcf	0.015669731
11	0x3dadc836	0.08485453
12	0xbd832fbc	-0.06405589
13	0xbcb49200	-0.022042274
14	0x3d45eabe	0.04831957
15	0x3e8b8b51	0.27254727
16	0x3d771eea	0.060332216
17	0x3d350785	0.044196624
18	0x3d8c923d	0.0686383
19	0x3b6df86b	0.0036311399
20	0x3dcaae0d	0.09896479
21	0xbc86acb4	-0.016439773
22	0x3d0bb720	0.03411019
23	0x3e0455f5	0.12923415
24	0xbc11f0e9	-0.008907535
25	0x3d8b44ce	0.06800233
26	0xbc505174	-0.012714732
27	0x3de10090	0.109864354
28	0x3d67a205	0.056551
29	0x3ea17cdf	0.31540582
30	0x3dadb023	0.08480861
31	0x3dcf2003	0.101135276
32	0xbd2b8476	-0.04187437
33	0x3e2eccdd	0.17070337
34	0x3c234bc7	0.009966797
35	0x3df63129	0.12021095
36	0x3e096819	0.13418616
37	0x3e3651ce	0.17804644
38	0x3d1b0bfd	0.03785323
39	0x3d07b538	0.033131808
40	0xbd6014cc	-0.054707333
41	0xbd3b91ab	-0.045793217
42	0xbd826988	-0.06367785
43	0x3cc049aa	0.023472626
44	0xbdde1fe8	-0.108459294
45	0x3dec8cf4	0.11550322
46	0x3d4bf0e5	0.04979028
47	0x3e473ab9	0.19455995
48	0x3d27d8d5	0.04097827
49	0x3e27440a	0.16334549
50	0x3dd1f006	0.10250859
51	0x3dd52412	0.104072705
52	0x3cf46817	0.02983479
53	0xbd808315	-0.06275002
54	0x3ddcb278	0.10776228
55	0x3e2a8bae	0.16654846
56	0x3d4a11c3	0.049333345
57	0x3e1f5114	0.15558273
58	0x3c19e39d	0.009392646
59	0xbd1e4011	-0.038635317
60	0x3dae156a	0.08500178
61	0x3b66b40a	0.0035202526
62	0xbe476c6a	-0.1947495
63	0x3d41bd65	0.04729976
64	0x3e0153f1	0.12629677
65	0xbd82479a	-0.06361313
66	0x3d1eb7d2	0.038749523
67	0x3db2f9fb	0.08739086
68	0xbd673b23	-0.05645288
69	0xbcef2194	-0.029190816
70	0x3e31a8ff	0.17349623
71	0xbba46fb9	-0.005018201
72	0xbc1657ba	-0.009176189
73	0x3e91e012	0.28491265
74	0x3e2743b2	0.16334417
75	0xbc9b3486	-0.018945944
76	0x3d4bdcca	0.049771108
77	0x3dc42ca1	0.09578825
78	0x3d5186a1	0.051153783
79	0x3da07cf1	0.07836331
80	0xbb052dbe	-0.0020321454
81	0x3d9b439d	0.075812556
82	0x3e91d45c	0.2848233
83	0x3c8f5392	0.017495904
84	0x3e2dcc6c	0.16972512
85	0x3e35892a	0.17728105
86	0x3dcfb027	0.1014102
87	0x3d149228	0.036272198
88	0x3e086558	0.1331991
89	0x3d73ac19	0.059490297
90	0x3e26e10c	0.16296786
91	0x3e0d8831	0.13821484
92	0xbc49932f	-0.012303158
93	0x3d59920c	0.053117797
94	0xbd3d75b9	-0.046254847
95	0x3e2359e4	0.1595226
96	0x3d9fded6	0.078061745
97	0x3d829c0a	0.06377418
98	0x3d85339e	0.06503986
99	0x3e9f0b9d	0.31063548
100	0xbb2cb19c	-0.002635098
101	0x3d0d5d78	0.034512967
102	0x3d2266cc	0.039648816
103	0x3dd94bf8	0.10610193
104	0x3de17463	0.11008527
105	0xbe1414ab	-0.14461009
106	0x3df5343a	0.11972852
107	0xbcc7665b	-0.0243408
108	0x3ce11146	0.027474057
109	0x3e0fbc89	0.14036764
110	0x3d365ddd	0.04452311
111	0x3deb6cfd	0.11495397
112	0xbd0af940	-0.03392911
113	0x3d1122f1	0.035433713
114	0x3dd49530	0.10380018
115	0x3d3daf88	0.046309978
116	0x3d8a4d28	0.06752998
117	0x3dba5160	0.09097552
118	0x3acd0252	0.001564095
119	0x3e80ef4a	0.25182563
120	0x3d8f9f3f	0.07012796
121	0x3e103d7a	0.14085951
122	0x3dab0705	0.08350948
123	0x3c9146fa	0.01773404
124	0x3dcf4583	0.1012068
125	0x3ecfab4e	0.40560383
126	0x3d8a2911	0.06746114
127	0x3ce7f25c	0.028313808
128	0x3e049171	0.12946106
129	0x3dd73ba2	0.10509421
130	0x3e1a1fa6	0.15051135
131	0x3e106abf	0.1410322
132	0x3e102ff3	0.14080791
133	0x3df75649	0.120770045
134	0x3ddf27e6	0.10896282
135	0x3d5edac2	0.054407842
136	0x3d602fa3	0.05473293
137	0x3d0417b2	0.03224916
138	0x3d666c42	0.056255586
139	0x3eaa6672	0.33281285
140	0x3d969098	0.07351798
141	0xbc228a49	-0.009920665
142	0x3ce27082	0.027641539
143	0x3d8ca9c5	0.068683185
144	0x3c745ae8	0.014914252
145	0xbd4806d9	-0.048834655
146	0x3e256953	0.16153459
147	0xbd6aa880	-0.0572896
148	0x3d95f7fa	0.073226884
149	0x3db9ca95	0.090718426
150	0x3d983415	0.07431809
151	0x3e4c627b	0.19959442
152	0x3e81b308	0.25331903
153	0x3de9b24b	0.1141096
154	0x3dea25a6	0.11432962
155	0x3e2f4357	0.17115532
156	0x3e0cfff6	0.13769516
157	0x3d2dc28f	0.042421874
158	0x3d60e3d4	0.054904774
159	0x3decd9c2	0.115649715
160	0x3da7708a	0.08175762
161	0x3d9edf60	0.07757449
162	0x3d64c39f	0.05585062
163	0x3e125372	0.14289644
164	0x3de2cc61	0.110741384
165	0x3df2f830	0.11863744
166	0x3cbb5b79	0.022870766
167	0x3e970600	0.29496765
168	0x3de7e00c	0.113220304
169	0x3e2d7a1d	0.16941114
170	0x3cf3b13b	0.029747596
171	0x3af36a20	0.0018571056
172	0x3e2a6c99	0.16642989
173	0x3e13c1e3	0.1442943
174	0xbce04b65	-0.0273797
175	0x3d3cb469	0.04607049
176	0x3d3167f6	0.043312036
177	0xbd4531e0	-0.048143268
178	0x3ddb1423	0.106972
179	0xbd7aeada	-0.06125913
180	0x3e1c01bd	0.15235038
181	0x3ce6018d	0.028076911
182	0x3cf42b59	0.029805826
183	0x3cca9d51	0.024733217
184	0x3ed50715	0.41606966
185	0xbd5af666	-0.05345764
186	0x3de162f1	0.110052
187	0xbcb57924	-0.02215249
188	0x3e50bfcc	0.20385665
189	0x3d5c8f3b	0.053847533
190	0x3e159a94	0.14609748
191	0x3d248a94	0.04017122
192	0x3e1e0483	0.15431409
193	0x3e507468	0.20356905
194	0xbce9e43f	-0.028551219
195	0x3c616410	0.013756767
196	0x3bd26531	0.0064207544
197	0xbc55128a	-0.013004908
198	0x3e0875e6	0.13326225
199	0x3db8837c	0.09009454
200	0x3d119ee7	0.03555193
201	0x3e0386b5	0.12844355
202	0x3cf5d6e6	0.030009698
203	0xbd0f50d6	-0.0349892
204	0x3d976139	0.073915906
205	0x3e5af6a8	0.21383154
206	0x3e24c67b	0.1609134
207	0x3c192e28	0.009349383
208	0x3d78b45c	0.06071888
209	0x3d820a1d	0.06349585
210	0x3d0452cf	0.032305535
211	0xbd018d94	-0.03162916
212	0x3dfbe8e0	0.12300277
213	0xbe259c2d	-0.16172858
214	0x3dd53bea	0.10411818
215	0x3d601a41	0.054712538
216	0x3d500321	0.050784234
217	0x3df7d386	0.12100892
218	0x3d7ea6b3	0.062170696
219	0x3df6a8b7	0.120438986
220	0x3ddc1adf	0.10747313
221	0x3deddf00	0.116147995
222	0xbd0df411	-0.034656588
223	0x3b73fbb2	0.003722888
224	0xbcf0b0bc	-0.029381149
225	0xbd47a393	-0.04873998
226	0x3e221f14	0.15832168
227	0x3ebc6a40	0.36799812
228	0x3dd90d83	0.1059828
229	0x3e06747b	0.13130371
230	0x3e1b4b7e	0.15165517
231	0x3c910ee5	0.017707298
232	0x3e356a46	0.17716321
233	0x3d4f25e1	0.050573234
234	0x3cf690bc	0.030098312
235	0x3d66744d	0.056263257
236	0x3d813142	0.06308223
237	0xbd74a844	-0.059730783
238	0x3ec2bf0a	0.38036376
239	0x3cfa9a66	0.030591201
240	0x3ed5351a	0.41642076
241	0xbc25ac4e	-0.010111881
242	0x3c735b11	0.014853255
243	0xbd3cd66d	-0.04610293
244	0xbd544093	-0.051819395
245	0x3baf6a0d	0.0053532184
246	0x3c97d61c	0.018534712
247	0x3d5025de	0.050817363
248	0x3d8d7680	0.06907368
249	0x3db8a796	0.090163395
250	0x3dca7b46	0.09886794
251	0x3e09ba2d	0.13449927
252	0xbce606ff	-0.028079508
253	0x3d5b0cc0	0.053478956
254	0x3d8a74ed	0.06760583
255	0xbd745032	-0.059646793

q.weight f4 [1, 256]
0	0x3d666ddd	0.056257118
1	0x3cfbdffe	0.030746456
2	0x3fc81d1e	1.5633886
3	0xbe8d1b20	-0.27559757
4	0x3f8411b6	1.0317905
5	0xbe85a89a	-0.26105195
6	0x3d435a6c	0.047693655
7	0x3edebf12	0.4350515
8	0xbeb1e5bd	-0.3474559
9	0xbe56716d	-0.20941706
10	0x3d52d2c0	0.051470518
11	0xbe6714b6	-0.22566494
12	0x3c1c160d	0.009526742
13	0x3be30290	0.0069277957
14	0x3d24e538	0.040257663
15	0x3fbfcf2b	1.4985098
16	0xbe77beec	-0.24193925
17	0xbe8bbd48	-0.27292848
18	0xbe8982f7	-0.2685773
19	0x3f3aca80	0.7296524
20	0xbe5fb50c	-0.21846408
21	0xbe76385a	-0.24044934
22	0x3c845d7a	0.016157854
23	0xbe70e961	-0.23526527
24	0x3b4353f2	0.0029804674
25	0xbe8fb068	-0.28064275
26	0xbe54e9a3	-0.2079225
27	0xbe981422	-0.2970286
28	0xbe8454eb	-0.25846037
29	0x3fe03a75	1.751784
30	0xbe7d6fc6	-0.2474967
31	0xbeb40449	-0.3515952
32	0xbf4c39fa	-0.79775965
33	0xbe810aad	-0.25203457
34	0xbe6d5e30	-0.23180461
35	0xbe9c6ace	-0.30550236
36	0xbea37036	-0.31921548
37	0x3fbbb810	1.4665546
38	0x3d5b31af	0.05351418
39	0x3f6ff968	0.9373994
40	0x3d288e87	0.04115155
41	0x3ad14b97	0.0015967962
42	0x3d37e476	0.04489561
43	0x3cf3f0e3	0.02977795
44	0x3f83b7c7	1.0290459
45	0xbe922d13	-0.28550014
46	0xbe850eeb	-0.25987944
47	0xbe70b9d9	-0.23508395
48	0xbe89588d	-0.2682537
49	0x3f0618e8	0.52381754
50	0xbe8e0d41	-0.27744487
51	0xbe8d11ee	-0.27552742
52	0x3d2ecce0	0.042675853
53	0x3d25a498	0.040440172
54	0xbe9162ea	-0.28395778
55	0xbeae7da4	-0.3408023
56	0x3d6d84ed	0.057988096
57	0xbe65df44	-0.2244845
58	0xbe6c6aa2	-0.23087552
59	0x3d283b6e	0.0410723
60	0xbe80c4e0	-0.25150204
61	0x3c623b00	0.013808012
62	0x3f7f0287	0.9961323
63	0xbe655da2	-0.22399
64	0xbea821ef	-0.3283839
65	0x3d5d6be2	0.054057963
66	0xbe8d1ae6	-0.27559584
67	0x3f2c9646	0.674168
68	0x3d43c9f7	0.04780003
69	0x3d62ce4b	0.055372518
70	0xbeb79d88	-0.35862374
71	0xbe86c6f1	-0.26323655
72	0x3ce6b737	0.028163536
73	0x3fe3cef2	1.779753
74	0xbebcfa9a	-0.36909944
75	0x3d5aef38	0.053450793
76	0xbe707147	-0.23480712
77	0xbe91a28f	-0.28444335
78	0xbe6cdd68	-0.23131335
79	0xbeac39c7	-0.3363783
80	0x3d4308e9	0.04761592
81	0xbe5a1e12	-0.21300533
82	0x3fea7c74	1.831923
83	0x3c886e17	0.016654057
84	0xbe8beffe	-0.27331537
85	0xbe69c473	-0.22828846
86	0xbe636345	-0.22205837
87	0xbe5f9d9c	-0.21837467
88	0xbe7b28b4	-0.24527246
89	0x3fdf9a99	1.7469054
90	0xbe58c00e	-0.21167013
91	0xbe77efb6	-0.24212536
92	0xbb1ce930	-0.0023942702
93	0x3d0a15a1	0.033712033
94	0x3f3dd802	0.74157727
95	0xbe598522	-0.21242192
96	0xbe8edc10	-0.2790227
97	0xbe58d40d	-0.21174641
98	0xbe9dce4a	-0.3082145
99	0x3fca0262	1.5781977
100	0x3fc22eae	1.5170496
101	0x3cedd4cc	0.029032134
102	0xbe70c5bc	-0.2351293
103	0xbe8de26c	-0.2771181
104	0xbe97b8a7	-0.29633066
105	0x3f9e1977	1.2351521
106	0xbe884272	-0.26613194
107	0x3cb2c687	0.02182318
108	0x3e9feb11	0.3123403
109	0xbea9ff4d	-0.33202592
110	0xbe9d42ec	-0.3071512
111	0x3f19ad7f	0.6003036
112	0x3ba5142a	0.005037804
113	0xbe8ba1c1	-0.27271846
114	0xbe90719e	-0.28211683
115	0xbe75ce58	-0.24004495
116	0xbe7ab779	-0.24484052
117	0xbe875aaa	-0.2643636
118	0xbcd2bec2	-0.025725726
119	0x3fe69cf5	1.801665
120	0xbe72543c	-0.23664945
121	0xbf078bd5	-0.5294774
122	0x3f48e421	0.784731
123	0xbe72e239	-0.2371911
124	0xbe9a5362	-0.3014174
125	0xbf530d11	-0.8244181
126	0x3f76cb7b	0.96404237
127	0xbe676bbd	-0.22599693
128	0xbe9d8529	-0.30765656
129	0xbe861676	-0.2618901
130	0x3f39122c	0.72293353
131	0xbe63bf1b	-0.2224087
132	0xbe5eb5ab	-0.21748988
133	0xbeb1f07d	-0.3475379
134	0xbea17e8b	-0.31541857
135	0xbe82af23	-0.25524244
136	0xbe8d5c2f	-0.27609393
137	0xbe7cec57	-0.24699531
138	0x3d2886ae	0.041144066
139	0x3fed0b75	1.8519121
140	0xbe75ff3d	-0.24023147
141	0x3c668358	0.014069401
142	0xbea9d712	-0.33171898
143	0xbe8040dc	-0.25049484
144	0x3f294b8d	0.66130906
145	0x3bebe2cf	0.0071986686
146	0xbeaa05d9	-0.33207586
147	0x3c2b8780	0.010469317
148	0xbe824959	-0.25446585
149	0xbe819675	-0.25310102
150	0x3f26aab5	0.6510423
151	0xbe9aaae4	-0.30208504
152	0xbf044c91	-0.5167933
153	0xbe85c3eb	-0.26126036
154	0xbe65d078	-0.22442806
155	0xbe720ed4	-0.23638469
156	0xbe78496c	-0.24246758
157	0x3f2acb44	0.6671641
158	0xbe80a1cf	-0.2512345
159	0xbe63fdba	-0.22264758
160	0xbe67496e	-0.22586605
161	0xbe68ffe2	-0.22753862
162	0xbe848cc2	-0.2588864
163	0x3fae903f	1.363777
164	0xbe88f3ce	-0.26748508
165	0x3faa31cf	1.329645
166	0x3ec20019	0.378907
167	0x3fce679c	1.6125369
168	0xbe9b4d37	-0.30332348
169	0xbe8e377c	-0.27776706
170	0x3d20dded	0.039274145
171	0xbe7a4f84	-0.24444395
172	0xbea92089	-0.33032635
173	0x3f887f2b	1.0663809
174	0x3f5229a3	0.8209478
175	0xbe82defc	-0.2556075
176	0x3f37a9ba	0.7174336
177	0xbd70c824	-0.05878462
178	0xbeb6a463	-0.35672292
179	0xbb965e70	-0.0045888945
180	0x3f74d915	0.9564374
181	0xbeaa7fc0	-0.3330059
182	0x3f551deb	0.83248776
183	0xbe5ff9ac	-0.21872586
184	0xbf5ebf0d	-0.8701027
185	0x3f8b1098	1.0864439
186	0x3fc08a53	1.5042213
187	0x3c16f3ff	0.009213447
188	0xbebe49f8	-0.3716581
189	0xbf01a29b	-0.5063874
190	0x3fd8a9b5	1.692679
191	0xbe88bc4e	-0.26706165
192	0x3fb4338b	1.407823
193	0xbe682fa1	-0.22674419
194	0x3d599ed6	0.053129993
195	0xbe7c03cf	-0.24610828
196	0x3f06dbe3	0.5267927
197	0x3f56a2f2	0.83842385
198	0xbe99f346	-0.30068415
199	0xbe724f43	-0.23663048
200	0x3c86f2c8	0.016473189
201	0xbeaf5c29	-0.3425
202	0x3d56b0c9	0.05241469
203	0x3bd6e2b9	0.006557789
204	0xbe76b461	-0.24092247
205	0x3fb3c089	1.4043132
206	0x3f66ca87	0.9015278
207	0x3f2f93de	0.68585
208	0x3f185274	0.59500813
209	0x3f31a857	0.6939749
210	0xbe7c0446	-0.24611005
211	0x3f8180e5	1.011746
212	0xbe69c295	-0.22828133
213	0x3f6b682e	0.9195584
214	0xbe6f3b18	-0.23362386
215	0x3ca4e2b7	0.020127637
216	0x3f80b173	1.0054153
217	0xbe71b126	-0.23602733
218	0xbe87639c	-0.26443183
219	0xbea5a915	-0.32355562
220	0xbe77566c	-0.24154061
221	0x3f42f416	0.76153696
222	0x3c207623	0.009793791
223	0xbe90433e	-0.28176302
224	0xbbf41c51	-0.0074496646
225	0x3c5a408b	0.013321052
226	0xbfa2d901	-1.2722474
227	0xbf6e2b89	-0.9303518
228	0xbe7c5918	-0.24643362
229	0xbea6a892	-0.32550484
230	0xbe8ea255	-0.27858225
231	0x3d5358d7	0.051598396
232	0xbe8e8459	-0.27835348
233	0xbe8b2efd	-0.27184287
234	0x3c5d23f8	0.013497345
235	0x3fd49d00	1.6610413
236	0xbe73d5a9	-0.23811974
237	0xbd71ab70	-0.059001386
238	0x3fdaafe7	1.7084931
239	0xbe6e9c17	-0.23301731
240	0x3fde9bc6	1.7391288
241	0xbab28d8c	-0.0013622507
242	0xbe7e15a6	-0.24812946
243	0x3d040a55	0.032236416
244	0x3d57c59e	0.052678697
245	0xbe7ee5c5	-0.24892338
246	0xbe78d123	-0.2429853
247	0x3d2865b8	0.04111263
248	0x3f8d4ca9	1.103902
249	0xbe825b88	-0.25460458
250	0xbe743953	-0.23849992
251	0x3f9b582d	1.2136284
252	0x3ad83919	0.0016496509
253	0x3d2a5e55	0.04159387
254	0xbe851e03	-0.2599946
255	0x3ce751e9	0.0282373
