data/pendulum/models/lsac-pendulum-actor.pth (torch, 272720 bytes, 6 tensors)

fc1.weight f4 [256, 3]
000000 94 5b 7d be 5d b7 88 bf b8 68 bf be b3 4a 75 3e
       -0.24741966 -1.0680958 -0.37384582 0.23954277
000010 f3 d5 3f 3f 6f eb d7 be 11 3c f8 3e fa 50 00 3e
       0.74935836 -0.4217181 0.48483327 0.1253089
000020 fe 49 3a 3e 4e bd 06 3f 01 04 41 bf 47 8c 1e be
       0.18192288 0.52632606 -0.75396734 -0.15483199
000030 77 b9 5e 3e 7a 05 fe bd 41 20 54 3e ec 2b 92 3e
       0.21750437 -0.12403388 0.20715429 0.28549135
000040 eb cd c8 3d 91 b8 d4 3d e1 c1 9e 3e eb 65 60 3f
       0.09804901 0.10386766 0.31007293 0.87655514
000050 a4 23 6c bb 8c f2 ae be 0f be 8a bf cf f0 85 be
       -0.0036031986 -0.34169424 -1.0839251 -0.26160285
000060 47 1d 06 3e 5c 06 2e 3f 2f a6 a5 3e 73 f0 10 3f
       0.13097106 0.67978454 0.3235335 0.56616896
000070 fc d0 15 bd 39 fc e5 be 93 f0 f1 be 91 ec b2 be
       -0.036576256 -0.44918993 -0.47253856 -0.3494611
000080 43 d3 27 be 7a 3e 95 be 0b 1a c3 3c 65 fd 63 3e
       -0.16389184 -0.29149228 0.02381613 0.22264631
000090 4e c5 c4 bd 47 6b 1d bf dc a9 ba 3e f9 52 a3 be
       -0.096079454 -0.6149182 0.36457717 -0.3189924
0000a0 5a 62 a1 be 7d 36 d6 be 04 24 03 3f bf da ab be
       -0.3152035 -0.41838446 0.5122683 -0.33565328
0000b0 57 fc a1 3c 95 27 19 bf d5 23 ce be f3 6b 59 be
       0.019773645 -0.5982602 -0.40261713 -0.21232586
0000c0 4b 3c ef be 7b d9 fc 3e 83 ca 32 3e 4f b6 2a 3e
       -0.46725687 0.49384674 0.17460065 0.16671108
0000d0 d4 59 d6 3e 25 cf f5 be 31 73 42 bf da 06 7c 3e
       0.41865408 -0.480096 -0.7595702 0.24611989
0000e0 25 06 3e 3c 3b 9b d0 3e ca 86 d2 3e a6 86 f0 3d
       0.011598145 0.4074343 0.4111846 0.11744432
0000f0 19 9e a0 3d b2 78 a4 3e 73 0a f7 be b2 02 1b bc
       0.07842655 0.32123333 -0.4825016 -0.009461092
000100 e6 1a bf bf 8b 9d f1 bd f6 0c 74 be 05 7a 45 3f
       -1.4930084 -0.11797627 -0.23833069 0.7713931
000110 06 b0 b8 be 58 d9 d3 3e 9e cf d0 bd 4d 2f 9e be
       -0.36071795 0.41376758 -0.1019585 -0.30895463
000120 03 98 de be 4d cd 24 be 9b f9 8a 3e 44 9d 6a 3e
       -0.4347535 -0.16093941 0.2714356 0.22911555
000130 46 21 20 bf a8 19 a4 be 9f cb 36 3e e8 7c 1d bf
       -0.6255077 -0.32050824 0.17851113 -0.61518717
000140 23 76 71 3e 13 95 26 bf 51 c6 0c be 84 a0 ea 3e
       0.23580222 -0.6507122 -0.13747527 0.4582559
000150 0a f8 10 bf 31 ce 9c be c4 eb dc be 87 df 0a 3d
       -0.5662848 -0.30626062 -0.43148625 0.03390458
000160 15 da 3e 3e c4 56 43 be 36 cf 03 bf 6f 68 a2 be
       0.18637879 -0.19076067 -0.51488054 -0.31720302
000170 e9 c3 e5 3d 3f 08 36 3d 4e 3b be 3d ad 37 ac 3e
       0.112190075 0.044441458 0.09288655 0.33636227
000180 c5 6a 59 bf 5f 58 21 bf 27 70 47 be 41 d5 29 3e
       -0.8492854 -0.6302547 -0.19476376 0.16585256
000190 0f e2 f7 be f5 bf d1 3e 90 d9 00 3f 08 09 19 be
       -0.48414657 0.40966764 0.50331974 -0.14944851
0001a0 00 a6 5d be bd af b5 3e ed f3 07 bf 00 c1 8b 3e
       -0.21645355 0.3548564 -0.53106576 0.27295685
0001b0 22 d1 9e be db 48 69 3e cd b4 0e 3d 4f 0c 9d 3e
       -0.3101893 0.22781698 0.034840394 0.30673453
0001c0 a1 c2 ea 3e e4 17 48 3d c7 5a 18 be c0 71 fe 3c
       0.45851615 0.04885091 -0.14878379 0.0310601
0001d0 d8 7c e7 3e 76 c9 12 3e ea 15 b6 be bd 65 eb 3d
       0.45212436 0.14334664 -0.35563594 0.114940144
0001e0 aa 4c da 3e 9b cb b3 3d 97 04 02 bf a3 91 44 be
       0.42636615 0.08779069 -0.50788254 -0.19196181
0001f0 2e 1d 0c bf 85 ac 30 be 22 b4 a3 3e b8 89 34 be
       -0.54732025 -0.17253311 0.31973368 -0.1763066
000200 78 87 02 be a3 1a 0a 3f 24 a7 64 3f 10 59 d3 be
       -0.1274699 0.53946894 0.89317536 -0.41278887
000210 8d 0a 17 bf 5c a1 d7 3e a9 24 39 3e 3c 88 0e bf
       -0.59000474 0.42115295 0.18080391 -0.5567663
000220 19 cf cb be cc 45 47 be 16 6e 03 bf 74 03 7f bf
       -0.3980644 -0.19460219 -0.5133985 -0.99614644
000230 bd 20 c1 be ee bf 03 bf 39 76 98 bd b7 7f 56 3e
       -0.3772029 -0.51464736 -0.07444424 0.20947157
000240 8f be 07 bf 6b 37 13 be 7a f6 b4 be 7f b7 97 3e
       -0.53025144 -0.14376609 -0.35344297 0.29632184
000250 b2 8a e3 3e 7f 45 a3 be 10 0a 7b be 65 cc 6d bf
       0.44441754 -0.3188896 -0.24515557 -0.92890006
000260 31 1c d3 be f7 60 6a be 74 65 90 bf 0f e3 73 be
       -0.41232446 -0.22888552 -1.1280961 -0.23817085
000270 91 8a 11 bf d7 f4 0e bf ec 0d b4 bd 29 67 42 3e
       -0.5685206 -0.55842346 -0.08791718 0.18984665
000280 50 f5 98 be 13 ae a0 3e b9 de 06 3f 88 b8 00 bf
       -0.2987466 0.31382808 0.526836 -0.5028157
000290 29 ba 91 3e 3a 4a 65 3e 14 64 03 3f 1c 0b 11 3e
       0.2846234 0.22391596 0.5132458 0.14164394
0002a0 43 a9 06 3e 33 52 18 3f 47 41 ad bd 4e 9c 05 bf
       0.13150506 0.59500426 -0.08459716 -0.5219163
0002b0 8d f6 3a 3e 4c 30 7c be 24 38 8e 3d b2 83 51 bf
       0.18258114 -0.24627799 0.06944302 -0.81841576
0002c0 b2 7a ec bd a8 bc c8 3e 9d de 37 3f 05 b2 3e 3d
       -0.1154684 0.39206433 0.71824056 0.04655649
0002d0 b4 7f 90 3e 6b 7b 26 bf c4 ba 48 be e0 5e 41 3e
       0.2822243 -0.6503207 -0.19602495 0.18883848
0002e0 4d cf c7 3e 4a 7e 82 be 75 1c 76 3e 22 b3 03 3f
       0.39025345 -0.25486976 0.24034293 0.5144521
0002f0 28 08 b2 3d 6f a9 12 bf 2f 20 f3 3d 8e 75 b9 be
       0.08692962 -0.57289785 0.11871373 -0.362225
000300 6e 79 d8 3e 7b 63 11 bf b0 8f cd be 58 bf 2a 3e
       0.42280143 -0.5679242 -0.40148687 0.16674554
000310 73 9a 48 3d 00 bc f0 3d 5c 90 84 3e 79 37 35 bf
       0.04897542 0.11754608 0.25891387 -0.7078777
000320 fb 0b 2a 3e f1 57 d3 3e de e9 4c bf 23 e1 81 be
       0.16606133 0.4127803 -0.80044353 -0.25367078
000330 94 03 06 3f c6 b2 3d 3f c6 5c 53 3e 73 cd a5 3e
       0.5234921 0.7410091 0.20640859 0.32383308
000340 48 c5 34 3f be 0c 1a 3e 15 8b 0a be 86 c1 46 3f
       0.7061353 0.15043923 -0.13529618 0.77639043
000350 bc c9 ba be f2 ef 31 bf 2a fb 5e be ce 19 8d bd
       -0.36482036 -0.6950675 -0.21775499 -0.068896875
000360 51 54 8c 3e 3f fc a5 be ca db 01 3f c4 1d f2 bc
       0.27408078 -0.3241901 0.50725996 -0.029555209
000370 96 34 14 bf 43 54 4d 3e 34 ac 84 be 18 0c 6b 3e
       -0.5789274 0.20051675 -0.2591263 0.22953832
000380 26 1b 8d be 68 8b 12 3f c8 16 c4 be ab bb 69 be
       -0.27559775 0.5724397 -0.3829863 -0.22825496
000390 31 57 05 bf 4c 69 25 3f 1b 24 63 3e 2f 46 03 3f
       -0.5208617 0.64613795 0.22181742 0.51278967
0003a0 1e 34 c9 be 8e 42 41 bc 5e 99 a0 3e 27 ba 1f 3e
       -0.39297575 -0.011795653 0.3136701 0.15598355
0003b0 c8 40 81 3e fe b7 26 bf 91 97 16 3f 5b 5b 57 bd
       0.25244737 -0.651245 0.5882502 -0.052577358
0003c0 c9 f5 09 be c0 7a 0b 3f be db 5c bb f5 ce 36 be
       -0.13472666 0.54484177 -0.0033700312 -0.17852385
0003d0 0f 20 1c bf b7 fd ba 3d 35 5d 37 3e 66 34 92 3f
       -0.6098642 0.091304235 0.1790665 1.1422241
0003e0 52 17 86 3e a9 15 88 3d 92 0e 7a 3f 8e 2c c9 3e
       0.26189667 0.06644756 0.9767848 0.39291805
0003f0 01 d3 02 3f e9 98 8a 3e 89 04 55 3e 2d 46 ba bd
       0.51103216 0.27069786 0.20802511 -0.09095416

fc1.bias f4 [256]
000000 cb 9b 26 be 1c 35 ca be 7d 95 fa be 06 15 6e bb
       -0.16270368 -0.39493644 -0.48942176 -0.003632845
000010 22 e6 07 3e 7e d2 89 be b3 67 91 be 73 78 e3 bd
       0.13271382 -0.26918405 -0.2839943 -0.11106958
000020 75 b8 10 bd d7 6f 09 bf 6e 0a 9a 3e 6f d6 06 bf
       -0.035332162 -0.5368628 0.30086082 -0.5267095
000030 9e ed 08 3e 59 de 98 3e c7 60 a8 be d0 9c cf 3e
       0.13371894 0.29857138 -0.32886335 0.40549326
000040 5c 71 e4 3e 36 bb f8 3d 2a 4d 72 be e9 d6 4c be
       0.44617736 0.12145083 -0.23662248 -0.20003857
000050 fd 22 d9 bd 14 5a 35 3e f7 24 75 be 00 bc 1e bf
       -0.106023766 0.17710143 -0.23939882 -0.62005615
000060 fb 65 dc 3e 2e 28 2f be c8 01 b8 3e 6d 18 30 bf
       0.43046555 -0.17105171 0.3593886 -0.6878727
000070 9c 8b 03 3e 34 75 23 bf 9f e5 59 be c6 3d f8 bc
       0.12846226 -0.6385071 -0.21279 -0.030302893
000080 9f bd 95 3e ef 08 37 be a5 23 34 bf 52 a3 04 be
       0.29246232 -0.17874502 -0.7036689 -0.12952927
000090 c2 a7 85 3e 6d e5 91 bc fa fa ed 3d 5b c6 e9 be
       0.26104552 -0.017809594 0.116201356 -0.45659146
0000a0 73 3a cd be db 17 8b 3e 43 74 a6 be c3 ee 93 be
       -0.40083656 0.27166638 -0.32510576 -0.28893098
0000b0 e6 03 a2 3e 87 55 b9 3e c8 34 cf be 19 a4 aa be
       0.316436 0.36198065 -0.40469956 -0.33328322
0000c0 3b d6 29 bf ef 32 b8 3e 0e e6 7a be e3 68 7c be
       -0.66342515 0.3597636 -0.24501821 -0.24649386
0000d0 7b 2b f7 be 03 36 24 be b9 2d 04 bf ba 9b f3 3c
       -0.4827536 -0.16036229 -0.5163227 0.029737342
0000e0 a3 55 a4 3e c2 c7 36 3e 9d d0 75 3e e2 d2 8f be
       0.32096586 0.17849639 0.24005361 -0.28090578
0000f0 46 e1 86 be 85 19 40 bd a2 22 96 bd f2 99 11 bf
       -0.26343745 -0.046899337 -0.073308244 -0.56875527
000100 87 4b c2 bd e9 04 da 3d fe 31 60 3e 72 41 b7 be
       -0.09487062 0.10645468 0.2189407 -0.35792118
000110 3b f5 0e be a6 32 71 be 9d ae ab 3e 12 55 95 be
       -0.13960735 -0.23554477 0.33531657 -0.29166466
000120 17 ad d0 be 04 7f bc 3b 34 37 8b 3e 3e 74 08 bf
       -0.40757057 0.005752446 0.27190554 -0.5330237
000130 2e 78 15 3f 69 80 af be 7e 51 b4 3e 57 a6 de be
       0.58386505 -0.34277657 0.35218424 -0.43486282
000140 28 65 15 bd f7 07 4d 3e ee c8 ae 3e 3c c7 8a 3d
       -0.036473423 0.2002257 0.34137672 0.06776282
000150 d2 61 dc be bf d4 d5 3d 9e 63 bb be be 3f a5 be
       -0.4304338 0.10440969 -0.3659944 -0.32275194
000160 c3 7e 8f be 7e 5a 2c be 5f 20 04 3f 81 c0 5e 3e
       -0.280264 -0.16831395 0.51611894 0.21753122
000170 a4 91 a0 3d 43 ba b7 be 11 a2 f3 be 45 3f e3 3e
       0.07840279 -0.35884294 -0.47584584 0.44384208
000180 1c fb f1 be a0 f3 30 bf 29 73 92 3e df 30 c5 3d
       -0.47261894 -0.6912174 0.28603485 0.09628462
000190 38 1b da 3e 08 3a 6a 3e ac b2 9e 3e cb 09 64 bd
       0.4259889 0.228737 0.3099569 -0.0556734
0001a0 18 4d ba 3e c3 9d d8 be 14 00 92 3c 03 ed 25 be
       0.36386943 -0.42307863 0.017822303 -0.16203694
0001b0 4e ab 9a bc 74 7e 24 bf 0c d7 ce bd 8d 4f 9b be
       -0.018880513 -0.6425545 -0.10099611 -0.3033413
0001c0 d4 a5 e1 be b2 26 03 be bf 76 e7 3e 5e 93 1f be
       -0.4407183 -0.1280773 0.45207784 -0.1558356
0001d0 cd e0 b0 3e a7 63 82 3e 73 d0 c2 3e 31 77 b1 bd
       0.3454651 0.25466654 0.3804966 -0.08665312
0001e0 49 50 31 3e d1 ac eb be 46 e7 07 3e b2 ed 0e bf
       0.17315783 -0.46030286 0.13271818 -0.55831444
0001f0 b2 38 11 bf fe 43 ee bd 4e d6 a2 3d 71 c0 34 bd
       -0.56727135 -0.11634062 0.079510316 -0.04412884
000200 f7 7c 00 bf 29 1c 00 be 37 39 6f 3d 20 ec 0b bf
       -0.5019068 -0.12510742 0.058404174 -0.54657173
000210 eb 2c 03 3f 4d da 03 3e c6 c5 fd 3e f5 21 f6 3e
       0.51240414 0.12876244 0.49564952 0.48072782
000220 2b 86 1c 3d 61 f4 90 be 3b 6a 8f 3e 10 87 01 bf
       0.03821389 -0.28311446 0.28010735 -0.50596714
000230 1c 1e df be 07 9b 2e be 87 bc 02 bf cb 40 ac 3e
       -0.4357766 -0.17051326 -0.5106892 0.33643183
000240 9c fe 4f 3e 64 a4 b4 bd 49 55 c6 bc 96 d5 78 3d
       0.2031197 -0.088204175 -0.024210589 0.060750566
000250 81 22 41 3e b6 d2 90 3e f8 de e5 be b2 c9 9d 3e
       0.18860818 0.2828576 -0.44896674 0.30817944
000260 f8 62 8d be fa 82 40 be c8 e7 28 be 9a 66 b5 3e
       -0.2761457 -0.18799964 -0.16494668 0.3542984
000270 6b 18 0f 3e 72 6a 9b 3d 08 47 fc be 43 cb 3c be
       0.13974158 0.07588662 -0.49272943 -0.18436913
000280 6a 9b 09 bf be f3 ac be f0 52 3a be b4 04 67 3e
       -0.5375277 -0.3377971 -0.181957 0.22560388
000290 27 ae 7f 3e fd e6 85 be af 97 f2 be ae 2c 64 3e
       0.24968778 -0.26152793 -0.4738135 0.22282669
0002a0 58 ad dd bd 1c ac 8d be fc a3 f4 bd 8a 7d e8 be
       -0.10824078 -0.27670372 -0.1194534 -0.4540828
0002b0 a6 f6 08 bf 58 e3 4e 3d c9 6c ce be ed e0 e8 39
       -0.53501356 0.05050978 -0.4031737 0.0004441807
0002c0 5b 5f 0b 3f 90 75 d8 3d d4 47 da 3e 73 0a e3 be
       0.54442376 0.10569298 0.42632926 -0.4434391
0002d0 c0 6d 18 be 9c d1 17 3c 40 87 fa 3d c5 53 2a 3e
       -0.14885616 0.009266283 0.12232828 0.16633518
0002e0 44 a7 6d be 49 32 e9 3d c8 b7 b2 3e 58 64 96 be
       -0.23208338 0.11386544 0.3490584 -0.2937343
0002f0 df fa bc 3b 06 f0 87 be 80 21 9e be 6d a8 8f 3e
       0.005767211 -0.2655031 -0.30884933 0.28058186
000300 10 d9 04 bf 3e 3a b9 3e 2e d0 a5 3d 11 78 10 be
       -0.5189371 0.36177248 0.08096348 -0.14108302
000310 a6 93 49 3e b0 2d c1 bd 83 d7 b8 3d 94 63 fc be
       0.1968523 -0.09432542 0.090254806 -0.49294722
000320 bd 83 b8 be 8e 20 16 bf 41 17 75 be 81 dd c6 be
       -0.36038008 -0.58643425 -0.23934652 -0.3884087
000330 fa 5e e4 be 7e 1f 77 3e 80 d3 c9 be 52 07 da 3e
       -0.4460371 0.24133107 -0.39419174 0.4258371
000340 12 65 d9 3e 3e d4 0f bf 5a 64 b7 3d c7 30 a0 be
       0.42459923 -0.5618323 0.089546874 -0.31287214
000350 43 e7 f7 3d 47 fc 97 be 56 9c fc 3c 25 fd e9 3e
       0.121046565 -0.2968466 0.030836266 0.45700946
000360 34 be ee be 1c dd d7 be ea 37 e2 bd 4f af f2 bd
       -0.46629488 -0.4216088 -0.11045821 -0.11849844
000370 8a 8b 50 be 31 24 af be 5d fa cd 3e 9d b1 d4 3d
       -0.2036573 -0.342073 0.40230075 0.103854395
000380 dc ab 1e be 4c 5a 31 3e de 74 cf bd 06 a7 d0 3e
       -0.15495247 0.17319602 -0.101297125 0.4075243
000390 5e be 0a bf 80 94 a9 be 51 34 55 bd f0 88 86 be
       -0.5419673 -0.3312111 -0.052051846 -0.2627635
0003a0 cf 2a f1 be ba 61 dc 3e b1 97 69 be 4b 6c d8 3e
       -0.47102973 0.4304331 -0.22811772 0.4227012
0003b0 7d de 48 3d cc 12 0b be 2b e4 d7 3e 00 45 85 be
       0.049040306 -0.13581389 0.42166266 -0.26029205
0003c0 0a da 43 3e 9b b9 ec bd 31 54 a9 be 0f 1b 05 bf
       0.19126144 -0.11558839 -0.33072045 -0.51994413
0003d0 c6 5a ee 3e 7d 14 28 bf c8 00 b6 3e c2 30 7d be
       0.4655363 -0.6565626 0.3554747 -0.24725631
0003e0 6d 26 c4 be b0 2c 52 be f7 31 6e be 49 4b 39 be
       -0.38310567 -0.2052486 -0.23261248 -0.18095125
0003f0 07 07 2c 3e ca 36 d8 be 09 92 1e bd ae 4e 9d 3e
       0.16799556 -0.422293 -0.03871349 0.3072409

fc2.weight f4 [256, 256]
000000 8c 00 6f bd c5 37 7d 3d 40 06 25 bd 0c 2b 5d bc
       -0.05835013 0.061820764 -0.040289164 -0.013499033
000010 5a ed 6a bd 7d b7 23 bd b6 fc 92 bb fa b9 58 bd
       -0.057355262 -0.03996991 -0.004485692 -0.052911736
000020 ee 31 38 bc e0 30 5c bc 90 25 17 3d d3 d5 30 3d
       -0.011242373 -0.013439387 0.036901057 0.04317267
000030 be 5e db 3c 85 a8 27 bd d2 bd bc bc 08 bc 4d bd
       0.026778575 -0.040932197 -0.023039732 -0.05022815
000040 24 69 73 bc f1 13 00 bd a1 b4 61 bd 2d e0 81 bd
       -0.01485661 -0.031269018 -0.0551039 -0.06341586
000050 00 f9 ac 3c 96 a6 e5 3c 44 6e 1c bd a2 70 38 bd
       0.021114826 0.028033536 -0.038191095 -0.04502929
000060 ff b6 86 bd db e2 33 3d 12 78 07 bd 4e 10 75 bc
       -0.065778725 0.043917518 -0.033073492 -0.014957501
000070 74 37 30 bd 8c c8 41 bd ad 67 06 bd 09 5c 2b 3d
       -0.043021634 -0.047310397 -0.032813717 0.04183582
000080 73 33 38 bd d1 2f 6e bd 42 7c 6b 3d 3b ac 33 3d
       -0.04497094 -0.05815107 0.05749155 0.043865424
000090 39 41 ed 3c 24 8a 04 bd df c0 4a bd 04 c1 3a 3d
       0.028961765 -0.032358304 -0.049500342 0.04559423
0000a0 93 81 63 3d 29 03 3f bd 8e 87 77 3d cd 8c 03 3d
       0.055543493 -0.046633873 0.06043201 0.0321167
0000b0 4f 35 1c bc f8 79 24 bd 24 4e 7c 3d 7a 74 ee 3c
       -0.009534194 -0.04015538 0.06159796 0.029108275
0000c0 42 dc 18 3d 58 c7 93 3c f8 f5 00 3d e6 9d 1e bd
       0.03731943 0.01803939 0.031484574 -0.038724802
0000d0 50 25 84 bb 8b c2 10 bd ce cf bb 3c e6 c9 64 3c
       -0.0040327683 -0.03534178 0.022926237 0.013964152
0000e0 21 5c 74 bd d1 1c f2 bc ad 95 67 bd b1 59 d8 3c
       -0.059658173 -0.029554756 -0.056539226 0.026409956
0000f0 fe 83 60 3d c7 7e 52 3d 04 28 1d 3d a0 27 e6 3c
       0.054813378 0.051390436 0.03836824 0.028095067
000100 3c 4c 0d 3d d7 9b 30 3d 08 6a 18 3d a0 f8 0c 3d
       0.03449653 0.04311737 0.037210494 0.034416795
000110 21 e3 87 bd d2 cd bd bc f7 cb 24 bd 10 b2 76 3d
       -0.06635118 -0.023169432 -0.04023358 0.060228407
000120 6c 11 8d 3b 38 6b c7 3c 36 94 03 3d 70 46 62 bd
       0.0043050554 0.024343118 0.032123767 -0.055242956
000130 3e 34 3f 3d fc 12 f0 bc 10 0e a7 3c 87 04 1a 3d
       0.04668068 -0.029305927 0.020392448 0.037601974
000140 b3 bf 5a bd 37 16 46 3d 49 8f 56 3d 89 88 81 bd
       -0.053405475 0.04836103 0.05238274 -0.0632487
000150 99 82 c3 bc 55 67 00 3d fa 94 4d 3d 84 91 34 3d
       -0.023865985 0.031348545 0.050190903 0.044084087
000160 d1 5f ac bc a8 84 28 bd 80 01 1a bd 45 bd 5e bc
       -0.021041783 -0.041142136 -0.037599087 -0.01359493
000170 69 db b8 3c 61 1f f4 bc a4 a6 bb 3c a0 e1 38 3c
       0.02256556 -0.029800119 0.022906609 0.011284262
000180 b7 92 e1 3c 90 ed 7d 3d c7 8d 9b bc 69 04 41 bc
       0.02753578 0.061994135 -0.018988503 -0.011780837
000190 90 0a 10 bc 1c f6 5e bd be f4 14 bd d2 d5 08 3c
       -0.008791581 -0.054433927 -0.036366217 0.00835176
0001a0 35 14 2e 3d 4a 94 c2 bc 97 1e 03 bd b8 c4 d8 bc
       0.04249974 -0.02375235 -0.032011595 -0.02646099
0001b0 f0 17 49 3d 57 0f 68 bd 1e c4 73 bd bd 8f 09 3d
       0.049095094 -0.056655254 -0.059513204 0.033584345
0001c0 31 df 74 bd 7a a7 28 bd 95 5f 56 3d 76 69 f1 3c
       -0.059783164 -0.041175343 0.052337248 0.029469233
0001d0 f7 f4 38 bd 42 ea 1e bd 78 a0 1d 3d a2 86 17 3d
       -0.04515549 -0.038797624 0.038483113 0.03699363
0001e0 9e 47 3d bd 76 41 22 3d d7 dc 3d bc be ed 16 bd
       -0.046210878 0.03961321 -0.011588297 -0.036847822
0001f0 78 b5 9e bc 76 a0 89 bc 80 c4 f4 3b 14 a0 42 3d
       -0.01937364 -0.016800147 0.0074697137 0.047515944
000200 43 9d 03 bd 92 f1 3e bd 08 2d 7b bc 61 40 83 3c
       -0.0321324 -0.0466171 -0.0153305605 0.01602191
000210 e3 5b 3a 3d a1 76 37 3d bc 76 fd bc 9b 09 87 3c
       0.045497786 0.044790868 -0.030940406 0.016484072
000220 48 2a c6 bb 3c 28 73 39 c0 f1 50 bc 0a fa d4 bc
       -0.006047521 0.00023189274 -0.01275295 -0.025998134
000230 36 d2 f4 3c 39 97 6c 3c 7e b5 5c bd 83 20 cd bc
       0.029885393 0.014440351 -0.053884022 -0.025039917
000240 87 4b 1d bd 9f 7c 44 bc e5 8a 19 bd 84 a0 2b 3d
       -0.038402107 -0.011992603 -0.037485976 0.041901127
000250 fb a4 12 bb f4 3a 27 bd fb 27 26 bd 4e 71 92 bc
       -0.0022376168 -0.040827706 -0.040565472 -0.017876294
000260 6c 7c 4d bd 5e e5 2a 3d 2a 22 b6 bc 74 1e ae 3c
       -0.050167486 0.041722648 -0.022233088 0.021254756
000270 76 df c2 3c 2e 8a f8 ba 4a c3 0a bc f0 4d 11 3d
       0.023788195 -0.0018962079 -0.008469412 0.035474718
000280 c0 dc a3 3a b9 c5 0c bd 40 22 7b bd 32 cd d7 bc
       0.0012501702 -0.03436825 -0.06131196 -0.026342962
000290 40 b2 15 3d 7a 7a 47 bd 0a 0e 3f 3c e3 0a b0 3c
       0.036546946 -0.048700787 0.011661062 0.021489566
0002a0 25 a1 a9 3c e5 f9 49 3c 93 32 91 bc 1f 7a 3b bd
       0.020706723 0.012327646 -0.017724311 -0.04577076
0002b0 de da cd 3c f2 53 9c 3c 89 6f 53 bd 78 fd 12 bc
       0.025128778 0.019082997 -0.05162004 -0.0089715645
0002c0 e1 a7 57 bc e9 4f 4b 3d 35 ea 0b bd 00 ed 3b bd
       -0.013162584 0.049636755 -0.034158904 -0.045880318
0002d0 6c 54 4b 3d c0 92 ba 3c c7 00 d0 39 b5 50 83 bd
       0.049641058 0.022775054 0.0003967343 -0.06411878
0002e0 80 3b cc 3c 72 e5 d3 bc 94 5d 55 bc ee 19 0b bd
       0.024930716 -0.025866244 -0.013022799 -0.033960275
0002f0 64 2e 99 3c aa 18 a6 3c 5b 1b ac bc 20 86 6a bd
       0.018698879 0.020275433 -0.021009138 -0.057256818
000300 9e 81 25 bd 28 06 17 3c 2d 5e 04 bd 81 23 03 bd
       -0.040406816 0.009217776 -0.032316376 -0.03201628
000310 69 45 b7 3b bb 81 55 3c d7 27 6c bd 6b 53 8e 3b
       0.005592991 0.013031418 -0.05765518 0.0043434403
000320 01 3b 49 3d 3e 15 1b 3c 48 46 7f 3d fe e9 94 3c
       0.049128536 0.009465514 0.062322885 0.018177982
000330 00 56 51 3c 4e 90 6e bd 3c a7 d1 bc f1 f4 81 bd
       0.012776852 -0.05824309 -0.025592439 -0.06345547
000340 dd 51 4b 3d b0 ac b3 3b 4c 21 4a 3d 6e 53 48 bc
       0.049638618 0.0054832324 0.04934816 -0.012226922
000350 89 2a 57 bc a7 d3 24 bc 12 e9 12 3d ad 90 73 3d
       -0.0131327 -0.0100602275 0.035866804 0.059464145
000360 ca 3e 32 3d 08 34 5b 3c 2a 5a 38 bd 05 aa db bc
       0.04351691 0.013379104 -0.045007862 -0.02681447
000370 83 2c b5 bc 28 82 4a 3d d9 a2 a0 bc 0e 8e 9e 3c
       -0.022115951 0.049440533 -0.019608902 0.019354846
000380 ee 85 58 bd 66 30 06 bd 8b 69 85 bc cc 60 37 bd
       -0.0528621 -0.032761 -0.016285678 -0.044770047
000390 08 39 e5 bc 6a 35 4d 3d 28 e6 1f bd 2d 3f 2c 3d
       -0.027981296 0.050099768 -0.039037853 0.042052437
0003a0 c0 10 63 bd d1 cb 53 bc 03 0c 9f bc e4 2c 01 bd
       -0.055435896 -0.012927012 -0.019414907 -0.03153695
0003b0 29 1c 73 bd c2 f1 53 3d 9c aa b6 bb 00 c7 a6 bc
       -0.059353027 0.05174423 -0.0055745374 -0.020358562
0003c0 7a d3 5c bd 6a 66 30 3d ce c9 e6 bc 5a 0f 34 3c
       -0.053912617 0.04306642 -0.0281724 0.010989988
0003d0 31 e2 64 3b 68 fa 28 bc ec 58 08 3c d3 89 3e 3d
       0.003492486 -0.010313608 0.008321982 0.04651816
0003e0 f5 be 6e 3d f9 04 eb bb 16 51 4f 3d 6c b1 f7 3c
       0.05828758 -0.0071722236 0.05061444 0.030235969
0003f0 d6 58 54 bd 2b 5e 87 bd a7 38 91 bc 49 83 15 bc
       -0.051842533 -0.06609758 -0.01772721 -0.009125539

fc2.bias f4 [256]
000000 f7 53 40 bd 05 30 73 bb ac 05 08 bc dc 7c 35 bd
       -0.046955075 -0.003710748 -0.0083021335 -0.04430853
000010 00 14 9e bc e0 85 dd bc 55 7a 2f 3c 6d b4 3f 3d
       -0.019296646 -0.027041376 0.010710319 0.046802927
000020 eb 4b 0e 3d cc 4c 93 3c 54 6a af 3c b7 fc ec bc
       0.03474037 0.017980956 0.021413006 -0.028929098
000030 79 f7 82 bd 02 bf a3 3d 63 0c 17 bc 49 ad 56 3c
       -0.06394858 0.07995416 -0.009219262 0.013102838
000040 ea 43 88 bd b7 36 3b 3d df 04 37 3d 75 c6 22 3d
       -0.066535786 0.045706477 0.04468238 0.039740045
000050 74 a7 0f 3c f3 7f ab 3b 0a 02 5d 3d 99 42 91 3d
       0.008767951 0.0052337586 0.053957023 0.070927806
000060 1e 3b 56 bc 7a 3d 8b 3d 15 45 5a bd 1b ba 55 3d
       -0.013075618 0.06798835 -0.053288538 0.052179437
000070 ed 8d 73 3d a8 bd 66 bc de aa 73 bd 79 af 4d 3d
       0.059461523 -0.0140833035 -0.059489124 0.050216172
000080 49 72 5e bc 5c 23 3d bd 18 fe 00 bb e7 b3 f2 3c
       -0.013577052 -0.0461763 -0.0019682702 0.0296268
000090 6a ec be bd 21 77 3d 3d 74 4c a4 3d 1c 07 c4 3c
       -0.09322436 0.04625619 0.08022395 0.023929171
0000a0 95 5e 33 3d 84 42 95 3b c3 2e 8a 3d 0f 48 ad bc
       0.043791372 0.0045550484 0.067472 -0.021152524
0000b0 58 06 f6 3c 7f 57 f5 bb 22 f3 ed 3d 68 97 71 3d
       0.030032322 -0.007487237 0.116186395 0.058982283
0000c0 b4 c2 62 3c 5d d2 02 3d c1 07 4b 3d 2a a2 95 bc
       0.013840366 0.0319389 0.04956794 -0.018265802
0000d0 62 0c 3e 3d 51 29 30 3d 1c 8e b9 3c 96 c0 3a 3c
       0.046398528 0.043008152 0.02265077 0.011398455
0000e0 ed 9b 0c 3d e0 3c 53 bc 43 c3 82 3c 76 0e 49 bc
       0.03432839 -0.012892932 0.015962249 -0.012271514
0000f0 91 96 77 3d 57 40 2f 3d 46 ed 53 3d 11 6b 9b 3a
       0.060446326 0.04278597 0.051739953 0.001185747
000100 eb 72 a0 3d be 68 c1 3b cb 40 41 3c 9b 9d 19 bc
       0.07834419 0.005902379 0.011795233 -0.009375955
000110 72 16 4e 3d 09 73 92 3d 42 ec 66 3c c3 bc 8f bd
       0.050314374 0.071508475 0.014094414 -0.07018425
000120 27 81 79 3c 3b 64 e8 3d 4d 13 45 3d c9 9a fe ba
       0.015228546 0.113472424 0.04811411 -0.0019424792
000130 24 69 82 bd 53 91 c2 3c 04 ff f9 3a c2 94 d9 3c
       -0.0636771 0.023750937 0.0019073193 0.026560191
000140 ca 54 0a ba e9 e5 c5 bb 80 9b 24 3d 96 59 0a 3d
       -0.0005276917 -0.0060393703 0.04018736 0.033776842
000150 be 1b 0e 3d 43 ee 0f 3d 19 29 a9 3c 21 ba 9f 3d
       0.034694426 0.035139333 0.02064948 0.07799173
000160 33 64 91 3d 2f 35 04 3d aa 77 44 3d 25 de 48 3d
       0.070991896 0.032277282 0.047965683 0.04903998
000170 80 c6 17 bd c8 1e ea bd b7 42 24 3d 48 80 a2 3c
       -0.03705454 -0.11431652 0.040102687 0.01983656
000180 c2 ad 36 3b 93 29 74 3d ed b6 99 bc 19 34 16 bd
       0.0027874564 0.05960996 -0.018763984 -0.036670778
000190 da 63 1d bb b6 8f a6 3c e0 58 8f 3c ca 59 8c 3c
       -0.0024015815 0.020332199 0.017498434 0.017132659
0001a0 96 dd 05 bc e6 d3 48 bc 8e cd 9c bd 10 8a 6c 3c
       -0.008170506 -0.012257552 -0.07656394 0.014437214
0001b0 ef 9c 53 bd d1 fd 3c 3b 7b 10 07 3a c2 2b 33 3d
       -0.051663335 0.002883781 0.0005152297 0.043742903
0001c0 0d fc 9e 3c 57 71 e1 3b b6 16 8b 3d 9c e5 91 3c
       0.019407297 0.0068799662 0.06791441 0.017809682
0001d0 45 dc 76 bb 5b 59 2f bd b9 65 67 3d cf 6b f5 bc
       -0.0037667912 -0.042809825 0.056493495 -0.029958634
0001e0 8f 75 4a bc 6d 22 53 3d 30 83 58 bd 89 2c f1 3c
       -0.01235713 0.051546503 -0.052859485 0.029440181
0001f0 38 17 cf 3d 66 fc ec 3c a5 57 c4 ba 5e e8 98 3b
       0.101118505 0.028928947 -0.0014979733 0.004666372
000200 a0 b6 04 3d c9 fb 4a 3d a2 e2 da bc a6 bb 84 bd
       0.032400727 0.049556527 -0.026719395 -0.064811036
000210 b2 3e 5f 3d e8 40 f3 bc 44 92 de 3c e1 94 c8 3b
       0.05450315 -0.029694036 0.027169354 0.0061212634
000220 13 ad 05 3e 21 ab a7 3d 69 fe 9d 3d 2d a4 0f 3c
       0.13054304 0.08186937 0.077145405 0.00876717
000230 a3 55 69 bc 3c 63 13 3c b3 a3 ad 3d e6 f9 4f 3d
       -0.014241609 0.008995827 0.08478489 0.05077543
000240 ae f3 a3 bb 31 ee 5e 3b 0c 4f 64 3d 9e 27 b0 3c
       -0.005003414 0.0034016485 0.055739447 0.021503266
000250 0b 4f d9 3c 98 b3 aa bd d7 9f 64 bd c7 15 27 3c
       0.026526948 -0.08335036 -0.055816498 0.010198063
000260 74 41 2d 3d db 69 18 3d ea 7d 63 bb 33 43 6d 3d
       0.04229875 0.037210327 -0.0034712502 0.057925414
000270 47 ef 9b 3d c2 c2 e8 3b e4 cb 4c 3c b0 96 14 bc
       0.07613998 0.007103295 0.012499783 -0.00906913
000280 bc e4 45 bd 3d 4e 1b bd 88 c6 04 3d 77 43 7b 3d
       -0.04831384 -0.03791641 0.032415897 0.061343636
000290 95 d3 c1 3c df 47 51 bc ab d3 73 3d 38 06 23 bd
       0.02366046 -0.012773483 0.059528034 -0.039800853
0002a0 9d bd 14 bd c2 9e 98 3d f6 b8 b4 3c 83 21 a9 3c
       -0.03631364 0.07452156 0.022060852 0.020645862
0002b0 a6 2b dc 3d 61 29 5d 3d 42 60 15 3d 54 62 b1 3c
       0.10750513 0.05399454 0.03646875 0.021653332
0002c0 57 70 16 3d 16 3f a8 3d cf 8f 95 3d 63 a2 dc 3c
       0.03672823 0.08215158 0.0730282 0.0269329
0002d0 b4 6c 29 3d c2 2d c5 bc 38 4d 8e 3d 5b 1f 7c bc
       0.041363433 -0.02406967 0.06948322 -0.015388335
0002e0 6e 8a 5b bd d7 f6 ba bb a8 ee 77 3c fd f3 8a bc
       -0.053598814 -0.005705695 0.015132584 -0.016962046
0002f0 30 a6 03 3c 7c 7b fc bc 95 bb 71 3d 4a 7a 3a bd
       0.008035228 -0.0308206 0.059016783 -0.04552678
000300 f0 54 be 3c 6d fb 18 3d a8 b3 ff 3d 72 27 cd bd
       0.02323386 0.037349153 0.124854386 -0.10017289
000310 8b 0f 62 bc 53 4e 52 3d a3 81 1b 3d a0 d7 81 bd
       -0.013797651 0.051344227 0.037965428 -0.06339955
000320 3f 0d a5 bb 1b 65 2c 3d af ea ba bd 23 9f 80 3d
       -0.0050369794 0.04208861 -0.091267936 0.06280353
000330 9a e3 59 3c 29 d6 e1 3b 41 13 d4 3c 73 74 1c bd
       0.013298893 0.006891985 0.025888087 -0.038196992
000340 9f 34 be 3c 86 5e 63 bd cb 94 81 3c fb bf 35 3c
       0.023218451 -0.055510066 0.01581802 0.011093135
000350 fd 63 47 3d 98 a9 69 bc b5 6c 00 bd a7 29 d5 3d
       0.04867934 -0.014261626 -0.03135367 0.10408335
000360 28 d2 4c 3d 14 c1 b0 bc e2 6b 47 3d 6a b9 ac bc
       0.050005108 -0.021576442 0.04868687 -0.021084506
000370 7b 19 12 bd 58 12 2f 3d 6e 4d 80 3d 66 5e 92 bc
       -0.03566883 0.042742103 0.062647685 -0.017867278
000380 82 5d f2 3c 42 26 d5 3c ce 78 58 bc 4e 46 1b 3d
       0.029585604 0.02601922 -0.013212396 0.037908845
000390 e1 3a 39 3d 12 35 7b 3c d6 e1 89 3b ed f0 94 3d
       0.045222167 0.015332477 0.00420783 0.072725154
0003a0 e8 cb 14 be d5 dc 9e 3d c0 27 e1 bc f6 a8 8c bd
       -0.14530909 0.07756964 -0.027484775 -0.06868164
0003b0 12 b2 66 bc e3 6e 82 bd ec d8 86 3d a4 0d 53 bd
       -0.014080541 -0.06368806 0.06584343 -0.05152668
0003c0 8a a8 a7 3a 46 a9 9e 3c 9f 4a af 3b 1f 7a 27 3d
       0.0012791317 0.019367825 0.0053494717 0.040887948
0003d0 c1 47 e3 3d c4 10 89 3d 02 c2 0d 3c 95 6b b7 3c
       0.1109767 0.06692651 0.008652212 0.022390166
0003e0 52 92 83 3d a5 92 78 bd 57 fd 8b 3d 84 f5 c7 3b
       0.06424393 -0.060686726 0.0683543 0.006102266
0003f0 b1 68 ff 3c b1 13 e0 bc d5 c0 a7 3d bf b2 2f 3d
       0.03117785 -0.02735314 0.08191077 0.042895075

mu.weight f4 [1, 256]
000000 49 39 50 3d da 40 1d bd b7 ba 7f 3e 85 26 97 3e
       0.05083588 -0.038391925 0.2497357 0.29521576
000010 dd d0 13 be 0f 02 c7 3d 1e 62 d5 3d 30 4c 04 be
       -0.14435144 0.097171895 0.10419105 -0.12919688
000020 05 cc 8a bd 38 ac e7 3c 38 09 4e 3e f1 08 e9 bd
       -0.06777195 0.028280362 0.20120704 -0.113786586
000030 a9 1e b8 bc 15 d3 21 bf b4 8d 74 3e a0 83 bb 3d
       -0.022475557 -0.6321271 0.2388218 0.09155965
000040 10 d0 b1 be 63 14 2e bd 09 1a 90 bc b6 2b 89 bd
       -0.34729052 -0.04249991 -0.01759054 -0.0669779
000050 96 e9 2f 3e 69 36 98 3d ff 26 9b bd 99 54 6d 3d
       0.1717895 0.07432253 -0.07575797 0.057942007
000060 29 35 4a 3e d6 17 28 3e 2b aa 16 3d 2c e9 1a bd
       0.19746841 0.16415343 0.03678338 -0.037820026
000070 29 af 7e 3e 60 4f 18 bd eb 59 82 bc 41 9e a0 3e
       0.24871506 -0.037185073 -0.015912017 0.31370738
000080 10 1a 31 3d 5f 42 95 be ab 00 4c bf 3a b9 bf be
       0.043237746 -0.291522 -0.7968852 -0.37446004
000090 e2 9c d2 be 40 64 54 3d 1e 87 77 be 9e c0 17 3c
       -0.41135317 0.05185342 -0.24172637 0.009262232
0000a0 b1 a7 e9 3c 7b 18 f7 bb 7b fb e6 bd 9f 18 8f 3d
       0.028522344 -0.00754076 -0.11278435 0.06987118
0000b0 3c 93 34 3f 5a 04 5e bd e5 00 bb 3d 4d b5 31 bf
       0.7053716 -0.05420337 0.0913103 -0.6941727
0000c0 47 6a 83 bd 14 b4 a2 3c 0c 5f 61 bf f9 a9 98 ba
       -0.06416755 0.019861259 -0.88035655 -0.0011647335
0000d0 15 3c ee 3d 12 d0 e7 3d 50 f6 3b 3c db 24 ef 3d
       0.116325535 0.11318983 0.0114723 0.116769515
0000e0 31 5b b0 be 6a b7 05 be 18 93 85 3d 86 aa e3 3b
       -0.34444574 -0.13058248 0.065221965 0.006947818
0000f0 29 8a d1 3c ba 14 24 3e 1f 33 72 bd a0 dc 0a 3e
       0.025578575 0.16023532 -0.059130784 0.13560724
000100 13 31 ae 3d 8b 8d 9e 3e 00 51 c8 bd e0 c4 58 3d
       0.08505454 0.30967364 -0.097810745 0.05292213
000110 a9 b4 a3 3e 02 66 ec 3d 2c cb 54 3c 06 57 16 3c
       0.3197377 0.11542894 0.012987893 0.009176021
000120 2c 2d fc bd bd d7 96 3d 36 98 41 3c f4 e6 ef 3c
       -0.12313303 0.073653676 0.011816075 0.029284932
000130 fd d4 65 bd 9f b3 97 3d 58 d5 6c bf 2c b0 39 be
       -0.056111325 0.07407307 -0.92513037 -0.1813361
000140 ae 4c 13 bf 73 92 ab bd a7 c1 8c 3d d9 49 4d be
       -0.5753888 -0.08377542 0.06872874 -0.20047702
000150 76 8b 30 3e 86 d1 93 3d ee b8 db bd a3 86 cf bd
       0.172407 0.07217698 -0.10728632 -0.10133102
000160 a4 27 ef 3c bd 5d 86 be 4b 08 1b be 68 90 c9 3e
       0.029193707 -0.26243392 -0.15139882 0.39367986
000170 59 9f a0 3d 71 4e 00 bf dd 09 0d bd a8 9f 3b be
       0.07842893 -0.5011969 -0.034433234 -0.18322623
000180 25 63 89 3e 1d a6 84 3d ae f1 2d 3d 73 a1 64 3c
       0.26833454 0.06476996 0.04246681 0.013954508
000190 0f 76 39 bd 4b 41 97 bd 59 a2 92 3d 18 28 dd bd
       -0.045278605 -0.073855005 0.071598716 -0.10798663
0001a0 ce 63 6a 3c 76 47 61 bd 4b d8 c5 be 6d 87 72 3c
       0.014306022 -0.05499979 -0.3864158 0.014802796
0001b0 9d 9f e6 bd 38 e7 ed be 00 48 ae be 5d 2a 88 bd
       -0.112609126 -0.46465468 -0.34039307 -0.06648705
0001c0 c7 5b 69 3e 8e fe f3 3c c5 5a de be 64 6a 82 3c
       0.22788917 0.029784467 -0.43428627 0.015919872
0001d0 48 9f 0c be 47 24 4a 3c 26 21 07 3e 7d 17 fa 3d
       -0.13732636 0.012337751 0.13196239 0.12211511
0001e0 94 b5 2f 3e f0 e7 d4 3d 7e fd 51 3d 44 45 89 be
       0.1715911 0.10395801 0.05126714 -0.26810658
0001f0 95 0f 03 3e ba 4a a5 bd 0d 42 c7 be 11 85 81 be
       0.12798913 -0.080708936 -0.3891758 -0.25296834
000200 c3 a8 c4 3d f7 dd 72 3e 25 52 ef 3c df d9 4a 3f
       0.09602501 0.23717485 0.029213974 0.79238695
000210 a3 7d a6 bc 1a 77 54 be f0 10 95 3d d5 9e 05 bd
       -0.02032358 -0.20748559 0.07278621 -0.032622177
000220 ab be 11 3b b6 b8 09 be ca 97 1c bd b5 52 0f 3e
       0.002223889 -0.13449368 -0.038230695 0.13996394
000230 46 08 3a 3e 00 b8 a3 bb 78 27 08 be e2 a5 4e bd
       0.18167219 -0.0049962997 -0.13296306 -0.050451167
000240 8c d2 17 3e 54 ab 73 3d d1 86 8e 3e 96 2f 49 be
       0.14826411 0.059489563 0.27837232 -0.19647059
000250 3e c3 90 bd 72 55 51 bd a6 3a de be 12 01 c6 bd
       -0.070684895 -0.051106878 -0.4340412 -0.09668173
000260 80 4b 2c 3d 02 9a 9d bd 54 34 f2 bd b4 8e 76 bc
       0.04206419 -0.0769539 -0.11826387 -0.0150486715
000270 b7 e2 3f be 87 3a b1 bd e4 a4 bd be 7d 7a 47 bd
       -0.18738829 -0.08653741 -0.37039864 -0.0487008
000280 00 87 71 bd cb c3 aa bc 2a f8 39 be 41 b7 2e 3e
       -0.058966637 -0.020845314 -0.18161073 0.17062093
000290 25 58 06 3e a3 e9 00 3e 91 0b 29 be 50 6f 90 3c
       0.13119562 0.12589125 -0.16508318 0.017631203
0002a0 e5 88 c8 3c 2a 4d 92 be 13 44 59 3f 92 f1 4c bd
       0.024479339 -0.28574497 0.848695 -0.050035067
0002b0 ac a3 4c be bd b1 8c be d5 6e a5 bc 10 fe ac bd
       -0.19984311 -0.27479354 -0.02019445 -0.08446896
0002c0 59 4d bb 3e fd 92 a6 3d 11 70 0d be 61 ef 51 bf
       0.3658245 0.081335045 -0.13812281 -0.8200589
0002d0 bf 4f ba 3c 1f f1 5a 3e 43 30 14 bf db 8c aa bd
       0.022743104 0.21381043 -0.5788614 -0.08327647
0002e0 8f 42 ee 3e be 8d 9a 3e bf 04 f1 bc c9 5b af 3c
       0.46535155 0.30186266 -0.029421208 0.021406071
0002f0 3c 90 d8 be ba 03 bf be 86 60 13 be 7b 6f 81 bc
       -0.42297542 -0.3730753 -0.1439229 -0.015800228
000300 a7 a9 0c be 6b b9 19 3e 46 f2 d9 3d 18 9e 1f be
       -0.13736592 0.15012138 0.10641913 -0.15587652
000310 1b 70 79 3e 85 15 28 bc bf 4b cf be 85 02 d6 bf
       0.24359171 -0.010259037 -0.40487477 -1.6719519
000320 6e 5b 2b 3e cd b0 1e 3f c5 3b 59 3e 0a bd 89 bb
       0.16734096 0.61988527 0.21214207 -0.0042034434
000330 25 ef 26 bf ca 49 42 3d 8b 9e a5 be bf a1 31 bc
       -0.65208656 0.047433652 -0.3234752 -0.010841786
000340 db 6e 3a be 74 5e d1 be 94 b2 0d 3d cd 60 73 3c
       -0.1820635 -0.40892375 0.034594133 0.014854622
000350 33 03 4c bd c7 94 8e be 16 f3 49 3d 9c 3d ed 3d
       -0.04980774 -0.27847883 0.04930409 0.11584017
000360 21 ef b5 be e6 b4 aa bc 32 20 fc 3c e6 9d 54 3e
       -0.35534003 -0.020838212 0.03077707 0.20763358
000370 4c 56 c6 3c 54 49 3c 3e 9a 30 31 bc 56 11 ac bd
       0.024211071 0.18387347 -0.01081481 -0.08401744
000380 a4 9d 8b 3c ee bd cb bd d0 7c 4a bf 8e 75 80 bb
       0.017042942 -0.099483356 -0.790967 -0.0039202636
000390 d4 9f 16 3e 28 04 05 bd 37 48 9d 3c f6 a3 3a 3e
       0.14709407 -0.032474667 0.019199474 0.18226609
0003a0 26 48 2a 3e 52 aa 1d 3e 72 8f 45 bd bf 93 1d be
       0.16629085 0.15397003 -0.048232503 -0.15388392
0003b0 fe e4 43 bd 32 80 8b 3e 79 9f f5 bd db 1b 67 be
       -0.047825806 0.27246243 -0.119933076 -0.2256922
0003c0 a0 cf 4e be 7a fd 0f be e6 0b 05 3e b7 0e b6 3d
       -0.2019639 -0.14061537 0.1299282 0.088895254
0003d0 9f b8 83 3e 65 23 d7 3c 5d 44 0e bc 4f 76 6a 3c
       0.25726792 0.026261995 -0.008683291 0.0143104335
0003e0 59 61 7c be f9 c6 50 3e 24 da ad bc 16 20 5f 3d
       -0.2464651 0.20388402 -0.021222182 0.05447396
0003f0 ca f0 82 bd 14 9e 9e bd 10 20 2d be 15 18 d3 3c
       -0.06393583 -0.07744995 -0.16906762 0.02576832

log_sigma.weight f4 [1, 256]
000000 55 a2 50 3a d4 56 22 be 72 ae 8f bd ec 34 dc 3d
       0.00079587597 -0.15853435 -0.07015695 0.107522815
000010 b8 28 91 3d c0 d1 30 3d 42 b2 27 be f0 05 84 bd
       0.070878446 0.043168783 -0.16376594 -0.06446445
000020 5c 23 b8 bd 8b 08 8b be 75 df 90 3d 35 63 90 3d
       -0.08991119 -0.27154955 0.07073871 0.07050172
000030 9d ba 37 bd 06 36 0b be 4e e1 56 3e 62 33 98 bd
       -0.044855703 -0.13594827 0.20984384 -0.074316755
000040 44 0a 6d 3d bc 27 3e be 61 bf d6 bc 50 bd f3 bc
       0.05787112 -0.18569845 -0.026214303 -0.029753357
000050 88 7e 15 be 18 3e cc 3d 30 8e 6f bd 2c d5 fd bc
       -0.14599049 0.09972781 -0.05848521 -0.030985437
000060 64 dd 7b 3d d4 4b 8c 3d 1d f9 b2 3c 6a 8f b4 be
       0.06149043 0.068504006 0.021847302 -0.35265666
000070 34 2d b8 3e 0f e2 81 3d df 69 b7 bc 25 e6 f7 3d
       0.35971987 0.063419454 -0.02238935 0.121044435
000080 e3 48 cc 3c 6c ae 46 3e 68 17 84 3e 10 c5 33 be
       0.024937099 0.19402474 0.25799108 -0.17555642
000090 f5 1b 8a 3d 58 98 60 3d 6d ca 99 3d de de 54 be
       0.06743614 0.054832786 0.07509313 -0.20788142
0000a0 b7 ba 3c 3d 2b 75 cd 3b df 86 e1 be 4d ab 4f bd
       0.046076503 0.006270071 -0.4404821 -0.050700475
0000b0 63 a0 fa bd fb cd 40 be 8c ac 76 be 6e 89 e6 3e
       -0.122376226 -0.18828575 -0.24089259 0.45026726
0000c0 be 09 f3 bd 65 f1 00 be 4a 37 43 bc 43 e9 31 3b
       -0.118670925 -0.12592085 -0.011915037 0.0027147091
0000d0 e1 3a b3 3d f4 38 50 3d 8a c4 6d 3c 9f c7 d9 3d
       0.08751465 0.050835565 0.014512191 0.10633778
0000e0 4d 58 1c 3e c8 29 89 3e 91 57 5d bd 45 68 34 bd
       0.15268059 0.2678969 -0.054038588 -0.04404475
0000f0 21 16 41 3d ff a6 c2 3d fe 9c 89 bd 26 90 b0 3d
       0.047140244 0.09504508 -0.06719397 0.08621244
000100 77 c7 65 bd 48 ff 21 3e 60 0d f1 bd 30 2e 7f bc
       -0.056098428 0.15820038 -0.11770129 -0.015574977
000110 59 c3 7c 3d a7 b0 7f 3a 6f f8 be 3d 78 c6 80 3c
       0.061709736 0.0009753801 0.09324729 0.015719637
000120 f5 b8 a8 3d 4e ce e2 bd 06 02 c9 3c d6 b2 6d 3c
       0.08238403 -0.11074506 0.024537098 0.01450797
000130 8b 46 d1 3d 83 fb b9 bd e6 76 aa 3c f2 76 88 3d
       0.10218533 -0.09081175 0.020808648 0.06663312
000140 cd 18 1d 3d c9 68 1b 3e 15 a4 2a bd f1 3f 74 bd
       0.03835373 0.15176691 -0.041660387 -0.05963129
000150 7c 41 0a ba 15 8b 97 3c 8c e9 a4 3d a9 45 ed 3b
       -0.000527404 0.018498937 0.08052358 0.00724097
000160 a9 fd 29 be 87 30 d9 bd 45 20 91 3d 91 fe 76 3e
       -0.1660067 -0.10604959 0.07086233 0.24120547
000170 66 32 e0 bc b9 fb c0 3c 9b b5 74 3d d1 8c c3 bd
       -0.027367782 0.02355753 0.059743505 -0.09548343
000180 6f 30 b6 3d 6c d3 33 bd ce b2 0a 3c ba d9 3b be
       0.08895957 -0.0439028 0.008465482 -0.18344775
000190 c3 0e 60 3c df 69 30 3d 89 10 6a 3d 61 29 98 bc
       0.0136753945 0.043069717 0.057144675 -0.018574419
0001a0 e5 64 49 3e 37 bf 20 be ce e6 69 3d e0 2e 12 bd
       0.19667394 -0.15697943 0.057104878 -0.035689235
0001b0 2c 8f 05 3d ca ea 86 3e b5 af 16 bb 1c de e8 3c
       0.032607242 0.26351005 -0.0022992913 0.028426223
0001c0 75 de 6d 3d a8 8f c4 bc b7 3c ae 3d 8c 50 3b 3d
       0.05807348 -0.023994282 0.08507674 0.045731112
0001d0 6e 7f 06 3c 05 a0 ee 3c 11 fc de bc cb 27 f5 bc
       0.008209093 0.029129038 -0.027219804 -0.029926201
0001e0 28 d8 9b bd 9f d4 2a 3d a8 e7 b0 bc d8 69 25 be
       -0.07609588 0.041706678 -0.021594837 -0.16153657
0001f0 53 ee 82 bd 8a 76 df 3c c8 c5 6a 3e 3b 07 0b be
       -0.06393113 0.027278204 0.2292701 -0.13576977
000200 f0 9e 81 bb 29 ad a3 be 15 ea 2f 3d ed 88 f7 3d
       -0.0039557144 -0.31968048 0.042947847 0.120866634
000210 76 dc e9 bc 30 41 fe bd e3 11 9a 3d 79 7a b6 bc
       -0.028547507 -0.12414777 0.07522943 -0.022275196
000220 93 8e 91 be d3 07 42 3d b8 e5 de bd cb 5c 02 3d
       -0.28429088 0.047370743 -0.10883659 0.031826776
000230 ec a4 ba 3d 67 ba 92 bd 6f e9 ab bd 6d 97 31 3d
       0.091134876 -0.0716446 -0.08394133 0.0433573
000240 e1 e3 87 be 15 52 a7 bd 7c d0 40 bd df 3f 5a be
       -0.26541045 -0.08169953 -0.047073826 -0.21313427
000250 2b fa 72 be 67 0d 05 3d 26 2b 60 3e 16 9b 45 be
       -0.23728244 0.032483485 0.2189146 -0.19297442
000260 37 70 14 bd af 9f 8a bd 61 e4 52 3b c0 e1 c0 3e
       -0.03623983 -0.067687385 0.0032179581 0.37672234
000270 db da 1b bb 25 c3 c4 bb 15 10 ab bd b7 65 05 3d
       -0.002378157 -0.0060047084 -0.08352677 0.032567706
000280 ee 75 27 bd d5 3e 69 3d dc b2 75 bd ae d3 6b bb
       -0.04088395 0.056944687 -0.059985027 -0.0035984325
000290 cf df 21 be fb 0e 6c 3d b2 f6 ea bd b0 be cf bb
       -0.15808032 0.057631474 -0.11472835 -0.0063398704
0002a0 5c f7 ed bc a0 53 09 be a5 31 99 3e c2 5a cf bc
       -0.029048614 -0.13410807 0.29920688 -0.025311831
0002b0 63 f8 12 be 39 d3 04 be f9 4f 41 bc 30 8f ca bc
       -0.14352565 -0.129712 -0.011798852 -0.02472648
0002c0 55 ef 22 3e 5f 54 8d bd 61 01 69 bd bf 6a 32 3e
       0.1591161 -0.06900858 -0.05688608 0.17423533
0002d0 51 d0 1b 3e a4 c3 eb 3d 4d 0b c5 3d fb a6 ae bd
       0.15216185 0.11511925 0.09621296 -0.08527943
0002e0 d6 1a a4 be cd cf 39 3e 54 ba 5e 3d fc e0 13 3c
       -0.32051724 0.18145676 0.054376915 0.009025808
0002f0 db e8 02 3e bc 73 c3 3d 80 f9 82 bd 01 46 b5 be
       0.1278414 0.09543559 -0.063952446 -0.3540497
000300 36 1e 44 3d e6 e5 57 bd 9d f5 98 bd fc 9d eb 3d
       0.047880374 -0.052709483 -0.07468722 0.115047425
000310 7a 49 8a be 91 51 28 3d 34 6f 26 3e 31 d8 07 bd
       -0.27009183 0.041093413 0.16253358 -0.03316516
000320 10 7a db 3d 3c 75 5e be 40 f1 7a 3d 14 7e e8 bd
       0.10716641 -0.21724409 0.06126523 -0.113521725
000330 81 39 48 bb 42 b3 e1 be c3 c5 a4 3d 66 b4 51 bd
       -0.0030551853 -0.44082075 0.080455326 -0.051197432
000340 fa 72 27 3d 6c 15 4f be 0a 3b f7 bc 55 39 63 be
       0.040881135 -0.20223016 -0.03017952 -0.22189839
000350 ad 62 32 bc 8b 8c 0e 3e e9 a7 66 3d 53 bf b6 3d
       -0.010887784 0.139208 0.056312475 0.08923211
000360 f4 8f 2d 39 3d c5 91 3d 5d df 3e bd 37 0c 02 bd
       0.00016552192 0.07117698 -0.046599735 -0.03174993
000370 9c 5b 32 3d 1b 95 d3 3d 43 03 13 be 4b 6b f2 3d
       0.043544397 0.10331174 -0.14356713 0.11836871
000380 3f 49 29 be 89 79 2c bd 19 19 2c 3e 87 2a 22 bd
       -0.16531847 -0.042108092 0.16806449 -0.03959134
000390 58 1a 45 3d d6 6c 99 3e eb 13 cd be 30 e2 0a bd
       0.048120826 0.29965848 -0.4005426 -0.033907115
0003a0 c5 a9 17 bc 6c 31 ad bc 16 69 1f bd d1 5c f6 bd
       -0.009256785 -0.02114173 -0.038918577 -0.12029422
0003b0 18 dc fe 3b 98 34 62 bd f3 ce 8c bd 35 62 ca bc
       0.007777702 -0.05522594 -0.0687541 -0.024705032
0003c0 bc e7 fa 3d fc 1e 5b be 32 79 f6 3b c6 57 fb 3d
       0.12251231 -0.21398538 0.007521772 0.12272601
0003d0 0e 55 b8 3d ca ce 42 be d5 76 92 bd 1c d0 47 be
       0.09000598 -0.19024196 -0.07151572 -0.19512981
0003e0 81 63 cf 3d 72 10 56 3d 21 dd 24 be 43 66 92 bb
       0.10126401 0.052261777 -0.16099979 -0.004467757
0003f0 cd 4c 24 be f7 26 fb 3d 17 20 21 3d 0b cf a7 3d
       -0.16044922 0.12263291 0.039337244 0.08193787
