data/pendulum/models/lsac-pendulum-q.pth (torch, 272024 bytes, 5 tensors)

fc1.weight f4 [256, 4]
00000000: b4da 2dbf 12bd f1be b8b0 4abe 5bfb b0ba
00000010: ebfb 16be a2ec 69bf 65b6 233f e0aa 9e3d
00000020: 317f a0be 0748 9dbf e032 063b 001c 723b
00000030: 6ae2 8b3f df61 a2be 95bb 2fbf 237f ddbd
00000040: 6090 30c0 1e79 98be 9d8a 4cbf e2ba 03be
00000050: bf55 c0be 8df2 02be 3d06 8ebe 3586 0d3d
00000060: 4cbd 563f f2a7 673f 46ae 4ebe bc1d 52bf
00000070: 7e75 8bbe c6b8 c8bc 5106 10bf b486 e5bb
00000080: 823b 17c0 5745 a33e 4a1c 88be 9478 00bd
00000090: dc0f 9f3f c7ae 2ec0 b99e 99be dbe7 763d
000000a0: c91d 65be cee5 49bf c334 0bbf a123 8ebd
000000b0: 136c 4dbe b3d4 95be 1ece 4c3f c43f bd3d
000000c0: 9f8c 423f 4b06 383e 3e57 6abe 6a5d b13e
000000d0: 78cf e43e 9e18 da3e fbf1 01bf 5f76 a9bd
000000e0: 3e88 81bf 1b65 833f b150 cebe 12a7 13be
000000f0: c4d5 0ec0 01d6 453f 7022 1f3e 9195 1cbc
00000100: 1b28 6cbf ce6d 0e3f bd11 a63e be91 0a3d
00000110: d46f abbc de4f bfbf ff84 f5be 9350 76bd
00000120: d72b 043f 8239 0dc0 03d5 d1be 5bfb a2bd
00000130: 34c1 923f af08 21bf 1d39 6fbe 966b f83c
00000140: b7b6 00bf f6f9 edbf cac3 dabe 9dbb 0dbc
00000150: 9045 14bf 9c34 5bbf 3148 583e deb6 d63b
00000160: aa1f e5be 42c9 0ebe 0036 8c3e e656 193d
00000170: 3b18 39bf 0b8b babd 3aab e83e b426 423c
00000180: 777f a9bd 6ef3 0f3f 9ccc 0f3c b759 cc3d
00000190: f285 7abf 8738 88bf e2da bebe daa2 cabc
000001a0: e33c 50bf 9157 ffbe 4cbb 9ebe 38a0 19bd
000001b0: 8049 8d3e bcfa 55be 8ae3 093f d1ff c0bd
000001c0: 7f9b a63e a9b3 233f 2492 093f 3cac 783d
000001d0: c53e 6a3d bf26 18c0 56aa f6be 0e40 41bd
000001e0: fa38 693f 616f a33f 8223 c33e 2e97 d73b
000001f0: e5ae 9dbf 5de4 58bf 7197 923e eccc cebc
00000200: f086 34bf 8d61 c63e 0c39 12be 0eba dcbd
00000210: f10c cbbf 797c 403f 0e9e 6a3f 2515 2f3d
00000220: 0d96 89be ae7f ef3d c892 33bf 1ebe b3bd
00000230: 5362 cebf adca 7e3f da2d dcbe 32ca 4dbd
00000240: 5df9 4bbf c764 433f 844c 03bf 3739 d6bd
00000250: a538 06bf f92a 693f 8e07 343e f4f4 55bb
00000260: 4a64 62bf b166 a6bf 3720 c6be fea9 d6bc
00000270: c38f 803f d205 983e 233d babe 0315 923e
00000280: a91b 40bf f995 babf a8d1 cebe 219b 27bd
00000290: 3586 853f aab7 59bf a536 c4be a115 4fbd
000002a0: caf2 92bf f6bf 70bf 1daa 88be 6c09 1bbd
000002b0: bd41 d43d 2884 85bd 18ad acbd af85 303d
000002c0: d059 9abf d41a 1ebf 4a82 2fbf 5606 79bd
000002d0: 7694 71bf dfb1 c9bf e3ec 78be 9336 b3bc
000002e0: 3b24 4dbe 8c12 803f cd80 0dbf 3e3d c7bb
000002f0: 194d c13e 625e 8b3d 06b6 76bd cf4f 983c
00000300: 0075 e7bf 722d a43e a4b8 cf3e 91cb eabd
00000310: 2b63 02bd 0e17 00c0 10ed ccbe 85e0 9cbd
00000320: eb12 1fbf 1195 dcbf 7162 2fbe 5a0c 1fbd
00000330: 21d5 69bf 59f8 26bf 5b02 b33e af78 893d
00000340: e024 40be 90ef bdbf f5f8 a9be 52db adbd
00000350: 3205 d43e 572d fbbf 4ef1 febd ee49 02ba
00000360: 5fb8 9cbf d8c4 503f 348f 333e 12ac 433d
00000370: 215d fbbf 9f50 a1be db2a f43e df35 903d
00000380: 41fb 2c3f a8ab a33e 5893 d7be 6daf 3c3e
00000390: d866 54bf 5303 8e3f 3e2d 613e 0b3d 473d
000003a0: 5403 653f 98c4 11bf 49d7 9c3e 5dd9 d53c
000003b0: 53b7 f1be fa49 9fbf 4fce 9cbe 8016 4ebd
000003c0: c9b3 87be 770e b53f 4b00 213f ac8b 653d
000003d0: c365 71bf 2a3e 8dbf 94af bbbe 784f e0bc
000003e0: 7c77 843e 55b6 d1be 5b16 44bf 7e92 2cbe
000003f0: c55c fcbe ffd1 5c3e f363 533e 162a 4d3d
-0.6791184 -0.47214562 -0.19793975 -0.0013502644 -0.14744537 -0.913767 0.63950187 0.077474356
-0.3134704 -1.2287606 0.0020477101 0.0036942959 1.0928471 -0.31715295 -0.686456 -0.10815265
-2.758812 -0.29779905 -0.7989901 -0.12864259 -0.3756542 -0.12787838 -0.27739134 0.034551818
0.83882594 0.9049064 -0.20183668 -0.8207662 -0.27238077 -0.02450217 -0.5625964 -0.0070045833
-2.363007 0.3188884 -0.26584083 -0.031364992 1.2426715 -2.7294176 -0.30003908 0.06027971
-0.22374643 -0.7886628 -0.54377383 -0.069403894 -0.20060758 -0.2926384 0.8000201 0.09240678
0.7599582 0.1797115 -0.22884843 0.34641582 0.44689536 0.42596906 -0.5075986 -0.082745306
-1.0119703 1.026523 -0.40295938 -0.14419201 -2.2317972 0.7727967 0.1554048 -0.009557144
-0.92248696 0.556363 0.32435408 0.033830397 -0.020927347 -1.4946249 -0.4795303 -0.060135435
0.51629394 -2.206635 -0.40982828 -0.079580985 1.1465211 -0.62903875 -0.2336163 0.030324738
-0.502788 -1.8591907 -0.427275 -0.0086506875 -0.57918644 -0.8562715 0.21121289 0.006552561
-0.4475072 -0.13943961 0.2738495 0.03743639 -0.723026 -0.091085516 0.45443135 0.011850048
-0.08276265 0.5623082 0.00877681 0.09978049 -0.97860634 -1.0642251 -0.3727637 -0.024735857
-0.81342906 -0.49871495 -0.3100227 -0.037506312 0.2759514 -0.20896429 0.5386282 -0.09423793
0.3254051 0.63946015 0.5373862 0.06071113 0.057188768 -2.3773649 -0.4817683 -0.047180228
0.91102564 1.2768365 0.38113028 0.0065793013 -1.2318999 -0.84723455 0.28631166 -0.025244199
-0.705184 0.387463 -0.14279574 -0.107776746 -1.5863324 0.7518993 0.9164742 0.042744774
-0.26872292 0.11694275 -0.70145845 -0.08776496 -1.6123756 0.9952801 -0.43003732 -0.050241657
-0.79677373 0.7632565 -0.5128863 -0.104601316 -0.5243018 0.91081196 0.17581007 -0.0032647224
-0.8843428 -1.3000089 -0.38696453 -0.026204105 1.0043873 0.2969194 -0.3637477 0.28531656
-0.75042206 -1.4577018 -0.4039433 -0.040919427 1.0431582 -0.85045874 -0.3832294 -0.050557736
-1.1480343 -0.9404291 -0.26692286 -0.037850782 0.10364101 -0.065193474 -0.084314525 0.04309624
-1.2058659 -0.61759686 -0.6855818 -0.060797058 -0.9436716 -1.5757407 -0.24309115 -0.021876609
-0.20033352 1.000566 -0.5527466 -0.0060802987 0.37754133 0.068051115 -0.060232185 0.018592743
-1.808258 0.32065922 0.40570557 -0.114646085 -0.031832855 -2.0014071 -0.40024614 -0.07660011
-0.6213824 -1.7232991 -0.17127396 -0.03883014 -0.91340834 -0.652227 0.34962735 0.06712472
-0.18764067 -1.4838734 -0.33197752 -0.08489098 0.41410214 -1.9623212 -0.12448369 -0.0004970123
-1.2243766 0.8155036 0.17535096 0.04777152 -1.9637796 -0.31506822 0.47688946 0.07041525
0.67570883 0.319669 -0.42104602 0.18426295 -0.8296943 1.1094764 0.21989915 0.0486422
0.89458203 -0.56940603 0.30633 0.026104623 -0.47210178 -1.2444451 -0.3062615 -0.050314426
-0.26504353 1.4145039 0.6289107 0.056041405 -0.942959 -1.1034596 -0.36657393 -0.027381644
0.2587241 -0.4095942 -0.7659661 -0.16852757 -0.49289528 0.21564482 0.20643596 0.050088964

fc1.bias f4 [256]
00000000: 4ebd e43e 47d1 29bf fd11 673f 1b2f 9bbf
00000010: 71ef a33d fd2b 873f c12f c93e f3aa 5a3f
00000020: 8e13 5bbe 817e 513e 1ad6 673c 5d3c e6be
00000030: 0021 293f 9578 1f3f 7b69 c73e da77 87be
00000040: 8764 4e3f 9552 20bd cb3c 95bf 7fd0 23be
00000050: 8cf7 7dbe deee 3c3f 27c5 ff3e c4d7 8cbd
00000060: 03a7 773f 5083 093f 62cf 563f 8f85 90bf
00000070: 614b fc3e 6dfb 5bbf 3c02 9ebe 637e f13e
00000080: 4a12 8dbf 14a9 243f 011d 453e 3f12 8bbe
00000090: 3119 ed3e 1d09 513f 34d7 bf3e bdea cebe
000000a0: c765 5f3e 3a68 58bf 6127 3c3f 9802 7e3f
000000b0: edf7 203f 8e80 bd3d 3c68 203f cc7b 713f
000000c0: 78c7 173e ce12 f13d 9acb 283e abc6 2a3f
000000d0: 18c1 45be d1f7 a73f 4a55 c23e f990 463e
000000e0: 4eea 593f 4378 2a3f e299 01bf 1ab4 2e3d
000000f0: 8774 f33c c619 f73e 5b43 a43e f69a 383f
00000100: 06d7 553f 2791 05be 4c99 493f be35 f33e
00000110: e7b9 873f b293 8d3f fe27 2e3f c1fd 70bd
00000120: c216 b53d f2a7 183d 87a1 8b3f 82ab 2c3e
00000130: 822c 9b3d 6122 fdbd 5053 10bd 476b 563f
00000140: 21d3 8c3f c4ec 50be 2672 60bf 555f 4e3f
00000150: 8bd7 0d3f 8696 88be bc9b 123f 9467 4dbf
00000160: 8713 193f 4ea8 713f b6c3 34bf 7e58 643f
00000170: 4e31 313f f5c6 373f 1bed 28bf fa6e e13e
00000180: 67be 5f3f 9bd5 363f 97a2 e53e 89d4 283f
00000190: b43a b2be 5db7 abbf 1eb9 593f 81f7 f03e
000001a0: 5b51 1f3f 4dd2 0d3e 3877 423f 2eb3 433f
000001b0: fa57 a43e 2d53 6c3d 7c62 f73e 935c ff3e
000001c0: 2090 2dbf f357 d83d 80d5 a3be 66c5 183f
000001d0: 5077 8b3f 825d 573f 7b09 7bbe 9027 5ebf
000001e0: aa81 52be a930 8b3e 7dca 6b3d b760 223f
000001f0: ff5e 3abf bde1 703f c4b3 cf3d 1e61 393f
00000200: d26f 7ebf 7819 253f 9853 bf3e 4cfe fbbd
00000210: 9077 683f b0b5 4c3f 0087 d93e 3cbc 423f
00000220: 8136 4c3f 8a3e 3f3f 66a1 2f3f 90b3 963e
00000230: 49d3 1c3f 0413 31be d2aa 0dbf fddf 3b3f
00000240: a05d 2a3f c7d7 393f 05cf afbd d109 41bf
00000250: 737d d7be e921 813f 90e7 4d3f 438f 483e
00000260: f45a 793f c8b8 603f f2f3 a8bc 62b8 8d3d
00000270: a78b 3c3f b477 7f3f 8376 3b3f ccbb 9cbe
00000280: 73f2 283f a5f6 413f 2d93 553f 8f7d d0bd
00000290: 22ca 023f 5990 123f 3e0d 6e3f 93ab 6f3f
000002a0: 0743 723f 6d6c 3a3e c19e 67be 6e8b 0cbf
000002b0: 73a9 343f b7b9 463e 29aa 3e3f 055f e53e
000002c0: d0ad c93e 4819 3d3f e964 0a3d 76d6 babe
000002d0: ce4b 813f e215 bcbe 6d2a 0a3f 30b3 2cbf
000002e0: d0f1 37bf 49cc 133e 7e47 6c3f a376 58bf
000002f0: 3a0d eab9 7263 09be 115b 083f b3a1 803e
00000300: 1a8f 24bf 4e6c 883c 0697 333e ac2e d83e
00000310: eed1 543f 8205 a4bd faf2 d3bc 0572 543e
00000320: d8e8 623f 2e59 273e f693 8e3e 2dc5 363f
00000330: 317d b33d 5982 8d3f 5ae9 613f bf86 edbe
00000340: 2717 dfbe fed5 133e 5a67 2d3f b269 8d3e
00000350: 54ba d93e cd8d 3b3f 61bb acbe 9a12 d7be
00000360: d2c3 01bf dad3 253e 75cb 19bd 718b 613f
00000370: 1e31 4ebd 96e9 a43c f24f 6a3f 0fa1 5b3d
00000380: dfb7 2d3f 4950 0abf b82c 943f 2859 3e3f
00000390: 1e19 bc3e 1623 483e 2420 e33e 295c f13e
000003a0: 1061 1e3f 7136 5abd 3b1f 813f 5d17 3d3f
000003b0: 0a3c dfbc 3787 a33e cbbf d73e a919 5d3f
000003c0: 3fdd 4d3f 600a 683f 170d 423f e5ba 0e3f
000003d0: 938b 1a3f ce8a 6f3f da89 41bf 54c3 4a3d
000003e0: a217 233f 5cc0 763f 9854 07bf 87fc 273f
000003f0: 0da1 c3be 42e7 b7be 6d57 533f 182e 673f
0.44675678 -0.66334957 0.9026182 -1.212375 0.08004654 1.0560299 0.39294246 0.854171
-0.21394178 0.20458414 0.014150167 -0.4496793 0.6606598 0.6229337 0.38947663 -0.26458627
0.8062214 -0.039141256 -1.1659178 -0.15997504 -0.24801463 0.7380198 0.49955103 -0.068770915
0.96739215 0.5371599 0.8391019 -1.1290759 0.4927626 -0.8593052 -0.3086108 0.47166738
-1.1021206 0.6432049 0.19249345 -0.27162358 0.46308282 0.8165453 0.37468874 -0.40413466
0.21816169 -0.8453404 0.7349759 0.9922271 0.62878305 0.092530355 0.6265905 0.94329524
0.14822185 0.11771165 0.16483918 0.66709393 -0.1931194 1.3122503 0.37955695 0.1939124
0.85123146 0.66589755 -0.5062543 0.042652227 0.02971865 0.4826185 0.32082638 0.7211145
0.83531225 -0.13043652 0.7874954 0.4750194 1.0603608 1.1060698 0.68029773 -0.05883575
0.08842231 0.03726954 1.0908669 0.168623 0.075768486 -0.12360073 -0.035235703 0.8375744
1.1001931 -0.20402819 -0.87674177 0.80614215 0.5540702 -0.2667734 0.5726888 -0.8023617
0.5979542 0.9439744 -0.7061113 0.8919753 0.6921586 0.7178796 -0.65986794 0.4402998
0.87399906 0.71419686 0.4485061 0.659493 -0.34810412 -1.3415333 0.8504809 0.4706383
0.62233514 0.13849755 0.75963163 0.7644528 0.3209837 0.05769651 0.48317325 0.49875316
-0.6779804 0.1056365 -0.31998825 0.59676206 1.0895786 0.84127057 -0.24515335 -0.8677912
-0.20557275 0.27185562 0.057566155 0.63428825 -0.728012 0.9409445 0.101417094 0.72413814
-0.99389374 0.6449199 0.37368464 -0.12304363 0.9080744 0.79964733 0.4248581 0.7606847
0.79770666 0.747048 0.6860565 0.2943387 0.61259896 -0.1729241 -0.55338776 0.73388654
0.6654911 0.72594875 -0.08584408 -0.75405604 -0.42087898 1.0088474 0.8043146 0.195859
0.9740441 0.87781954 -0.020624135 0.06919934 0.7365059 0.9979203 0.7322771 -0.30612028
0.6599495 0.75766975 0.834277 -0.101801984 0.5108968 0.5725151 0.92988956 0.93621176
0.94633526 0.18205424 -0.22619154 -0.5490025 0.7057106 0.19406782 0.74478394 0.44799057
0.3939042 0.738667 0.03378764 -0.36491746 1.0101259 -0.36735445 0.53970987 -0.6746092
-0.7185335 0.14433397 0.9229659 -0.84556025 -0.00044641813 -0.13416842 0.53263956 0.25123367
-0.64280856 0.016653206 0.1753808 0.42223108 0.8313283 -0.08008863 -0.025872696 0.2074662
0.8863654 0.16342613 0.2784726 0.71394616 0.08764113 1.1055404 0.8824669 -0.46391866
-0.4357235 0.144371 0.67735827 0.27619702 0.4252497 0.73263246 -0.3373671 -0.4200638
-0.50689423 0.16194096 -0.037547547 0.88103396 -0.05033981 0.020130914 0.91528237 0.053620394
0.6785869 -0.54028755 1.1576147 0.7435479 0.36737913 0.19544634 0.4436046 0.47140625
0.61866856 -0.053274576 1.0087656 0.73863775 -0.027250309 0.31939098 0.42138514 0.8636728
0.8041572 0.9064083 0.75801224 0.5575393 0.60369223 0.93571174 -0.7560097 0.049502686
0.63707936 0.9638727 -0.52863455 0.656197 -0.3820881 -0.35918623 0.82555276 0.9030471

fc2.weight f4 [256, 256]
00000000: 994e c3bc 12ce ed3d f885 d43c 1845 cc3e
00000010: 26cc 323c ec8c 3ebb b669 9e3c 1ec8 54bd
00000020: 784c 5ebc 2b17 713e 1fab 09be b25a 813d
00000030: 5396 6fbc 1127 83bd a9e2 f73d afbc 1ebe
00000040: 8e17 073d f843 53be cfdc 8f3e 6c9e ed3c
00000050: ad48 34bd 5f97 4b3d f0e8 333e ba1c 0abd
00000060: c226 90be 1b02 db3c 91fd 103d 7722 ad3e
00000070: 4b2f 52be f79d a63e b0b9 953e 0d6c a23d
00000080: 5f6a 37be a712 a83d e671 d8bd 61df 27be
00000090: 82bb 063e 9f46 50bb 9244 613d 6d69 95bd
000000a0: 831e 1a3e 1bd7 333f 672c 25bb f855 98be
000000b0: 298d 2c3e c856 763e a9de b6bd 3115 89be
000000c0: 492d fabc e2df 29bd eca8 883e 5dc5 f13d
000000d0: 89f0 9dbd 9b13 363c fdd3 423e bf8a 7c3b
000000e0: ba55 cdbd c952 46be d13a 393f c65a 4e3e
000000f0: 309d 35be 0805 353c 9b35 c9bd 9ca6 8a3d
00000100: b1cc 313e 6e78 3f3e 89f8 dfbd 9a5d 213d
00000110: ec51 433c bf13 50bd 1809 c6bc 8e88 97be
00000120: 4886 77be 0591 8fbd 8343 a93d 1e6e 72be
00000130: f9fd 8a3e 1b7a 693d c1a0 34be 50c0 a9bc
00000140: 5f03 8fbe 382b 523d ae60 e63e 7b17 f43d
00000150: b573 953d 8aad 32be 72c7 95bc 54c3 353f
00000160: b8d5 36bf 90d6 5dbe a49a a63e 0de7 a63d
00000170: e248 673d b4f1 df3d 79cd b23e ec83 973d
00000180: 0b92 0e3d 19e0 cfbd fa9b c83d 3aaa 8d3e
00000190: 09a9 7d3d a5e8 b93e e375 643c 0a12 b13e
000001a0: 12e6 76bc 4f26 693e 81a6 ce3c 5d8d 57bd
000001b0: c969 ef3d e90c 80bd 6748 543d 27f9 17bf
000001c0: 5013 713d 80f6 103e 6f4c 97bd e32e 22bc
000001d0: c32f 983d c726 853d 64bd 9bbc 17c0 473e
000001e0: 4a24 b7bd fe45 89bc 93bc 54be 740b 9a3c
000001f0: 717a 66be 0549 ea3c c94c d6bd 3f26 a03d
00000200: 1115 d43e 673c 98bb 7e58 a93d 1d6f 7f3c
00000210: e0af afbe b64a b43d 23f6 83bd 61ce 273c
00000220: dd24 babc c81b 9dbd 27a4 e93d 0e75 933c
00000230: cea9 a5bd 24ab 01bf ced5 ddbe cf1c 73bd
00000240: 17da 233e c272 d23b caa1 e8bd afc9 8dbe
00000250: 8fd5 0c3e 3af8 2fbe d2f6 d13d 0013 153e
00000260: 404b a73d f24a a1bd 0843 54be 2d5b 1abe
00000270: 37e7 c1bd 4ac0 2e3e acc8 95bb 015d 6e3e
00000280: d17c 92be bbb3 743d 3d49 8a3d f8ee 13be
00000290: 9a79 bd3d 8439 b13d 8ae3 82be 54be 393d
000002a0: 459b 863c 259c 083d 424d e6bc ef8e 013e
000002b0: 63a8 3a3e 23a8 31bc 4d99 b23c ef39 ff3d
000002c0: e91b 96bc 7319 a5bd a753 febd f1b8 203e
000002d0: 18ce ad3c 64de e23e 7428 ee3d 6d09 52be
000002e0: 5a96 293f f8ae 683e 01db ec3c a27b eb3e
000002f0: d976 8c3e 0887 33bf f431 0fbe 09eb df3d
00000300: c008 5a3e d93d dd3d ec4b 26be 416e 3d3e
00000310: 3326 a43d 0dbe 11be d23c 22be f703 8c3d
00000320: bf4a 6d3d d016 893d fee9 7bbe c54d 80bc
00000330: 7f80 3e3d ba6c 823d 3128 aa3c 202b a2bd
00000340: 4850 9fbd d825 313e 40ef 9ebd 3f76 03be
00000350: e87b d6bc f936 a5bd 710b 503e 7c8c 413c
00000360: 0655 d93d d648 12be 6f81 403e 7fac 583d
00000370: 999a ecbd 3698 d53b c448 8abe e1ad a23e
00000380: aaad aa3d 4937 9e3e 9211 43be c2d2 6e3d
00000390: f601 5c3d e7ab 03be b51b a9bd f1ef 9b3e
000003a0: 5d3c a43d 869e f23c b2a1 6cbd 9777 e2bd
000003b0: 3a1c 52be 34ef a3bd e6c1 b03e 1632 edbb
000003c0: ec63 58bc 9557 ab3d 7eca 003c c3a8 063e
000003d0: b855 583c 31eb 86bd 77b9 193f 3bef 87be
000003e0: be41 8c3d b4f7 3abd fc40 d63d 4375 2abd
000003f0: 1ea2 2abe e6bb 233e e4d2 d7bc e756 4bbd
-0.02384119 0.116115704 0.025942788 0.39896464 0.010912931 -0.0029075695 0.019337516 -0.05194866
-0.013568036 0.23543994 -0.13444184 0.06316127 -0.014623242 -0.06403936 0.12103779 -0.15501665
0.032981448 -0.20631397 0.2809815 0.029006205 -0.04401462 0.049704906 0.17569327 -0.033718802
-0.2815457 0.026734402 0.03539807 0.33815357 -0.20525853 0.32542393 0.2924323 0.07930765
-0.17911671 0.08206683 -0.105685994 -0.16393806 0.13157466 -0.0031780375 0.054997034 -0.07295499
0.15050702 0.702501 -0.0025203468 -0.2975309 0.16850723 0.24056542 -0.08929188 -0.2677398
-0.030539172 -0.041473277 0.26691377 0.11805222 -0.07711894 0.011113073 0.1902618 0.0038534848
-0.10026117 -0.19367518 0.7235537 0.20151815 -0.17735744 0.011048563 -0.098246776 0.067700595
0.1736324 0.18698284 -0.10936076 0.039395906 0.011921387 -0.05080008 -0.024174258 -0.2959637
-0.24172318 -0.07010082 0.0826483 -0.23674819 0.2714689 0.057001214 -0.17639448 -0.020721585
-0.2793226 0.051310748 0.44995636 0.11918541 0.0729746 -0.17449012 -0.01828358 0.7100117
-0.7141986 -0.2166388 0.32539856 0.08149538 0.05646599 0.10934773 0.34922388 0.07398209
0.034807246 -0.10150165 0.09795375 0.27668935 0.061928783 0.36310306 0.013944122 0.34584075
-0.0150695015 0.2276852 0.02522588 -0.05262505 0.11690099 -0.062524624 0.05182686 -0.5936455
0.05885631 0.14156532 -0.073876254 -0.009898874 0.07430985 0.06501537 -0.019011207 0.1950687
-0.089424685 -0.016757008 -0.2077506 0.01880429 -0.22507645 0.028599272 -0.10463864 0.07819795
0.41422322 -0.0046458724 0.08268832 0.015590456 -0.3431387 0.088033125 -0.06443431 0.010242076
-0.022722656 -0.076713145 0.11408263 0.018000152 -0.08089028 -0.50651765 -0.43327183 -0.059353646
0.16001163 0.0064223716 -0.11358984 -0.27692935 0.13753341 -0.17184535 0.10252155 0.14558029
0.0816865 -0.07875623 -0.20728695 -0.15073843 -0.09467929 0.1706554 -0.004571041 0.23277666
-0.28610852 0.059741717 0.0675225 -0.14446628 0.09251709 0.08653548 -0.25564224 0.045347527
0.01643146 0.033352036 -0.028113011 0.12652181 0.18228297 -0.01084331 0.021801615 0.12462222
-0.018323855 -0.08061495 -0.12418299 0.1569555 0.021216437 0.44310296 0.116288096 -0.20511408
0.66245043 0.22722995 0.028913023 0.45992762 0.27434424 -0.70127916 -0.139839 0.10933501
0.212924 0.10802812 -0.162399 0.1849909 0.080150984 -0.14232655 -0.15843514 0.06836694
0.05793261 0.06693804 -0.2460098 -0.015662083 0.046509262 0.06368394 0.020771118 -0.07918382
-0.07778984 0.17299592 -0.07760477 -0.12838076 -0.02618213 -0.08067126 0.20316865 0.011813279
0.1061192 -0.14285597 0.18799375 0.05289888 -0.11552925 0.006518389 -0.2700864 0.31773284
0.08333905 0.30901554 -0.19049671 0.058306463 0.053712808 -0.12858544 -0.08257238 0.30456498
0.08019326 0.029616605 -0.057771392 -0.11057966 -0.2051858 -0.08004609 0.34522933 -0.0072386367
-0.013207417 0.08366314 0.007860778 0.13150315 0.013204031 -0.06587828 0.6004862 -0.26549706
0.06848477 -0.045646384 0.104616135 -0.041615736 -0.16663405 0.15989646 -0.026345678 -0.049643423

fc2.bias f4 [256]
00000000: f08d 8fbe c4d4 c03e d446 babd 4b01 cb3e
00000010: 0b15 aabe c6c3 aebe 3b34 0e3d 876e 473e
00000020: aa32 89be 6f54 1f3b 1421 b9be 3fea 143f
00000030: 536d 84be 15f1 95be 5eb4 a5be f049 bf3e
00000040: 481e 05bd c86a 82be 7e9a 74be 0063 95be
00000050: 086e b7be 0e75 7abe 1f0a 7f3d 673a 6cbc
00000060: 708d 93be 0354 fd3e 8669 59bd 8ceb 0c3f
00000070: 6c48 b739 d45d b1be 77e1 3f3d 9aab 3fbd
00000080: 4854 f3bd d47d 7f3c 4f15 90be 3f64 b9be
00000090: fa4b 653b 2465 84be 4bbe 4bbe 1f57 133d
000000a0: eb0c 97be de95 b13e ec57 b63e 35e2 b13e
000000b0: ef3a 8abc b07c 0d3f 3b35 b63c ceaf 83be
000000c0: 275f 5cbe ada2 90be 36e5 4bbe e1e5 f93e
000000d0: 5219 b0bb 47cb 88bd 855b ca3e d5be e8bb
000000e0: 9f76 8dbe 2f4b 96be 2a77 493e e0bf 89be
000000f0: 1184 c33e 6075 ee3e a220 69be d4da 423f
00000100: 5b0c 183f 367d a2be a22c 87be 7420 a1be
00000110: 3147 71be 5b37 82be 625b a53e 2edd d03e
00000120: b737 acbe 25f1 19bd 645c 813e e02c 103d
00000130: 589a 9ebe 6af1 8dbd 519f bdbe 35a5 abbe
00000140: eba4 87be 8a80 24bc c1d4 8fbe fdd3 c6bc
00000150: e07f a5be 30bf 5cbe 1ec9 80be 15e6 9cbe
00000160: 183f 3c3d 9ca2 72be b942 3c3f 535f b53c
00000170: c36a 87be 0222 90be bee3 82bd 36e8 96be
00000180: 215d 97be 41f1 59bd 0973 693e 8319 3b3e
00000190: ae72 b7be 3f11 6a3c 9f9b 15bc 3a24 a1bc
000001a0: 4383 79be 9ba9 183f d6ff 2fbd cc53 533f
000001b0: 0589 af3b 98a3 41bd 383e 1fbd 34bb 103d
000001c0: 0519 bcbc c9c5 e3bc 04ee 88bd 05dc 89be
000001d0: 211c 4bbe 95cf 8fbe 6b8b b6be 22c3 83be
000001e0: ad74 fa3c 93ee 70be 2c9b 4cbd 619c ecbc
000001f0: 6b71 a2be 36ae 4abe 5ff4 b3be 5fe4 053f
00000200: 62d4 59be 2a6c b1be 6a4f 6abe 434c 0d3f
00000210: f1a6 973c 7281 90be ed5d 9abe 29c3 f13c
00000220: 5951 babe e6b7 0a3d c979 4fbe a4e4 81be
00000230: 6805 a4be 16e0 09bd fa4e a4be 70af a2be
00000240: 9865 83be 65c5 44bd 2fd4 2fbd 8102 1cbc
00000250: 8551 6ebe aeeb 87bd 2a31 e23c 9d76 aabe
00000260: 2c9a 41bd a497 cb3e 8003 9ebe 2012 5b3e
00000270: 3268 e83e f9a4 2dbd 9687 79be 2af0 c13e
00000280: 8537 61be 8372 b73c 6697 8abe 73b0 84be
00000290: f0c1 d7bc 953d 8dbe 7f9a 813e 37d5 6dbc
000002a0: c0c1 5d3e 1bdd 8ebe d510 223e 3ad7 0fbd
000002b0: ac64 813b e4e5 503c 2ea9 953e 741b 9abe
000002c0: fc8c 66be 8061 46ba f3c6 fa3e f317 0b3e
000002d0: edaa b33c 8ebb 87be 6a37 ee3e bfd3 2c3e
000002e0: e227 6cbc f2c2 08bd 1afe 97be 4ecf 4ebd
000002f0: 2a4b 3bbd 69a5 51bc b1c4 863e 7e71 a2be
00000300: ed24 5cbe 51f6 60be 4102 323f d683 c53e
00000310: 7f0a 66be 4b98 7ebd 7987 85be d93d aebe
00000320: a802 88be 001e 4cbd a347 2c3e dbcf 5abd
00000330: 8c33 5e3e f031 13bd 15db a8be aa25 98be
00000340: 762a b4be fc48 9e3e fd6b f0bc a13e eb3e
00000350: 509c a2be 09df 63be 83f2 e23a d2f2 ab3e
00000360: dd99 92be e399 94bc eb22 39be 7e51 7bbe
00000370: 7f42 9cbc 5945 76be 98e1 803e f358 b0be
00000380: 1997 80bd 279b 75be 2493 81bc 6493 7abe
00000390: 0341 84be 71ed 303e b51d 51bd ad91 81be
000003a0: 25c0 6e3e f1ef 92be 1ee9 8fbe 9a44 8abe
000003b0: 6aae 9dbe 2f31 7dbe 3ee6 373c 5f25 d83e
000003c0: ca96 b2be 07bf a5be ec42 65bd 0c92 66bd
000003d0: 0da3 7dbe f4d5 88be 35c6 3ebb bca2 7cbc
000003e0: c891 32bc dfaf 99be 46b9 c93e 275b f8bc
000003f0: fe33 86be 2413 65be 6ec6 503c 32d8 8f3c
-0.28037977 0.37662327 -0.09095541 0.39649424 -0.3321918 -0.34133738 0.03471778 0.19475757
-0.26796466 0.00243118 -0.3615805 0.5816993 -0.25864658 -0.29285493 -0.32364172 0.37361097
-0.03249958 -0.25472093 -0.23887059 -0.29177094 -0.35826135 -0.24458715 0.06226551 -0.014418221
-0.28818846 0.49478158 -0.05307915 0.55046916 0.00034958438 -0.34641898 0.04684588 -0.04679451
-0.1188131 0.015593965 -0.28141257 -0.36209294 0.0034987913 -0.25858414 -0.1989681 0.035971757
-0.29502043 0.34684652 0.35613954 0.34742895 -0.016873805 0.55268383 0.02224218 -0.25720066
-0.21520673 -0.28249112 -0.19911656 0.48808196 -0.005374112 -0.06679397 0.3952295 -0.007102827
-0.27629563 -0.29354236 0.19674364 -0.26904202 0.38186696 0.46573925 -0.22766355 0.76115155
0.5939385 -0.31736153 -0.2640124 -0.31470072 -0.23562314 -0.25432858 0.32296282 0.40793747
-0.33636257 -0.03758349 0.252658 0.035199046 -0.3097713 -0.06930812 -0.3703561 -0.3352448
-0.2649301 -0.010040412 -0.28092006 -0.024271006 -0.32324123 -0.21557307 -0.2515344 -0.3064429
0.04595861 -0.23694843 0.7353931 0.02214018 -0.2644864 -0.28150946 -0.063910946 -0.29474038
-0.2956324 -0.053208593 0.22797789 0.1827145 -0.3582968 0.014286338 -0.009131341 -0.019670594
-0.24366479 0.596338 -0.042968594 0.8254974 0.00535691 -0.047275156 -0.038877696 0.03533478
-0.022961149 -0.027804272 -0.06686023 -0.26925674 -0.19834949 -0.2808806 -0.35653242 -0.25734812
0.030573213 -0.23528509 -0.04995267 -0.028883161 -0.31727156 -0.19793019 -0.35147378 0.5230159
-0.21272424 -0.34652835 -0.22881857 0.5519449 0.018512221 -0.2822376 -0.30149785 0.029512005
-0.36390188 0.033866785 -0.20261301 -0.2536975 -0.32035375 -0.03366097 -0.32091504 -0.31774473
-0.25663447 -0.048039813 -0.042926963 -0.009522081 -0.23273285 -0.06636749 0.027611334 -0.3329362
-0.04726617 0.3976413 -0.30862045 0.21393633 0.45391995 -0.04239366 -0.24368128 0.37878543
-0.21993835 0.02239347 -0.27068633 -0.2591587 -0.026337594 -0.27586046 0.25313184 -0.014516166
0.21655941 -0.27903065 0.15826733 -0.035117365 0.0039487686 0.012750123 0.29230636 -0.3009907
-0.22514719 -0.0007567629 0.4897991 0.13583355 0.02193209 -0.2651028 0.46526653 0.1687765
-0.014413806 -0.03338904 -0.29686052 -0.05049067 -0.04572598 -0.0127957845 0.2632194 -0.31727213
-0.21498461 -0.21968962 0.6953469 0.38577145 -0.22464941 -0.062156957 -0.2607992 -0.3403156
-0.26564527 -0.049833298 0.16824202 -0.053420883 0.21699351 -0.035936296 -0.32979646 -0.29716235
-0.35188645 0.30915058 -0.029348368 0.4594622 -0.31759882 -0.2225305 0.0017314706 0.33583695
-0.28633013 -0.018139785 -0.18079726 -0.24542806 -0.019074677 -0.24049892 0.25172114 -0.34442863
-0.062788196 -0.23984967 -0.015817232 -0.24470288 -0.2583085 0.17278077 -0.05105372 -0.25306454
0.23315485 -0.28698686 -0.28107542 -0.27005464 -0.3079713 -0.24725793 0.011224328 0.42216012
-0.34880668 -0.32372305 -0.055972025 -0.056291625 -0.2476923 -0.26725733 -0.002910984 -0.015419658
-0.010899015 -0.30016991 0.39399165 -0.030316902 -0.26211542 -0.22370583 0.012742622 0.017559145

q.weight f4 [1, 256]
00000000: 01f6 dabe 1b1a 0c40 ff75 bdbf ce7e e33f
00000010: 9096 dcbe d2f9 c2be d8c6 e83c 0fe8 fa3f
00000020: 3b4b 5bbe eb8f 303d 4e08 9cbe 8883 7d3f
00000030: 5139 96be 0c2c 82be f98b 68be 1295 0e40
00000040: 21aa ec3b 1c37 c1be 1eb1 4bbe 6947 d6be
00000050: 5b96 cebe a62c b0be 7cd8 9f40 b1e6 db3c
00000060: d9e6 cabe d624 9a3f 55d7 583d 8445 0340
00000070: 3609 593c 1c93 bebe b3fe c63c 44d4 42bd
00000080: 9cd8 d1bf 82fa 183d f6d6 c2be 9cd5 c5be
00000090: 7280 893b f879 b2be adf3 aebe a199 243d
000000a0: 878f 67be 9193 8440 baa7 1240 ea12 a63f
000000b0: 36e5 4340 d2a6 a03f 228e 3c3d ef0c 93be
000000c0: dcef d2be 7208 8dbe 4821 9ebe 6248 1440
000000d0: 1f62 483d 1ff5 443d c8f2 ce3f bdbf cc3c
000000e0: e059 adbe 18be 6dbe 5895 ca3f 4a11 d9be
000000f0: 4ee8 0e40 bdb3 1740 1549 a5be 9fa6 f93f
00000100: b2d1 e53f 61cb 83be ce78 89be 29d1 b2be
00000110: a8b9 87be 73ef a4be 76a5 f63f 1b49 bc3f
00000120: 4066 a0be 5690 0f3d 41b5 0140 88f0 863c
00000130: 76c1 b4be 8004 263d 9b24 7bbe 0282 82be
00000140: 081d a7be d09f 18bf 309c 6bbe b1c7 993b
00000150: 78c1 b9be a15e d4be 7b91 4fbe 8868 cabe
00000160: d70c 633b b32d 8abe 35d3 fa3f 6999 e938
00000170: 6134 d5be e621 cabe dad7 593d bc08 a2be
00000180: b63e 97be 9228 fc3c 6dd9 6140 d339 f83f
00000190: 16b7 5ebe 762d 0b3d ddcb 083a cf3a 3c3d
000001a0: 12fd bdbe a8a4 da3f cde4 0d3d f728 ee3f
000001b0: 6a75 463d f19f cd3c 4eaa 403c 0c4c ec3b
000001c0: 69c5 d2bc 6cef 803c d1ae cd3b c637 a0be
000001d0: 3446 aabe 7372 dabe e7a5 babe 4d31 38be
000001e0: a2ca 303d bf0b c1be 3092 0c3d 0f6d 3d3d
000001f0: 4f99 b3be b23c e5be d2b4 c9be d0b0 0040
00000200: de5a 81be 9f5d 94be 8c79 92be 75c4 d93f
00000210: 16d0 133d a7a5 88be 2a4a b0be ef89 473b
00000220: 1ffb bdbe aa9e f43b 731e a0be 7db1 cebe
00000230: 39f5 91be da84 3ebd 7196 60be 6b37 4bbe
00000240: 000c cbbe abf4 593d ea48 863c bd64 4a3d
00000250: 4c53 8abe 4ec6 093d 3083 263d 1c68 99be
00000260: 3501 51bb 1274 0540 3a77 ecbe 24f2 fd3f
00000270: af01 fd3f 1008 f3bc dc1e 58be 120d 1c40
00000280: 95fe d2be aca8 da3b b185 e1be cc12 e4be
00000290: 78e5 f43c 13e9 cfbe 8109 2540 2b62 ae3c
000002a0: 6645 d23f 1ce7 bfbe ee43 8e3f a499 b83a
000002b0: 210d 783d 58ea be3c bd7e 0540 c6a6 8ebe
000002c0: 7fbf 6ebe c5f5 83b8 7b99 1540 4303 f53f
000002d0: 44d4 4a3d b953 cebe db54 0040 3892 ba3f
000002e0: d660 ae3c aff2 3a3c 0ece a4be 2c82 a6b9
000002f0: 5428 363d 3038 883c 976a 0940 106e 9dbe
00000300: d408 c8be d7bf aabe 881e 913f de81 1a40
00000310: 1af8 dcbe db44 ac3c 247e 8abe 2f20 57be
00000320: 5f9b dbbe d92d 003c 8ff7 c53f 2103 3a3d
00000330: d6ca 3340 adf9 083c 5d6c 5ebe 0ada c2be
00000340: c7eb acbe 5030 b63f 2e10 1e3d 9de4 903f
00000350: c8da 8ebe 8913 53be f1df 4e3c f74a f83f
00000360: 0866 80be 532a 153d a9bf 96be 064e b3be
00000370: 6f80 e53b b91a bfbe 9210 ea3f f6e7 d6be
00000380: 6396 c63c ee90 9dbe 2d63 583d 799f a4be
00000390: e5f6 c8be 3546 0940 77c4 a4bf 3f13 d1be
000003a0: f456 ed3f a4aa bdbe fba1 c6be 9f7b debe
000003b0: ddac dcbe b6cb e8be c15e cb3c 91b1 c13f
000003c0: b5ff 89be 312a 94be a16e ee3c e64c 213b
000003d0: f1cb a4be a0b3 55be c1d8 ce3c 5cb8 ac3a
000003e0: a486 dfba 8f37 c9be fae8 0e40 46a8 973a
000003f0: f8b9 dbbe c95f a6be 8943 143d f1ec 023d
-0.4276581 2.1890934 -1.4801635 1.7773073 -0.4308362 -0.38081223 0.028415129 1.9602069
-0.21415417 0.043106 -0.30475086 0.99028826 -0.29340604 -0.2542423 -0.22709645 2.2278485
0.0072224294 -0.37737358 -0.19891784 -0.41851357 -0.40349087 -0.34409064 4.9951763 0.0268434
-0.39629248 1.2042491 0.05293973 2.051118 0.013246825 -0.3722161 0.024291372 -0.047565714
-1.6394229 0.037348278 -0.38054627 -0.38639534 0.00419622 -0.3485868 -0.34170285 0.040185574
-0.22613345 4.1430135 2.2914872 1.2974522 3.060865 1.255091 0.046033986 -0.28720805
-0.41198623 -0.27545506 -0.30884767 2.316918 0.0489217 0.04808533 1.6167841 0.024993772
-0.33857632 -0.23217046 1.5826826 -0.42396003 2.2329288 2.3703454 -0.3228232 1.9503974
1.7954619 -0.25741103 -0.2684998 -0.34925202 -0.26508832 -0.32213935 1.9269245 1.470981
-0.3132801 0.03504976 2.0266879 0.016472116 -0.3530385 0.040531635 -0.24525683 -0.25489813
-0.32639337 -0.59618855 -0.230088 0.0046929945 -0.36280417 -0.41478446 -0.2027034 -0.39532876
0.0034645104 -0.2698799 1.9595705 0.00011138881 -0.41641524 -0.39478987 0.053184368 -0.3164729
-0.29540032 0.030781064 3.5288956 1.9392647 -0.21749529 0.0339789 0.0005218366 0.04595452
-0.3710714 1.7081499 0.03464203 1.8606251 0.04845182 0.02510068 0.011759354 0.007211214
-0.025728898 0.015739165 0.0062769433 -0.31292552 -0.33256686 -0.42665443 -0.36454698 -0.17987557
0.043161996 -0.37704274 0.034319103 0.046246585 -0.35077903 -0.4477287 -0.39395767 2.0107918
-0.2526464 -0.28977677 -0.28608358 1.7013079 0.036087118 -0.26688883 -0.34431583 0.0030447205
-0.37105653 0.0074652033 -0.3127323 -0.40369788 -0.28507403 -0.046513416 -0.21932389 -0.19845359
-0.39657593 0.05321185 0.01639219 0.049412478 -0.27016675 0.033636384 0.040652454 -0.29962242
-0.0031891589 2.0852094 -0.46184713 1.983952 1.9766139 -0.02966693 -0.21105522 2.4382977
-0.41209856 0.0066729393 -0.4404731 -0.4454559 0.029894575 -0.4060751 2.578705 0.021287045
1.6427429 -0.3748101 1.111448 0.0014083874 0.060559396 0.023305103 2.0858605 -0.27861613
-0.23315237 -6.292345e-05 2.3374927 1.914162 0.04951884 -0.4029825 2.0051792 1.4575872
0.02128641 0.011410399 -0.32188457 -0.00031758973 0.044472054 0.016628355 2.1471307 -0.30748034
-0.39069235 -0.33349487 1.1337442 2.4141765 -0.43158036 0.021028927 -0.27049363 -0.21008371
-0.42891976 0.007823431 1.5466174 0.04541314 2.8092551 0.008360309 -0.21721025 -0.38056976
-0.33773634 1.4233494 0.03858965 1.1319767 -0.27901292 -0.20612921 0.012626634 1.9397877
-0.25077844 0.036417317 -0.294431 -0.35020465 0.007003836 -0.37325075 1.8286307 -0.41973847
0.024241632 -0.30774635 0.052828956 -0.32152918 -0.39250866 2.14491 -1.2872456 -0.40834996
1.8542161 -0.3704425 -0.38795456 -0.4345369 -0.43100634 -0.4546792 0.024825456 1.5132314
-0.269529 -0.2893844 0.029105486 0.0024612485 -0.32186845 -0.20869303 0.02524984 0.0013177502
-0.0017053676 -0.393002 2.2329698 0.0011570535 -0.4291532 -0.32494953 0.03619722 0.031964246
