data/pendulum/models/lsac-pendulum-q.pth (torch, 272024 bytes, 5 tensors)

fc1.weight f4 [256, 4]
0	0x3f4adba7	0.7924141
1	0x3fdd506b	1.7290167
2	0x3ec77c19	0.38961866
3	0x3d8a9353	0.06766381
4	0xbf48a8e3	-0.783827
5	0xbf093862	-0.5360166
6	0xbe875278	-0.26430106
7	0xbd0b8ca4	-0.034069672
8	0x3f1f867f	0.623146
9	0xc019dc01	-2.404053
10	0xbf0a732b	-0.5408198
11	0xbd8c9071	-0.068634875
12	0xbf9943e5	-1.1973845
13	0xbf3e7d95	-0.7441037
14	0x3e9143a7	0.28371927
15	0x3d88fd03	0.06688883
16	0xbe97c63e	-0.29643434
17	0xbf073c24	-0.5282614
18	0xbd8e8d2a	-0.06960519
19	0x3e72f992	0.23728016
20	0x3e2d4bcb	0.16923444
21	0x3f32ece8	0.6989274
22	0xbeb7a62f	-0.35868976
23	0x3d2e61f8	0.0425739
24	0xbe8f2992	-0.27961403
25	0x3f8d36dc	1.1032367
26	0x3e5ec788	0.21755803
27	0x3d382a3c	0.044962153
28	0x3e81265c	0.25224578
29	0x3f01a3cc	0.5064056
30	0x3f242f7c	0.64134955
31	0x3e000481	0.12501718
32	0x3f968817	1.1760281
33	0x3f1c5ef2	0.61082375
34	0x3ecbc55b	0.39799008
35	0x3d728e62	0.059217818
36	0xbf0445de	-0.5166911
37	0xbe9796c6	-0.29607219
38	0xbe404f64	-0.18780285
39	0xbcec62ca	-0.0288557
40	0xbe5f9424	-0.21833855
41	0xbf8ec3cd	-1.1153504
42	0xbe740bd1	-0.23832633
43	0xbce78649	-0.028262274
44	0xbf143732	-0.5789672
45	0xbea54767	-0.32281038
46	0xbe64f8ce	-0.22360536
47	0xbca89403	-0.02057839
48	0x3e6a5e0b	0.22887437
49	0xbfbb919a	-1.4653809
50	0xbe49c61d	-0.1970448
51	0xbcf7b7b3	-0.030238962
52	0xbe9f0190	-0.3105588
53	0x3f8e801a	1.1132843
54	0x3f0fa392	0.56108963
55	0x3d0bf275	0.034166772
56	0xbf8bccf3	-1.092192
57	0x3f354851	0.7081347
58	0x3eb7d692	0.35905892
59	0x3cb409c0	0.021977305
60	0xbf6cebb6	-0.92547166
61	0xbf97561b	-1.1823152
62	0xbe582978	-0.21109569
63	0xbe24bd53	-0.16087846
64	0xbfa8145c	-1.3131213
65	0x3f161202	0.5862123
66	0x3ea05e02	0.31321722
67	0x3dc9b344	0.09848645
68	0x3f77aa30	0.9674406
69	0x3f177e9a	0.59177554
70	0x3ef48bf7	0.47763035
71	0x3d8a6a26	0.067585275
72	0x3e0a48b0	0.1350429
73	0xc015e8ec	-2.3423414
74	0xbefeef85	-0.49792114
75	0xbdbc4af2	-0.09193982
76	0x3eb7f8e4	0.35932076
77	0xbee45d9f	-0.44602677
78	0x3ed789ad	0.42097226
79	0x3d5b25d1	0.05350286
80	0xbf986aa3	-1.1907543
81	0x3f812797	1.0090207
82	0x3ed1efed	0.4100336
83	0x3d3bc7ef	0.04584497
84	0xbfd4732c	-1.6597648
85	0x3ef0686c	0.46954668
86	0x3e9fbe8d	0.31200066
87	0x3dc32e9d	0.09530375
88	0xbe808c53	-0.2510706
89	0xbe4e1bfc	-0.20127863
90	0x3f158b9a	0.5841614
91	0x3e05cc52	0.13066223
92	0xbd5e064d	-0.054205228
93	0x3f98170e	1.1882036
94	0x3f2b1e95	0.6684354
95	0x3def940f	0.11698162
96	0x3f47d7e2	0.78063786
97	0x3fe48da8	1.785573
98	0x3ea78ba7	0.32723734
99	0x3d84548a	0.06461437
100	0xbf0d4abd	-0.55192167
101	0x3caa7818	0.020809218
102	0xbecd1e0b	-0.40061983
103	0xbbe7a086	-0.0070686964
104	0x3fb0d432	1.3814757
105	0x3e5c22aa	0.21497598
106	0x3e94f3d2	0.2909227
107	0x3b81d501	0.0039621596
108	0xbfa40035	-1.2812563
109	0x3d616731	0.05503005
110	0x3ed0a597	0.40751335
111	0xbe7faa13	-0.24967222
112	0x3f6c3d5d	0.9228113
113	0xbeb7910f	-0.35852858
114	0x3e4dfbd5	0.20115598
115	0x3ecf353f	0.4047031
116	0xbf928a01	-1.1448365
117	0xbedc4509	-0.4302142
118	0xbe65daf3	-0.22446804
119	0xbd8b8933	-0.06813278
120	0xbf8fb0f7	-1.122588
121	0xbf5112ca	-0.81669295
122	0xbebc8c97	-0.36826012
123	0xbd240ad3	-0.040049385
124	0xbe845786	-0.25848025
125	0xbe0c8185	-0.13721283
126	0x3f37179d	0.71520406
127	0x3df5f199	0.12008972
128	0xbf61b12b	-0.8816096
129	0xbea456dd	-0.3209752
130	0x3ea1c5a3	0.31596097
131	0x3cfa99ce	0.030590918
132	0xbf2c0e87	-0.67209667
133	0x3ddfe49b	0.10932275
134	0x3ef29c0b	0.47384676
135	0x3e133266	0.14374694
136	0xbfc712fe	-1.5552671
137	0x3f8e45f2	1.1115096
138	0x3e876992	0.2644773
139	0x3d8a871f	0.067640536
140	0x3e6a65cb	0.22890393
141	0xbf5c7e8a	-0.86130583
142	0x3eb2781b	0.34857258
143	0x3d2a4a2d	0.041574646
144	0x3f85145f	1.0396842
145	0x3fac47f4	1.3459458
146	0x3e7ada87	0.24497424
147	0x3db18b84	0.086691886
148	0xbfb25eb0	-1.3935146
149	0x3f37671d	0.71641713
150	0xbe55a127	-0.20862256
151	0xbcaa341d	-0.020776803
152	0x3e4e1fbb	0.20129292
153	0xbf741ce8	-0.9535661
154	0x3f167336	0.5876955
155	0x3e3327e9	0.17495693
156	0xbf0efff8	-0.5585933
157	0x400f8f3b	2.243117
158	0x3f009592	0.50228226
159	0x3d88f1d3	0.06686749
160	0x3efc6be6	0.4930107
161	0x3f9bfe84	1.2187047
162	0x3e4a5029	0.19757141
163	0x3cea8877	0.028629525
164	0xbf82e701	-1.0226747
165	0x3f0b6b67	0.5446076
166	0x3eb76e76	0.35826463
167	0x3d5ab476	0.053394757
168	0xbf5c7225	-0.8611167
169	0xbfb70f40	-1.4301529
170	0xbed1efe9	-0.4100335
171	0xbd30caec	-0.04316227
172	0xbf9c9331	-1.2232419
173	0xbf262512	-0.64900315
174	0xbea1e1f1	-0.31617692
175	0xbc851b7d	-0.016248459
176	0x3eca1741	0.39470866
177	0xbfaaf3d2	-1.3355658
178	0xbeb183ef	-0.3467097
179	0xbcedb88a	-0.02901866
180	0x3fc083e5	1.5040251
181	0x3f9d6389	1.2296001
182	0x3f1bd95c	0.6087854
183	0x3dc4e2ed	0.09613595
184	0x3ef256c0	0.4733181
185	0x3fbd05bd	1.4767376
186	0x3dd1ba05	0.102405585
187	0xbefd24f5	-0.49442258
188	0xbf0f8721	-0.56065565
189	0x3ea7b936	0.32758492
190	0x3f0762fd	0.5288542
191	0x3bc71812	0.0060758675
192	0x3dc0de1a	0.094173625
193	0x3f1f84ea	0.62312186
194	0xbebc671b	-0.36797413
195	0x3ea76484	0.32693875
196	0xbf8f3c6b	-1.1190313
197	0x3d299992	0.04140622
198	0x3f3e1f27	0.74266285
199	0xbd13bf64	-0.036071196
200	0x3fbd6d80	1.4799042
201	0xbe414ea5	-0.18877657
202	0xbe52a454	-0.20570499
203	0xbcae3ddd	-0.021269733
204	0xbf903ebe	-1.1269147
205	0x3d39d0b3	0.045365047
206	0xbe78b48e	-0.24287626
207	0x3eaf578e	0.34246486
208	0x3e7a68a3	0.24453978
209	0xbf4d5b86	-0.8021778
210	0x3e6cb22c	0.23114842
211	0x3e6bfc29	0.2304541
212	0xbf306f77	-0.6892008
213	0xbf852b32	-1.0403807
214	0xbdf75cc2	-0.12078239
215	0x3c75fdd3	0.01501413
216	0xbf76b5a8	-0.96370935
217	0xbf7e2d95	-0.992883
218	0xbeb35c99	-0.35031584
219	0xbd14f59b	-0.03636704
220	0xbf066034	-0.52490544
221	0x3f823ffe	1.0175779
222	0x3e5474a7	0.20747624
223	0x3d098e3e	0.03358292
224	0xbf51fdcc	-0.8202789
225	0x3f26bc66	0.65131223
226	0xbe8c4dc3	-0.27403077
227	0xbd84e08b	-0.06488141
228	0xbf18d527	-0.59700245
229	0x3f7d5c53	0.98969
230	0x3e9e87f7	0.30963108
231	0xbf3767bc	-0.7164266
232	0xbf91c69b	-1.1388735
233	0xbdab9622	-0.08378245
234	0xbe0f3f78	-0.13989055
235	0xbe8e5df4	-0.27806056
236	0xbef8cfb8	-0.48595977
237	0xbf3924d1	-0.723218
238	0xbe1fe06c	-0.15612954
239	0xbcc32c60	-0.02382487
240	0xbdaa989f	-0.083298914
241	0xbf2820a1	-0.6567479
242	0xbdf470d4	-0.11935583
243	0xbd2e97ca	-0.042625226
244	0x3fc771eb	1.558164
245	0x3ee0b176	0.43885392
246	0x3e789e05	0.2427903
247	0x3c18a518	0.009316705
248	0xbf1e99ea	-0.61953604
249	0xbf2d1797	-0.6761412
250	0x3e658755	0.22414906
251	0xbcaea5a1	-0.021319212
252	0x3f842c03	1.0325931
253	0x3fc7869c	1.5587955
254	0x3ebc3bc4	0.36764348
255	0x3d8dc4eb	0.06922325

fc1.bias f4 [256]
0	0x3e948428	0.29007077
1	0x3f1ccac0	0.6124687
2	0xbfa57d58	-1.2928877
3	0xbee207b3	-0.441465
4	0x3f61cf19	0.8820663
5	0x3f5b1ba0	0.8558903
6	0x3f134a0a	0.5753485
7	0x3e378dfd	0.17925258
8	0xbf872eb1	-1.0561124
9	0x3f073137	0.5280947
10	0x3f0112ea	0.50419486
11	0x3f222841	0.6334267
12	0xbdd604e2	-0.1045015
13	0xbc99172a	-0.018687803
14	0x3f4f46d2	0.8096744
15	0x3e91b2a1	0.28456596
16	0x3f1e1d65	0.617636
17	0xbf748d82	-0.95528424
18	0xbf49c87d	-0.78821546
19	0x3e893f4b	0.268061
20	0x3f57a9c3	0.8424341
21	0x3e8a5774	0.27019846
22	0xbee0bd55	-0.4389445
23	0xbe7ccecc	-0.24688262
24	0x3e556b10	0.20841622
25	0x3f5d7146	0.86500967
26	0x3e87a201	0.26490787
27	0x3f0d3352	0.55156434
28	0x3f271cae	0.65278137
29	0x3e6252e5	0.22101934
30	0x3f508ad6	0.81461847
31	0x3e215f14	0.15758926
32	0x3ed19f11	0.4094167
33	0xbf0d18b7	-0.55115837
34	0x3f1ba403	0.6079714
35	0x3f16de89	0.5893331
36	0x3eb1fb90	0.3476224
37	0x3ee436e8	0.4457314
38	0xbf5a09ee	-0.851714
39	0xbe206cb1	-0.15666462
40	0xbdc4507c	-0.09585664
41	0x3f828dfa	1.0199578
42	0x3eba8693	0.36430797
43	0x3e80f0be	0.25183672
44	0x3d2fa6e2	0.04288376
45	0xbeef0773	-0.4668537
46	0x3f277966	0.65419614
47	0xbe4e5d49	-0.20152773
48	0x3f49d732	0.78843987
49	0x3e7e2df5	0.24822219
50	0x3e82d0d2	0.25549942
51	0xbf19f9a4	-0.60146546
52	0x3f72796b	0.9471652
53	0x3f15b11e	0.58473384
54	0x3f1ba072	0.60791695
55	0x3f471250	0.7776232
56	0xbea05781	-0.3131676
57	0xbe19a4b1	-0.15004231
58	0xbeeeec1f	-0.4666452
59	0x3f1dcce4	0.61640763
60	0x3f5c53b7	0.8606524
61	0x3e1196b7	0.1421765
62	0x3f1b5321	0.6067372
63	0x3e9d345d	0.30704013
64	0xbe16ae3f	-0.14714907
65	0x3ef8ff1b	0.4863213
66	0xbe9a2180	-0.30103683
67	0x3e6228c9	0.22085871
68	0x3fa248b1	1.2678434
69	0xbd9dd7f1	-0.07707203
70	0xbea23d5a	-0.31687433
71	0x3f45d687	0.7728047
72	0x3f534bbf	0.82537454
73	0x3f61ae2f	0.8815641
74	0x3ead6081	0.3386269
75	0xbee661d7	-0.4499652
76	0xbd996b66	-0.07491188
77	0x3f622303	0.88334674
78	0x3da4d983	0.080492996
79	0xbfcc3aa6	-1.5955398
80	0xbf41701c	-0.7556169
81	0xbdae3c08	-0.08507544
82	0xbf00377e	-0.50084674
83	0xbebe40e2	-0.37158877
84	0x3db8e0c7	0.09027248
85	0xbe3ecf26	-0.18633708
86	0x3d5521e9	0.052034292
87	0xbf06aaac	-0.52604175
88	0x3e84a95c	0.2591046
89	0xbe5cc849	-0.21560778
90	0x3f82423b	1.0176462
91	0xbdf5f66f	-0.12009894
92	0xbccd1133	-0.025032615
93	0x3f526e75	0.82199794
94	0xbe41f393	-0.18940572
95	0x3f16d675	0.58920985
96	0x3d926e4a	0.07149942
97	0xbed0a40a	-0.40750152
98	0xbf83ed68	-1.0306826
99	0x3e89663e	0.26835817
100	0x3f3b7fd1	0.7324191
101	0xbd439509	-0.047749553
102	0x3f1b45da	0.6065346
103	0xbf47e811	-0.7808848
104	0x3e24bb1e	0.16087005
105	0x3e3e2d34	0.18571931
106	0x3f31f517	0.695146
107	0x3f2e0207	0.67971843
108	0x3f416f16	0.7556013
109	0xbef3a5d7	-0.47587463
110	0x3f13cec1	0.57737356
111	0x3ef9181f	0.48651215
112	0x3e209744	0.15682703
113	0x3f3652c3	0.71220034
114	0x3e5731c8	0.21015084
115	0x3f1e5430	0.6184721
116	0xbe675217	-0.22589909
117	0xbf290fb0	-0.6603956
118	0xbe03b40f	-0.12861656
119	0x3ecbfb0a	0.39839965
120	0x3f111291	0.56668955
121	0x3ed3b92a	0.41352206
122	0x3ea29a60	0.31758404
123	0xbefeafee	-0.497436
124	0xbe3974a0	-0.18110895
125	0xbe80a63a	-0.2512682
126	0x3f274ae3	0.65348643
127	0xbf18e982	-0.59731305
128	0x3e4cf3c8	0.2001487
129	0x3f373de8	0.71578836
130	0x3f282436	0.65680254
131	0x3f4b7c10	0.7948618
132	0x3ebfa91b	0.37433705
133	0x3f14b9a8	0.5809579
134	0xbdbe8721	-0.093031175
135	0xbef802a2	-0.4843951
136	0x3eaf10e5	0.34192577
137	0x3f54bc2a	0.83099616
138	0x3e11fcec	0.14256638
139	0xbf1691bb	-0.5881612
140	0x3f3200e6	0.6953262
141	0x3f56fb72	0.83977425
142	0x3c26088d	0.010133875
143	0xbd479cea	-0.04873363
144	0xbf8f6f80	-1.1205902
145	0x3efe9af6	0.497276
146	0x3f089c78	0.5336375
147	0x3dba0e54	0.09084764
148	0xbf2ac4ce	-0.6670655
149	0xbe8d244e	-0.2756676
150	0x3f1589ee	0.5841359
151	0x3d51c21e	0.051210515
152	0xbf95b43d	-1.1695629
153	0x3fa99f6c	1.3251777
154	0x3f1e4192	0.618188
155	0xbf517809	-0.81823784
156	0x3f2669bb	0.6500508
157	0x3ea4bb0a	0.3217395
158	0x3f7858b8	0.97010374
159	0xbf1cd416	-0.6126112
160	0x3f2e4b24	0.68083405
161	0xbf03b274	-0.5144417
162	0x3e8849cb	0.266188
163	0x3f76c5ff	0.9639587
164	0x3f1c7cd5	0.6112798
165	0x3e027a2a	0.12741914
166	0xbed7471f	-0.4204645
167	0x3ebc6df5	0.3680264
168	0x3f437afc	0.76359534
169	0x3f76208c	0.9614341
170	0x3f2ab918	0.6668868
171	0xbeb60e08	-0.3555758
172	0x3f88e33b	1.0694345
173	0xbf17e620	-0.5933552
174	0x3da643d2	0.081184044
175	0x3e19477e	0.14968678
176	0x3f329400	0.6975708
177	0x3f0eee56	0.5583242
178	0x3ef13005	0.47106948
179	0x3f2dc08a	0.67871916
180	0x3f48a932	0.7838317
181	0xbde84825	-0.113418855
182	0x3f317430	0.69317913
183	0x3e38a04d	0.180299
184	0xbed027bf	-0.40655324
185	0x3f485964	0.782614
186	0xbf48d072	-0.7844306
187	0x3e70136f	0.23444913
188	0x3f3ddcee	0.74165237
189	0xbbcfd736	-0.006342794
190	0xbf1c6cf8	-0.61103773
191	0x3f62fd7b	0.8866803
192	0xbf0606a7	-0.523539
193	0xbeba6c66	-0.36410826
194	0xbf3ec67a	-0.745216
195	0x3f398878	0.7247386
196	0x3e954809	0.2915652
197	0x3f398291	0.72464854
198	0x3f2b4a6b	0.6691043
199	0x3f1214a7	0.5706276
200	0xbf802ad0	-1.0013065
201	0x3f27da42	0.6556741
202	0xbf14b7d7	-0.5809302
203	0x3f86c91e	1.0530126
204	0xbf724de0	-0.9465008
205	0x3e9c9fd1	0.3059068
206	0xbec7e756	-0.39043683
207	0xbf64c537	-0.89363426
208	0x3b8e9f5f	0.0043524946
209	0xbf541e81	-0.82859045
210	0x3f28360e	0.6570748
211	0x3f2fb3f6	0.68633974
212	0xbfe985e3	-1.8243984
213	0xbecc187e	-0.39862436
214	0xbe658697	-0.22414623
215	0xbe43f542	-0.19136527
216	0xbf6ad4b1	-0.9173079
217	0xbe25f611	-0.16207148
218	0xbf282765	-0.6568511
219	0x3eb8fc49	0.36129978
220	0x3f162c36	0.5866121
221	0x3e969ec2	0.29417998
222	0xbf675847	-0.90369076
223	0xbef70d14	-0.48252165
224	0xbda42497	-0.080147915
225	0x3ebeb897	0.37250206
226	0x3f0b7cc9	0.5448728
227	0xbe62b270	-0.22138381
228	0x3f4426bc	0.76621604
229	0x3f0c231a	0.5474106
230	0xbf5b2316	-0.8560041
231	0x3e4ef449	0.20210375
232	0x3f418e74	0.7560799
233	0x3eadc5f0	0.33940077
234	0x3f4e772d	0.806506
235	0x3f6ed832	0.9329864
236	0x3f7d712b	0.99000806
237	0x3f404804	0.7510989
238	0x3f6def73	0.92943496
239	0x3edf073e	0.43560213
240	0xbe9bc9a2	-0.3042727
241	0x3e98c255	0.29835764
242	0x3f49f573	0.7889015
243	0xbe941a97	-0.28926536
244	0xbe225c11	-0.15855433
245	0xbf62a90f	-0.8853921
246	0x3f231b14	0.6371319
247	0x3ecfa340	0.40554237
248	0x3f48346f	0.7820501
249	0xbe1aedca	-0.15129772
250	0xbf15acc6	-0.58466756
251	0x39c33c06	0.0003723802
252	0xbd1cb092	-0.038254328
253	0x3f142a9f	0.57877535
254	0x3f4c2afd	0.79753095
255	0xbeae3562	-0.34025103

fc2.weight f4 [256, 256]
0	0x3e88d179	0.26722315
1	0x3d8a42e4	0.067510396
2	0xbe41a617	-0.18911014
3	0x3f33fef5	0.7031091
4	0x3ed26860	0.41095257
5	0x3e4f7a27	0.20261441
6	0xbbe8d330	-0.0071052536
7	0x3eceeaa0	0.4041338
8	0xbf987740	-1.1911392
9	0xbe2b2828	-0.16714537
10	0x3e3126b6	0.17299923
11	0x3c036875	0.00802051
12	0x3e01dbe9	0.12681545
13	0x3e5ffae7	0.21873055
14	0xbe6ff8a8	-0.23434699
15	0x3da4be24	0.08044079
16	0xbe65ac56	-0.22429022
17	0x3f0aaa15	0.54165775
18	0xbd5126bf	-0.05106234
19	0x3ee59d15	0.44846407
20	0xbe99bd1e	-0.30027097
21	0xbe80806c	-0.25097978
22	0x3ea245c1	0.31693843
23	0x3e8c9730	0.27459097
24	0x3a3fc036	0.00073147134
25	0x3e1023b3	0.14076118
26	0x3ec93e02	0.3930512
27	0xbbe38694	-0.006943533
28	0x3ea66e12	0.32505852
29	0xbe3df5dc	-0.18550819
30	0xbd882458	-0.06647557
31	0x3e9070a9	0.28210953
32	0xbd91ed56	-0.07125346
33	0x3e9ab3e2	0.30215365
34	0xbed1a4e2	-0.40946108
35	0x3efb2bce	0.49056858
36	0x3f051325	0.5198234
37	0xbede9a43	-0.43477067
38	0x3e679c0f	0.22618125
39	0xbe8ffdad	-0.28123227
40	0x3d681edb	0.05667005
41	0xbe1bc1bb	-0.15210621
42	0x3abfe938	0.0014641648
43	0x3f096d20	0.53682137
44	0x3e026916	0.127354
45	0x3eb6da3e	0.3571338
46	0x3e1ebfb9	0.15502824
47	0x3e9d1e12	0.30687004
48	0x3e051e40	0.1299982
49	0x3e1aa726	0.15102825
50	0x3e14761c	0.1449818
51	0xbdba907f	-0.09109592
52	0x3ec43ccf	0.38327643
53	0x3d7d386c	0.061821386
54	0x3d166b5a	0.036723472
55	0xbd38349f	-0.04497206
56	0x3d48b81d	0.04900371
57	0xbe86d9ef	-0.26338145
58	0xbcd6e7e3	-0.02623362
59	0x3dfc7e3a	0.12328763
60	0x3eac6666	0.33671874
61	0xbdb668b8	-0.08906692
62	0x3e03a9b6	0.12857708
63	0x3ebfd256	0.3746516
64	0x3e1b8544	0.15187556
65	0x3e9b7ae2	0.3036719
66	0x3e927f68	0.28612828
67	0x3e949ce4	0.29025948
68	0x3f19fd1f	0.6015186
69	0x3e8b10fd	0.271614
70	0xbd984868	-0.074356854
71	0xbe8f3366	-0.279689
72	0xbf033350	-0.5125017
73	0xbd236487	-0.039890792
74	0x3edd8a64	0.43269646
75	0x3dec84b1	0.115487464
76	0x3eb27db7	0.34861538
77	0xbe1312eb	-0.14362685
78	0x3e3a4e48	0.18193924
79	0x3de1b42e	0.11020695
80	0x3f259f48	0.6469617
81	0x3d4ce48d	0.05002265
82	0x3dfa71c1	0.12228728
83	0x3dffc4d4	0.12488714
84	0x3ee1d7fd	0.44110098
85	0x3eb55700	0.35417938
86	0xbc350a00	-0.0110497475
87	0x3e7a9a85	0.24473007
88	0xbe75d91a	-0.24008599
89	0x3e76577b	0.24056809
90	0x3f062f74	0.5241616
91	0x3edf6eac	0.43639123
92	0xbe069380	-0.13142204
93	0x3f1848af	0.59485906
94	0x3e33c784	0.17556578
95	0x3ed7e783	0.42168817
96	0xbce17ee9	-0.027526336
97	0x3c86bd7e	0.016447779
98	0x3e9372f9	0.28798655
99	0x3ea1cf1c	0.31603324
100	0xbe4f18d5	-0.20224316
101	0x3eb60464	0.35550225
102	0xbe222660	-0.15834951
103	0xbe8eff26	-0.27929038
104	0xbe1f68dc	-0.15567344
105	0xbeae29e9	-0.3401635
106	0x3de638a4	0.11241272
107	0x3e868c34	0.26278841
108	0x3f0c7aa2	0.5487462
109	0x3def509c	0.11685297
110	0x3bdb8775	0.0066994973
111	0xbd95c262	-0.07312466
112	0x3ca67cdc	0.02032321
113	0x3ebf231f	0.37331483
114	0xbef2ab73	-0.4739643
115	0x3e10c04e	0.14135858
116	0xbcbdacc8	-0.023153678
117	0xbd96e797	-0.07368391
118	0x3d1b6292	0.0379358
119	0x3eb17107	0.34656546
120	0xbe0f953f	-0.14021777
121	0xbd9fadda	-0.077968314
122	0x3e6710be	0.2256498
123	0xbf02c827	-0.5108666
124	0x3e0c0ca2	0.13676694
125	0x3ddbfc61	0.10741497
126	0xbd8bc9dc	-0.06825611
127	0xbe9e19db	-0.308791
128	0xbd96ed1e	-0.07369445
129	0xbe0a6936	-0.13516697
130	0xbe874d3f	-0.26426122
131	0x3e87612e	0.2644133
132	0x3ecd55bd	0.40104476
133	0x3d80d176	0.062899515
134	0x3ddd062e	0.10792194
135	0x3d17d68e	0.03706985
136	0xbeced2ea	-0.4039529
137	0x3eb79dde	0.3586263
138	0x3ed27658	0.41105914
139	0x3e609914	0.21933395
140	0xbe3d12ec	-0.1846425
141	0x3eb4446b	0.3520845
142	0x3e08f8d2	0.13376167
143	0x3da1159a	0.07865448
144	0x3dadb802	0.08482362
145	0x3ca5aa15	0.020222703
146	0xbed965bd	-0.42460433
147	0x3e339b3f	0.1753969
148	0x3dc1b3a7	0.09458094
149	0x3dbeb5a7	0.09311991
150	0xbf261ddb	-0.64889306
151	0x3cfe6ab9	0.031056749
152	0xbc558202	-0.013031485
153	0x3efc2a20	0.4925089
154	0x3ec2fe41	0.38084605
155	0xbf15a2c2	-0.58451474
156	0xbe0c0439	-0.13673486
157	0x3cd7704c	0.026298665
158	0xbe3d800c	-0.18505877
159	0x3dcf73fb	0.101295434
160	0x3e97f989	0.29682568
161	0x3e945f7c	0.289791
162	0x3e791b29	0.24326767
163	0x3e306857	0.17227302
164	0x3ddb47cd	0.10707054
165	0x3e2e7926	0.17038402
166	0x3e780974	0.24222356
167	0x3e531855	0.2061475
168	0xbde6ea88	-0.11275202
169	0xbe303bd6	-0.17210326
170	0xbcf3d889	-0.029766338
171	0x3e7ab18d	0.24481793
172	0x3e85c2b9	0.26125124
173	0x3ee54280	0.44777298
174	0x3d93fc63	0.07225873
175	0x3ec82f78	0.39098716
176	0x3d5d35e1	0.05400646
177	0x3ea36a98	0.31917262
178	0x3eed9cf3	0.46408805
179	0x3e9d042c	0.30667245
180	0x3e568143	0.20947747
181	0x3ea8d74a	0.32976753
182	0xbe13e97e	-0.14444539
183	0x3eadadf7	0.33921787
184	0x3eeeb38d	0.4662136
185	0x3ef7be68	0.48387456
186	0x3f9d5878	1.2292624
187	0x3d94b7a3	0.072615884
188	0xbe454b12	-0.19266918
189	0xbe74b786	-0.23898134
190	0xbd828476	-0.06372921
191	0x3ef5b05c	0.47986114
192	0xbe96b731	-0.2943664
193	0x3e46bab6	0.19407162
194	0xbea438e5	-0.32074657
195	0xbdac968f	-0.08427154
196	0xbd576af8	-0.052592248
197	0x3e19c20f	0.15015434
198	0xbda35bea	-0.079765156
199	0x3eac47fc	0.3364867
200	0x3defb8d4	0.11705175
201	0x3df833f2	0.12119283
202	0x3eaf42bc	0.34230602
203	0x3ecbc04c	0.39795148
204	0xbf9f0949	-1.2424709
205	0x3e3d606f	0.18493818
206	0xbeaf51fa	-0.3424223
207	0x3e33e613	0.17568235
208	0x3eb27d23	0.34861097
209	0xbe10fba4	-0.14158493
210	0x3f4c1f51	0.79735285
211	0xbd9ba250	-0.07599318
212	0xbc144a3f	-0.009050905
213	0x3df69276	0.12039654
214	0xbbacaf24	-0.005269902
215	0x3d6872cb	0.0567501
216	0x3e411d3f	0.18858813
217	0x3e108b81	0.14115717
218	0x3f09f4e9	0.5388933
219	0x3e0a35ec	0.13497132
220	0x3e95d402	0.29263312
221	0x3e197c22	0.14988759
222	0xbea2dcc2	-0.3180905
223	0xbdb9eebe	-0.090787396
224	0xbda39d42	-0.07988979
225	0x3eb85696	0.3600356
226	0x3ed8bbb4	0.42330706
227	0xbdfde9a6	-0.123980805
228	0x3e0b0713	0.13576917
229	0x3edab8b8	0.42719054
230	0xbe81eb8f	-0.2537503
231	0x3e816aa8	0.25276685
232	0x3e0641e2	0.1311107
233	0x3f0d1123	0.55104274
234	0xbdd42386	-0.10358338
235	0x3da295e8	0.079387486
236	0x3ef6d27e	0.48207468
237	0xbeba3584	-0.36368954
238	0xbd91f39a	-0.071265414
239	0x3e68f5b9	0.22749986
240	0x3e876a1d	0.26448146
241	0xbeae6285	-0.3405954
242	0x3d84fd1c	0.06493589
243	0x3ddf0420	0.10889459
244	0xbde4266d	-0.11140142
245	0x3f105224	0.56375337
246	0x3ee85d36	0.45383614
247	0x3ddf33a6	0.10898523
248	0xbdd16cce	-0.10225831
249	0x3e3a38ff	0.18185805
250	0x3ec37295	0.38173357
251	0x3f65adf0	0.8971853
252	0x3e71a322	0.23597386
253	0x3e64c6dc	0.22341484
254	0x3d047a8f	0.032343443
255	0x3e76e97d	0.24112506

fc2.bias f4 [256]
0	0x3ef6ddae	0.48216003
1	0x3c806cd3	0.015676891
2	0xbe23f713	-0.1601222
3	0xbe46cd6a	-0.19414297
4	0x3dac31da	0.08407946
5	0xbe5189f5	-0.20462783
6	0xbd693a32	-0.056940265
7	0xbe36a0a7	-0.17834722
8	0xbe3eb8f5	-0.18625243
9	0xbe2474b8	-0.1606015
10	0xbe19d71e	-0.15023467
11	0xbd77cf6e	-0.060500555
12	0x3eb26600	0.34843445
13	0xbdd9580e	-0.10612498
14	0xbe5622dc	-0.20911735
15	0xbe10a347	-0.14124785
16	0xbe42607b	-0.18982117
17	0xbe38be31	-0.18041302
18	0x3a49f4fe	0.0007704048
19	0xbd8639d9	-0.06554002
20	0xbe463d08	-0.19359219
21	0x3eaa2e43	0.3323842
22	0x3ea73c36	0.32663125
23	0xbdfcad26	-0.12337713
24	0xbdf34ce2	-0.118798986
25	0xbd1fbda0	-0.0389992
26	0xbe31a13b	-0.17346661
27	0xbe51b085	-0.20477493
28	0x3c9977b8	0.018733844
29	0xbe5c2d8c	-0.2150175
30	0xbe674a96	-0.22587046
31	0xbe61f4c9	-0.22066034
32	0xbe0c4365	-0.13697584
33	0x3f035138	0.51295805
34	0xbe3843a0	-0.17994547
35	0xbe70ba94	-0.23508674
36	0x3f03ddb5	0.51510173
37	0x3dfb6b45	0.122763194
38	0xbd4e6c6b	-0.050396364
39	0x3734f215	1.07852e-05
40	0x3ee0aeab	0.4388326
41	0xbe295ac6	-0.16538534
42	0xbe5b5f0c	-0.21422976
43	0xbe554eeb	-0.20830886
44	0xbe127b7a	-0.14304915
45	0x3c04fffc	0.008117672
46	0x3ef5f65b	0.48039517
47	0xbe58f1ab	-0.21185939
48	0xbe1022ce	-0.14075777
49	0x3ee859ba	0.45380956
50	0xbe37be7c	-0.17943758
51	0xbe30e826	-0.17276058
52	0x3f080d74	0.5314553
53	0x3ad422b1	0.0016184655
54	0x3eb1bf4f	0.3471627
55	0x3ee1d65c	0.44108856
56	0xbe1dcdc2	-0.15410522
57	0xbe189151	-0.14899184
58	0xbd15195a	-0.03640113
59	0x3d5d385f	0.054008838
60	0x3eddd327	0.4332516
61	0xbe2615f7	-0.16219316
62	0xbc864b97	-0.016393466
63	0x3b8dfb4a	0.0043329345
64	0x3ec20579	0.378948
65	0x3ebc8cee	0.3682627
66	0xbe0c28d4	-0.1368745
67	0x3ea157f6	0.3151242
68	0xbd3b87e7	-0.045783903
69	0xbe6e2fe7	-0.23260461
70	0xbe4533a8	-0.19257987
71	0x3d30cff7	0.04316708
72	0xbe835c55	-0.2565638
73	0xbe800e64	-0.2501098
74	0x3ee9fd0d	0.45700875
75	0xbe512df7	-0.2042769
76	0xbe24ab19	-0.16080894
77	0x3b171d3a	0.0023058192
78	0x3ec891ed	0.39173833
79	0xbc8e0d5c	-0.017340355
80	0x3ee90b18	0.45516276
81	0xbe4c02df	-0.1992297
82	0xbe593cbd	-0.21214576
83	0xbe607c26	-0.21922359
84	0x3e86562b	0.26237616
85	0xbdc30e47	-0.095242076
86	0xbe6559cb	-0.22397535
87	0xbd884159	-0.06653089
88	0xbe30d8c3	-0.17270188
89	0x3d60275f	0.054725047
90	0x3eb97985	0.36225525
91	0xbd909ebb	-0.070615254
92	0x3eb13e6c	0.34617937
93	0xbe3029f5	-0.17203505
94	0x3e8ebd3b	0.27878746
95	0xbe11932c	-0.14216298
96	0x3ec99ea1	0.39378837
97	0xbe42e927	-0.19034253
98	0xbe25dde0	-0.1619792
99	0xbe3c75d2	-0.1840432
100	0xbe188ed8	-0.1489824
101	0xbc46f022	-0.012142213
102	0x3e8d4a50	0.27595758
103	0xbb590f0f	-0.0033120548
104	0xbdf555de	-0.119792685
105	0xbe288d26	-0.16460094
106	0xbd022f63	-0.031783473
107	0xbe187d37	-0.14891516
108	0xbe5fe9db	-0.21866553
109	0x3e0c4c20	0.13700914
110	0xbe1dce94	-0.15410835
111	0xbe19e519	-0.150288
112	0x3e417dc1	0.18895628
113	0x3c283a44	0.010267798
114	0xbe12f8ce	-0.14352724
115	0x3dd885d2	0.10572399
116	0x3af1f288	0.0018459121
117	0x3f00fab0	0.5038252
118	0x3ee10abf	0.4395351
119	0x3ea4e742	0.32207686
120	0xbe1b9029	-0.15191711
121	0x3eb47a8a	0.3524974
122	0x3d1bd88c	0.038048312
123	0xbe41a2ee	-0.18909809
124	0x3cafc07e	0.021454092
125	0xbe5ccbbc	-0.21562093
126	0xbe796d5d	-0.24358125
127	0x3e9ee581	0.31034473
128	0x3e8a90b4	0.27063525
129	0xbe4b9b52	-0.19883469
130	0xbbcf1787	-0.0063199433
131	0xbe760e70	-0.24028945
132	0xbce0fced	-0.027464354
133	0x3e76c186	0.24097261
134	0x3ea67ff0	0.32519484
135	0xbd1787ff	-0.03699493
136	0x3cda0120	0.026611865
137	0xbe4e5a92	-0.20151737
138	0x3ba435e9	0.0050113094
139	0x3ebbd4e9	0.36685875
140	0x3ef4a700	0.4778366
141	0xbe1488e7	-0.14505349
142	0x3d4d5e9f	0.050139066
143	0xbdfbcd85	-0.12295059
144	0xbd62935b	-0.05531631
145	0xbe24e308	-0.1610223
146	0xbe6553c7	-0.2239524
147	0xbe4ee63b	-0.20205013
148	0xbaf55d4c	-0.0018719821
149	0xbc3e94b5	-0.011632134
150	0xbef51574	-0.4786793
151	0xbe692201	-0.22766878
152	0x3dc3e198	0.09564513
153	0x3ed415cf	0.4142289
154	0xbcda7c6f	-0.026670663
155	0x3af7f3ee	0.0018917301
156	0xbe0117ac	-0.12606686
157	0xbe7c4694	-0.24636298
158	0x3d12f88e	0.03588157
159	0xbe56c2a9	-0.20972694
160	0xbd361181	-0.044450287
161	0x3ebc9116	0.36829442
162	0x3e342cb0	0.17595172
163	0x3f045f3f	0.51707834
164	0xbe142aed	-0.144695
165	0xbe41cecd	-0.18926544
166	0x3d55e8d8	0.05222401
167	0x3e06c546	0.13161191
168	0xbe19bc17	-0.15013157
169	0xbe835793	-0.2565275
170	0x3d38ed42	0.04514814
171	0xbd723ecc	-0.05914192
172	0xbbee3d5e	-0.007270499
173	0xbcf2e7b3	-0.029651498
174	0x3f181e74	0.5942147
175	0x3e74c533	0.2390335
176	0xbe2fab0c	-0.17155093
177	0x3f02f38a	0.5115286
178	0xbc850b76	-0.016240817
179	0x3eddfe7e	0.43358225
180	0xbe41b466	-0.18916473
181	0xbe48ba00	-0.19602203
182	0xbe5c3a41	-0.21506597
183	0xbe24ed34	-0.16106111
184	0xbe391b99	-0.18076934
185	0xbc885656	-0.01664273
186	0xbe4bf8af	-0.19919084
187	0xbe451411	-0.19245936
188	0xbe47125e	-0.194406
189	0xbe0002ac	-0.12501019
190	0xbe3e276f	-0.1856973
191	0x3ee81a6e	0.45332664
192	0xbdbbb4fe	-0.09165381
193	0xbe8022ca	-0.25026542
194	0xbe61216e	-0.21985409
195	0x3cbbec81	0.022939922
196	0xbe7d5440	-0.2473917
197	0x3c66535d	0.014057961
198	0xbe3167fc	-0.17324823
199	0xbe4d280c	-0.20034808
200	0xbd2e1736	-0.042502604
201	0x3d33a909	0.043862376
202	0x3c94f3f4	0.018182732
203	0x3b354f3b	0.0027665633
204	0xbe4d2e3b	-0.20037167
205	0xbe53a4fe	-0.20668408
206	0x3f017978	0.5057597
207	0xbde97616	-0.11399476
208	0xbe4e11c8	-0.2012397
209	0xbe5cc999	-0.21561278
210	0xbe78e171	-0.24304749
211	0xbcdc33d3	-0.02688018
212	0xbe6aff8b	-0.22949044
213	0xbe51569a	-0.20443192
214	0xbd6cc0ab	-0.05780093
215	0xbe4c3364	-0.19941479
216	0xbe784df9	-0.24248494
217	0xbe055ffe	-0.130249
218	0xbe1bfe4b	-0.15233724
219	0xbe566ffa	-0.20941153
220	0x3d1f7182	0.03892661
221	0x3cb324f4	0.021868207
222	0xbe30b1f5	-0.17255385
223	0x3f08dd39	0.5346256
224	0xbe21ff0b	-0.15819947
225	0xbceb1dad	-0.028700674
226	0xbd803a4c	-0.06261119
227	0x3eaa68d7	0.3328311
228	0xbb028526	-0.0019915788
229	0xbd7d02d6	-0.061770283
230	0x3ecea0a6	0.4035694
231	0xbcdffa61	-0.02734107
232	0xbe13abcf	-0.14421009
233	0xbd7f5f40	-0.062346697
234	0xbd5d8857	-0.054085102
235	0xbd817956	-0.06321971
236	0x3eb50723	0.35357007
237	0xbe355cec	-0.17711228
238	0xbd40911f	-0.0470134
239	0x3ebb69ea	0.36604244
240	0x3d0049ea	0.03132049
241	0xbe54bf9a	-0.20776215
242	0xbe08e749	-0.13369478
243	0xbde5aa06	-0.1121407
244	0x3eb5bc89	0.35495403
245	0xbe5565af	-0.2083957
246	0xbd462943	-0.048379194
247	0xbe11a152	-0.14221695
248	0xbe1bdbc6	-0.15220556
249	0x3e884c35	0.2662064
250	0xbdf290f0	-0.11844051
251	0xbcbc1add	-0.022962028
252	0x3f02e009	0.511231
253	0x3e87ece7	0.2654793
254	0xbe6778c3	-0.2260466
255	0x3ed8e84e	0.42364734

q.weight f4 [1, 256]
0	0x3f5d32c3	0.8640558
1	0x3d0cb39d	0.03435098
2	0xbeaf38fd	-0.34223166
3	0xbe8aa03e	-0.2707538
4	0x3fc93014	1.5717797
5	0xbeb3dbd5	-0.35128656
6	0x3cdb14e3	0.026743358
7	0xbe7aa464	-0.24476773
8	0xbe975489	-0.29556683
9	0xbe8b5e53	-0.272204
10	0xbea6f63d	-0.3260974
11	0x3ca15386	0.019693147
12	0x4005aa25	2.0885098
13	0x403edbe2	2.9821706
14	0xbe868d7c	-0.2627982
15	0xbe90f689	-0.2831309
16	0xbe8c7b80	-0.27437973
17	0xbe946c1d	-0.28988734
18	0x3d4007dd	0.0468825
19	0x3c5acc79	0.013354414
20	0xbeb2899d	-0.34870616
21	0x403c1117	2.938543
22	0x3f2c0762	0.67198765
23	0xbe707869	-0.23483433
24	0xbe6f8bb5	-0.23393138
25	0x3c7bbb1e	0.015364436
26	0xbe885441	-0.2662678
27	0xbe9e2682	-0.30888754
28	0x3cda125f	0.026620088
29	0xbe971763	-0.2951003
30	0xbeaec851	-0.34137204
31	0xbe8fc34e	-0.28078693
32	0xbebc0666	-0.36723632
33	0x4012b722	2.2924275
34	0xbe8f3f3d	-0.27977934
35	0xbe7cdc3e	-0.2469339
36	0x3fe0ea7b	1.7571558
37	0xbf6f80e5	-0.9355605
38	0x3d27cd17	0.040967073
39	0x3b78a0ab	0.0037937562
40	0x3fbd7aa0	1.4803047
41	0xbe95d156	-0.29261273
42	0xbea2b8ad	-0.3178152
43	0xbeae6e88	-0.34068704
44	0xbe76a9b7	-0.24088179
45	0x3cb3f120	0.021965563
46	0x40275f8d	2.615207
47	0xbe69d90d	-0.22836705
48	0xbe80b61a	-0.25138932
49	0x3fb9cf22	1.4516337
50	0xbe7aa479	-0.24476804
51	0xbe90c33a	-0.28273946
52	0x3fb01470	1.3756237
53	0x3c3bcd53	0.011462527
54	0x40402850	3.0024605
55	0x3fbe4bfc	1.4866939
56	0xbe5a1cc5	-0.21300037
57	0xbe819e93	-0.25316295
58	0x3cb6b559	0.02230327
59	0x3d61b11c	0.055100545
60	0x3f8124ec	1.0089393
61	0xbea10b9e	-0.31454176
62	0x3ccb2c07	0.024801267
63	0x3d12d302	0.035845764
64	0x3f7b8ca0	0.9826145
65	0x402c13fc	2.6887197
66	0xbe922b3a	-0.28548604
67	0x402363cd	2.5529664
68	0x3d5aea7d	0.05344628
69	0xbea41e6f	-0.3205447
70	0xbe9785fd	-0.29594412
71	0x3d62dad1	0.05538446
72	0xbeb012f1	-0.3438945
73	0xbea07b54	-0.31344092
74	0x3f882d1d	1.0638767
75	0xbe7e0a5e	-0.24808642
76	0xbeae492b	-0.34040198
77	0x3cd2ec4f	0.025747446
78	0x403ccc2c	2.9499617
79	0x3d213575	0.03935762
80	0x40873788	4.2255287
81	0xbe7f6087	-0.24939166
82	0xbea0f92b	-0.314401
83	0xbe96873e	-0.29400057
84	0xbf6592d0	-0.89677143
85	0xbe9707eb	-0.29498228
86	0xbeabd818	-0.33563304
87	0x3bbe050a	0.0057989405
88	0xbeb0e7c4	-0.34551823
89	0x3ca6b903	0.020351892
90	0x3fb50f12	1.4145224
91	0x3c88b2eb	0.016686877
92	0x3f31fdc4	0.6952784
93	0xbe5ce576	-0.21571907
94	0x4004f7fa	2.0776353
95	0xbe678db3	-0.22612648
96	0x3f6fd0b7	0.9367785
97	0xbe817bab	-0.25289664
98	0xbec4e4b7	-0.38455746
99	0xbe713a6f	-0.23557447
100	0xbe8bca81	-0.27302936
101	0xbae6d972	-0.0017612411
102	0xbf78ec87	-0.9723591
103	0x3c8b2d32	0.016989324
104	0xbea67fc0	-0.3251934
105	0xbe6d12dd	-0.23151727
106	0x3c8cf22f	0.017205326
107	0xbe97a0a3	-0.29614744
108	0xbe99c787	-0.3003504
109	0xbf4fd092	-0.8117763
110	0xbe6313e5	-0.22175558
111	0xbe90e5b7	-0.2830026
112	0x3fba7f77	1.4570149
113	0x3d69bddf	0.05706584
114	0xbeb2f118	-0.34949565
115	0xbf577100	-0.841568
116	0x3d3599ab	0.044336002
117	0x3faa0209	1.3281871
118	0x3f7a1970	0.97695065
119	0x3ff11b25	1.8836409
120	0xbe930e7e	-0.28721994
121	0x4014748c	2.3196135
122	0x3cc9ac5b	0.024618318
123	0xbe9f27c8	-0.31085038
124	0xbeed18c8	-0.4630797
125	0xbeb70091	-0.3574262
126	0xbea2d887	-0.31805822
127	0x3f74131f	0.95341676
128	0x3fa43e33	1.2831482
129	0xbe7fac1c	-0.24967998
130	0x3cf95033	0.03043375
131	0xbeaac547	-0.33353636
132	0x3bbe6585	0.005810442
133	0x40453bbe	3.0817714
134	0x401901f0	2.3907433
135	0x3ae0bcb2	0.0017146079
136	0x3d4f0a49	0.050546918
137	0xbebd38bf	-0.36957356
138	0x3cbb79b5	0.022885183
139	0x3fbd96f0	1.4811687
140	0x402e1864	2.7202387
141	0xbe9996ae	-0.29997772
142	0x3d3caa8b	0.04606108
143	0xbe68330b	-0.22675721
144	0x3c2c0bb3	0.010500836
145	0xbe866a21	-0.26252845
146	0xbea13a3a	-0.31489736
147	0xbe99ef03	-0.30065164
148	0x3cd9d7e1	0.026592197
149	0x400671c0	2.1006927
150	0xc0739bd6	-3.8063865
151	0xbe9349ad	-0.28767148
152	0x3faa2976	1.3293903
153	0x40120806	2.2817397
154	0x3cde114b	0.027107855
155	0x3cfd3502	0.030909065
156	0xbe9fdfc5	-0.3122541
157	0xbe94ed63	-0.29087362
158	0x3d436d84	0.047711864
159	0xbec571e3	-0.3856345
160	0x3c97943c	0.0185033
161	0x4012c11d	2.2930367
162	0x3ed9020a	0.42384368
163	0x3fb8fc95	1.4452082
164	0xbe71bc39	-0.23606957
165	0xbea0ad11	-0.3138204
166	0x3ca919a8	0.020642117
167	0xbfbbd671	-1.4674817
168	0xbea7a35d	-0.32741824
169	0xbe903352	-0.28164154
170	0x3ce9e233	0.028550243
171	0x3cc5bb58	0.024137184
172	0xbf03dcb1	-0.51508623
173	0x3cbfd26c	0.023415767
174	0x400296a3	2.0404441
175	0x3f3e9df4	0.7445977
176	0xbea65a7d	-0.32490912
177	0x400eabd5	2.2292378
178	0x3d4583fb	0.04822157
179	0x3f3b632b	0.73198193
180	0xbe91a65b	-0.28447232
181	0xbe8d4f15	-0.27599397
182	0xbea4ba58	-0.3217342
183	0xbeb0eed6	-0.34557217
184	0xbe9202b2	-0.2851768
185	0x3d5ebe1a	0.054380514
186	0xbe8ef528	-0.27921414
187	0xbe483e52	-0.19555023
188	0xbead282b	-0.33819708
189	0xbe72a6c7	-0.23696433
190	0xbea524e8	-0.3225472
191	0x3f6792a0	0.90458107
192	0xbe85fca9	-0.26169327
193	0xbea99795	-0.3312346
194	0xbe652b2e	-0.22379753
195	0x3b70549f	0.0036671532
196	0xbe9657e4	-0.2936393
197	0x3d5572f1	0.05211157
198	0xbe7fc4d4	-0.24977428
199	0xbea08bcf	-0.31356665
200	0xba9b5bbb	-0.0011852899
201	0x3d41c8bd	0.04731058
202	0x3d61d4a5	0.055134434
203	0x3c2dc474	0.01060592
204	0xbeb0839e	-0.34475416
205	0xbe9c7d04	-0.3056413
206	0x3f4f4223	0.8096029
207	0xbe94a654	-0.29033148
208	0xbec53be2	-0.3852225
209	0xbeaa791d	-0.33295527
210	0xbeaff3db	-0.34365734
211	0xbb6641d5	-0.0035134454
212	0xbe873ca0	-0.2641344
213	0xbe5c664b	-0.21523397
214	0x3d1b695d	0.03794228
215	0xbe973e16	-0.29539555
216	0xbe9ea482	-0.30984885
217	0xbe881b17	-0.26583168
218	0xbe887d38	-0.26658034
219	0xbea02678	-0.3127935
220	0x40852a98	4.1614494
221	0xbb3ce45e	-0.002882264
222	0xbe8c7f44	-0.27440846
223	0x3fd87faa	1.691396
224	0xbe93f5bf	-0.28898427
225	0x3b806acf	0.0039189826
226	0x3be2ad08	0.0069175996
227	0x3fb3284f	1.3996676
228	0x3c5b4902	0.013384106
229	0x3b3403e6	0.0027468144
230	0x3f4613d9	0.77374035
231	0x3ca1b9b8	0.019741878
232	0xbe56915a	-0.20953885
233	0x3c2fc4c0	0.010728061
234	0x3d6caa78	0.05777976
235	0x3c433b36	0.011915972
236	0x3f45b1d7	0.7722449
237	0xbebcad6b	-0.36851057
238	0x3d4f5abd	0.050623644
239	0x3f59de4e	0.85104835
240	0x3d24b3f4	0.04021068
241	0xbe8af917	-0.27143165
242	0xbe7c5e37	-0.24645315
243	0xbe8b4484	-0.2720071
244	0x3f88b74c	1.0680938
245	0xbeac8139	-0.3369234
246	0x3d4ed930	0.050500095
247	0xbe70d736	-0.23519596
248	0xbea290e7	-0.31751177
249	0x401b11f3	2.4229705
250	0xbe7517f3	-0.23934917
251	0x3d5a6694	0.053320482
252	0x3f8aad5f	1.0834159
253	0xbf5a9f4c	-0.8539932
254	0xbe92a59a	-0.2864197
255	0x3f66e112	0.9018718
