data/pendulum/models/lsac-pendulum-actor.pth (torch, 272720 bytes, 6 tensors)

fc1.weight f4 [256, 3]
-0.23067553 0.49904674 -0.1946447 -0.13087265 0.27559686 0.26948538 0.51181775 0.31141254
0.04981249 0.5497418 -0.08387423 0.34799123 0.016376194 0.43487427 -0.46596813 -0.56442636
-0.61183614 -0.26392275 -0.4402364 -0.19960019 0.4139224 0.27846658 0.66473544 0.3590651
-0.28898722 0.7559386 0.15553565 -0.0005157252 -0.71360236 -0.49494615 -0.19267245 0.6424911
0.13851048 -0.35207254 0.046894874 -0.56326693 0.44389415 0.20926094 0.57051545 -0.37768644
-0.5942571 0.3004503 0.43200713 0.30461463 -0.345331 0.62577426 -0.63759273 -0.3578954
0.21996015 -0.015720008 -0.41085857 0.35480335 -0.024138605 0.1733599 -0.19764407 -0.0048112823
-0.20492928 0.30334625 -0.31569707 0.26054344 0.21249254 0.5511775 0.39702788 0.0970342
-0.5420934 0.44472748 0.5748236 0.0074344273 0.5458854 -0.53208023 0.4920743 0.10008097
-0.3317521 -0.58542126 -0.092483066 0.383913 0.09394986 -0.114273585 0.20792922 0.101444654
-0.5693376 -0.16000667 -0.38412583 0.5553399 0.08794683 -0.83743846 -0.19994439 0.35352013
-0.10079244 -0.05434651 -0.45138606 -0.68188053 0.14037664 0.43004215 -0.52391887 -0.5337937
-0.31262943 -0.12082514 0.5805158 -0.3428314 -0.13484977 0.015853614 0.1531784 0.26965284
-0.0037166914 0.19385207 0.30322868 0.5471259 -0.40887347 0.19335966 -0.036171738 0.10527497
0.65603024 0.086975396 -0.02690048 -0.12341718 0.48482025 -0.06340565 0.019078074 0.067864984
-0.02011499 0.56351554 0.31285816 0.18502676 -0.3328263 -0.085371695 0.35581005 -0.48285577
-0.10813502 -0.21279028 0.29124928 0.34303948 0.346984 0.71925646 0.18080884 0.05221975
-0.331577 0.14144567 0.43640968 0.20305601 0.16781054 0.38663217 0.4068547 0.09044127
-0.18832742 -0.53527445 -0.5731372 -0.2640573 0.22285736 0.40347487 0.35686976 0.22991976
-0.46128458 -0.501092 0.4696049 0.3295137 0.20606747 -0.6528366 -0.30382752 -0.5034264
-0.28094116 0.35026935 0.60904694 -0.31928262 -0.09189205 -0.18942991 -0.45506138 0.36974114
-0.18466151 0.38530144 -0.33389455 0.25117594 0.5581849 0.109371066 0.055156797 0.27897358
-0.5491494 -0.32462844 0.3013478 -0.0118909385 0.44589382 0.30669472 -0.26215327 0.12996045
0.20828466 0.30179733 0.44509217 -0.56269395 -0.059911627 0.25321615 -0.028719079 0.5030667
-0.17221498 0.47245526 0.52827215 0.511862 -0.14417471 0.119845875 0.36458072 -0.16198169
-0.33248603 -0.56049305 0.065016724 -0.10267911 -0.01055954 0.29957148 -0.4846794 0.38764504
0.1500248 -0.54292756 -0.03604125 0.68924737 0.09770889 -0.07140212 -0.46003646 -0.31125176
-0.10606349 -0.48468924 0.18084991 -0.40470663 0.38685936 0.27976164 0.13629538 0.26697233
0.46592912 0.6187949 0.2912741 -0.21216545 0.5898985 0.08837762 0.34638938 0.16584052
-0.5748031 0.33747995 -0.46436182 -0.16632046 -0.4002541 -0.03271619 0.5594195 -0.16192877
0.37985593 0.18947943 -0.112908386 -0.23910719 0.3257587 0.4219202 0.39763182 0.48194215
0.33551806 0.4840332 0.2973066 0.5537406 -0.3061465 -0.9148812 -0.20731188 -0.07417471
00000000: 3536 6cbe 0e83 ff3e f150 47be 7b03 06be
00000010: 081b 8d3e fdf9 893e 7d06 033f 7771 9f3e
00000020: 2e08 4c3d e1bb 0c3f 41c6 abbd e82b b23e
00000030: 5e27 863c d7a7 de3e 6093 eebe 3f7e 10bf
00000040: 4ba1 1cbf e220 87be aa66 e1be fe63 4cbe
00000050: a3ed d33e 2c93 8e3e 1a2c 2a3f 61d7 b73e
00000060: 22f6 93be 3185 413f bd44 1f3e bb31 07ba
00000070: a5ae 36bf 9569 fdbe ed4b 45be 4c7a 243f
00000080: b1d5 0d3e da42 b4be d714 403d 4332 10bf
00000090: 1846 e33e 8048 563e 4d0d 123f 1e60 c1be
000000a0: 3c21 18bf 9fd4 993e 0a30 dd3e 73f6 9b3e
000000b0: 3acf b0be be32 203f 4739 23bf 113e b7be
000000c0: 3c3d 613e 3fc7 80bc 0e5c d2be c9a8 b53e
000000d0: 53be c5bc 4285 313e 3563 4abe f6a7 9dbb
000000e0: fbd8 51be 3350 9b3e 0ca3 a1be f365 853e
000000f0: a597 593e f819 0d3f 3d47 cb3e deb9 c63d
00000100: a2c6 0abf 52b3 e33e a427 133f 7f9c f33b
00000110: 25bf 0b3f 6936 08bf 2af1 fb3e 40f7 cc3d
00000120: 69db a9be 2bde 15bf c367 bdbd 3f90 c43e
00000130: c968 c03d 4508 eabd 66eb 543e 37c2 cf3d
00000140: 1cc0 11bf cad8 23be 24ac c4be c12a 0e3f
00000150: 781d b43d 5e62 56bf 39be 4cbe 9700 b53e
00000160: 446c cebd 729a 5ebd 131c e7be b98f 2ebf
00000170: e5be 0f3e 7c2e dc3e 8c1f 06bf b4a6 08bf
00000180: f710 a0be 2c73 f7bd af9c 143f 9987 afbe
00000190: 0f16 0abe 70df 813c ccda 1c3e f00f 8a3e
000001a0: bc93 73bb 2881 463e ca40 9b3e 7110 0c3f
000001b0: dd57 d1be 1300 463e d128 14bd 679a d73d
000001c0: 99f1 273f 2820 b23d 655e dcbc 25c2 fcbd
000001d0: 5c3a f83e d2da 81bd 9f49 9c3c ccfc 8a3d
000001e0: 31c8 a4bc 8e42 103f f22e a03e a877 3d3e
000001f0: 3568 aabe 5bd7 aebd bc2c b63e df38 f7be
00000200: e575 ddbd b2e5 59be a01e 953e dfa2 af3e
00000210: e3a7 b13e 3121 383f f425 393e 60e4 553d
00000220: 76c4 a9be 22d7 103e 1771 df3e eaed 4f3e
00000230: 87d6 2b3e a7f4 c53e 424f d03e 4639 b93d
00000240: e7d8 40be bf07 09bf 1fb9 12bf 8532 87be
00000250: b834 643e 4294 ce3e a2b7 b63e 1670 6b3e
00000260: 7e2d ecbe 9147 00bf 0e70 f03e 05b6 a83e
00000270: 5a03 533e 4d20 27bf 488f 9bbe 8de0 00bf
00000280: 85d7 8fbe 8156 b33e 80ea 1b3f 0379 a3be
00000290: e631 bcbd eaf9 41be cefd e8be b64e bd3e
000002a0: e817 3dbe 3b46 c53e 3af4 aabe 229a 803e
000002b0: 35e5 0e3f f0fd df3d 18ec 613d a0d5 8e3e
000002c0: 0e95 0cbf b335 a6be 424a 9a3e 36d2 42bc
000002d0: 324c e43e 1707 9d3e f438 86be 5a14 053e
000002e0: 9348 553e 2e85 9a3e 1fe3 e33e b60c 10bf
000002f0: e565 75bd 8ca5 813e 4644 ebbc fbc8 003f
00000300: 2059 30be a8e5 f13e d83c 073f 6309 033f
00000310: 89a2 13be c171 f53d 53aa ba3e 87de 25be
00000320: 9c3b aabe 797c 0fbf 7d27 853d 6d49 d2bd
00000330: ec01 2dbc 6f61 993e e627 f8be 6979 c63e
00000340: 1aa0 193e 4dfd 0abf fd9f 13bd 8472 303f
00000350: 991b c83d 463b 92bd e689 ebbe 645c 9fbe
00000360: d137 d9bd 3029 f8be b830 393e b535 cfbe
00000370: 6e12 c63e eb3c 8f3e 0491 0b3e 99b0 883e
00000380: 438e ee3e 5869 1e3f e121 953e e641 59be
00000390: 9703 173f 53ff b43d f359 b13e 19d2 293e
000003a0: 4c26 13bf 2cca ac3e d5c0 edbe e94f 2abe
000003b0: 1bee ccbe 6901 06bd 1e36 0f3f a8d0 25be
000003c0: 7a7c c23e e506 423e 833c e7bd 84d8 74be
000003d0: d8c9 a63e ed05 d83e 6696 cb3e 1fc1 f63e
000003e0: 06c9 ab3e 33d3 f73e 9238 983e f2c1 0d3f
000003f0: 3cbf 9cbe a835 6abf 9149 54be e9e8 97bd

fc1.bias f4 [256]
-0.33264324 -0.073346615 0.57656413 -0.6118593 0.32008538 0.20453343 0.19348845 -0.342852
0.014786035 -0.08930598 -0.045748387 0.33804712 0.38404167 0.18353796 -0.18107547 -0.09972311
-0.61861175 -0.64677614 -0.20048131 0.107079476 0.3367523 0.37089646 0.15080075 0.51580745
0.5283556 -0.5145012 -0.33039778 0.31034175 -0.40158504 0.53315616 0.31874046 -0.17488363
-0.08193752 0.3482356 0.37079355 -0.20226862 -0.28092247 0.23332126 0.32389152 0.5760058
0.14800438 0.4702483 0.0057087387 -0.14157434 0.21218154 0.23907954 -0.47544456 -0.13276148
-0.09892967 -0.16867672 -0.5091094 -0.41223466 0.23782966 0.1423398 -0.31185764 0.29699823
0.43490258 0.04135291 0.21675536 0.1334647 0.037382953 0.19315206 0.47132158 0.43126222
-0.059875015 -0.2018849 0.27864945 -0.024318043 0.10528412 0.16701795 0.0144846765 -0.13208847
0.035523135 0.502505 0.23401274 0.524348 -0.11666781 0.1860676 -0.40190017 -0.4765853
0.19522527 -0.14026396 -0.45623654 0.03994044 -0.24982007 -0.5873014 0.3977374 0.38013557
-0.5739671 -0.1594748 0.015573027 -0.028237157 -0.2505034 0.5542989 0.44518393 -0.3549709
0.470579 0.18000251 -0.047812674 -0.4982357 -0.48836693 0.55306953 0.045368787 0.20434205
0.40276092 0.2724068 0.12114649 0.2881895 -0.0433374 0.042974744 0.024578711 -0.24826941
-0.058488645 0.34777823 -0.25119415 -0.056431748 -0.1717063 0.52629536 -0.53504753 -0.1998758
0.22031732 0.0420085 0.38320774 -0.36612648 -0.5715167 0.12345437 0.6004177 -0.012196829
-0.44494978 -0.27631906 0.5929402 0.1482151 -0.4791422 -0.32302254 0.329341 -0.23625343
0.038551804 -0.043158438 0.26259694 -0.0811041 0.32797092 -0.431925 0.18419763 -0.4866847
-0.3377049 -0.4110533 0.34127083 -0.45436308 0.4084423 0.23173851 0.078941375 -0.16643696
-0.2909724 -0.40362126 0.5020234 -0.20310497 0.37571526 0.23869817 0.06622769 -0.5218829
-0.11563781 -0.18349712 0.504794 0.26907358 0.1381824 -0.06381148 0.033439897 -0.45176896
-0.12416334 0.54566807 -0.40746453 0.3032047 -0.008169224 0.26843092 -0.053794414 -0.20322314
0.0857038 0.33778873 0.31917727 0.22933455 0.005970929 0.16620637 0.09214577 -0.19932288
-0.1302941 0.581913 -0.053833153 -0.17539605 -0.2581877 -0.20339681 0.5240097 -0.01963785
0.024596663 -0.010511583 -0.4070729 -0.1700338 0.38904613 -0.6317718 0.27017403 0.060173478
-0.48887178 0.5660236 0.03239255 0.02980243 -0.10481618 0.1973781 -0.3102145 0.10838069
0.23863497 0.20191363 -0.2667193 0.030296214 0.24090777 0.16243963 -0.3338786 0.2532493
0.12738279 0.40442824 -0.42416313 0.17324354 0.4506782 -0.054060113 0.43175942 0.38511065
0.46635652 -0.6220275 0.542108 -0.19057964 -0.2325787 0.52535987 0.17082956 -0.2522052
-0.38417512 -0.10168936 0.26362616 -0.21194977 0.00022324384 -0.17360947 0.5752429 -0.066971354
0.40474293 -0.5624102 0.59577304 -0.056983583 -0.37852156 -0.41729388 -0.31657863 -0.14790945
-0.48157367 0.47099882 0.36567184 -0.20965269 0.16431135 0.22396825 -0.2057289 -0.39221781
00000000: 3750 aabe c036 96bd b599 133f d0a2 1cbf
00000010: 3be2 a33e 3671 513e d621 463e 4c8a afbe
00000020: 2041 723c 0ee6 b6bd a962 3bbd 8314 ad3e
00000030: 1ca1 c43e 60f1 3b3e d96b 39be a13b ccbd
00000040: 575d 1ebf 1f93 25bf f94a 4dbe 7c4c db3d
00000050: cc6a ac3e 24e6 bd3e 836b 1a3e f50b 043f
00000060: 5042 073f 5ab6 03bf e629 a9be 1de5 9e3e
00000070: 8e9c cdbe ec7c 083f f331 a33e b214 33be
00000080: dcce a7bd f04b b23e a7d8 bd3e 811f 4fbe
00000090: 12d5 8fbe c5eb 6e3e 1cd5 a53e 1e75 133f
000000a0: 768e 173e 63c4 f03e 5f10 bb3b ddf8 10be
000000b0: 1e46 593e 44d1 743e 786d f3be a0f2 07be
000000c0: a49b cabd 97b9 2cbe fe54 02bf 6c10 d3be
000000d0: 9e89 733e 86c1 113e ceab 9fbe 2710 983e
000000e0: 8dab de3e ab61 293d 1ef5 5d3e f8aa 083e
000000f0: de1e 193d a7c9 453e 1051 f13e 67ce dc3e
00000100: 813f 75bd eaba 4ebe 24ab 8e3e a236 c7bc
00000110: 339f d73d c106 2b3e 2351 6d3c 3342 07be
00000120: b580 113d 2ba4 003f 09a1 6f3e ac3b 063f
00000130: 88ef eebd 8188 3e3e dcc5 cdbe fd02 f4be
00000140: 22e9 473e 5ba1 0fbe d697 e9be 9698 233d
00000150: d5d0 7fbe 6259 16bf 3da4 cb3e 21a1 c23e
00000160: 82ef 12bf 5d4d 23be 0226 7f3c 9c51 e7bc
00000170: fb41 80be 88e6 0d3f 26ef e33e bfbe b5be
00000180: bbef f03e 9452 383e 39d7 43bd c018 ffbe
00000190: 3b0b fabe f795 0d3f 9fd4 393d 0b3f 513e
000001a0: ae36 ce3e e778 8b3e a71b f83d 938d 933e
000001b0: 8f82 31bd 4906 303d 4b59 c93c 563a 7ebe
000001c0: ca91 6fbd fd0f b23e 859c 80be fa24 67bd
000001d0: c7d3 2fbe 4bbb 063f e0f8 08bf 3eac 4cbe
000001e0: dd9a 613e 1b11 2c3d ce33 c43e ee74 bbbe
000001f0: eb4e 12bf a5d5 fc3d f9b4 193f 35d5 47bc
00000200: 75d0 e3be b179 8dbe eeca 173f b3c5 173e
00000210: 2052 f5be 3663 a5be 629f a83e 6bec 71be
00000220: 7fe8 1d3d e7c6 30bd 1b73 863e e819 a6bd
00000230: ceeb a73e 4625 ddbe 4e9e 3c3e bd2e f9be
00000240: a8e7 acbe 9475 d2be 0dbb ae3e 47a2 e8be
00000250: 591f d13e dc4c 6d3e 04ac a13d 736e 2abe
00000260: 56fa 94be 72a7 cebe 9b84 003f c0fa 4fbe
00000270: c05d c03e 4b6d 743e 62a2 873d 1e9a 05bf
00000280: 84d3 ecbd abe6 3bbe 2e3a 013f 03c4 893e
00000290: b07f 0d3e 98af 82bd 46f8 083d 434e e7be
000002a0: 5949 febd e7b0 0b3f 319f d0be a53d 9b3e
000002b0: 35d8 05bc c76f 893e 8857 5cbd ba19 50be
000002c0: 7985 af3d a5f2 ac3e 346b a33e add6 6a3e
000002d0: c8a7 c33b 0132 2a3e ecb6 bc3d 4c1b 4cbe
000002e0: d16b 05be 40f8 143f 2780 5cbd 069b 33be
000002f0: 2e31 84be 4147 50be 8025 063f 8edf a0bc
00000300: f17e c93c c638 2cbc dc6b d0be 571d 2ebe
00000310: 0e31 c73e ccbb 21bf 4054 8a3e 7778 763d
00000320: 674d fabe ece6 103f 0dae 043d 3a24 f43c
00000330: dea9 d6bd 7c1d 4a3e 6fd4 9ebe b2f6 dd3d
00000340: ba5c 743e 72c2 4e3e 6f8f 88be c42f f83c
00000350: 87b0 763e 9356 263e 23f2 aabe e4a9 813e
00000360: a270 023e 3811 cf3e e92b d9be c166 313e
00000370: 4bbf e63e 236e 5dbd 920f dd3e 392d c53e
00000380: 48c6 ee3e 323d 1fbf 97c7 0a3f 4f27 43be
00000390: 1c29 6ebe fc7d 063f f2ed 2e3e 0a21 81be
000003a0: 9ab2 c4be 8342 d0bd 02fa 863e 5c09 59be
000003b0: 9016 6a39 aec6 31be 1e43 133f 4728 89bd
000003c0: 773a cf3e 1dfa 0fbf 9584 183f 9e67 69bd
000003d0: 94cd c1be 8ba7 d5be 9816 a2be 9375 17be
000003e0: d390 f6be c226 f13e 5739 bb3e 32af 56be
000003f0: 3c41 283e ef57 653e 99aa 52be c6d0 c8be

fc2.weight f4 [256, 256]
-0.004256379 0.008105673 -0.036136966 0.052812144 -0.038069062 0.05795308 -0.061767183 0.061604142
0.012759084 0.010203764 -0.046509955 0.041206922 0.044595763 0.00022798032 -0.03609321 0.02493091
-0.011808664 0.0027340353 0.022721093 0.02875951 0.027726006 -0.01032044 0.016114995 0.04333718
0.02274178 0.03322655 -0.03320768 0.027465463 0.044362225 -0.02836689 0.0005548011 -0.050634123
0.036900237 0.02332805 0.057840407 0.0342654 -0.04058549 0.04588671 0.060030565 -0.018129217
-0.047582395 -0.006523763 -0.031222887 -0.051128216 -0.0038376695 0.030707702 -0.05898761 -0.04846327
-0.028790878 0.0607102 -0.06014575 -0.0019815415 0.009933455 -0.014317036 -0.04431212 -0.012524024
-0.041659474 0.009915388 0.015349574 -0.05339768 0.01935779 -0.029904857 -0.024463553 0.055845775
0.009044133 0.009004995 -0.02778676 -0.031817365 0.0431127 0.03523283 -0.042575214 0.00090549886
-0.041696742 -0.019963859 -0.019183628 0.004916222 -0.036620133 0.024025217 0.022757443 0.039878443
-0.05406337 -0.010983221 -0.004902728 -0.021222368 -0.059720248 -0.0153881535 -0.055874065 0.009259093
-0.03254483 -0.045818467 0.031879153 -0.05303274 -0.04082812 -0.056433618 0.025452636 -0.03616208
-0.052138314 0.06134666 0.01700037 -0.018950881 0.05943735 -0.04689156 -0.051370464 -0.0062933303
0.05582358 -0.0057370514 0.013618261 -0.024571493 -0.060616445 0.049084444 -0.016834825 -0.020270525
0.033801727 0.022256259 -0.05422631 -0.03858134 -0.061960936 -0.051610272 -0.052350998 -0.012613582
-0.04050322 0.053414635 0.03957099 -0.05870524 0.014685266 0.056885876 -0.003979136 -0.043765128
0.0071540326 -0.016151413 0.02333812 0.036787882 0.026929244 0.0043054745 0.008434787 0.038473867
-0.027836263 -0.033794932 0.00044677517 -0.06085279 -0.02484347 -0.0374937 -0.05890215 -0.0028466582
-0.0042677745 -0.010838242 -0.005762991 -0.032734454 0.048264563 -0.0065492974 -0.014284782 -0.05479674
-0.046839416 0.025668077 -0.050702047 -0.015379563 0.03318624 0.043147475 -0.0018764473 -0.015524313
0.046612658 0.03230849 0.048960686 -0.016103445 0.038043104 -0.0143332295 0.028464606 0.03526733
-0.04902016 0.05177389 -0.014127712 0.040135495 0.049864843 -0.023851546 -0.0530376 0.036805537
0.007807903 0.057515964 -0.017800255 -0.017719148 0.042000517 -0.019222217 -0.0010524765 0.022190582
-0.06136792 -0.03649744 -0.04785362 0.009545573 -0.038467884 0.009543143 -0.011735312 -0.049821295
-0.030382186 0.0025471677 -0.035693742 -0.06043515 0.043622524 -0.03741228 -0.024790347 -0.05726718
-0.018738382 0.010243679 -0.022755584 0.0413041 -0.05622952 -0.016773367 -0.053935125 -0.03126137
-0.037856817 -0.00901245 -0.0010460392 0.020801034 -0.05444268 -0.06101043 -0.010254979 0.013367628
-0.04316801 0.008024457 -0.0048706606 -0.013103969 -0.04693353 0.022957407 0.046974577 0.00053626404
0.0012724195 0.055471987 0.02204708 0.054792427 -0.033074632 -0.05134069 -0.0524064 0.040676683
0.039536946 -0.048814345 -0.013508832 -0.016527854 -0.028138908 0.020134002 -0.054576825 0.038291916
0.029215971 -0.04992621 -0.0069880844 -0.027959421 -0.005351417 -0.028504439 -0.0038458556 -0.013838701
-0.055275023 -0.023202427 -0.0144691765 0.02184266 -0.051446438 -0.05097092 -0.034418125 -0.048068605
00000000: 1879 8bbb a8cd 043c 5b04 14bd 8c51 583d
00000010: 4eee 1bbd 3560 6d3d 96ff 7cbd a054 7c3d
00000020: 7a0b 513c b02d 273c 3981 3ebd 97c8 283d
00000030: 0caa 363d 000e 6f39 79d6 13bd e83b cc3c
00000040: 2079 41bc 802d 333b 9621 ba3c 1099 eb3c
00000050: a621 e33c 1017 29bc 9803 843c 5482 313d
00000060: f84c ba3c 9018 083d c704 08bd 40ff e03c
00000070: 2ab5 353d ae61 e8bc 1270 113a ba65 4fbd
00000080: b424 173d 771a bf3c 10ea 6c3d e059 0c3d
00000090: f93c 26bd b4f3 3b3d 9ce2 753d b983 94bc
000000a0: c2e5 42bd 4ac5 d5bb 24c7 ffbc d26b 51bd
000000b0: 6981 7bbb b88e fb3c fe9c 71bd 6c81 46bd
000000c0: d9da ebbc 42ab 783d 645b 76bd c0dc 01bb
000000d0: eebf 223c 0092 6abc a080 35bd 9031 4dbc
000000e0: 20a3 2abd 2774 223c c87c 7b3c 87b7 5abd
000000f0: 3a94 9e3c 08fb f4bc ca67 c8bc 8abe 643d
00000100: d82d 143c b089 133c 0fa1 e3bc ed52 02bd
00000110: f196 303d 4d50 103d 5963 2ebd 005f 6d3a
00000120: 34ca 2abd 3f8b a3bc fc26 9dbc 4218 a13b
00000130: fefe 15bd 88d0 c43c d16d ba3c 9457 233d
00000140: 8d71 5dbd f8f2 33bc 10a7 a0bb 88da adbc
00000150: 389d 74bd 981e 7cbc 34dc 64bd 73b3 173c
00000160: ba4d 05bd 25ac 3bbd b793 023d dc38 59bd
00000170: 633b 27bd f026 67bd 0c82 d03c b01e 14bd
00000180: fc8e 55bd a346 7b3d 5c44 8b3c e13e 9bbc
00000190: 9474 733d 5d11 40bd d669 52bd 4838 cebb
000001a0: 44a7 643d e0fd bbbb 201f 5f3c 284a c9bc
000001b0: f348 78bd c50c 493d 30e9 89bc 5f0e a6bc
000001c0: ae73 0a3d c252 b63c 681c 5ebd 7807 1ebd
000001d0: c0ca 7dbd 4b65 53bd 006e 56bd 33a9 4ebc
000001e0: b4e6 25bd 4ec9 5a3d 3115 223d e874 70bd
000001f0: 789a 703c 2a01 693d 6963 82bb 1043 33bd
00000200: 606c ea3b f84f 84bc 962f bf3c e4ae 163d
00000210: b89a dc3c f014 8d3b 1032 0a3c c696 1d3d
00000220: e008 e4bc 8e6c 0abd 263d ea39 c640 79bd
00000230: 8884 cbbc fe92 19bd 6143 71bd 008f 3abb
00000240: b0d8 8bbb e292 31bc 79d7 bcbb 9014 06bd
00000250: 10b1 453d 7d9b d6bb b80a 6abc 8c72 60bd
00000260: b0da 3fbd dc45 d23c f3ac 4fbd 90fa 7bbc
00000270: 4bee 073d 68bb 303d 20f3 f5ba b059 7ebc
00000280: eaec 3e3d e855 043d 008b 483d 5feb 83bc
00000290: 16d3 1b3d ecd5 6abc 9b2e e93c 7a74 103d
000002a0: 5dc9 48bd dc10 543d eb77 67bc 1e65 243d
000002b0: 143f 4c3d 5164 c3bc f43d 59bd 67c1 163d
000002c0: 70d9 ff3b dc95 6b3d d7d1 91bc bf27 91bc
000002d0: bc08 2c3d e977 9dbc 40f3 89ba 06c9 b53c
000002e0: ee5c 7bbd 577e 15bd 2802 44bd 0965 1c3c
000002f0: 8090 1dbd d85a 1c3c 7745 40bc 6a11 4cbd
00000300: 10e4 f8bc 62ee 263b 9a33 12bd d98a 77bd
00000310: 88ad 323d 9e3d 19bd 2015 cbbc fe90 6abd
00000320: 3c81 99bc 1bd5 273c eb69 babc 7d2e 293d
00000330: ed50 66bd 4d68 89bc 14eb 5cbd ec0b 00bd
00000340: c00f 1bbd f5a8 13bc 401b 89ba ee66 aa3c
00000350: 4aff 5ebd 13e6 79bd 8004 28bc e503 5b3c
00000360: f0d0 30bd 0379 033c 109a 9fbb 08b2 56bc
00000370: 603d 40bd 2c11 bc3c 6a68 403d 1294 0c3a
00000380: 50c7 a63a 9836 633d 149c b43c 066e 603d
00000390: 4479 07bd 9e4a 52bd 18a8 56bd 989c 263d
000003a0: 7ef1 213d 8df1 47bd 2654 5dbc 6c65 87bc
000003b0: 9183 e6bc 10f0 a43c f38b 5fbd fcd7 1c3d
000003c0: 5556 ef3c 6d7f 4cbd 4dfc e4bb 280b e5bc
000003d0: f15a afbb 2482 e9bc c00a 7cbb b8bb 62bc
000003e0: 1068 62bd 0413 bebc 2010 6dbc 61ef b23c
000003f0: 80b9 52bd e2c6 50bd 05fa 0cbd 96e3 44bd

fc2.bias f4 [256]
0.014901198 0.010904929 0.04346957 -0.041039553 0.052657776 -0.06517473 0.020098636 -0.029486418
0.0319319 0.040521 -0.04838252 0.026957393 -0.012103285 -0.010350027 -0.023707004 0.07113773
-0.029243976 -0.0072898343 0.0014382162 0.041918457 0.046136983 -0.0031544531 0.033827204 0.029453821
-0.028681478 0.03441251 -0.049184743 0.018963391 -0.03314849 -0.051329475 -0.07203285 0.0054800734
0.023631416 0.044988785 0.026615018 -0.030388817 -0.013897048 -0.06030202 0.040749297 0.02088797
-0.048014224 0.028728621 -0.06445418 -0.0036334004 -0.025204258 -0.03944157 0.038017746 -0.026952058
0.03432898 0.06410542 0.05075665 0.004338361 -0.013334123 0.0674925 0.04683019 0.054207027
-0.003210873 0.010188058 -0.04965543 -0.004497967 -0.060996003 0.040972084 0.046804275 0.041366216
-0.05101716 0.07213514 0.01768516 -0.035725705 -0.014969833 0.049449712 0.05480471 0.024546811
-0.009640103 0.04739572 -0.03038026 0.04225012 -0.042652786 0.027139377 0.04370397 0.031389263
0.014063899 -0.030457092 0.008244346 -0.08023204 0.031829353 -0.061545253 0.03150327 -0.00954157
0.07618985 0.017373135 -0.050167255 0.015049485 -0.028060433 -0.048513394 -0.00501788 0.014770314
0.02877083 0.04428175 -0.018268332 0.009873542 -0.09782291 -0.04827995 0.022695925 -0.0060143587
0.03511716 -0.06318107 0.063289136 0.013043481 -0.033555016 0.07749815 0.072721004 0.033529483
0.0073404866 0.032035768 -0.06082723 -0.01904307 -0.0067115636 -0.038788162 -0.005544493 0.052469537
0.07175541 -0.0062021064 -0.010482772 0.011188595 0.0060936417 0.08602264 0.017913718 0.038467962
0.057993513 -0.014417731 -0.05126496 -0.014463871 0.034292955 0.028240334 0.0364628 -0.008943666
0.03017563 0.06789719 0.00787255 0.05520648 0.01523911 0.047983535 0.053916223 -0.020810923
-0.024426786 -0.013102426 -0.062058516 -0.013565287 0.049053416 0.03688687 0.06609702 0.053896975
0.0639369 0.065643005 -0.00049726915 -0.043006156 0.020169614 0.053478856 0.044029403 -0.03465575
0.004305279 0.035185426 -0.013931012 0.04358676 0.031006668 -0.029834159 0.036592484 0.04598637
0.046167832 -0.009828793 0.036863875 0.079327665 -0.018125108 -0.06395005 -0.03187923 0.0522455
-0.054226168 0.019177413 0.0115623595 0.05945327 -0.043999743 0.030304171 0.052715145 0.02373126
-0.05086533 -0.0019834412 -0.033177692 0.055908944 0.020967823 0.016650178 -0.0260367 -0.038499944
0.056438833 -0.11889316 0.03174901 -0.07126963 -0.024531165 0.04962751 -0.02923656 0.032350965
0.0125078205 -0.051724374 -0.048211496 0.027260527 0.013876649 -0.029250786 -0.03528589 -0.056707576
-0.039758235 0.003383116 -0.01812057 0.0069275284 0.074249916 0.035368446 0.04109967 0.06798141
-0.041447815 0.061153367 -0.04911281 0.026502924 -0.034810204 0.024077352 -0.023452455 -0.004789151
-0.0149588175 0.03677892 -0.0019878 -0.028149256 -0.016290192 0.08473815 0.018842079 0.054596413
-0.041396037 0.045760114 -0.04774035 0.047749024 0.0038600294 0.00208165 -0.024457846 -0.03430016
0.06530503 -0.038454704 -0.04519251 0.036575023 -0.033073723 -0.06290116 0.017414436 -0.03875515
0.052549474 0.03909461 0.05681241 -0.03148837 -0.0142765315 -0.024975609 -0.005203549 -0.03310438
00000000: 2824 743c 96aa 323c 260d 323d 1719 28bd
00000010: aeaf 573d 547a 85bd e5a5 a43c 808d f1bc
00000020: 06cb 023d 59f9 253d c02c 46bd c0d5 dc3c
00000030: db4c 46bc 2993 29bc 3135 c2bc a8b0 913d
00000040: 1091 efbc 90df eebb 8782 bc3a b0b2 2b3d
00000050: 22fa 3c3d f1ba 4ebb 658e 0a3d 2449 f13c
00000060: 6bf5 eabc 22f4 0c3d f175 49bd 1d59 9b3c
00000070: b6c6 07bd db3e 52bd f585 93bd 3092 b33b
00000080: ac96 c13c 2946 383d bd07 da3c f8f1 f8bc
00000090: 72b0 63bc 40ff 76bd bce8 263d 401d ab3c
000000a0: 90aa 44bd 4958 eb3c 8e00 84bd 581e 6ebb
000000b0: 2979 cebc 7c8d 21bd 7fb8 1b3d 90ca dcbc
000000c0: 8b9c 0c3d b449 833d 34e6 4f3d cf28 8e3b
000000d0: 5e77 5abc 8239 8a3d 03d1 3f3d 3008 5e3d
000000e0: 836d 52bb d0eb 263c 7e63 4bbd af63 93bb
000000f0: f2d6 79bd 58d2 273d d7b5 3f3d 9f6f 293d
00000100: 5ff7 50bd 97bb 933d 78e0 903c 1e55 12bd
00000110: 0844 75bc c88b 4a3d e77a 603d 6516 c93c
00000120: 86f1 1dbc 0422 423d 06e0 f8bc 760e 2d3d
00000130: b0b4 2ebd 6653 de3c ef02 333d 0792 003d
00000140: 456c 663c 2781 f9bc 4b13 073c b250 a4bd
00000150: 7f5f 023d e016 7cbd 9309 013d 3f54 1cbc
00000160: 6d09 9c3d 1b52 8e3c 2e7c 4dbd 1d92 763c
00000170: fede e5bc fbb5 46bd 076d a4bb 30ff 713c
00000180: ceb0 eb3c c860 353d 78a7 95bc a3c4 213c
00000190: 6157 c8bd 32c1 45bd ceec b93c 1914 c5bb
000001a0: 03d7 0f3d 1465 81bd bc9d 813d 53b4 553c
000001b0: fc70 09bd 5ab7 9e3d c0ee 943d 3656 093d
000001c0: 7788 f03b f037 033d f925 79bd 3600 9cbc
000001d0: adec dbbb 56e0 1ebd 94ae b5bb 4cea 563d
000001e0: 80f4 923d 0a3b cbbb efbf 2bbc 5e50 373c
000001f0: 2cad c73b a32c b03d cabf 923c 9590 1d3d
00000200: 9b8a 6d3d 5938 6cbc 35fb 51bd dff9 6cbc
00000210: c576 0c3d 4658 e73c 045a 153d 7488 12bc
00000220: e232 f73c af0d 8b3d defb 003c 3120 623d
00000230: 76ad 793c 628a 443d 42d7 5c3d ab7b aabc
00000240: af1a c8bc 8fab 56bc 1231 7ebd f040 5ebc
00000250: 3cec 483d b016 173d e05d 873d 13c3 5c3d
00000260: 59f1 823d d76f 863d 2b5b 02ba 3927 30bd
00000270: bf3a a53c a50c 5b3d 2d58 343d 30f3 0dbd
00000280: 4c13 8d3b 981e 103d e63e 64bc 0888 323d
00000290: b201 fe3c c466 f4bc 00e2 153d 345c 3c3d
000002a0: 7b1a 3d3d f208 21bc 93fe 163d 8b76 a23d
000002b0: 1b7b 94bc 3ef8 82bd cc93 02bd 61ff 553d
000002c0: 421c 5ebd f319 9d3c 0d70 3d3c 4685 733d
000002d0: 1339 34bd 7440 f83c d6eb 573d 0f68 c23c
000002e0: 2a58 50bd 9ffc 01bb 55e5 07bd c700 653d
000002f0: b6c4 ab3c f465 883c eb4a d5bc 1eb2 1dbd
00000300: 682c 673d 427e f3bd 400b 023d d0f5 91bd
00000310: 95f5 c8bc 3746 4b3d 8381 efbc 7282 043d
00000320: 9aed 4c3c f0dc 53bd 6b79 45bd 7851 df3c
00000330: e25a 633c 589f efbc f087 10bd 3446 68bd
00000340: 88d9 22bd 45b7 5d3b 9771 94bc 5200 e33b
00000350: 5710 983d 81de 103d 2158 283d d639 8b3d
00000360: 2fc5 29bd f47b 7a3d 842a 49bd a91c d93c
00000370: 2595 0ebd de3d c53c 5d1f c0bc 4fee 9cbb
00000380: d415 75bc 7ea5 163d c045 02bb 4599 e6bc
00000390: 0273 85bc 328b ad3d b45a 9a3c 7da0 5f3d
000003a0: e48e 29bd f56e 3b3d 638b 43bd 7b94 433d
000003b0: 8cf8 7c3b 4b6c 083b d25b c8bc 537e 0cbd
000003c0: a5be 853d ae82 1dbd c81b 39bd b1cf 153d
000003d0: 5078 07bd 53d2 80bd b8a8 8e3c b8bd 1ebd
000003e0: 1e3e 573d ab21 203d 21b4 683d f3f9 00bd
000003f0: 1de8 69bc a699 ccbc 8882 aabb 7598 07bd

mu.weight f4 [1, 256]
0.042818464 0.08052775 0.122516066 -0.14449143 0.042330123 -0.032237735 0.34392014 0.025923984
0.21640255 -0.08739218 0.03306167 0.055604197 0.0835789 0.0064771306 0.11889538 0.017814454
-0.00065560825 -0.008552529 -0.17254393 0.2952992 -0.046109904 -0.097480744 -0.17648442 -0.014088026
-0.12207216 -0.007827371 -0.11180579 -0.10649446 0.06934947 0.05314032 0.40343928 0.02013556
0.0803417 -0.058724865 -0.08877658 -0.19648875 -0.069451675 -0.013459854 0.2581474 -0.17047615
-0.26113307 -0.040766295 -0.014641538 -0.021548422 -0.0808209 -0.21355574 -0.06475612 -0.030563116
0.06970533 -0.07780964 0.043710545 0.0507756 0.0038322713 0.028683906 -0.21431598 0.04715553
0.03241287 -0.116367616 -0.06450795 0.061765682 -0.0068258285 0.15584229 -0.05141764 0.22253673
-0.19397083 -0.11649961 -0.0016325556 0.0154907545 0.0430484 -0.0768023 0.019971218 -0.171468
-0.051576365 0.020715486 -0.1398911 -0.18994999 0.02480877 0.08692901 -0.0034794959 0.017206125
0.007858538 -0.20770325 -0.0513692 0.30431774 0.20304024 -0.17912528 -0.5727015 0.05289495
-0.044007007 -0.049009923 0.115117125 0.18629172 -0.060813755 0.10244098 0.15870531 0.05102008
0.060339034 -0.06370817 -0.060619608 -0.12500554 -0.47868574 -0.07043158 -0.12616058 0.07820437
-0.18663354 0.50156766 0.015115579 0.08169136 -0.04903699 0.13693927 0.09856121 0.013939487
-0.090032496 -0.16588394 -0.03715716 -0.007582396 0.032121938 -0.23974659 -0.086590655 -0.020064812
0.23610455 -0.17932163 0.21850684 -0.5187159 0.2682001 -0.15360536 -0.09776402 0.042719256
0.09227108 -0.059324954 0.3103745 0.17182425 0.029072117 -0.16448283 0.054018453 0.50118023
0.16459534 -0.0027325812 0.14192834 0.054729294 -0.11247529 0.032552708 -0.094971016 -0.06874656
0.3523953 -0.0027998905 -0.19171008 -0.02062433 0.18973961 -0.0010019207 -0.12106375 -0.19665946
0.009074388 0.03318427 -0.3312528 0.09389539 -0.053042155 0.08300109 0.048592027 -0.20606333
-0.19614437 -0.12291042 0.06506751 -0.0982363 -0.0968433 0.31208563 -0.08625119 0.045555577
-0.3229683 0.035134073 -0.11653126 0.05279007 0.045752373 0.09378996 0.26002157 -0.09172105
-0.029507346 -0.12003566 -0.07077898 0.09392214 -0.054478858 -0.08433687 0.09012289 -0.023472778
0.12391588 0.08286933 -0.003422732 0.08524787 0.104955696 -0.054205194 -0.02900088 0.04633922
-0.052235134 0.25234067 -0.0645307 0.04025082 -0.19378237 -0.0010883495 -0.11069543 -0.40610194
-0.22470307 0.057002638 0.032704078 -0.15619059 -0.09093839 0.115243085 0.004793836 0.027274244
-0.020155102 -0.063238606 0.15332238 -0.07739646 -0.21044233 0.071529806 -0.29588646 0.3057398
-0.07554656 -0.0068886974 -0.051683296 0.110239714 -0.10657426 -0.16850984 0.040112358 0.07447066
-0.03166994 -0.16425808 -0.12311987 -0.09212214 0.08147371 0.15014955 -0.022400647 -0.0063963537
0.042287122 0.0066124606 -0.056181863 -0.08825117 0.23915468 0.2097531 -0.21042867 -0.0031750444
0.05954004 0.061198212 0.05292075 -0.08118491 0.10116364 0.024940068 0.18224566 -0.06569854
0.19595818 -0.08892993 -0.14215617 -0.081692904 0.23094308 0.4264227 0.035116684 -0.0006287506
00000000: 6a62 2f3d bceb a43d b4e9 fa3d 90f5 13be
00000010: 5a62 2d3d b70b 04bd 4d16 b03e 895e d43c
00000020: a198 5d3e acfa b2bd ac6b 073d 3ac1 633d
00000030: 6a2b ab3d 1c3e d43b 6c7f f33d 9eef 913c
00000040: 20dd 2bba e81f 0cbc 5baf 30be 7531 973e
00000050: bddd 3cbd fca3 c7bd 55b8 34be 77d1 66bc
00000060: f800 fabd 603e 00bc 6ffa e4bd c419 dabd
00000070: 1807 8e3d aaa9 593d 988f ce3e 54f3 a43c
00000080: 308a a43d 7c89 70bd 7fd0 b5bd 5934 49be
00000090: ae3c 8ebd b886 5cbc e52b 843e 4d91 2ebe
000000a0: 3cb3 85be 8ffa 26bd 10e3 6fbc 5186 b0bc
000000b0: 6e85 a5bd 5bae 5abe db9e 84bd 805f fabc
000000c0: abc1 8e3d a95a 9fbd d409 333d 13fa 4f3d
000000d0: d826 7b3b 83fa ea3c a675 5bbe 2826 413d
000000e0: 5cc3 043d 2552 eebd be1c 84bd 03fe 7c3d
000000f0: 33ab dfbb 1f95 1f3e 4e9b 52bd abe0 633e
00000100: 4aa0 46be 5997 eebd 7afb d5ba efcc 7d3c
00000110: 8553 303d 864a 9dbd ae9a a33c 4f95 2fbe
00000120: bd41 53bd 86b3 a93c 9d3f 0fbe 4082 42be
00000130: c33b cb3c d607 b23d 4108 64bb dcf3 8c3c
00000140: 19c1 003c 29b0 54be 8368 52bd 89cf 9b3e
00000150: c8e9 4f3e 9e6c 37be 919c 12bf 60a8 583d
00000160: b140 34bd a1be 48bd 87c2 eb3d 42c3 3e3e
00000170: d817 79bd 94cc d13d a583 223e 6efa 503d
00000180: 1026 773d 6e79 82bd 444c 78bd 7401 00be
00000190: 4c16 f5be 6f3e 90bd 3d30 01be 9d29 a03d
000001a0: dd1c 3fbe bd66 003f 55a7 773c cd4d a73d
000001b0: 03db 48bd cf39 0c3e 76da c93d 7262 643c
000001c0: f562 b8bd 7bdd 29be 1b32 18bd bf75 f8bb
000001d0: 4b92 033d 2180 75be 7156 b1bd f65e a4bc
000001e0: 64c5 713e 17a0 37be 42c0 5f3e 91ca 04bf
000001f0: 8651 893e b94a 1dbe 8138 c8bd 63fa 2e3d
00000200: 9ff8 bc3d b9fe 72bd 68e9 9e3e b2f2 2f3e
00000210: a628 ee3c 306e 28be 7442 5d3d 594d 003f
00000220: ae8b 283e 1b15 33bb aa55 113e d32b 603d
00000230: 7259 e6bd fd55 053d 2a80 c2bd ffca 8cbd
00000240: 286d b43e 5e7e 37bb a64f 44be 5bf4 a8bc
00000250: 1a4b 423e e152 83ba 45f0 f7bd 1961 49be
00000260: beac 143c 3bec 073d f899 a9be 3a4c c03d
00000270: bb42 59bd 7afc a93d 6f08 473d 4402 53be
00000280: 12da 48be 75b8 fbbd 1d42 853d 1d30 c9bd
00000290: c855 c6bd b0c9 9f3e 77a4 b0bd 7c98 3a3d
000002a0: 1a5c a5be bfe8 0f3d f1a7 eebd 673a 583d
000002b0: d766 3b3d f314 c03d 8c21 853e 3fd8 bbbd
000002c0: 64b9 f1bc 42d5 f5bd 92f4 90bd 405a c03d
000002d0: 3925 5fbd cfb8 acbd 5a92 b83d fc49 c0bc
000002e0: 9cc7 fd3d 65b7 a93d ea4f 60bb 6f96 ae3d
000002f0: 03f3 d63d 4406 5ebd 4193 edbc 32ce 3d3d
00000300: 82f4 55bd cc32 813e ac28 84bd 0bde 243d
00000310: e36e 46be f3a6 8eba 49b4 e2bd 98ec cfbe
00000320: 9018 66be 997b 693d b6f4 053d 6df0 1fbe
00000330: e83d babd 9104 ec3d 9c15 9d3b 3c6e df3c
00000340: 501c a5bc 3e83 81bd 8b00 1d3e 0982 9ebd
00000350: 327e 57be 387e 923d 6e7e 97be ed89 9c3e
00000360: 28b8 9abd 95ba e1bb ddb1 53bd 5cc5 e13d
00000370: 9b43 dabd d88d 2cbe db4c 243d 1384 983d
00000380: 57b8 01bd 4533 28be 4526 fcbd 88aa bcbd
00000390: b0db a63d cec0 193e 9081 b7bc 8198 d1bb
000003a0: 4335 2d3d 57ad d83b f41e 66bd 08bd b4bd
000003b0: f7e4 743e 84c9 563e 9d7a 57be 6814 50bb
000003c0: 42e0 733d faaa 7a3d 6ec3 583d 4644 a6bd
000003d0: e22e cf3d 1d4f cc3c 9b9e 3a3e f58c 86bd
000003e0: 43a9 483e e520 b6bd 6391 11be 9c4e a7bd
000003f0: 587c 6c3e 1354 da3e 83d6 0f3d bdd2 24ba

log_sigma.weight f4 [1, 256]
-0.01626893 -0.041374885 -0.05368995 -0.043806396 0.052464545 0.03349262 0.024824908 0.04963725
-0.018190077 -0.05900789 0.019027196 0.01820469 0.043403435 -0.01697999 0.029422587 -0.04284314
0.012004995 0.006170148 -0.0943146 -0.02585067 0.010295777 0.04732266 0.050845414 0.038155857
0.029029736 0.009911023 0.004329397 0.07015373 -0.0004948328 0.020327939 0.16459148 0.05805828
-0.004958529 -0.026243905 -0.0013547363 0.03166659 0.042736106 -0.030501962 -0.06815726 0.09362893
0.08039564 0.054431006 0.024749938 0.039164674 0.06871473 -0.03907252 -0.17899899 0.046104785
-0.01775516 0.04389825 0.018873012 -0.046382412 0.0021320987 -0.031728137 -0.119439214 0.04634583
-0.0031894585 0.025127241 -0.030675897 -0.030086746 0.032997 0.033956226 0.04653968 -0.07226561
-0.04499642 -0.06242217 -0.047801614 0.031964082 -0.047245234 -0.014908877 0.02237723 0.06301739
0.018225215 0.039561193 0.015132087 -0.016655805 0.0357132 -0.080401205 -0.050175816 -0.026304185
0.02768385 0.008993957 0.0330229 0.076355174 0.08260644 -0.025644677 0.101581715 0.023090778
-0.07853113 -0.05587964 0.027965821 0.035070587 -0.0697638 0.030544698 0.03394496 0.04085778
-0.006926884 0.0132849505 -0.0027065873 0.03966831 0.04766762 -0.040852394 0.0539119 0.056938972
0.01486133 0.051542424 -0.01752768 -0.058070075 0.028332934 -0.011638425 0.04007866 -0.11012423
0.013282938 -0.11969539 0.0072683594 0.018427996 -0.05319722 -0.094911195 -0.03889405 -0.068058036
0.07235737 0.056662183 -0.04850436 -0.008763863 -0.007893248 0.032854106 -0.05960762 -0.040642627
0.033715785 0.043298718 0.055943947 0.06405465 -0.050480288 -0.05329094 -0.05750035 0.045945905
-0.030905433 -0.04735218 -0.081464246 -0.012618704 0.00022812145 -0.0575061 -0.05378891 0.064363986
0.11664558 -0.07383647 -0.001691118 -0.029666439 0.07383884 -0.013648836 -0.069231816 -0.02380591
-0.016562587 -0.01512172 -0.07037143 0.061066885 -0.082688496 -0.03904044 0.022356538 -0.025796477
0.035013102 -0.042147808 -0.052194297 0.034657303 0.024866465 0.14227758 0.07536192 0.06583294
0.05703277 -0.07436707 0.04616546 -0.024339782 0.04263444 0.04000791 -0.08885363 0.06867933
0.019199047 0.019239582 0.023172274 -0.01855377 -0.017191 -0.036879834 0.041955844 0.02403668
-0.059731223 -0.03694256 -0.052068725 0.04402204 -0.005948089 -0.048276618 -0.006040285 -0.027941108
-0.042548858 0.10690994 0.018488804 0.030202564 -0.05641149 -0.015835095 0.05941366 0.04907903
0.059943743 0.039061014 0.041043635 -0.06358987 0.018570898 -0.033284523 -0.0057490855 -0.012299654
-0.050004438 0.053284552 0.023861825 0.060839746 -0.004834515 -0.0748239 0.049292386 0.0011810656
0.03467338 -0.04075658 -0.034201257 -0.009586711 0.0661004 0.035934053 -0.044396125 -0.028250111
0.033511527 -0.003349731 0.086393714 -0.0005825394 0.03360806 0.035069525 0.0050560236 -0.0029175545
-0.05795024 0.03933306 0.056817543 -0.0108822305 -0.0749047 -0.03644596 0.08994898 -0.04009504
0.07318456 -0.04331795 0.043286372 -0.055648636 -0.0658577 0.05719418 0.009653616 -0.018877944
-0.03693512 0.033593364 -0.023624927 -0.029329304 -0.05488111 0.06750048 -0.06135213 0.07349493
00000000: 6b46 85bc b678 29bd fee9 5bbd 566e 33bd
00000010: 10e5 563d 8f2f 093d 9b5d cb3c 6e50 4b3d
00000020: 5b03 95bc 42b2 71bd ecde 9b3c 0122 953c
00000030: cdc7 313d 9f19 8bbc a307 f13c 4a7c 2fbd
00000040: 99b0 443c f42e ca3b 0328 c1bd c9c4 d3bc
00000050: 9eaf 283c 68d5 413d 4843 503d 5149 1c3d
00000060: c5cf ed3c d861 223c 9ddd 8d3b c2ac 8f3d
00000070: abb7 01ba c786 a63c ab8a 283e 85ce 6d3d
00000080: 287b a2bb 75fd d6bc 6891 b1ba d4b4 013d
00000090: 0e0c 2f3d 40df f9bc 0996 8bbd 86c0 bf3d
000000a0: 78a6 a43d 0cf3 5e3d 62c0 ca3c 236b 203d
000000b0: 4fba 8c3d 820a 20bd 834b 37be 5fd8 3c3d
000000c0: 4573 91bc a7ce 333d 939b 9a3c 7cfb 3dbd
000000d0: aeba 0b3b 5df5 01bd 8c9c f4bd 20d5 3d3d
000000e0: 3c06 51bb a5d7 cd3c 054c fbbc 7b78 f6bc
000000f0: dd27 073d af15 0b3d 64a0 3e3d feff 93bd
00000100: 2b4e 38bd 64ae 7fbd a0cb 43bd c5ec 023d
00000110: 3884 41bd 5d44 74bc 7450 b73c 430f 813d
00000120: 0c4d 953c eb0a 223d 93ec 773c c171 88bc
00000130: 0148 123d 63a9 a4bd 2885 4dbd e07b d7bc
00000140: 3ec9 e23c 645b 133c 0543 073d 1a60 9c3d
00000150: 912d a93d c914 d2bc 130a d03d df28 bd3c
00000160: eed4 a0bd 0de2 64bd 9418 e53c 2da6 0f3d
00000170: 53e0 8ebd e038 fa3c df09 0b3d 7d5a 273d
00000180: eafa e2bb 1fa9 593c 0061 31bb 3d7b 223d
00000190: 1f3f 433d d754 27bd b9d2 5c3d d738 693d
000001a0: f07c 733c 261e 533d 3696 8fbc e3da 6dbd
000001b0: 781a e83c 18af 3ebc 8529 243d d088 e1bd
000001c0: aea0 593c db22 f5bd 6b2b ee3b 4ff6 963c
000001d0: 54e5 59bd cd60 c2bd 5e4f 1fbd 0362 8bbd
000001e0: 1a30 943d 9b16 683d 82ac 46bd 4e96 0fbc
000001f0: af52 01bc 0792 063d 1f27 74bd e278 26bd
00000200: 9019 0a3d ff59 313d 7b25 653d 162f 833d
00000210: 6bc4 4ebd 9a47 5abd 7d85 6bbd c631 3c3d
00000220: 642d fdbc 5cf4 41bd bad6 a6bd aebe 4ebc
00000230: e333 6f39 848b 6bbd c351 5cbd 44d1 833d
00000240: e1e3 ee3d 9337 97bd 81a8 ddba 0807 f3bc
00000250: d138 973d 5e9f 5fbc 69c9 8dbd 9d04 c3bc
00000260: 43ae 87bc 17c1 77bc e51e 90bd 4521 7a3d
00000270: 9658 a9bd dee8 1fbd 0f25 b73c 2253 d3bc
00000280: e669 0f3d 2ea3 2cbd b0c9 55bd d1f4 0d3d
00000290: c2b4 cb3c 37b1 113e 5a57 9a3d 6cd3 863d
000002a0: 329b 693d c34d 98bd fe17 3d3d 3964 c7bc
000002b0: 73a1 2e3d 56df 233d e4f8 b5bd c0a7 8c3d
000002c0: 5247 9d3c 549c 9d3c c8d3 bd3c 13fe 97bc
000002d0: 24d4 8cbc 4f0f 17bd e4d9 2b3d 92e8 c43c
000002e0: baa8 74bd 1551 17bd 0446 55bd 7450 343d
000002f0: 30e8 c2bb b4bd 45bd 95ed c5bb c0e4 e4bc
00000300: b647 2ebd 99f3 da3d d575 973c 5e6b f73c
00000310: bc0f 67bd 9ab8 81bc bd5b 733d 1807 493d
00000320: 9287 753d 71fe 1f3d 5f1d 283d 683b 82bd
00000330: ff21 983c 5a55 08bd d362 bcbb 7d84 49bc
00000340: 74d1 4cbd e740 5a3d e079 c33c 1933 793d
00000350: da6a 9ebb 463d 99bd d0e6 493d fccd 9a3a
00000360: ad05 0e3d 5ff0 26bd 9e16 0cbd 9511 1dbc
00000370: a65f 873d 962f 133d b6d8 35bd c76c e7bc
00000380: 6243 093d 2987 5bbb 30ef b03d 8fb5 18ba
00000390: 9ba8 093d 10a5 0f3d 00ad a53b 7134 3fbb
000003a0: 3b5d 6dbd b41b 213d 83b9 683d 624b 32bc
000003b0: a367 99bd 5c48 15bd 2c37 b83d b23a 24bd
000003c0: c9e1 953d 2a6e 31bd 0d4d 313d d3ef 63bd
000003d0: 67e0 86bd 7244 6a3d 332a 1e3c eba5 9abc
000003e0: 4849 17bd 3299 093d 1089 c1bc 0244 f0bc
000003f0: 04cb 60bd b13d 8a3d 5f4c 7bbd 8384 963d
