data/pendulum/models/lsac-pendulum-v.pth (torch, 271064 bytes, 5 tensors)

fc1.weight f4 [256, 3]
000000 9c 7a 9b bf 9f 30 fb bd 04 78 ac bd a0 eb 5c bf
       -1.2146792 -0.12265133 -0.08421329 -0.86297035
000010 ae 97 23 bf 1f ff a6 be cb 66 2a bf 1e 05 9e 3f
       -0.6390332 -0.32616517 -0.665631 1.2345312
000020 49 43 30 3e 48 a7 40 3f 3d 21 9b bf 56 14 ba 3e
       0.17213167 0.7525525 -1.2119519 0.3634364
000030 f8 55 77 3e d6 b1 07 c0 1d 94 7b 3e c2 f8 86 3e
       0.24153888 -2.1202292 0.2456822 0.26361662
000040 bc b0 d2 bf 22 55 8e be be c9 8b bf 79 6f 0c 3f
       -1.6460185 -0.27799326 -1.0920942 0.54857594
000050 a2 18 90 3e 76 43 8b be c1 31 5e bf dd eb e2 be
       0.28143793 -0.27199906 -0.8679467 -0.44320574
000060 5a 6b 09 bf b1 87 89 3e 41 16 48 3e 64 01 15 40
       -0.5367943 0.26861337 0.19539739 2.3282099
000070 25 65 0b bf c5 07 88 bf a5 98 88 bf 5f f3 44 3f
       -0.5445121 -1.0627371 -1.0671583 0.76933855
000080 c3 7c b8 3e 3d b1 15 c0 55 82 e9 3f ab 06 73 3e
       0.36032686 -2.3389428 1.8242899 0.23733012
000090 ef 88 9f 3f 97 4b 4c 3f be a5 af 3e 47 5c 3c bf
       1.2463664 0.7980284 0.3430614 -0.73578304
0000a0 56 0a 18 c0 0b 8d 14 bf 68 28 b7 3e de 67 67 3f
       -2.3756309 -0.58027714 0.35773015 0.90392864
0000b0 3d 2f 01 bf fc 19 82 3f ef 97 19 3f d2 6f c5 3e
       -0.50462705 1.016418 0.5999746 0.38561875
0000c0 d3 01 27 3e b3 f3 11 bf 57 ac 1d bf 0e 7f 3f bf
       0.1630929 -0.5701248 -0.61591095 -0.74803245
0000d0 0d 0d 78 3f a2 35 a3 3e 85 f4 3f be be 39 b0 bf
       0.96894914 0.31876856 -0.1874562 -1.3767622
0000e0 47 18 8e be eb f6 ab 3f 36 cf 76 bf 92 3f e3 be
       -0.27752897 1.3434728 -0.9640993 -0.44384438
0000f0 ad ea a9 be 39 66 3e 40 8d a5 1b 3f f4 26 ee 3f
       -0.33186856 2.9749892 0.60799485 1.8605638
000100 49 56 6b bf 50 06 34 bf 8d 11 45 bf 8a 82 ac 3e
       -0.91928536 -0.7032213 -0.76979905 0.33693343
000110 6d b0 92 3e f6 48 91 bf 96 1a 17 3f 51 aa 98 3e
       0.28650227 -1.1350391 0.5902494 0.2981744
000120 4c e9 20 3f 55 a9 12 bf b0 3c 2f 3f 0a 4f 66 bf
       0.6285598 -0.5728963 0.68451977 -0.89964354
000130 6a 36 03 40 77 e5 00 3f 9d 3e a2 bf 09 b0 97 3f
       2.0501962 0.50350136 -1.2675358 1.1850597
000140 ce 68 ed 3e ca 14 bd bf 42 b7 4a bf 71 41 d8 be
       0.46369022 -1.4771969 -0.7918588 -0.42237428
000150 d5 23 6c bf 0b c7 b0 bf 72 d0 d2 be 17 f8 6d bf
       -0.92242175 -1.3810743 -0.41174656 -0.9295668
000160 ce 21 03 3f 0f 8d ad 3e e5 ed 49 3f e3 05 a6 bf
       0.51223457 0.33896682 0.78878623 -1.2970546
000170 09 90 1b bf f5 df 03 3e 0f f9 92 3f 80 d1 db bc
       -0.60766655 0.12878402 1.1482257 -0.026833296
000180 16 3f 77 bf f5 52 1b bf 26 8b 3a be 21 b0 3b 3f
       -0.96580637 -0.6067346 -0.18217143 0.73315626
000190 10 8d 18 3e 0f d4 d0 3e 79 c8 00 40 93 8a 23 40
       0.14897561 0.40786788 2.0122359 2.555333
0001a0 77 b2 48 3f 7a 94 23 c0 7a 9b dd bf 4a 02 dc 3e
       0.78397316 -2.5559373 -1.7313073 0.42970496
0001b0 b1 71 f8 bf 3f 74 89 bf 7b b9 af be 8b 5a 61 bf
       -1.9409696 -1.07386 -0.34321198 -0.8802878
0001c0 34 0e c6 3e a1 07 ad 3e e1 2a b0 be 7c e5 1b 40
       0.3868271 0.33794883 -0.34407714 2.4358816
0001d0 cd d1 0a 3f fd c9 d6 bd c7 72 88 be 1b 82 c1 be
       0.5422638 -0.10487745 -0.26650068 -0.37794575
0001e0 57 1d 87 be 08 40 57 bf 07 21 28 be 38 48 98 be
       -0.26389572 -0.8408208 -0.16418849 -0.297426
0001f0 f4 78 fd 3e 76 e6 74 3e 7c f5 80 3e cd 27 c3 3f
       0.49506342 0.23916039 0.2518729 1.5246521
000200 24 17 60 be 45 dd ab bf 41 f5 16 bd 65 f5 d2 be
       -0.21883827 -1.3426901 -0.036854986 -0.41202846
000210 74 96 1e bf d2 1b 6e bf 41 50 3b 3e a7 62 77 bf
       -0.61948323 -0.930112 0.18292333 -0.96634907
000220 8f de 99 bf 1d e1 0f be 63 75 b3 bf 82 44 2d bf
       -1.2021044 -0.14050718 -1.4020199 -0.6768266
000230 4f 18 a7 be ff ba 05 bf 8b f3 80 3e eb c7 73 3e
       -0.32635733 -0.5223846 0.2518581 0.23806731
000240 92 bb d4 be 42 e7 cc 3f 1d 83 aa be 37 69 47 bf
       -0.41549355 1.6008074 -0.33303156 -0.7789492
000250 47 39 83 3e 73 a8 aa be df 60 1e 3f 63 73 23 3e
       0.25629637 -0.33331642 0.61866564 0.15961985
000260 bc 55 47 bf af e2 51 3f 69 3f de 3e ab d2 a2 3e
       -0.77865195 0.81986517 0.43407753 0.31801352
000270 7f 98 dd 3f bf cd 48 be 1c b6 68 be b5 e2 b3 3f
       1.7312163 -0.19609736 -0.22725719 1.405356
000280 b1 67 3b bf 1e 64 b9 be 33 c5 a8 be cf 3f 82 be
       -0.73205096 -0.36209196 -0.3296295 -0.25439307
000290 1d 98 34 be a0 38 2c 3f c8 f1 59 3f 1c 4d 16 bf
       -0.17636152 0.672739 0.85134554 -0.5871141
0002a0 c3 dc 31 3f 56 09 73 bf 4e e3 a0 be c8 6a 86 bf
       0.6947748 -0.9493612 -0.3142342 -1.0501337
0002b0 5b cb 53 bf 19 d1 bb be 88 4d 47 bf 28 d0 f8 be
       -0.8273217 -0.36682966 -0.7785268 -0.4859631
0002c0 3f 7f 33 be 0d 0f 51 bf 00 c0 b4 3f 65 5e c0 3e
       -0.1752901 -0.8166359 1.4121094 0.37572017
0002d0 22 84 83 bf 5d 69 69 3f a8 4d d1 3e 90 4b dc bf
       -1.0274699 0.91176397 0.4087956 -1.721056
0002e0 b2 3f 43 be c6 ae 37 bf b1 57 35 c0 a1 3e d5 be
       -0.19067267 -0.7175106 -2.8334773 -0.41649345
0002f0 0b ad 4c 3f 9d 2e 82 3f 7c b6 2e 3f 2c 92 a6 be
       0.7995154 1.0170475 0.682472 -0.32533395
000300 6c fd 89 bf 17 5c 5d bf 51 c6 be be 50 6a a1 3e
       -1.0780463 -0.8646864 -0.37260678 0.31526423
000310 4d 80 83 3f 04 3e 1e 3f af 26 55 bf e8 e7 56 bf
       1.0273529 0.6181338 -0.8326215 -0.8394761
000320 c9 aa a0 be 5a 72 db be 76 9b 56 bf a0 a6 d9 be
       -0.313803 -0.4286068 -0.83830965 -0.42509937
000330 0f d3 f5 3e 96 02 ea 3f b3 29 b9 3e a3 f3 a7 bf
       0.48012587 1.8282039 0.36164626 -1.3121227
000340 21 ca f1 3f 7c 5a 0e 3f 73 6d 26 be b8 35 57 bf
       1.888981 0.5560682 -0.16252689 -0.84066343
000350 9e 83 0e bd b1 03 e1 3e 47 2e a1 3f bb 02 d3 be
       -0.03479349 0.4394813 1.2592248 -0.4121302
000360 81 b7 e6 be 92 4a 91 3f 24 77 bb 3e 23 1d ad be
       -0.45061877 1.1350882 0.36614335 -0.33811292
000370 f8 fa 9a 3f c8 86 2b 3f e9 f8 52 3c e7 43 d9 bf
       1.210784 0.67002535 0.012876728 -1.6973847
000380 03 17 11 3f ff 7e 57 bd f7 74 b8 bf 9c 35 01 bf
       0.5667574 -0.052611347 -1.4410695 -0.50472426
000390 20 2c 24 bd 3a 74 87 bf 7d 24 a5 be 3d c0 2c 3f
       -0.040081143 -1.0582345 -0.322544 0.6748083
0003a0 e0 c6 cc bf 29 65 01 be 8e 40 ab bf f2 4c 36 3f
       -1.5998192 -0.12636246 -1.3379076 0.7121116
0003b0 e7 23 9c be 50 b5 75 bf e7 54 3e bf 2c 69 ba be
       -0.3049614 -0.95979786 -0.743483 -0.36408365
0003c0 f4 e0 df be 27 b0 9a 3e f2 69 4c be f5 5d e0 3f
       -0.43726313 0.3021252 -0.1996229 1.7528673
0003d0 8f ae 03 3d de 1e 29 be 52 67 36 bf 47 3e e3 bf
       0.032148894 -0.16515681 -0.71251404 -1.775338
0003e0 5d 39 3a be bc 2f ad 3f 32 9e 1d 40 1d be 2b 3f
       -0.18185945 1.3530192 2.4627805 0.67086965
0003f0 87 dd 66 bf b6 2c de 3e ff dc ab 3e 0a 30 56 bf
       -0.90181774 0.43393487 0.33567044 -0.8366705

fc1.bias f4 [256]
000000 c7 92 df be 55 2a 48 3f 2d e6 7e 3f c2 82 04 3e
       -0.4366667 0.78189594 0.9956997 0.12940505
000010 69 33 5d 3f 0e 26 1c 3f 22 b2 e6 3e c9 9a 40 be
       0.8640657 0.60995567 0.4505778 -0.18809046
000020 1d 5f 06 3f 47 f2 7d bf 49 95 40 3f 22 d2 c9 bd
       0.5248888 -0.9919781 0.7522779 -0.09854533
000030 0f b8 0a bf fa 13 37 be 4b 42 64 3f 53 91 7d bf
       -0.541871 -0.17878714 0.89163655 -0.9904987
000040 7e 91 fa be 6c bd 18 bf 35 fc 22 3f 2a b6 63 bf
       -0.48939127 -0.59664035 0.6366609 -0.88949835
000050 94 fd 42 bf 4a 06 19 3e f1 40 51 3f 0d 3d fa 3e
       -0.7616818 0.14943805 0.8173972 0.48874703
000060 a0 b7 e9 be 29 cb cb 3d d7 7c 4d 3f 44 20 c2 3e
       -0.45647907 0.09950859 0.80268615 0.37915242
000070 78 a2 b0 3e f6 7f 64 3f 73 06 8b bf a5 11 8c 3f
       0.34498954 0.8925775 -1.0861343 1.0942885
000080 25 0d 72 3e 71 4d 47 bf a6 68 3f be 57 59 68 3f
       0.23637827 -0.7785254 -0.18692264 0.9076132
000090 60 b6 0e be ac c8 7e 3f db bb 08 bf d7 06 d7 be
       -0.13936758 0.9952495 -0.53411645 -0.41997406
0000a0 26 b1 4f 3f 2c ce 0b bf 83 81 ad 3e 71 46 0b 3e
       0.8112968 -0.5461147 0.33887872 0.1360109
0000b0 73 e9 fa be e6 75 21 3f 22 1a ae 3e a7 d2 44 3f
       -0.49006233 0.63070524 0.34004313 0.7688393
0000c0 30 78 ad 3f 09 2a b9 3e 5b 9c a2 3f 74 b9 5d bf
       1.3552303 0.36164883 1.2703966 -0.86611104
0000d0 97 74 b9 3e c1 bc 19 bf 91 65 19 3f c5 29 8e be
       0.36221763 -0.6005364 0.59920603 -0.27766243
0000e0 a7 a4 a3 be 56 ca 32 3f 68 76 97 3e 96 0a 75 3e
       -0.31961557 0.6983999 0.29582524 0.2392982
0000f0 d7 93 61 3f 0e 3c c1 3e f8 b7 cf 3e fc 0c 1b bf
       0.8811621 0.3774113 0.40570045 -0.6056669
000100 0a 59 33 3f a2 8c 18 be 6a fc f3 3e 01 c5 ba bd
       0.7005774 -0.14897397 0.47653514 -0.09119607
000110 6b f4 33 3f b1 02 0f 3f e4 d0 26 3f e5 db 8b 3f
       0.7029483 0.5586348 0.6516249 1.0926481
000120 1a dc fb be 67 89 d5 be c0 1e 7e bc 6b 6c 2f 3d
       -0.49191362 -0.41706392 -0.015510261 0.042828005
000130 a8 9b 5e 3c f3 08 01 be 82 f8 05 3f 3d ae 48 3f
       0.013586916 -0.1260107 0.5233232 0.78390867
000140 3b b4 4e bf bb 81 23 3f 53 1e f1 bd 09 48 f2 3e
       -0.8074376 0.6386983 -0.11773362 0.47320583
000150 2b 03 70 3f 36 19 ed 3e 19 1c 7c 3f 8e 75 4f 3f
       0.93754834 0.46308297 0.98480374 0.8103875
000160 ad d0 05 3f a9 f5 4c 3f 5c d1 6c 3f 86 cb 56 3e
       0.5227154 0.8006235 0.9250696 0.20976076
000170 e3 c2 1d 3f 85 2f f4 3e 97 ff b9 be 0f f8 03 3f
       0.616255 0.47692505 -0.36327812 0.5155038
000180 3a 35 f2 3e 24 12 63 3d b2 17 87 3e 25 f8 8e 3f
       0.47306234 0.055437222 0.26385266 1.1169478
000190 28 7d 43 bf ea d4 07 be 71 db fc be 6e 34 b9 3e
       -0.7636285 -0.13264814 -0.4938617 0.36172813
0001a0 05 a9 ea 3e 89 00 43 bf 76 36 51 be 40 01 2b 3d
       0.45832077 -0.7617269 -0.20430931 0.04174924
0001b0 f9 8f bb 3e 5a b5 ec be 6d 4c 1c 3f 5d 1e 16 3f
       0.3663328 -0.4623211 0.61054116 0.5864008
0001c0 10 8f 02 3f d4 ae 01 bf ed 72 63 bf 8e 10 49 3b
       0.50999546 -0.5065739 -0.8884724 0.0030680033
0001d0 60 20 ff 3e 48 65 45 be 63 d7 3e be da df 82 3e
       0.49829388 -0.19276917 -0.18636851 0.2556141
0001e0 33 3a 6f 3f 83 43 25 3f 7c 34 38 3f 41 2b 5e 3f
       0.9344818 0.6455614 0.71955085 0.8678475
0001f0 2e 2b 19 3f 95 44 91 3f 1d 1c 34 3f ba f2 77 3d
       0.5983151 1.1349055 0.703554 0.060534216
000200 28 3f 41 3f 00 7b 87 3f f6 05 3d 3f c3 ee 5b 3f
       0.75486994 1.0584412 0.7383722 0.85911196
000210 ce f7 8b 3f eb 00 de 3e ca 26 48 3f a0 b9 65 bf
       1.0934999 0.43360075 0.7818419 -0.89736366
000220 55 d5 bd 3e 02 48 40 3f 5b 44 08 3f e7 24 03 3f
       0.37076822 0.75109875 0.532293 0.51228184
000230 18 d7 28 3f cf ef 14 3e 2f 25 8d 3f 06 22 17 be
       0.65953207 0.14544605 1.1026973 -0.14759073
000240 28 b9 2a 3f 5d 4e 57 3f 16 e7 68 3f d4 a8 fd 3e
       0.66688776 0.8410395 0.9097761 0.49542868
000250 a7 9e 03 be 1c 7e fc bd 41 71 1e 3f 3b a6 0d bf
       -0.1285349 -0.12328741 0.6189156 -0.5533177
000260 65 5d 57 3e 2b f9 51 3f 07 0f 70 be 44 d7 6c be
       0.21031721 0.82020825 -0.23443232 -0.23128992
000270 4a 5e d8 bc 7f 32 4c 3e b6 b3 73 3f f5 6a 97 bf
       -0.026412148 0.19941138 0.9519609 -1.1829516
000280 e0 8d d9 3d 85 39 20 bf bf 38 99 bf 20 8c 84 bf
       0.10622764 -0.6258777 -1.1970443 -1.0355263
000290 df 04 5b 3f 7b da d2 3e 51 7a 8a bd e1 fe 14 3f
       0.8555431 0.41182312 -0.06761611 0.58201414
0002a0 84 60 4c bf 43 4b e3 bd 2c f4 24 3f d9 b1 1b 3f
       -0.7983477 -0.110983394 0.64435077 0.6081825
0002b0 f8 25 c4 be e3 7b 76 be 45 21 1f 3f 1a 0f 70 3f
       -0.38310218 -0.24070697 0.6216014 0.93773043
0002c0 2a 43 24 3e 79 1a ac be 5c 57 b3 3f 01 ef 5c bf
       0.16041246 -0.33613947 1.4011035 -0.8630219
0002d0 46 09 a2 bd 26 5b 2f bf 6e 23 86 3f 14 e6 22 3f
       -0.07911925 -0.68498456 1.0479562 0.6363232
0002e0 2f fe 84 3f 89 bf 79 3f 32 99 2f 3f aa a4 0b bf
       1.0390071 0.97557884 0.6859313 -0.5454813
0002f0 82 3b 2a bf 3f 7f 19 3f 2b 74 49 3f c3 96 07 bf
       -0.6649705 0.5995979 0.78692883 -0.5296442
000300 99 e9 34 3f a7 0c 69 3f d8 3a 01 bf 16 1b b4 3e
       0.7066894 0.9103493 -0.50480413 0.35176915
000310 24 9d 35 3f 1a 54 47 bf d5 ca 21 bf 46 b5 48 3f
       0.709429 -0.77862704 -0.6320012 0.784016
000320 5b ba a9 3f af 2a c5 be 3b 0c e8 be 4d 80 9c be
       1.3259996 -0.38509127 -0.4532183 -0.30566636
000330 44 7e 1d 3f f5 f7 22 bf 6f 7b 48 3f f7 e2 91 3f
       0.6152079 -0.636596 0.78313345 1.1397389
000340 c2 df 03 bf ed bb 6a bf 61 2c 93 3d d3 25 bf be
       -0.515133 -0.91693 0.07186199 -0.37333545
000350 7e d8 03 3f 97 6d 2c 3f 24 3e 23 3f 77 a8 27 bf
       0.51502216 0.6735472 0.63766694 -0.6549143
000360 5f af aa 3e 9a ef 41 bf 85 47 ba be 45 6b 62 3f
       0.33336923 -0.7575623 -0.3638269 0.8844493
000370 01 46 f1 3e 92 f4 d7 be 86 72 73 3f a6 b6 55 3f
       0.4712372 -0.4217878 0.95096624 0.83481824
000380 2a c3 44 3f 30 a9 8a 3f d5 18 3b 3f 66 7e a0 bf
       0.76860297 1.0832882 0.73084766 -1.2538574
000390 bd 39 82 3f 44 3a 1e 3f ad 74 d6 be e6 05 f5 be
       1.017387 0.61807656 -0.41885892 -0.47856063
0003a0 23 67 a4 3f a7 fd 4d 3f 8b f0 2d bf 40 f7 a3 3a
       1.2843975 0.8046517 -0.67945164 0.0012509599
0003b0 2c 29 16 be 7a 34 72 3f f9 ab 1a bf a1 26 b0 3f
       -0.14664143 0.9461132 -0.6041866 1.3761789
0003c0 74 56 9d be 91 33 82 3e 47 c5 bb 3e 28 18 c0 be
       -0.3073002 0.25429967 0.36673948 -0.3751843
0003d0 0e 31 29 3f ec df 30 be 7d 17 ce 3e 8b 7a c6 3e
       0.66090477 -0.1727292 0.40252295 0.38765368
0003e0 d1 35 53 3f 1f 13 87 bd bc bc 94 bf 34 da 20 3f
       0.8250399 -0.06595444 -1.1620097 0.6283295
0003f0 16 87 19 3f 4b 03 6c bf 5c 36 b4 3b f5 c1 b4 3e
       0.5997175 -0.92192525 0.005499644 0.35304227

fc2.weight f4 [256, 256]
000000 ce b0 ee bb 9f 1e 65 3e 98 ee fb 3e 41 2a 88 bf
       -0.0072842604 0.22374962 0.4920547 -1.0637895
000010 16 c7 25 bf 31 80 16 bf 27 bd 92 3e 98 03 d7 bc
       -0.64756906 -0.58789355 0.28659937 -0.02624683
000020 14 4e 7e 3e 82 bd c3 be e0 21 43 3e 59 4c a7 3e
       0.24834472 -0.3823052 0.19055891 0.32675436
000030 da d8 3d 3d 4f 39 a2 be 08 33 9a 3e c5 f5 d5 be
       0.046349384 -0.31684348 0.3011706 -0.4178907
000040 8c 27 9c 3d 26 55 53 3c 91 f0 5d bc 14 ea 4a bf
       0.076247305 0.012898719 -0.013546125 -0.79263425
000050 a9 75 6d 3d 52 09 c8 be 9d 7a 2d 3e 0c 89 6b 3e
       0.057973538 -0.3906961 0.16941305 0.23001498
000060 57 db de be 07 54 84 bd d0 de 91 3e f0 c2 98 3e
       -0.43526718 -0.064613394 0.28490305 0.29836226
000070 3f 31 8e 3c 06 4e fa 3d 9a 77 60 bf 70 ac 2a 3f
       0.017357467 0.12221913 -0.876825 0.6666937
000080 d8 6c fa 3d 43 01 58 be ca fd fb 3d 97 80 7e be
       0.122277915 -0.21094231 0.12304266 -0.2485374
000090 ba c3 ae 3e 3e 02 00 3e 0f 5a e5 3c 18 bc 67 bd
       0.34133703 0.12500855 0.027997045 -0.056575865
0000a0 ec 67 3c 3e 77 98 1b be a3 49 d3 3e 77 8b 8f 3e
       0.18399018 -0.1519488 0.41267118 0.2803609
0000b0 b7 48 70 bf cd 21 d5 3c 14 38 15 3e 1e e1 2a 3e
       -0.93860954 0.026017094 0.14572173 0.16687438
0000c0 e7 8b 0b 3f 95 91 9f 3e a4 3b 8b 3e 3d 7a 1d bf
       0.5451035 0.31165758 0.2719394 -0.61514646
0000d0 6c 50 64 3e 93 22 44 bf 03 08 8c 3e fe e5 a8 3e
       0.22296304 -0.76615256 0.27349862 0.3298797
0000e0 99 92 a3 bf 32 a2 39 3e a4 1c c6 3d dc b3 02 3e
       -1.2779113 0.18128279 0.096734315 0.12763923
0000f0 1c 1b ae 3e 4d 45 01 3e 3c 0e 96 bc c5 1f 83 3e
       0.34005058 0.12624092 -0.018317334 0.25610176
000100 ab 5b 77 3e 4e f0 05 3e 4f 11 46 3e ae 1b 65 bd
       0.24156062 0.1307995 0.1934254 -0.0559346
000110 01 ea a6 3e 2e 9c 8c 3d 36 ea 3e be 7f d2 cb 3e
       0.32600406 0.068657264 -0.18644032 0.39809033
000120 f8 c3 f0 bc 26 e5 a7 bd 94 1c 29 bf 68 3f 85 bd
       -0.02939032 -0.081980035 -0.6605923 -0.065062344
000130 88 26 03 be c1 cd 41 c0 23 3d b5 3e ec 10 66 3e
       -0.12807667 -3.0281832 0.35398206 0.22467393
000140 ac 2e a7 3e e4 f0 d5 3e be 47 bb be 66 47 da 3d
       0.32652795 0.41785347 -0.36578172 0.106581494
000150 ac ee 1a 3e 08 e9 5b 3e 15 c2 35 3e b0 3b ad be
       0.15130109 0.21475613 0.17749818 -0.338346
000160 78 ec 22 be 1c a1 10 3f c4 62 f6 3d a5 2c 5e 3e
       -0.15910518 0.56495833 0.12030557 0.21696718
000170 fd b2 17 3e 9f 5a 95 3e 9e c7 f1 3d 2b 6a 38 3e
       0.14814372 0.291707 0.11805652 0.1800925
000180 88 d7 08 be 8c 04 9a 3e 6b e7 5c 3e df d1 0a bd
       -0.13363469 0.30081594 0.21572654 -0.033891555
000190 d6 1a d0 3e 15 4f 62 bf ec 54 bd 3e f5 7a cf 3e
       0.40645474 -0.8840192 0.36978853 0.40523496
0001a0 75 d6 e7 3c 7d f5 b1 be 8e a1 ab bc f2 db 2b 3f
       0.028300503 -0.34757605 -0.020951059 0.67132485
0001b0 1f 47 88 3e 22 3d 39 3b 55 4b fc 3e 8d b3 99 bd
       0.2661676 0.0028265198 0.49276224 -0.0750495
0001c0 9c 88 b7 3d d2 a8 a3 be fd b9 db bd 7a f3 1a 3e
       0.08961603 -0.31964737 -0.10728834 0.15131941
0001d0 2a 00 1d 3f 46 e4 45 3e c1 6b 8a 3e fb a1 a5 3e
       0.61328375 0.1932536 0.27035335 0.32350144
0001e0 97 c9 33 3f ce c1 c6 bc e7 10 61 3e 26 60 b0 3e
       0.70229477 -0.024262335 0.21979104 0.34448355
0001f0 6c 70 79 3e 00 8b 3d 3e da 89 75 3e 1f 81 96 3e
       0.24359292 0.18510056 0.23978367 0.29395387
000200 d6 68 af 3e 39 34 85 3e 0c 9b 6b 3e 05 aa 3f 3e
       0.3425967 0.26016405 0.23008364 0.18717201
000210 6d 0f e6 3e 2d 65 be 3e ae 06 48 3e 3d 76 e2 bd
       0.44933644 0.37186566 0.19533798 -0.110577084
000220 ed fa 17 3e 8e 5b 48 be f1 27 1a 3e 76 12 12 3e
       0.14841814 -0.19566175 0.15054299 0.14264855
000230 fd a0 52 3e 24 72 51 3e 98 4c 03 3e 36 76 0e be
       0.20569225 0.20453697 0.12822187 -0.13912281
000240 ee 03 54 3e c4 e7 72 3e 7a f9 90 3e 31 1e 71 3e
       0.20704624 0.23721224 0.28315336 0.23546673
000250 14 ba 67 be 2d 87 9d bd 33 97 f4 be 6d 2a df 3c
       -0.22629577 -0.07691798 -0.47771606 0.02724191
000260 2e 7d 6a 3e ef 8f 26 be b9 56 34 bc 70 69 e9 3c
       0.22899315 -0.16265844 -0.011007004 0.02849266
000270 0c 46 92 3d ce 87 9e be e0 d2 1d 3f 14 c4 dd bd
       0.07142267 -0.30962986 0.61649895 -0.108284146
000280 22 12 41 3d f4 e5 ce 3e a3 96 f3 bf 3e 62 59 be
       0.047136433 0.40409815 -1.9030346 -0.21228883
000290 02 ac 44 be e4 a2 18 3e 31 e2 66 be 4c e7 be 3e
       -0.19206241 0.14905888 -0.22547223 0.3728584
0002a0 63 55 a0 3d ad 30 32 bf 1a 87 77 3e cd fa 21 3f
       0.07828786 -0.69605523 0.24172631 0.63273317
0002b0 33 96 5f be 97 6b b4 3e f9 93 ae 3e 4f ce e8 bd
       -0.2183464 0.35238335 0.3409727 -0.11367475
0002c0 62 56 49 be 9d 8d 72 be db 36 68 be 35 66 e1 bf
       -0.19661859 -0.23686834 -0.22677176 -1.7609316
0002d0 75 2f 33 bc 2a 28 14 be 59 97 a7 bd ea 7b 26 3e
       -0.010936608 -0.14468446 -0.08183164 0.16258207
0002e0 6f 47 a3 3e 07 9d ec 3e 7d 2f 14 3e 63 16 c0 3c
       0.31890437 0.46213552 0.1447124 0.023448175
0002f0 c4 e1 e8 be 32 7e 3c 3e 3e 14 1b bf de 6a bd bc
       -0.45484746 0.18407515 -0.6057776 -0.023122247
000300 3b 11 fb bd 5b b8 3d 3e 0c b4 0e 3d d6 43 8b 3e
       -0.12259146 0.18527357 0.034839675 0.27200192
000310 32 b4 fc 3e 86 dc 70 bf e7 55 be be 98 7c 04 3e
       0.49356228 -0.9408649 -0.37174913 0.12938154
000320 d9 0f 07 be f4 ad 2f bd 0d 81 94 be 34 df 1e 3e
       -0.13189639 -0.042890504 -0.29004708 0.15514833
000330 8c a7 b1 3e a4 d2 92 be d9 0f 68 3e 6f c4 ac 3e
       0.3469814 -0.2867633 0.22662295 0.33743617
000340 8f 36 d2 bd c6 a0 e1 3e bd 6e 1a 3f bc be 3d 3e
       -0.102643125 0.44067973 0.60325223 0.1852979
000350 b3 7b 8a 3e 90 6e 17 3e a1 31 01 3f a7 4b 9c bf
       0.270475 0.1478827 0.5046635 -1.2210587
000360 0d 88 96 3e 45 0c 21 bf b7 00 cb 3d f8 5b 14 3f
       0.29400674 -0.62909347 0.09912246 0.57952833
000370 7e 38 f0 be 13 d5 86 be 63 3a da bb 60 9d 65 3e
       -0.469181 -0.26334438 -0.0066597923 0.22423315
000380 87 5c 1d 3f 42 99 95 be d7 56 c7 bd 8d 65 2d 3e
       0.6146931 -0.2921849 -0.0973336 0.1693327
000390 fe 87 8d 3e 3f cc 80 3e 90 e0 0c 3e ac 3c 1d 3d
       0.27642816 0.25155827 0.13757539 0.03838794
0003a0 2f da 52 bd 8b 3b 70 3d 4f ad 65 3d f6 39 74 be
       -0.051477607 0.058650535 0.056073483 -0.23850235
0003b0 8c eb 02 be c6 be 31 3e 60 09 5d 3c 94 47 62 bd
       -0.12785167 0.1735793 0.013491005 -0.055244043
0003c0 da 35 bb 3c 1b 5d b0 3e d5 8e 18 3e b4 ee 3d 3f
       0.022852827 0.34446034 0.14898236 0.7419236
0003d0 24 8d 22 be 31 a8 78 bf 9f bc c6 bd f6 9c 9b 3e
       -0.15874153 -0.9713164 -0.09703945 0.3039319
0003e0 3c d6 bd 3e 4b 38 0b bf af 1d be be 07 49 dc 3e
       0.3707751 -0.5438277 -0.37132022 0.43024465
0003f0 cf d6 ff 3e e9 21 ac bf cb e7 0d bf 6a da bd be
       0.49968573 -1.3447849 -0.55431813 -0.370807

fc2.bias f4 [256]
000000 86 d1 0e 3f 96 27 26 3d 6a fc 6c 3d 1f 6c 1c be
       0.5578846 0.040565096 0.05785791 -0.1527562
000010 15 45 86 bd b4 e7 4c be b9 ab 11 be c9 d2 cf bc
       -0.06556145 -0.20010263 -0.14225663 -0.025369065
000020 bc df 89 3c c5 54 19 3d 24 59 3f 3d 4d 5f 81 be
       0.016830318 0.03743436 0.04671587 -0.2526802
000030 8b e2 29 be e3 0c ff 3e 1f a5 3e 3d f3 ee 46 be
       -0.16590326 0.4981452 0.04654419 -0.1942709
000040 0c 60 f8 bc 8d a5 3b be 73 30 07 be ac c2 13 be
       -0.030319236 -0.18324871 -0.13202076 -0.1442973
000050 50 f3 38 bd 5d f4 3d be af 97 34 3d 01 3e 57 3d
       -0.045153916 -0.18550248 0.04408997 0.052549366
000060 59 4d 4f 3f 42 c8 06 be a1 d5 51 3d 1d b6 3d be
       0.809774 -0.1316233 0.051229123 -0.18526502
000070 9f 5f 22 bd 16 06 9d bd 63 80 f1 3e 1d 0d 9d 3c
       -0.039641973 -0.076671764 0.47168264 0.019171292
000080 1f 7d 34 3d 86 4a 92 3e 66 29 a7 3c 2a 88 5d bd
       0.044064637 0.28572482 0.020405483 -0.054084934
000090 a6 cf 2e be a8 6e a5 bc a8 80 bf bc fd 36 89 bd
       -0.17071399 -0.020194367 -0.023376778 -0.06699941
0000a0 57 86 37 be b4 c4 d4 3c 88 ee c5 3e 1d 9d 4f 3d
       -0.1792234 0.025972702 0.38658547 0.050686944
0000b0 5e 61 10 bd 41 a4 34 3f d2 78 32 be 83 f5 f9 3c
       -0.035249107 0.7056313 -0.17428902 0.030512577
0000c0 d1 e9 5d 3d 6b bb fb 3c e9 07 3e 3f ac bf 87 bd
       0.054178063 0.030729016 0.7423082 -0.066283554
0000d0 b6 ec 27 3d 24 86 f1 bc c7 d4 a5 bc 85 92 16 3b
       0.04099723 -0.029482909 -0.020243062 0.0022975516
0000e0 e7 ac 10 3d 92 9a 65 3d b0 87 3f bd a3 c6 ff 3d
       0.035321143 0.056055613 -0.04676026 0.12489059
0000f0 9d c9 88 bb f0 5b 09 3e dd 36 95 3c a8 c3 0c be
       -0.004174425 0.13413978 0.018214637 -0.13746512
000100 7c ba 71 bd ba df 23 be 31 f8 d8 3c 97 52 3c 3d
       -0.059015736 -0.16003314 0.026485534 0.0459772
000110 c4 b4 15 be 66 7a 18 be ce ab 2d 3c 8d 8a 8c bc
       -0.14619738 -0.14890441 0.010600043 -0.01715591
000120 27 b1 eb bd af 46 35 3d 8f a1 36 3c 00 d9 cd 3e
       -0.115083985 0.044256862 0.011146917 0.4020462
000130 9f bf 78 be bd e5 08 bd 58 c4 01 3f 3e 2f 97 bd
       -0.24291848 -0.03342222 0.5069022 -0.073820576
000140 08 85 44 3d 8b 1c e5 3d fb 9c 54 bc 81 12 58 3d
       0.04797843 0.11187085 -0.01297688 0.05275202
000150 ce e3 46 3d f4 48 a4 bd 1d 24 bc 3e 37 29 eb 3e
       0.048557095 -0.08021727 0.36746302 0.45929882
000160 a0 20 f9 bd 50 68 32 bd 04 17 8f 3c 21 59 40 be
       -0.12164426 -0.04355651 0.01746703 -0.18784
000170 c7 4b 27 bc 30 1a 36 be c4 ef d1 bd 8d a8 c6 3e
       -0.010210938 -0.17783427 -0.1025081 0.3880047
000180 b0 e3 b8 bb a3 af 05 3f 1f 74 75 be d9 74 8f 3e
       -0.005642377 0.52221125 -0.23970078 0.28018835
000190 b4 ed 79 bd 39 85 28 be 26 92 6a be df 2e 27 bd
       -0.061017707 -0.1645707 -0.22907314 -0.040816184
0001a0 77 29 13 be 29 70 c8 bc 35 11 0b bd e1 1f cf bc
       -0.14371286 -0.024467545 -0.033951957 -0.025283756
0001b0 5a 80 5d bd 10 8d 48 3d 25 3c f3 3e da a5 5d bd
       -0.054077484 0.048962653 0.47506824 -0.054113247
0001c0 ed 23 8e bc 2b 6d de bd 17 92 19 be 90 ff 74 3d
       -0.017351115 -0.10860666 -0.14997135 0.059814036
0001d0 5c 34 4a bd ba c5 04 be 02 76 4c be 55 90 6e be
       -0.04936634 -0.12966052 -0.19966891 -0.23297246
0001e0 f6 38 da bd a5 73 08 3e bb a5 69 bd a5 61 4b be
       -0.10655396 0.13325365 -0.05704282 -0.19861467
0001f0 f7 b9 3d 3d c6 d2 a0 bd da c3 05 be e6 86 26 3d
       0.046319928 -0.07852702 -0.13062993 0.040655993
000200 34 10 08 3e 46 5a 2f 3d f5 e9 83 bc f3 b3 3b be
       0.13287431 0.0428107 -0.01610277 -0.18330364
000210 b0 6f 71 bd 65 08 87 bd 30 5f b3 bc cc d3 40 3d
       -0.058944404 -0.06593398 -0.021895975 0.047076985
000220 e8 7f 3c bd 09 91 c2 b9 9f 76 b3 3c c9 5a bf 3e
       -0.04602042 -0.00037110623 0.021907149 0.3737395
000230 45 88 e0 3d 03 ca 1a be 6d 1c af 3e fc fa 52 be
       0.10963491 -0.15116124 0.34201375 -0.20603555
000240 3e 34 97 bc 36 11 24 3d 21 01 d1 3c dc c3 b4 3d
       -0.018457528 0.040055476 0.025513234 0.0882642
000250 6c 37 53 bd 6d f6 06 bd 91 2f 49 bd 22 8e 52 be
       -0.051566526 -0.032949854 -0.04911763 -0.20562032
000260 cc a2 4d be 8d 08 91 3c ee bc 36 be 41 c8 8f 3d
       -0.20081633 0.017704273 -0.17845508 0.07020617
000270 bb 1a 7e 3d 73 08 64 3e 85 41 08 3f 33 01 64 bd
       0.06203721 0.22268848 0.53224975 -0.055665206
000280 31 9b 5b 3d 75 1f 89 3d 66 fe 90 bd 5a cc 55 be
       0.0536148 0.06695453 -0.07079773 -0.20878735
000290 80 73 1e 3f 84 f4 a3 bd 89 08 c6 bc 21 e7 57 bd
       0.6189499 -0.08005622 -0.024173992 -0.052710656
0002a0 ae 4f 47 be 66 0b 2c 3d 23 80 f2 3c 9e a5 2a 3f
       -0.19463989 0.042003058 0.029602116 0.6665896
0002b0 87 ad 37 3d 72 b3 0d be 36 84 c5 bd 1c a0 76 be
       0.044843223 -0.13837984 -0.09644358 -0.24084514
0002c0 76 16 00 3d 38 d9 25 be 84 3e 72 bd a0 a9 86 3b
       0.03127142 -0.16196144 -0.05914165 0.0041095763
0002d0 f4 4f 0c 3d dd b3 23 be 87 cb 32 3d 8a cf 96 bd
       0.034255937 -0.15986581 0.04365113 -0.07363804
0002e0 25 b3 ea 3e b5 28 19 3f 9a 87 a5 3d a5 a4 86 bd
       0.458398 0.5982774 0.080825046 -0.06574372
0002f0 e3 76 42 3e 24 5b f4 bc 4c 13 b7 3d 26 18 ad 3c
       0.18990664 -0.029828615 0.089392275 0.021129679
000300 ba fa c2 3e a5 bc 03 bd 48 91 20 be 67 e0 69 be
       0.38081914 -0.032162327 -0.1568042 -0.22839509
000310 bc 50 f4 3e 20 ac 4f bd 1f 58 fc bd e4 89 b0 bd
       0.47717845 -0.05070126 -0.12321495 -0.086200505
000320 30 12 3b be 88 f6 62 be 3e 90 ee bd 45 36 df bd
       -0.18268657 -0.22164357 -0.11648606 -0.10899023
000330 83 2e e4 bc 75 dd 55 be 1f e2 23 be 8a ba 52 bd
       -0.02785421 -0.2088526 -0.16004227 -0.05144743
000340 e7 d7 54 be 62 3c 4a be d4 5a f9 bc 14 65 13 be
       -0.20785485 -0.19749597 -0.030438818 -0.14394027
000350 e5 b8 04 be a7 55 00 be 44 5c 85 3c c5 08 5f be
       -0.12961157 -0.12532674 0.016279347 -0.21780689
000360 a0 55 2f be 08 3c 54 be 58 16 76 3e 30 b6 31 bb
       -0.17122507 -0.20726025 0.24031961 -0.002711665
000370 f8 f8 3f bd f7 41 b8 3c 68 d9 44 3c 46 bb 0c be
       -0.046868294 0.022492392 0.012014724 -0.13743314
000380 48 ee 40 bd 65 15 89 bb 74 4c 7e bd 17 02 3f 3d
       -0.047102243 -0.0041834586 -0.06208463 0.046632852
000390 c0 8a 30 be e7 5f a0 bc bd 1a b4 3e 90 ed 1f bc
       -0.17240429 -0.01957698 0.3517665 -0.009761229
0003a0 7a 80 17 be 68 8c 9a bd 98 6a 30 be 91 5c 4e bd
       -0.14795104 -0.075463116 -0.17228162 -0.050381247
0003b0 85 d8 ea 3e 2f 90 16 3d 8c e0 13 be 7a 5d e3 bd
       0.45868316 0.036758598 -0.14441127 -0.111018136
0003c0 f2 f2 53 be f5 2c 31 be 84 15 30 be 78 21 ff 3e
       -0.20698145 -0.17302306 -0.17195708 0.49830222
0003d0 5e a7 e1 bd 41 e6 5a 3e bb 61 b2 3e 12 db dd bd
       -0.11018251 0.21376897 0.34840187 -0.108328
0003e0 61 4a 5e be 89 2a 51 3d a5 68 fd 3e 52 90 55 bd
       -0.21708061 0.051065955 0.494939 -0.052139588
0003f0 d4 9d 8b 3c 4f 29 23 be 50 0b f7 bc f5 4f 0c bd
       0.017043032 -0.15933727 -0.030156761 -0.03425594

value.weight f4 [1, 256]
000000 50 42 9b 3f a9 79 55 3d bc 63 0d bc eb 72 53 be
       1.2129612 0.052117977 -0.008629736 -0.20649306
000010 a6 d9 13 ba 5d 47 6f bf ae 22 32 be 9b 43 fd bc
       -0.0005640037 -0.93468267 -0.17396042 -0.030916026
000020 9e 5c 2f bd 29 2a dc bc f2 9a 3b 3d 26 0f 8e bf
       -0.042812936 -0.026875572 0.045802064 -1.1098373
000030 0a 8d 9c be b9 aa 12 40 91 51 54 3d 65 72 3e be
       -0.30576354 2.29167 0.0518356 -0.18598326
000040 88 d5 41 3d 95 a2 31 be 29 a3 09 be 40 1b 16 be
       0.04732278 -0.17347176 -0.13441147 -0.14658833
000050 8f bf b1 3c 4e 1a 22 be fd 07 15 3c 24 10 8d 3c
       0.021697788 -0.15830347 0.009096143 0.01721961
000060 a5 29 a7 3f f5 29 14 be 58 5c ca 3c a2 59 4b be
       1.3059584 -0.1446913 0.024702236 -0.19858411
000070 30 ae c3 bc f5 4f 8c bb 13 bc 12 40 3b 31 72 bc
       -0.02388677 -0.0042819926 2.2927291 -0.014782245
000080 ac 66 06 3c ab 59 8d 3f d5 8f 1e 3d 10 8d 48 3d
       0.00820319 1.104299 0.038711388 0.048962653
000090 d4 38 07 be 80 02 36 3a 97 51 38 3d 1e 4d 23 3d
       -0.13205272 0.00069431216 0.044999685 0.039868467
0000a0 06 4b 53 be dc 09 91 3f 38 82 06 40 ae d0 16 bf
       -0.20634088 1.1331134 2.101698 -0.5891217
0000b0 00 07 c3 bc bb fd 1f 40 57 98 07 be 4e b2 2e bd
       -0.023807049 2.4998615 -0.13241707 -0.042650513
0000c0 fa b7 67 3b f0 8e 43 3c 1d ff 3b 3f 5e d9 39 be
       0.0035357461 0.011935934 0.73436147 -0.18149325
0000d0 b3 d8 f0 3b ba f4 60 3d c2 60 e5 3b 59 29 5f bd
       0.0073500513 0.05492089 0.00700006 -0.05448279
0000e0 8d 24 00 40 05 62 1c bd b3 94 73 3c 06 28 12 bf
       2.002231 -0.038179416 0.014866996 -0.5709232
0000f0 55 37 9a 3c 7e 20 9f 3f 27 5f 36 3d e0 9d 1a be
       0.018825212 1.2431791 0.044524338 -0.15099287
000100 be 36 21 3d b0 28 18 be 7f a6 37 3b b6 43 a6 bc
       0.039358847 -0.14859271 0.0028022823 -0.020295959
000110 67 cd f9 bd b9 9c 33 be 0d d6 0e 3d 96 32 00 3d
       -0.121973805 -0.17540254 0.034872103 0.031298243
000120 3a 28 3a be f4 f7 09 3d e5 a8 98 3b 4a 38 fa 3f
       -0.18179408 0.033683732 0.0046588057 1.9548428
000130 d6 30 31 be 21 1a 51 bc c9 6f f0 3f ad a0 48 be
       -0.17303786 -0.012762577 1.8784114 -0.19592543
000140 0d 2a 81 3a 55 69 73 3f 84 e5 06 bf 3d 61 9c 3c
       0.0009854451 0.950826 -0.52693963 0.019089336
000150 f3 e5 65 bf da 2f 38 be 42 fd 9a bf 66 80 4d 3f
       -0.89804 -0.17987004 -1.2108538 0.80274045
000160 f9 9a 2d be db 4e f8 3c c0 9d 45 3c 35 c4 17 be
       -0.16953649 0.030311039 0.012061536 -0.14820941
000170 4c ad 81 3b fb 48 3c be ca f3 1b be d0 58 6b 3f
       0.003957426 -0.18387215 -0.15229717 0.9193239
000180 0d 28 12 bd 81 1d 16 40 18 b8 47 be df 9a 79 3f
       -0.035682727 2.3455508 -0.1950382 0.9750194
000190 73 2f 6e 3d 20 e9 53 be 41 17 49 be 77 55 bb 3c
       0.05815072 -0.20694399 -0.19637777 0.022867901
0001a0 01 dc 35 be 46 69 20 3d 92 f7 e2 bc de df 2f 3d
       -0.17759706 0.039162897 -0.027705941 0.042938106
0001b0 45 a7 1e 3d bd 48 1e 3d c0 39 a8 bf 8e 25 a1 3c
       0.03873374 0.038643587 -1.3142624 0.019671228
0001c0 5e a7 2e bc 2c 49 77 be f0 6f 12 be a3 70 66 bd
       -0.010660021 -0.24149007 -0.14300513 -0.056259762
0001d0 c8 4b 01 bf 62 6b 67 be a9 9b 31 be 05 eb 50 bf
       -0.5050626 -0.22599557 -0.17344536 -0.8160861
0001e0 0f 05 20 be 1a c9 8b 3f 7b c3 7c bc 23 f3 27 be
       -0.1562693 1.0920746 -0.015427466 -0.16401343
0001f0 8a 38 d7 bb f2 66 98 be 6b a4 2f be 61 7b df bc
       -0.0065680193 -0.2976604 -0.17152564 -0.027280511
000200 8c b8 94 3f e0 d8 45 3d c6 00 a7 3c 88 69 3a be
       1.1618819 0.04830253 0.020386111 -0.1820432
000210 c6 50 39 be e1 cb 5c 3d 86 e1 26 3d a1 ca 1b bf
       -0.18097219 0.05390537 0.04074242 -0.6085606
000220 db c3 71 bd 10 50 fa bc 22 7e ea 3c 92 b5 04 40
       -0.059024673 -0.030555755 0.028624598 2.0735822
000230 2c d3 94 3f a1 78 02 be 6f ee a7 3f cc d1 f7 bd
       1.1626945 -0.12741329 1.3119639 -0.121005625
000240 72 00 e1 3c 29 8b 50 bd a2 8a ea bb 08 e8 35 bf
       0.027466033 -0.050913963 -0.0071576396 -0.71057177
000250 f6 6f 60 bd ce d7 ae 3c 4a 75 50 3b c2 fc 58 be
       -0.054794274 0.021343138 0.003180819 -0.2119017
000260 a6 ee 0f be bb bd fe 3c 5d ea ed bd a2 b4 b6 3f
       -0.14055881 0.03109633 -0.11616967 1.4273875
000270 5e cc 45 3f 1f 3b b8 3f 6f dc c7 3f d3 aa 74 3c
       0.77264965 1.4393042 1.5614146 0.014933306
000280 57 0b 32 bd a1 a7 99 3f 77 84 2f 3c f4 d0 18 be
       -0.043467846 1.2004281 0.010712734 -0.1492346
000290 fc fe 19 40 cb f9 1d be eb 0f f0 bc b4 e8 21 be
       2.406188 -0.1542732 -0.029304465 -0.15811425
0002a0 93 75 19 be f0 50 45 3c a1 b2 db 3c 9e cf 10 40
       -0.14986257 0.012043223 0.026818575 2.262672
0002b0 f5 44 12 3d b3 bf 5f be ef 22 df bd 8a d6 49 be
       0.035710294 -0.21850471 -0.10895335 -0.19710746
0002c0 df 32 b7 3c 73 40 eb bd 40 97 c5 3c ce ad 6e 3d
       0.022363124 -0.11486902 0.024119973 0.05827122
0002d0 12 37 e7 3c 8f 46 1e be a9 e3 54 3d 99 39 ff bd
       0.028224502 -0.15456603 0.051974926 -0.12462158
0002e0 cc 5e 11 40 84 e3 07 40 c4 c8 87 bf 7a 2e 39 be
       2.271411 2.1232615 -1.0608144 -0.18084136
0002f0 d6 12 5d 3f bc 88 0b 3d 3a 31 00 bf 6f 47 38 3d
       0.86356866 0.034065947 -0.50075114 0.04499
000300 fe 5f 03 40 99 96 d2 3c 22 cb 26 be 44 f4 59 be
       2.052734 0.025706576 -0.16288427 -0.21284586
000310 42 94 86 3f e5 ca 34 bf 37 84 17 be b0 46 eb bd
       1.0513995 -0.7062209 -0.1479653 -0.11488092
000320 e2 0c 18 be 95 9a 70 be d8 ea 2b be 18 d2 ed bd
       -0.14848664 -0.23496468 -0.16788805 -0.11612338
000330 45 e5 9c 3c 22 0f 2c be d5 34 78 be 51 dd 5d 3b
       0.019152293 -0.16802648 -0.24238904 0.0033853839
000340 fb f3 5d be 85 fe 19 be 3c 6d 01 3d ce 23 84 be
       -0.21675102 -0.15038498 0.031598315 -0.25808567
000350 3c 86 57 be 98 89 cf bd fc a4 ff bb ae d7 3a be
       -0.210473 -0.10133666 -0.00780165 -0.18246338
000360 e5 e5 32 be 4f 28 1a be 11 4c 56 3f f2 fc eb 3b
       -0.1747051 -0.15054439 0.8370982 0.0072017843
000370 7f 1b 31 3d 38 e9 4b 3d dd 77 1f bd b7 ca 1a be
       0.043239113 0.04978296 -0.03893267 -0.15116392
000380 7e b0 ad 3b 8e 9a 1a bb 60 c7 ca bc a8 48 40 bd
       0.0053005805 -0.0023590657 -0.024753273 -0.04694429
000390 3e e8 95 be b1 09 d4 3c 5a 18 a3 3f 20 b3 96 3c
       -0.2927875 0.025883527 1.2741807 0.01839596
0003a0 ba 01 55 bf 0c 66 d9 be 74 c0 23 be a8 5c 45 bd
       -0.8320576 -0.42460668 -0.15991384 -0.048184067
0003b0 c8 7d d2 3f ca 1a a9 3f f4 b5 ea bd 21 90 28 be
       1.6444635 1.32113 -0.11460486 -0.16461231
0003c0 da 36 3e be fe 47 61 be cc 61 63 be ab f1 0d 40
       -0.18575612 -0.22000119 -0.22205275 2.2178752
0003d0 ad 5d 0f be b1 2c 6b 3f ae 07 2d 3f a7 99 70 be
       -0.14000578 0.9186507 0.67589843 -0.23496114
0003e0 b9 09 39 be 16 a1 b1 3c 12 35 d4 3f 23 17 77 3b
       -0.18070115 0.021683257 1.6578696 0.0037703
0003f0 27 de 3e 3d 64 ac 28 be 90 df f4 bc c4 e4 81 39
       0.04659858 -0.16472012 -0.02989176 0.0002477524
