data/pendulum/models/lsac-pendulum-actor.pth (torch, 272720 bytes, 6 tensors)

fc1.weight f4 [256, 3]
000000 41 6d d7 3e 42 df a1 be 11 dc 4a be 93 27 fe be
       0.42075542 -0.31615645 -0.19810511 -0.49639568
000010 77 a8 b9 bd be 68 2e be 1b 4f c2 3e 55 84 43 3f
       -0.09065335 -0.17032143 0.37950978 0.763738
000020 3b 96 64 3e 79 c3 c4 3e c8 6d b7 be a5 e3 9c 3e
       0.22322933 0.38430384 -0.35825944 0.3064243
000030 92 8b 8a be 8a a0 92 3f 59 9d c8 3e 40 15 fe be
       -0.2705961 1.1455243 0.39182547 -0.49625587
000040 19 66 c6 be 28 59 47 3e b6 03 e9 bd b8 96 a3 be
       -0.3874977 0.19467604 -0.11377661 -0.31950927
000050 38 13 ad be 16 4d 73 3e ac 09 63 bf 88 4b a1 be
       -0.33803725 0.23759875 -0.88686633 -0.31502938
000060 80 a2 d0 3e e6 65 09 bf 69 fb 6f be f6 2a 02 3f
       0.40748978 -0.5367111 -0.23435749 0.50846803
000070 35 fb cf be c9 f6 03 be 40 49 ea 3e 22 28 a5 be
       -0.40621343 -0.1288711 0.4575901 -0.3225718
000080 0e e4 d7 3e c9 ee fe 3e fe 52 b5 3e 73 7f 42 3e
       0.4216618 0.49791554 0.3541488 0.1899393
000090 96 85 2f 3e d5 fd 13 3f b5 c1 22 be c6 e7 11 bf
       0.17140803 0.5780919 -0.15894206 -0.56994283
0000a0 c3 ef cd be c1 93 06 3f c3 04 9e bd 7e 04 7a 3f
       -0.40221986 0.52569205 -0.07715752 0.97663105
0000b0 3e e7 4d 3e 1d 09 81 3e d0 f3 8c be d7 1c 46 bb
       0.20107743 0.25202265 -0.27529764 -0.0030229592
0000c0 a2 7e a7 3e a1 7c fd 3e d9 8a 30 3e 87 ad 9c be
       0.327138 0.49509147 0.17240466 -0.3060114
0000d0 5c 00 4b 3e 00 17 1f 3e 95 9e 4d be 1a b7 6f 3e
       0.19824356 0.15536118 -0.20080025 0.23409691
0000e0 1e 32 a2 be ad 24 1c bf 91 ae 72 be af 04 47 3e
       -0.3167886 -0.6099346 -0.23699404 0.1943538
0000f0 b5 53 d1 bd c9 7b 2e bf 5b 0c 02 be 4e c1 f2 3e
       -0.10221044 -0.6815763 -0.12700026 0.47413105
000100 33 46 5d 3e a6 c1 7f 3e ed d2 dc be a8 9f 1c bf
       0.2160881 0.24976215 -0.43129674 -0.61181116
000110 33 c8 94 3e e5 03 3d bc fa 92 17 3f 41 67 08 3e
       0.2905899 -0.011536573 0.59208643 0.13320638
000120 2f a1 d8 3d fe 8e 83 be 32 94 0f 3f 71 80 1c 3f
       0.10577618 -0.25695032 0.56085503 0.61133486
000130 5a cc ba 3e 96 12 12 be c8 a0 a2 3e 5b a5 17 be
       0.36484033 -0.14264902 0.3176329 -0.14809172
000140 e9 f4 80 3e ef 18 0f be 52 cc a8 bd f6 f6 be be
       0.25186852 -0.13974355 -0.08242096 -0.3729779
000150 3f 10 00 bf 9b a1 d7 3e 8f a9 88 3e 61 ba 92 bd
       -0.5002479 0.42115483 0.26691863 -0.07164455
000160 e6 d5 04 bf a7 e7 85 3d e4 54 47 bf 6f 31 14 bf
       -0.51888883 0.06538325 -0.7786391 -0.5788793
000170 29 f8 23 be 29 e3 1a bf d6 e5 41 bf a7 f8 91 be
       -0.16012634 -0.6050287 -0.75741327 -0.2851002
000180 39 dc b3 3e 8c a7 2f 3f 75 1d 82 bc 45 b1 fb be
       0.35128954 0.6861503 -0.015883187 -0.49158683
000190 59 8d 34 3f 35 c1 13 3e 99 3a 03 3f a2 bc b1 3d
       0.7052818 0.14429171 0.5126129 0.08678557
0001a0 c1 0d 0b 3f 64 bc e9 3e ac e5 09 3e 8f c4 a7 be
       0.5431786 0.45651543 0.13466519 -0.3276715
0001b0 47 ab c8 be e1 81 a2 3d 0d 06 bb be fb 29 99 be
       -0.39193174 0.07934929 -0.36528054 -0.2991484
0001c0 42 f7 13 bf cd a4 b1 3c 25 69 03 be 1f 18 a0 be
       -0.5779916 0.021685028 -0.12833078 -0.31268403
0001d0 df cd c4 bd 6b 0f 03 bf d2 53 fb be fd 86 ad 3e
       -0.09609579 -0.511954 -0.49087387 0.3389205
0001e0 f1 b2 06 bc 28 a1 0b bf ac 27 c4 bd c4 e2 e6 be
       -0.008221374 -0.5454278 -0.09577879 -0.45094883
0001f0 d4 a9 c4 3e 30 c3 8b be 1d c7 80 be 37 3f 52 3f
       0.3841082 -0.27297354 -0.2515191 0.8212771
000200 df a2 e4 3e f1 ca 29 bf 13 72 d4 3e d2 53 7b 3e
       0.4465551 -0.6632529 0.41493282 0.24543694
000210 76 ed 1a 3f 2d ab 09 3d e9 c3 89 be 14 80 c0 3a
       0.60518587 0.03361051 -0.2690728 0.0014686608
000220 b4 1e 13 3f ac f7 d7 3d f8 87 10 bf 30 38 1e bf
       0.57468724 0.105452865 -0.5645747 -0.61804485
000230 94 46 2e 3e 61 06 08 3f eb 2b 17 3f 9f ba 44 be
       0.17019111 0.53134733 0.5905139 -0.19211815
000240 c9 41 11 be ad ce 66 3e 1b 64 90 3e 47 61 68 bb
       -0.14185251 0.22539778 0.28201374 -0.0035458372
000250 39 41 81 3e da 81 f7 3e ce 18 55 be cf f4 ce be
       0.25245073 0.48341256 -0.20810243 -0.4042115
000260 92 13 ac be d5 65 cd 3e 45 49 21 3f 8b 77 e7 3e
       -0.3360868 0.40116754 0.63002425 0.45208392
000270 5b 75 8e bd 1a 39 b7 3e 9c 0a b5 be af 5e e0 be
       -0.069559775 0.35785753 -0.35359657 -0.43822238
000280 d2 a1 8b 3e 4e 80 2d be 48 b8 2a bf 75 63 2e 3f
       0.27271897 -0.16943476 -0.6668744 0.6812051
000290 33 a3 3c 3e 9f 1e 98 bd f9 52 ac 3d 30 d5 87 be
       0.1842163 -0.074277155 0.08414263 -0.26529837
0002a0 8d 87 14 be cd c8 27 3f 97 cc 0d 3e 53 12 e7 be
       -0.14504834 0.6554077 0.13847576 -0.45131168
0002b0 cf f3 71 bf b2 cf bc be 01 1b a2 3e fd 8c 62 3f
       -0.9451265 -0.3687721 0.31661227 0.8849638
0002c0 6f 1d db 3e df 72 83 3e 5d 72 9e 3e d2 56 4a be
       0.42795894 0.25673577 0.30946627 -0.19759682
0002d0 1c 8a a9 3e 38 ed d5 be 0d cd 89 be 10 da b4 be
       0.33113182 -0.41782546 -0.26914254 -0.35322618
0002e0 cc 18 a8 3e 1d e1 d3 be 76 f5 07 bf ac 30 08 3f
       0.3283142 -0.41382685 -0.5310892 0.5319927
0002f0 4e 19 c5 3e 92 96 6d be 01 ef 43 3f 46 77 e2 bc
       0.38495868 -0.2320197 0.76536566 -0.027644765
000300 16 b4 01 be 5b 4f fc 3e 75 e8 d5 be ad 17 eb 3e
       -0.12666354 0.49279293 -0.41778913 0.459165
000310 54 b4 86 3e d9 a5 2b be 4c 90 81 be ae 36 26 3e
       0.26309454 -0.16762485 -0.25305402 0.16231796
000320 dc c0 0f be c5 dd 8d bd ee f4 ca bd 49 45 f4 3c
       -0.14038414 -0.06927065 -0.09909998 0.029818194
000330 43 96 0d 3f 96 93 f8 3e c7 43 d5 bc 17 2a 92 3e
       0.55307406 0.485501 -0.026033295 0.28547737
000340 89 9b 54 bf 43 8c 1d be c7 2f 96 be c6 97 8c 3f
       -0.8304983 -0.15385537 -0.29333326 1.0983818
000350 6c 46 e8 3e 01 43 db be fc 51 d7 3e c2 97 3e 3e
       0.45366228 -0.42824557 0.42054737 0.18612579
000360 1d 47 31 3d 5e 14 00 3f fe 45 03 3f 65 5f 15 3f
       0.04328071 0.5003108 0.51278675 0.58348686
000370 4f fa 32 bf 21 10 c9 be ed 2e f6 3e 8e 71 34 bf
       -0.6991319 -0.39270118 0.48082677 -0.7048577
000380 a7 ae 3e 3e 6d c6 0e bf ef cb 52 3f ee 55 2e 3e
       0.18621312 -0.55771524 0.8234243 0.17024967
000390 7d 31 b5 3e 8b 0f b8 be d1 d5 ae be 48 ec e1 be
       0.3538932 -0.35949358 -0.34147504 -0.4412558
0003a0 0a 6b bb be 34 aa 30 3e 47 8b d9 3e 2c 18 c0 bd
       -0.36605102 0.17252427 0.42489073 -0.093796104
0003b0 71 43 11 3f ff 24 1f bf 1d 23 0f 3f d6 ae 30 be
       0.5674353 -0.62165827 0.55912954 -0.17254195
0003c0 98 7e c2 3e b1 5e 03 bf 53 8e a5 3d 1c 14 4f be
       0.37987208 -0.5131636 0.08083787 -0.20222515
0003d0 46 90 07 be fa 88 8b 3e 50 0a 3d bf a9 c0 24 3e
       -0.1323863 0.27252942 -0.7384386 0.16089119
0003e0 7b 59 3f 3c 04 90 e5 be 3f 8f 77 3f 44 08 43 3e
       0.011679049 -0.44836438 0.9670295 0.19046122
0003f0 2f 7b 83 be bc 56 96 be 75 de d7 be 75 29 ac be
       -0.2567992 -0.29363048 -0.4216191 -0.3362538

fc1.bias f4 [256]
000000 ac c5 fd 3d 81 09 d5 3e 16 38 c6 3e be 66 41 be
       0.123912185 0.41608813 0.38714665 -0.1888685
000010 84 84 67 be 23 d1 cd 3e 59 80 8d bb fa 4e 77 3e
       -0.22609144 0.4019862 -0.0043182787 0.24151221
000020 5f 11 27 be 94 e7 39 3d 87 42 30 bd 0f 63 98 be
       -0.1631522 0.045386866 -0.043032195 -0.29763076
000030 70 88 e9 bb ec d5 1a bf 31 a7 9c be 62 0c 22 3e
       -0.0071268603 -0.6048267 -0.30596307 0.15825036
000040 32 38 91 bd a9 3f bd 3e aa 41 0b bf 7e 60 24 3d
       -0.070907965 0.3696263 -0.5439707 0.040131085
000050 0f 2d ae 3e 3b 5a 2a bf 22 0c 04 3f 59 16 90 3e
       0.34018752 -0.6654393 0.51581013 0.2814205
000060 55 d4 18 bf 05 84 3c be 32 18 d3 bd f1 2b c9 3d
       -0.5969899 -0.18409736 -0.10307349 0.09822834
000070 61 fd 13 3f 78 70 a1 3e c3 94 a7 3e f3 18 4e 3e
       0.578085 0.3153112 0.32730684 0.20126705
000080 40 21 30 be f2 79 52 3e 0e 5f cf be 67 1a d7 3d
       -0.17200184 0.20554331 -0.40502208 0.10503083
000090 fa 3f 00 bf a3 a5 b3 3d cb 2b 80 3e 79 a4 ea 3e
       -0.5009762 0.08771827 0.2503341 0.45828608
0000a0 34 66 77 3e cb 7f 81 be e3 80 d5 be 42 3a c4 3e
       0.24160081 -0.2529281 -0.41699895 0.38325697
0000b0 c8 bd 12 bf 69 c6 87 3e 96 b6 fd be 76 d5 92 be
       -0.57320833 0.26518562 -0.49553365 -0.28678483
0000c0 90 52 b6 bd 57 34 fb be 88 7d be 3d 20 91 e8 3e
       -0.08902466 -0.4906337 0.09301287 0.45423222
0000d0 b4 4d b5 3e 3a 25 09 3e 13 ff b3 3e b0 98 d7 be
       0.35410845 0.13393107 0.35155544 -0.4210868
0000e0 df ee 2a be db 05 9a be 73 c2 21 3e a1 33 39 bf
       -0.16692685 -0.30082592 0.15796833 -0.72344404
0000f0 4a 35 27 3e 80 77 06 3f 29 ff dc be 81 c5 4e bb
       0.16328922 0.5252609 -0.43163422 -0.0031550827
000100 04 1f 34 be 2e 18 f9 3e 0e d2 12 bf b4 62 b7 be
       -0.17589957 0.4865126 -0.5735177 -0.35817492
000110 28 e7 4f 3e 76 69 7f be 17 2b 68 be c5 31 0f 3f
       0.20303023 -0.24942574 -0.22672687 0.5593532
000120 3e f1 ae 3e da 64 ec be 8f 31 1f 3d 8b d0 6c 3e
       0.34168428 -0.46170694 0.038865622 0.23126428
000130 96 30 e3 3c ef d2 67 3e 23 3a 29 bf 13 97 4a 3e
       0.027733129 0.22639059 -0.66104335 0.19784193
000140 13 b2 ae bd 5a bf 03 3e 01 cc f0 bd 8b ed 68 3d
       -0.08530059 0.12865964 -0.11757661 0.056867164
000150 66 af c1 be 90 58 f6 3d ad 7c 4f be e6 c4 d2 be
       -0.3782913 0.12028611 -0.20262404 -0.41165847
000160 1a 98 2c bd 47 64 ae bc 46 df 8b be 50 c2 09 3f
       -0.042137243 -0.02128805 -0.27318782 0.5381212
000170 91 c6 a4 be 6b 36 71 bd 52 96 82 3a 85 b0 f6 bd
       -0.32182744 -0.058889788 0.0009963012 -0.12045387
000180 e8 7f a4 3e 91 57 27 ba 11 ef 63 3e 59 63 01 be
       0.32128835 -0.0006383593 0.22259165 -0.12635554
000190 a3 5f d9 3e c2 7b c5 3e b8 a2 26 bd da cf 3d bd
       0.42455778 0.38570982 -0.040682524 -0.0463408
0001a0 a9 2b 84 be 26 31 d4 be 38 7c 22 3e 3d 04 48 bd
       -0.2581456 -0.41443747 0.15867698 -0.048832167
0001b0 31 48 ef be 55 f9 f9 3e 8e 0a 1b bf 62 c0 d2 3c
       -0.46734765 0.48823038 -0.6056298 0.0257265
0001c0 93 a7 aa bd e0 b3 a6 bd 56 10 50 3e 38 5b b7 be
       -0.083327435 -0.08139777 0.20318732 -0.35811782
0001d0 44 61 e0 3e 05 ad 0d 3e e0 9c 16 be 02 dc a4 3e
       0.43824208 0.13835533 -0.1470828 0.32199103
0001e0 50 d6 87 3d b7 b6 cb 3e 37 f6 8f 3d b0 e7 b9 3e
       0.06632674 0.39787838 0.07029384 0.36309576
0001f0 2f b6 1a 3e 44 1f a3 bb 84 38 17 bf b9 d3 ef 3b
       0.1510856 -0.0049780924 -0.5907061 0.0073189405
000200 a1 a4 2d 3e 9c a8 cb 3e ce 4f 55 be d6 7b 1a 3e
       0.16957332 0.39777076 -0.20831224 0.15086302
000210 47 88 08 bf ec 6c b8 be 22 15 0d be 2a 6b 46 be
       -0.5333294 -0.360206 -0.13777593 -0.19376817
000220 eb 9e 51 bd 01 2f 13 bf e4 15 a0 3e fa 38 72 be
       -0.051176947 -0.574936 0.312667 -0.23654547
000230 c1 45 c3 3e 90 cd 70 bd 42 75 2c bf ff ff 36 3e
       0.38139156 -0.05878979 -0.6736642 0.17871092
000240 55 5b df 3e 0c b4 d0 be 8e ff c6 3e 30 c4 12 bf
       0.43624368 -0.40762365 0.38866848 -0.5733061
000250 c1 32 7e 3d 73 07 8e 3c f5 11 29 3e bd dc 0c 3f
       0.06206012 0.017337536 0.16510756 0.5502432
000260 81 40 e5 bd 73 7e 06 bf 09 1b 78 3e ab 74 cc be
       -0.11193944 -0.52536696 0.24229063 -0.3993276
000270 9a 45 02 3f ac a9 1a bf 66 ac 89 3e 90 6c e0 be
       0.50887454 -0.6041515 0.26889342 -0.43832827
000280 80 80 a6 be 24 92 fe 3d 5e ab 08 be 2f 93 2a be
       -0.32519913 0.12430218 -0.13346621 -0.16657709
000290 01 d5 00 be d1 b4 97 be 9d 8d 01 3f 32 a6 cb be
       -0.12581255 -0.2963014 0.5060671 -0.39775234
0002a0 dc 07 ef 3e 60 87 b1 bd 66 3f ef be 00 da ae 3e
       0.46685684 -0.08668399 -0.46728057 0.34150696
0002b0 39 67 c7 3e d7 c6 6a 3c 58 30 3b 3d bc d3 c7 bd
       0.3894594 0.014329634 0.0457004 -0.09757182
0002c0 3c 20 39 be 89 0f 6d be 29 cd 2a 3f 72 29 a7 3c
       -0.18078703 -0.23150457 0.667193 0.020405505
0002d0 45 d2 38 be 3d 39 28 3d e4 dd c8 3e 2f 9b 2c bf
       -0.18048961 0.04107021 0.3923179 -0.6742429
0002e0 41 56 21 be 1c 56 67 3e 5e 14 07 bc bb 51 0a bf
       -0.1575556 0.22591442 -0.008244602 -0.5403096
0002f0 cd 42 bf bd c2 ff 8e 3e b1 11 b5 3c 73 1c 11 bf
       -0.09338913 0.27929503 0.022103162 -0.56684035
000300 80 e2 43 3e 2d 1a 0c 3f a6 78 79 be d7 7e 4d be
       0.19129372 0.5472744 -0.2436243 -0.20067917
000310 23 0f 65 3e ad 5b fb 3d 9a 67 29 be 02 ad 03 be
       0.22369055 0.12273345 -0.16543427 -0.12858966
000320 d7 51 7a 3e 00 ac 95 3d 7f b6 13 3e f9 48 58 3c
       0.24445282 0.07308197 0.14425085 0.013200992
000330 e3 46 8e 3e 17 4b f2 be 0d e4 9f 3e 19 6a 17 3f
       0.27788457 -0.47322914 0.31228676 0.5914627
000340 6f e9 21 be 5a 9d 0e be e0 c6 26 3e cc c8 cb be
       -0.15811704 -0.13927212 0.16286802 -0.39801633
000350 e3 93 bc be 11 d3 bb be 04 b5 d4 3e 57 fe f7 be
       -0.3683158 -0.36684468 0.41544354 -0.48436233
000360 32 71 c8 be 3e 7b 7f be b3 57 9a 3e bf d1 6a 3d
       -0.3914886 -0.24949357 0.30145034 0.057328936
000370 0d 25 ef be 46 f8 a3 be 30 8d 20 3e d4 07 ee be
       -0.46707955 -0.32025355 0.15678859 -0.46490347
000380 15 4e 6d 3e 41 da 0b 3f c0 01 3d bf 38 50 e5 3d
       0.23174317 0.54629904 -0.73830795 0.11196941
000390 78 86 b9 3e c1 00 5d 3c 17 9f 24 3e 00 24 04 bf
       0.36235404 0.013488949 0.16076313 -0.5161743
0003a0 68 0b 10 be 44 7f d9 3e 71 9b 54 3e df 88 82 be
       -0.14066851 0.42479908 0.20762421 -0.2549505
0003b0 c2 b2 a3 be 58 7c fb be bc a0 56 bf e2 01 09 bf
       -0.3197232 -0.49118304 -0.8383901 -0.535185
0003c0 0e f2 42 3e 53 e0 32 3e cf 89 89 3e 34 19 38 3e
       0.19037649 0.17468385 0.26862952 0.17978364
0003d0 fb dd 2c 3e ea 64 7f 3e 4f e3 03 3f 14 de db bd
       0.16881554 0.2494084 0.5151872 -0.107357174
0003e0 a9 77 85 be 4d 68 c9 be 1c f8 f0 bc 94 1b ca 3e
       -0.26067856 -0.39337388 -0.029415183 0.39474165
0003f0 a4 24 f7 be 25 bb b4 be 0b f2 af be 64 bb df 3d
       -0.48270142 -0.3529903 -0.34364352 0.10924414

fc2.weight f4 [256, 256]
000000 09 60 06 3d 08 8a 67 bd 4b 08 23 be e9 c2 a5 3c
       0.03280643 -0.05652812 -0.15921132 0.020234542
000010 4b 74 0b be 39 40 0e bd 89 d1 ba bd 09 0b e0 bb
       -0.13618581 -0.034729216 -0.09121997 -0.006837253
000020 74 98 61 3d 07 dd 9b 3d b8 3e b9 3d 65 b4 9c bf
       0.05507703 0.07610517 0.09045166 -1.2242552
000030 15 ad b9 3a 33 a3 69 bb 6f 48 53 3e a8 5a 38 3d
       0.0014165962 -0.0035650253 0.206331 0.04500833
000040 e5 6a af bf 62 2d a5 bb 17 9a 29 3d 22 c6 90 3d
       -1.3704497 -0.0050408104 0.041406717 0.07069041
000050 cd 6d 1c bd 61 04 fc be ea 78 04 3d 19 12 be be
       -0.03819065 -0.4922209 0.032341875 -0.37123182
000060 7a ac 8d 3d b9 00 67 bd 7e a9 04 3d cc 0d 98 bd
       0.06917663 -0.056397174 0.032388203 -0.074245065
000070 f9 e5 06 3d 02 35 15 3c 2c b1 5d bc 42 5c 6a bd
       0.032934163 0.009106876 -0.013531011 -0.05721689
000080 53 70 f5 bb 8f b1 16 3d c4 02 58 3d de ab 55 bc
       -0.0074901967 0.036790427 0.052737013 -0.013041465
000090 a8 90 4f 3d 7f 0d 07 bd 8f 7f fa 3c d2 e2 7e bc
       0.050675064 -0.032971855 0.030578403 -0.015557008
0000a0 12 ce 6f bd e2 08 49 3d 52 7c 50 bd 90 b5 1e 3d
       -0.058546133 0.049080737 -0.05089981 0.03874737
0000b0 f1 0f f3 3c c3 4f 3d be 67 17 1a 3e f8 57 5b 3d
       0.029670687 -0.18487458 0.1504799 0.05355069
0000c0 bb a8 3e bd ab 80 ae 3c dd 8b 90 bd 9d c9 7f bd
       -0.046547633 0.021301588 -0.07057927 -0.062448133
0000d0 3c 32 1e bd 11 4c ce 3c 81 a8 ab bc 5d 58 4d 3d
       -0.038622126 0.025182756 -0.020954372 0.050133098
0000e0 fa fa 7b 3d f2 ab 2e bc bf 0f 65 be 8b a2 a5 bc
       0.061518647 -0.010661112 -0.22369288 -0.020219108
0000f0 21 68 81 3d da b6 12 3d b6 66 33 3e e1 1b a6 be
       0.06318689 0.035818912 0.1751965 -0.32443145
000100 8e 20 b6 bd 55 01 77 bd 4f 23 39 be 8c 78 71 3d
       -0.08892928 -0.060304005 -0.18079875 0.058952853
000110 00 b9 69 bd 07 7b d4 3d 1e e0 fb bc 93 46 d2 bc
       -0.057061195 0.10375028 -0.030746516 -0.025668418
000120 5a 2e 5e bd 0d 84 93 bc 1e 9a 45 3d b7 5f 14 3e
       -0.054243423 -0.018007303 0.04824268 0.14489637
000130 90 1f 1d 3d c4 68 02 3d 49 b5 9e bd 89 66 a3 3d
       0.03836018 0.031838194 -0.07749421 0.079785414
000140 74 c3 19 3b f0 24 24 bc c3 fd a4 3c 3b df 22 3d
       0.0023462446 -0.010018572 0.020140534 0.03976367
000150 5b 72 da bc 12 b5 55 3d 85 59 b1 bd f8 95 7b 3d
       -0.026665857 0.052174635 -0.086596526 0.06142232
000160 ee 3a d8 3d d0 e2 5d 3e c8 52 0a 3e 10 e8 52 be
       0.10558115 0.21668553 0.13508141 -0.20596337
000170 fa 00 65 be 34 4b 87 3d df 10 80 bd 97 c5 86 bb
       -0.22363654 0.06606141 -0.06253218 -0.00411291
000180 2f d3 2f 3d 40 b6 dc 3c f6 65 1e bd 4f 8c 83 3d
       0.04292601 0.026942372 -0.038671456 0.06423246
000190 e7 69 e6 bc 35 73 a8 3d 0e 23 50 3c 39 3f 99 3c
       -0.02812667 0.08225099 0.01270367 0.018706905
0001a0 41 ad 68 be df 46 bf bf 97 94 02 3d 67 1b cb 3d
       -0.22722341 -1.4943503 0.031879988 0.09917336
0001b0 71 e7 0a bd f7 a2 94 3d 9a 91 0a 3e 44 dd 2d 3d
       -0.033912126 0.072576456 0.13532105 0.042447343
0001c0 02 84 95 bd 01 00 19 be ad fc 8e bc 63 dc 8c 3c
       -0.07300569 -0.14941408 -0.01745447 0.017194932
0001d0 e7 d4 74 3d a6 6c 21 bd 79 fc 9a bd 75 66 8f bd
       0.059773352 -0.039410256 -0.075676866 -0.07001964
0001e0 d3 4e db bb 43 bd 08 bc 28 b6 3d bd db 3e 3d be
       -0.006692746 -0.008345905 -0.046316296 -0.18481009
0001f0 d2 cc 4f 3d 30 cd f8 bc 76 af 28 bd 53 c0 9b bd
       0.05073244 -0.030371279 -0.041182958 -0.07605042
000200 fc 0a 13 3d 1d 3f d5 bc 96 be 0e bd 85 0b 81 bf
       0.035899147 -0.026031071 -0.034849726 -1.008164
000210 dd 54 50 be 6d b5 0d 3e b5 58 95 3d e4 44 99 3c
       -0.20344873 0.1383874 0.0729231 0.018709607
000220 0f 6c 8c 3d 2d 16 e1 3c a7 b7 2e 3d f5 73 9a bf
       0.06856548 0.027476395 0.042655613 -1.2066637
000230 b7 31 4b 3c c1 41 52 3d 84 97 ab 3d 9f 81 a4 3c
       0.01240199 0.05133224 0.08378509 0.02008134
000240 27 1c b0 bc 4a 2a ea 3d 1e e6 73 ba 7a 8b 26 bd
       -0.0214978 0.11433847 -0.00093040045 -0.04066036
000250 10 e9 38 bd 5c 1a 43 3d 1c 44 bb bc 56 bd 80 bd
       -0.04514414 0.04763256 -0.022859626 -0.06286113
000260 d2 94 33 bd c9 b4 f9 bd 4d 34 82 bd 87 3c d4 bc
       -0.043843098 -0.12192685 -0.06357632 -0.025907768
000270 aa 06 40 bd 51 ba 87 bf d6 de f1 bb fe ad a5 3c
       -0.046881355 -1.0603734 -0.0073813004 0.020224568
000280 12 ce be bd f6 b6 16 be 09 52 8e bc 4d 81 91 3c
       -0.093166485 -0.14718232 -0.017373102 0.01776185
000290 ff 79 0a bd 1e d1 40 3d a7 44 4c 3d 76 e4 6b 3e
       -0.03380775 0.04707443 0.04987016 0.2303637
0002a0 9e d0 6b 3c a1 8c b7 bc 84 2a 07 3d 2d b2 94 bc
       0.014393 -0.022405924 0.03299953 -0.018151367
0002b0 7f 23 c0 3d 83 66 b8 bc 8d fe 36 3d 4b 2e 93 3d
       0.0938177 -0.022509819 0.044676352 0.07186564
0002c0 54 2e 19 3d 2f 1b 15 3e a5 69 53 bc 19 4a f4 bc
       0.037397698 0.14561151 -0.012903606 -0.029820489
0002d0 fc 42 28 ba bf 93 73 3d 2a 66 a5 ba 30 8a c5 3c
       -0.0006418673 0.059467074 -0.0012618948 0.024113744
0002e0 82 f2 b5 bd b6 8a 8b bc 91 8a ad 3a 2c b5 10 be
       -0.08884145 -0.017033916 0.0013240149 -0.14131612
0002f0 39 02 4e bd ba af 97 3c 82 58 5b 3d 10 89 40 3e
       -0.05029509 0.01851641 0.053551205 0.18802285
000300 20 55 38 3d 97 1c a8 3c 05 5b b9 3d f0 c9 c9 3c
       0.045003057 0.020521445 0.09050564 0.024632424
000310 88 24 9d bd 96 cc 88 bd ca 31 04 3e 44 e3 db bf
       -0.076729834 -0.06679647 0.12909618 -1.7178731
000320 9c 02 2d 3d d3 ca a1 3d bc f7 54 be 27 58 b2 bf
       0.042238817 0.07900014 -0.20797628 -1.3933152
000330 a0 79 a3 bc d2 34 33 bd 8e b9 13 bd 9e 88 34 bd
       -0.019955456 -0.043751545 -0.03606563 -0.0440756
000340 c5 5f 3d 3d de 57 c2 3d 39 ed ab bd d7 90 bf bc
       0.04623391 0.094894156 -0.08394856 -0.023384495
000350 1f 62 c1 3d 95 80 b8 3d 0c 6e 4f 3d 7a 4b 1c 3e
       0.09442543 0.090089 0.05064206 0.15263167
000360 c2 d7 b3 3d 68 cc 28 be c9 15 5b 3d 2a f0 b5 3a
       0.08781387 -0.16484225 0.053487573 0.0013880779
000370 73 f5 0c 3e 06 60 dc bd b6 1a 82 ba 95 6e 0c bd
       0.13765506 -0.107605025 -0.0009926173 -0.034285147
000380 07 ca 47 bc 39 ab 0b 3c 2b fe d7 3d 35 a4 ce bd
       -0.012194163 0.008524709 0.105465256 -0.10089914
000390 09 41 4c 3c 39 fa a8 bd e3 74 82 bb ad 80 99 3d
       0.012466677 -0.08250851 -0.003981219 0.07495246
0003a0 9a 07 c6 bf 8a 0b aa bc bf 41 08 3d 47 02 c8 bf
       -1.547107 -0.020757455 0.033265825 -1.5625695
0003b0 55 04 ab 3d 99 0d 37 bd 91 25 90 bd fc 5c 9b 3d
       0.08350436 -0.044690702 -0.07038415 0.07586095
0003c0 a9 44 a3 bc 44 44 fc 3c 79 53 9c 3d 8d bc 01 be
       -0.0199302 0.03079427 0.07633109 -0.12669583
0003d0 29 8c e7 bc 66 14 2e 3d a2 6b 59 bb 8a 8f 03 bd
       -0.028265076 0.042499922 -0.0033175726 -0.03211931
0003e0 ed 2a a1 bf 9a a2 2a 3d 9f 4c 23 bd 8c d9 7a bd
       -1.2591225 0.041658975 -0.039867993 -0.061242625
0003f0 79 17 9f be 93 05 da bd 9e 4c 6a bd 1e 5b 72 3d
       -0.31072596 -0.106455944 -0.057201974 0.059168927

fc2.bias f4 [256]
000000 e1 13 94 bd 7a 67 6a 3d 55 a0 6a 3d 2f 10 4a bc
       -0.07230354 0.05722759 0.05728181 -0.01233296
000010 59 a2 eb bc 98 9e a9 3c 80 d3 1e bb e8 a0 4e 3c
       -0.028763937 0.020705506 -0.002423495 0.012611605
000020 1d 85 c6 3c 9f 02 df 3c af bf 4c bc dc d6 4b bd
       0.024233395 0.02722293 -0.012496873 -0.049765453
000030 19 6c 83 bc d0 84 6a 3c dd 16 44 bd cd 83 41 3c
       -0.016042756 0.0143138915 -0.047873367 0.011811209
000040 6b bd 79 3d 22 f8 b5 bb 2f 64 9f 3c b4 fb 90 bc
       0.06097166 -0.0055532614 0.019456951 -0.017698146
000050 f9 ed 72 3c 72 a9 47 bd 0c c4 2b 3d 76 6e b5 3c
       0.014827245 -0.04874558 0.04193501 0.022147398
000060 22 33 09 3d d1 a5 00 bd 16 70 89 bc a5 9d 5f 3c
       0.03349603 -0.031408135 -0.01677708 0.013648425
000070 1d c5 63 bc d2 c0 ac bc 44 99 fc bc 0c d3 03 3d
       -0.013901976 -0.021088038 -0.030834801 0.03218369
000080 ca 58 8a bc 07 80 50 3d ac 2a fc bc 3d 51 5f 3d
       -0.016888041 0.050903346 -0.030782066 0.054520834
000090 1c f9 88 3c 7e 03 5f bd 4c 14 6e 3c 32 3b 2e bd
       0.016720347 -0.05444669 0.014531206 -0.04253692
0000a0 31 01 9a 3d 93 a8 7d 3d e9 b9 5a bd 89 be ba bc
       0.075197585 0.061928343 -0.053399954 -0.022795932
0000b0 6b 1e bb 3c 97 f3 12 bc 62 3f d9 3c 8c 24 45 3c
       0.022841653 -0.008969209 0.026519481 0.012032639
0000c0 18 92 79 bb 45 81 7d bd 72 2e c0 3b 22 07 3a 3d
       -0.0038081463 -0.06189086 0.0058649117 0.04541696
0000d0 af 25 83 bd 38 aa 5f bd 2f 0b 54 3d e0 1e 1e 3c
       -0.06403672 -0.054605693 0.051768478 0.009650916
0000e0 9b e9 e5 3c 17 89 df 3b 45 00 9b bb b4 05 ae 3d
       0.028065493 0.0068217623 -0.0047302567 0.084971815
0000f0 d9 54 ff bc c1 28 81 3d da 9e 00 3d 48 ce 4f 3d
       -0.031168388 0.06306601 0.031401493 0.050733835
000100 76 f9 4e 3d 9c 3b 9c bd 54 50 78 bb ad 2a 90 3d
       0.050530873 -0.07628557 -0.0037889676 0.0703939
000110 47 17 b8 3d 93 a9 5b bd 23 57 64 3c e3 cd 8a 3d
       0.08988815 -0.053628515 0.013936791 0.06777551
000120 1f 09 b0 bc 8b 07 48 bd f3 1e 13 3e 50 3b 22 3d
       -0.021488724 -0.04883532 0.14367275 0.039607346
000130 55 e3 68 3d c2 0d 29 bd cc 49 5b bd 8b 54 76 bc
       0.056857426 -0.041272886 -0.053537175 -0.015034805
000140 fe 12 0d be 12 97 64 3d 42 1c e1 3b d0 d4 ca 3c
       -0.13776776 0.055808134 0.0068698237 0.02475968
000150 9b d7 3d bd ac f9 57 3c 8e f3 2d 3d 5b ec 97 bc
       -0.046348196 0.013182085 0.0424686 -0.01854532
000160 cd 1e 5a bc a0 91 98 3d b6 92 11 3d 28 0b d5 bb
       -0.013313008 0.07449651 0.035540305 -0.006501574
000170 62 79 40 3c f9 c2 17 3b af 02 26 3d e7 d7 01 bb
       0.01174769 0.0023156984 0.040529903 -0.0019812526
000180 ac 8c 88 bd f3 f7 0b 3d 45 e2 31 bc a9 70 e5 bc
       -0.06667456 0.03417201 -0.0108571695 -0.028007822
000190 31 59 5b bd d6 cb 77 3d e8 af 1d 3d c8 85 da 3c
       -0.053551856 0.060497127 0.038497835 0.02667512
0001a0 26 f3 3b bc 44 4c 29 bd 5f 9c 81 bd 9e fa 67 3c
       -0.011471545 -0.0413325 -0.063286535 0.014158873
0001b0 3a 40 14 3c b8 27 16 3d 2e 1e a1 3c 36 74 ab bd
       0.009048516 0.036658973 0.019667711 -0.08371775
0001c0 b8 87 ac 3c da a5 59 bd b6 be c8 bb b6 d0 b7 3c
       0.02106081 -0.053136684 -0.00612625 0.022438388
0001d0 e7 66 37 bc 57 f5 a6 bc 15 22 e0 3b a0 f9 44 3d
       -0.011193967 -0.020380659 0.0068400004 0.048089623
0001e0 95 c2 d8 3c 22 64 94 bd b5 f8 a9 bc b0 42 27 bc
       0.026459971 -0.07245661 -0.020748476 -0.010208771
0001f0 3c aa a4 3c 30 3c fa 3c ee 2f 14 3c 6c 81 ab 3d
       0.020100705 0.030546278 0.00904463 0.08374295
000200 b7 a7 3a 3d b8 f6 80 3c ae be a5 3c 98 ee 2b bc
       0.0455701 0.015742645 0.020232525 -0.010493897
000210 84 3d 00 3d 3d e1 8c 3c 70 e9 3f 3d 15 36 89 3d
       0.031308666 0.017197246 0.046853483 0.066997685
000220 8b 0d 7e bd 8c ff 7f bd eb 16 a7 3d 11 04 1a bd
       -0.062024634 -0.062499568 0.08158668 -0.037601534
000230 37 ff 37 bd cc 6e 22 bc c0 a5 11 3d 04 f1 04 bd
       -0.044921126 -0.009914111 0.035558462 -0.032456413
000240 35 b8 26 3d 00 b7 d2 bc a0 62 bc bd 18 43 66 bd
       0.040703017 -0.025722027 -0.09198499 -0.05621633
000250 b3 93 94 bd 08 d0 fa 3c 6f 6f ee bb 60 87 7f bb
       -0.07254734 0.030616775 -0.0072764675 -0.0038990602
000260 89 0d 49 bd 34 c4 26 3d c8 8a 62 bd 2e de 4b bd
       -0.049085174 0.040714458 -0.055308133 -0.049772434
000270 7e 1e 87 3d db ff 3a bc 90 8c aa 3d 18 94 21 bd
       0.06597613 -0.01141354 0.083275914 -0.039447874
000280 d4 4e 18 3d d3 04 41 3d f5 3a ae 3d b1 0d 4f 3a
       0.03718455 0.04712374 0.08507339 0.00078984635
000290 0a ab 94 bd 46 11 36 3d 15 da 15 bc e3 e1 35 bd
       -0.072591856 0.044450067 -0.009146233 -0.044404875
0002a0 8f b9 e2 3c 04 e2 0d bd c7 47 ab 3c 09 3b c1 3c
       0.027676372 -0.034639373 0.02090825 0.02358772
0002b0 3f 5e 80 3d 38 71 7e 39 f1 86 fb bc 7e e4 a3 bc
       0.06267976 0.00024265505 -0.030703994 -0.020006415
0002c0 f9 76 0f 3d e8 f4 02 bd 50 50 81 3d 2b 14 91 3d
       0.03502557 -0.031971842 0.063141465 0.07083925
0002d0 e7 d1 9c bd 94 90 ab 3c 47 59 80 3d d3 e2 63 3d
       -0.07657223 0.020942964 0.06267028 0.05563624
0002e0 64 9f 3d bd 72 4a b1 3c 53 52 bb bd 81 07 14 3d
       -0.046294585 0.021641944 -0.091465615 0.03613997
0002f0 12 3f 2a 3a 1b 86 17 bd ad a9 f3 bc 93 b8 1d bc
       0.00064943836 -0.036993127 -0.029743994 -0.009626525
000300 eb 9e 2f bd 16 e6 96 3d 72 29 72 bd 93 0d 13 3c
       -0.042876165 0.07368104 -0.059121557 0.008975404
000310 32 99 00 3c 0a 7a ae bc 75 cc 91 3d 26 62 40 3d
       0.007849025 -0.021298427 0.07119075 0.0469686
000320 e7 fb b5 bd c2 62 3d bd e9 8d d9 3c 77 f4 79 3d
       -0.08885937 -0.04623676 0.026556926 0.061024155
000330 d6 3b f2 3d 94 4a 75 bc fd 41 3f bd 40 37 72 bd
       0.11827819 -0.014971394 -0.04669379 -0.05913472
000340 da e0 2d 3d 66 c5 4a 3d c7 bf 64 3b 49 3b d9 bd
       0.042450763 0.04950466 0.0034904347 -0.10607011
000350 54 74 30 3d 61 ab 09 3c da fe 5f 3a 52 59 8d 3d
       0.04307969 0.008402676 0.0008544751 0.06901802
000360 f0 22 fe bc d4 3e 92 3d 39 1a 23 bd 96 0d 40 3d
       -0.031022519 0.0714089 -0.03981993 0.046887957
000370 88 8b 4d 3d a0 8b 34 3b 8e fa ad bd ea bd 26 bd
       0.050181895 0.0027549043 -0.08495055 -0.04070846
000380 fb 65 b0 bc fd 68 bf bd ec 9c 9e bc 87 66 f5 bc
       -0.021533003 -0.09346197 -0.019361936 -0.029956115
000390 65 c0 69 bd 7d 0f 4e 3d 58 c2 e2 3c 6b 69 3d 3d
       -0.057068247 0.05030774 0.027680561 0.046243113
0003a0 b0 70 04 be 62 84 ab 3d 14 83 6d bc 57 0b 67 3d
       -0.12933612 0.083748594 -0.0144965835 0.0564073
0003b0 42 28 c2 bd 2a e2 4d 3d b4 f8 0a bd c2 d4 74 3d
       -0.09480335 0.050264515 -0.033928588 0.059773214
0003c0 4a 7c 66 bc de 9a ce bc 41 99 a7 3d 6d d0 25 bd
       -0.014067719 -0.02522033 0.08183528 -0.040481973
0003d0 40 64 2d bd f3 fb 37 3c 27 10 03 3d 52 47 98 ba
       -0.042331934 0.011229503 0.031997826 -0.0011617935
0003e0 d1 45 16 3d f2 cc 5f 39 ce 4f 9c bc 40 70 67 3d
       0.036687676 0.00021343285 -0.019081023 0.056503534
0003f0 8d 29 58 bc 18 31 09 bc 87 b0 8b bd 29 88 b8 3d
       -0.0131935 -0.008373521 -0.06820779 0.090103455

mu.weight f4 [1, 256]
000000 ff bf 2f bf 35 01 47 3c 83 99 85 3e 54 93 91 bb
       -0.6865234 0.012146284 0.26093683 -0.0044426117
000010 93 6b 9c be 76 1d f1 3b 4d 23 06 3e 98 b6 56 bd
       -0.30550823 0.0073582483 0.13099404 -0.05242023
000020 a0 7e 86 bd 28 36 d9 bd c9 a6 ae 3d 90 44 00 bf
       -0.065671206 -0.106060326 0.085279055 -0.5010462
000030 8d 72 82 3c 42 2a 03 bf 8f 4b 03 3f dd 16 a8 3d
       0.015923763 -0.51236355 0.5128717 0.08207486
000040 15 3c 51 bb 27 90 b4 bb c4 62 6a be 4f 50 7e 3d
       -0.003192668 -0.0055103484 -0.22889239 0.062088307
000050 9b 4a 9d 3d bd d4 09 bc 7a c9 51 bd 42 57 57 3d
       0.076802455 -0.008412537 -0.051217534 0.05257345
000060 9f fe ec 3d 5e 09 e4 be 72 45 bc bd 3a 4f 09 bf
       0.115720026 -0.44538397 -0.09192933 -0.53636515
000070 ed 78 19 be 2b a4 3a 3e 13 92 56 3d 84 24 83 3e
       -0.14987536 0.18226688 0.0523854 0.25613797
000080 3f 66 15 bd 73 97 e1 be 54 98 01 3c 44 fa 5b 3e
       -0.036474463 -0.4406086 0.007909853 0.21482188
000090 cf b5 0f 3d d8 ed 7f 3c 6c 20 92 3b 22 20 1f 3d
       0.035085496 0.015620671 0.0044594314 0.038849004
0000a0 7d 98 8b bd 29 81 bf be ec 74 4b bd 0a 6e 9b 3c
       -0.06816194 -0.3740323 -0.049672052 0.01897337
0000b0 37 b0 4a bd 1b 78 cc bd 85 eb b3 3d 96 c0 0e be
       -0.049484458 -0.09983846 0.08785156 -0.13940653
0000c0 97 d4 89 be d1 d1 24 bd 3a 19 a2 be e5 7d d7 bc
       -0.26920006 -0.04023916 -0.3165987 -0.026305148
0000d0 1c d8 b8 ba 18 d9 b7 bd c7 c7 b5 be a8 c8 08 ba
       -0.0014102492 -0.08976954 -0.3550398 -0.00052178884
0000e0 81 5d 78 3d c8 c2 84 bc 7b d1 81 bc 14 3c 58 be
       0.060636047 -0.01620616 -0.015846958 -0.21116668
0000f0 ea 35 ff 3a cf bd 2c 3e a3 57 cb 3d e1 22 85 be
       0.0019471024 0.16869281 0.09928825 -0.26003173
000100 71 42 85 3e bd 83 9d bd c4 34 a3 be 26 c9 32 3f
       0.26027253 -0.07691143 -0.31876194 0.6983818
000110 32 06 64 3d 3e b9 40 bc ae 73 9d 3d a1 58 60 bd
       0.05566997 -0.011762915 0.0768808 -0.054772023
000120 f2 19 5d bc f2 e7 c3 bc 54 3d 99 be e1 dd d7 3d
       -0.013494955 -0.023914311 -0.29929602 0.10540367
000130 da 4f 6b 3e a3 96 03 3e ca 06 e8 bc b5 56 cb 3c
       0.2297968 0.12850432 -0.02832355 0.024821619
000140 5d a5 15 c0 4b 2b 47 3d 3b a8 90 3d 9e 01 f8 bd
       -2.338218 0.04862527 0.070633374 -0.121096835
000150 53 11 7c 3d 62 9e 36 bd f1 70 99 bc ff 45 52 3d
       0.06153996 -0.04458464 -0.018730612 0.051336285
000160 3f ee 2e 3e 1d 70 06 bf 57 e8 f6 bb 6c fb 3f bd
       0.17083071 -0.5251482 -0.0075350213 -0.046870634
000170 01 7c 48 bc 59 5c 9e 3e 87 a5 65 3d 14 54 8e bb
       -0.012236596 0.3092983 0.056066062 -0.004343519
000180 eb 5f 26 3e e4 d5 af bc 08 9d 98 3d 94 e6 58 bd
       0.16247527 -0.021464296 0.07451826 -0.05295427
000190 7c cc 67 3d cb 62 ad bd e5 0b fe 3d d4 ee b3 be
       0.056591496 -0.08466109 0.124046125 -0.3514315
0001a0 45 bf c1 bc 28 68 f4 bc 1f f2 0d bd 27 4f 8e be
       -0.023650775 -0.029834822 -0.034654733 -0.27794763
0001b0 b6 f5 d0 3d e6 56 aa 3f f5 91 22 3e 94 d9 16 3e
       0.10203116 1.3307769 0.1587599 0.14731437
0001c0 29 30 09 bf cc e0 0d 3d 50 f1 ea 3c d9 28 a5 be
       -0.5358911 0.03463821 0.02867952 -0.32257727
0001d0 7e 70 04 3e 6f 1d 2c be 04 02 02 be d9 4f a7 3c
       0.12933537 -0.16808103 -0.12696081 0.020423817
0001e0 8f 5c 20 3e 05 a6 91 be bc 1a fe 3c 78 85 40 3e
       0.15660308 -0.28446975 0.031018607 0.18800914
0001f0 b8 c2 21 3e a3 4b 14 3e 23 02 9f 3d f4 10 df 3d
       0.15796936 0.14481978 0.077640794 0.108919054
000200 db 43 f8 3d 50 bf 84 be 61 64 9a bd a5 7e 1d bb
       0.121223174 -0.2592721 -0.07538677 -0.0024031785
000210 69 67 00 3e f7 a1 5c be 6d a4 1c bf 55 a2 36 3d
       0.12539448 -0.2154616 -0.61188394 0.044588406
000220 8e 84 16 3e 9f db 81 bc a5 73 0a 3e 3f 63 3a 3b
       0.14699003 -0.015851794 0.13520677 0.0028440503
000230 80 e8 20 bc ee 2f af 3e 12 19 99 3c 81 e4 b7 3c
       -0.009821057 0.34216255 0.018688712 0.022447826
000240 ba d8 5b 3e 89 ec cc 3c 7c c6 19 bc 2f 4e 8d 3e
       0.21469393 0.025015133 -0.009385701 0.27598712
000250 7a 26 0a bd 90 9e 17 3d 56 f2 b4 3d da 18 38 bd
       -0.0337281 0.03701645 0.088352844 -0.044945575
000260 6f 3c e1 bd de d5 04 3c f7 21 b4 3d 66 5d c2 3a
       -0.10997855 0.008107631 0.08795541 0.001482886
000270 3b ca 48 3b cd dd 3c be fd cd 52 be 7c b6 64 3d
       0.0030638117 -0.18443985 -0.20586391 0.055838093
000280 50 c6 08 3c 74 25 61 3d c8 40 0d 3f cd 2e 4f 3d
       0.008348063 0.05496736 0.55176973 0.050581742
000290 15 1a e0 bb 0d 26 95 bd b4 5c d2 bd 97 a6 52 3e
       -0.0068390467 -0.07282648 -0.10271588 0.20571361
0002a0 16 34 87 3e cf f6 af bc e3 35 0d 3d 8d 8a 16 3c
       0.26406926 -0.021479992 0.03447522 0.0091883065
0002b0 2a 9c 51 bd eb d1 52 3d 74 60 d5 be 72 f0 2d be
       -0.05117432 0.051469725 -0.4167515 -0.16986254
0002c0 82 e1 94 3e bb b0 fb 3b 38 16 02 bf 8a 68 cc 3e
       0.290783 0.00768098 -0.50815153 0.39923507
0002d0 f4 f6 0d bd da ed 5b be 58 1f 06 be 81 70 e4 bd
       -0.03465934 -0.21477452 -0.13097894 -0.11154271
0002e0 4b 73 9e 3d 5a e6 8c 3e 93 50 2c be 0e cf 1a 3b
       0.07736834 0.27519494 -0.16827612 0.002362195
0002f0 45 55 a9 3e 2c 9c 07 be d3 7e 3d be df 8f 17 3d
       0.33072868 -0.13243169 -0.18505411 0.03700244
000300 d9 87 01 bd f0 f1 fa 3e 36 e4 5d be 7a 5c b6 3c
       -0.031623695 0.4901271 -0.21669087 0.022260893
000310 ed cb d8 3d 7c b6 9b bd 57 b4 9e bd e7 59 83 3d
       0.10585771 -0.076031655 -0.07749241 0.06413632
000320 70 4f 8d bc d0 75 14 bd 30 9a f9 3d 0a fd 3e 3f
       -0.017249793 -0.036245167 0.12187612 0.74604857
000330 0b 41 8d be 91 b7 4c 3e c2 d3 96 bb 4b 4a 3f 3d
       -0.27588686 0.199919 -0.00460288 0.04670171
000340 26 75 e8 3d b1 2d a4 bd 16 c5 72 3d 79 02 0c bf
       0.11350469 -0.080165274 0.059269987 -0.5469127
000350 cf 38 0d be 83 4c 8f 3c c8 da 31 be bb b4 a1 3d
       -0.13791202 0.017492538 -0.17368615 0.078958
000360 4d d7 07 be a6 22 c4 3b 13 3a d7 3d 85 f6 52 3e
       -0.13265724 0.0059855757 0.10509124 0.20601852
000370 f0 2e d0 be 78 64 e7 bc 88 74 0d 3f ef 6a 09 3f
       -0.4066081 -0.02824615 0.5525594 0.5367879
000380 b8 da b0 bd f5 ac 30 3c c3 23 a4 3d 4a 4d cd 3d
       -0.08635467 0.010783424 0.080146335 0.10024507
000390 76 e2 23 be 1b 08 ed be 3e 14 86 3e 00 a9 90 3e
       -0.16004357 -0.46295246 0.2618732 0.28253937
0003a0 af 4b 6d be 89 95 23 3e 94 70 53 bd af 02 6f be
       -0.23173402 0.15975012 -0.051621035 -0.23340867
0003b0 4f 34 b8 3e 75 5b 0f bd 93 d0 52 3e 37 5b 04 be
       0.35977408 -0.03499933 0.20587377 -0.1292542
0003c0 66 ff 21 bf 53 47 ba be f4 a3 45 be b3 16 f5 bb
       -0.6328033 -0.3638254 -0.19300824 -0.0074795126
0003d0 ad cf cd 3b a7 eb 83 bd 3f db d3 bb c9 cf 42 bd
       0.0062808604 -0.064414315 -0.006465345 -0.04756144
0003e0 ee 56 14 3e cd 68 e9 3c 7d 85 a5 3e 6d e3 05 3d
       0.14486286 0.028492356 0.32328406 0.032687593
0003f0 a5 28 8c bd b8 d8 3f bc 59 d8 c0 bc 2e f9 17 bf
       -0.0684369 -0.011709385 -0.023540663 -0.59364593

log_sigma.weight f4 [1, 256]
000000 68 4f 62 3d ea 18 92 bb 6d 13 e7 3c 04 1a f0 bb
       0.05525151 -0.0044585364 0.028207505 -0.00732732
000010 fa 91 27 3c e4 f3 ad bc 3b 1a 01 be cc e3 d4 3c
       0.010227675 -0.02123446 -0.12607662 0.025987528
000020 b5 b3 2f 3e 9e a4 e6 bd 2b 1b 9a bd 86 48 5f 3d
       0.17158397 -0.11261867 -0.07524713 0.054512523
000030 fe ad 00 3d 12 96 29 3d e7 a7 fd 3c e6 76 a7 3c
       0.031415932 0.041402884 0.030963851 0.020442437
000040 58 2c bf bd 54 a6 2e be d4 17 ff 3c fc e7 ae bc
       -0.0933463 -0.17055637 0.031139292 -0.021350853
000050 ec 6c 2b 3d 14 ab de ba d8 81 73 bd bc 05 b7 3c
       0.041851923 -0.0016988241 -0.05945 0.022341602
000060 3d 1b 91 bd 42 6a bd 3c fd 7c e2 bc 8f aa 8b 3d
       -0.070852734 0.023121957 -0.02764749 0.06819641
000070 bd 90 a7 bd 6b 6f f0 bb 70 32 da bc 8b 67 74 be
       -0.081819035 -0.007337501 -0.026635379 -0.23867624
000080 a3 8f 6f 3d 65 ff fb 3c fd 89 7b bc 6d c3 30 bd
       0.058486592 0.03076143 -0.015352723 -0.043155123
000090 b9 19 b0 bb 5a f1 5e bd f3 a3 6e be 28 bf 7e bd
       -0.00537416 -0.05442939 -0.23304729 -0.06219402
0000a0 26 09 05 3d fb ef bd 3d 3e 59 63 3d c2 40 cf 3c
       0.032479428 0.09274288 0.05550503 0.025299434
0000b0 6a ee 7e 3d 96 8f 7b 3d b8 c4 78 bd 6d 7e 93 3d
       0.062239088 0.06141623 -0.06073448 0.07201848
0000c0 5d 97 58 3d 04 32 b9 3b 68 11 d5 bd 5c b1 3a 3d
       0.052878726 0.0056517143 -0.104037106 0.0455793
0000d0 02 5f 7c 3a c2 05 ed 3e e1 8b e2 bc 61 92 e4 b9
       0.00096271944 0.46293455 -0.02765459 -0.0004359661
0000e0 47 49 be 3c be 6e ba 3d 03 71 af 3c 5a cd 27 3d
       0.0232283 0.09103154 0.021416193 0.040967323
0000f0 27 0f 4d bc 4e 61 15 3d 04 b2 28 bc e3 1f df bd
       -0.01251582 0.03646975 -0.0102963485 -0.10894754
000100 19 b2 9c bd 89 5f 12 bc ce 20 1c 3e 44 30 49 3e
       -0.07651157 -0.00893391 0.15246889 0.19647318
000110 08 6a 7d bd 76 e8 46 bc 83 af 00 3c f0 c6 5e bd
       -0.061868697 -0.012140384 0.007854345 -0.05438894
000120 9d c5 3e 3b 27 6a d9 3d d4 ef c8 bd 39 9e 00 be
       0.0029109486 0.1061595 -0.098113686 -0.12560357
000130 7a ac 8d 3d dc 54 87 3e 0e f3 5e bd 07 5c 07 3c
       0.06917663 0.2643193 -0.054431014 0.008261687
000140 52 1f 1b bd 30 1b 82 bb 27 0d c7 bd 40 dc 4a 3d
       -0.037871666 -0.003970526 -0.097193055 0.049526453
000150 09 5d d5 bc 74 75 b8 3d ab aa 1e 3d 20 c2 2e 3d
       -0.02604534 0.090067774 0.03873698 0.0426656
000160 b6 fd c1 bd 4a 5e 93 3d 44 28 8a 3d e5 5a 0c 3e
       -0.0947222 0.071957186 0.06745961 0.13706549
000170 fe a3 4b bc 64 b2 48 be 44 27 a8 3d df 33 43 bc
       -0.0124292355 -0.195993 0.08210614 -0.0119142225
000180 e0 53 5b 3d 02 fb 44 be 9d 29 52 bc d0 f8 52 bd
       0.053546786 -0.19236377 -0.012827304 -0.051506817
000190 41 c3 30 3d f2 40 60 bd f6 bd 8c 3c f9 0f 99 3d
       0.04315496 -0.054749437 0.017180424 0.0747375
0001a0 88 1c 87 bc 08 56 0e bd 21 5d 84 3d f4 ae 63 3b
       -0.016493097 -0.034750015 0.064630754 0.0034741731
0001b0 37 f2 42 3c 8d 9a 51 3e 38 fc 45 be 2b be 1c 3d
       0.011898569 0.20469113 -0.19334495 0.038267296
0001c0 1b ca 07 3d 00 ac e3 3a 49 b7 52 3e 50 b2 6c 3e
       0.033151727 0.0017369986 0.2057773 0.23114896
0001d0 c1 a0 4f 3c 6c ef ff 3c 50 e5 92 bd 3a ef 82 be
       0.012672604 0.031242095 -0.07172644 -0.2557314
0001e0 f9 d9 74 3d b3 12 0c 3d f1 c5 db bd ff 91 63 3d
       0.059778187 0.03419752 -0.10731114 0.055559155
0001f0 d5 78 34 bc 76 b7 0b 3d 6a 4f 19 bc 0f c9 58 bc
       -0.011015137 0.03411051 -0.009357313 -0.01323153
000200 6e 35 37 bd 74 b6 bb 3d 11 16 e7 3c 8b 40 0f 3c
       -0.04472869 0.091656595 0.028208764 0.008743416
000210 68 69 0c bd 70 4e 3a bd 1e 9f 21 3d c2 a4 54 3c
       -0.03428021 -0.04548496 0.039458387 0.012978734
000220 e4 8e 22 3d e4 d4 ac 3c f2 39 3b 3e 66 54 13 bd
       0.039687052 0.021097608 0.18283823 -0.03596916
000230 ef f9 91 bc bb fa 5e 3d 61 5b 13 3d 92 48 03 3e
       -0.017819373 0.054438334 0.035975818 0.12820652
000240 65 c8 57 bd f7 16 2e bd 30 42 11 3d 6d fc 99 bd
       -0.052681345 -0.04250237 0.035463512 -0.075188495
000250 df 84 8e 3c c2 2f 57 bd a8 38 80 3d 90 36 73 bd
       0.017397342 -0.05253578 0.06260806 -0.059378207
000260 19 2e b4 3c 01 65 b1 bd 18 b1 96 bc 99 a3 b2 bc
       0.021994637 -0.08661843 -0.018394992 -0.021806525
000270 13 32 5f 3d 3a d3 5c 3c 61 50 38 bc 8e a0 ea 3c
       0.054491114 0.013478095 -0.011249633 0.028641012
000280 bd 47 16 be d7 19 a0 bb 8f 04 a6 bb 87 de 36 3d
       -0.14675803 -0.004885893 -0.0050664614 0.044645812
000290 e2 03 98 bc aa 43 03 bd df cc b8 3d 45 27 75 be
       -0.018556539 -0.03204695 0.09023451 -0.23940761
0002a0 be 79 0e bd a7 5f 5f 3c 69 aa 87 3c 7b 16 22 3c
       -0.03478407 0.013633645 0.01656075 0.009893055
0002b0 4e 56 0e bc 55 62 ee bc 04 1e ac bc ed cc 6a 3d
       -0.008687569 -0.029099623 -0.021010406 0.05732434
0002c0 3d 22 30 bb 25 b9 a0 3c ff 26 7a 3e 64 ff 8f bd
       -0.0026875876 0.019619534 0.24428938 -0.07031134
0002d0 ce f7 6d 3e 6b b9 94 bd 4f 1f 46 bd 26 6d ef bc
       0.23239061 -0.07261928 -0.048369702 -0.02922685
0002e0 38 92 95 3d 74 7c 2a bd 63 94 23 bd cb 49 16 bc
       0.0730328 -0.041622594 -0.039936434 -0.009172867
0002f0 92 54 b4 3d 17 f0 e8 bd 3a e3 54 be 2c db 4c bc
       0.08805193 -0.113739185 -0.20789805 -0.0125034265
000300 36 aa 21 be f4 eb ca 3d 0d 32 8f 3b 6e ae 7e 3c
       -0.15787587 0.09908286 0.00436998 0.015544517
000310 96 89 4b bd 71 6d 82 bd ac e7 26 3e f2 73 2a bd
       -0.04969176 -0.063685305 0.16299313 -0.04161448
000320 8f d8 65 3d 6a 57 80 3d 61 d9 75 3d 9b b0 00 3e
       0.05611473 0.06266673 0.06002176 0.1256737
000330 c4 ec 09 be 84 1f 27 be 89 70 b9 bd 55 d3 21 3c
       -0.13469225 -0.16320616 -0.090546675 0.009877046
000340 cf c6 6f bd 1f f5 f9 bd cf b5 32 3d 89 c6 81 3d
       -0.058539208 -0.12204956 0.043630417 0.06336696
000350 8f ee 45 3e ca 7f 60 bc 05 9f 90 3c 77 20 40 bd
       0.19329284 -0.013702342 0.017653951 -0.04690596
000360 7e e9 3e bd fc 16 4c bd ea 2b 96 3d 8e 7e 0e 3d
       -0.046609394 -0.049826607 0.07332595 0.03478866
000370 5b 49 2a 3e 90 4a 78 3c 1a c7 32 3e d6 2d 18 bc
       0.16629545 0.015154496 0.17458764 -0.009288272
000380 ca cd 60 be 44 75 17 3d 5e b4 90 3d 8a a7 95 bb
       -0.21953502 0.036977068 0.07065652 -0.0045670914
000390 58 22 bb bc dd 80 b3 3d 0f 9f 31 3e 5c 79 c7 3d
       -0.022843525 0.08764813 0.17345832 0.09739944
0003a0 0e a4 14 3e c2 36 31 bd 7c 11 37 3d 45 4f c3 3d
       0.14515707 -0.04326511 0.04469441 0.09536604
0003b0 82 d7 19 3c 14 42 ef bd 33 21 9e 3d df 55 d1 bc
       0.00938976 -0.11682525 0.07721176 -0.025553642
0003c0 28 76 ff 3c 67 97 2f 3e 75 01 4b bd e3 87 4b bd
       0.031184271 0.17147599 -0.049561936 -0.04969014
0003d0 5c 12 2a bc 9f df 27 be be 0a 9a bd 49 d3 d9 bc
       -0.010380354 -0.16393898 -0.0752158 -0.026590006
0003e0 da 02 8c 3d 89 9e 3f 3d db 07 8b 3d 4b 7d e8 bc
       0.068364814 0.04678205 0.06788608 -0.028380057
0003f0 cb 5f fe bd 7c ab bf 3c 9a 6a 31 bc 9f f9 1e bc
       -0.12420615 0.0233972 -0.010828638 -0.009703069
