data/pendulum/models/lsac-pendulum-l.pth (torch, 272024 bytes, 5 tensors)

fc1.weight f4 [256, 4]
0.16750717 -0.58154607 0.2766785 0.0465623 -0.19682969 0.61199343 0.15018499 0.05638878
-0.39902052 0.89730674 -0.44261274 -0.05681885 0.055378295 1.5000664 -0.0886546 -0.005837702
-0.3556698 -1.02622 0.019691933 0.0067502954 -0.48886597 1.1398135 0.020459136 0.0004788989
0.2666065 0.46637943 -0.5673366 -0.046081062 -0.10624687 -1.2339228 0.39875895 0.043178663
0.414191 -0.5829697 0.10361337 -0.080141984 -0.10574496 -0.34982935 0.4701443 -0.0068093473
0.3484669 0.19704242 -0.32534173 -0.032712545 -0.081780985 0.1470883 -0.028375208 -0.008078972
0.030063175 -0.8248965 0.445833 0.04462765 -0.21739091 -1.8745096 -0.0560173 -0.01563332
0.33066964 -0.9849971 -0.38638204 -0.048952613 0.31053817 -1.0349573 -0.068694286 0.1035133
-0.25873452 -0.66031504 -0.09111779 -0.009472435 0.18922152 0.4775429 0.3997141 -0.06323612
0.59454256 1.0485362 0.2819561 0.039206974 -0.047078375 -0.2466712 0.23044646 0.02700996
0.35814825 -0.36342642 -0.18391737 0.00042198476 -0.18236579 0.111176826 -0.015820093 0.00199657
0.7627352 -0.9173947 -0.31460008 -0.023460515 -0.5164973 1.0173331 0.11060331 0.025300363
0.24877158 0.33684093 0.18198153 0.24266957 -0.4302231 -1.4441011 -0.026881197 0.00017679537
-0.051803287 -0.49581465 0.6107454 0.038865637 -0.0797345 -0.97084993 0.10535662 -0.050142705
0.09499162 1.0160342 -0.04974823 0.055144303 -0.13049108 1.1383529 0.268106 0.045004595
0.037032645 0.06283337 0.15328263 -0.035777137 0.47492164 0.25718924 0.43843555 0.0407931
-0.4009062 0.085169844 0.0669538 0.008933188 -0.105683476 -0.6308672 -0.2212924 -0.0147355
-0.10108951 1.1401281 0.050311297 -0.0023555716 -0.42940712 -0.9186158 0.20138031 0.06433478
-0.27004495 -0.6536054 0.38158008 -0.0069843475 -0.08900893 -0.5263031 -0.0385351 -0.02044722
0.11386125 -0.9660242 -0.15586339 -0.014780598 -0.015997434 0.86915356 0.37938306 0.020488258
0.049040772 -0.1468636 0.011334378 -0.175242 -0.63607574 0.067699 0.05810986 0.0015092784
0.037749298 -0.0525602 -0.025745023 0.0078016846 0.22484267 -0.054726373 0.67231256 0.056215364
-0.52461493 0.3845876 0.060075454 0.0042177546 0.12705421 0.76205796 -0.2854326 -0.10799777
-0.52416706 -0.21043769 0.284655 0.054715626 -0.11635176 1.36113 -0.33237168 -0.020605272
-0.62741107 0.17441925 0.32316983 -0.01241811 0.2646955 0.30579835 0.37594882 -0.11772703
-0.7215713 -0.6500168 -0.014078332 -0.022211248 -0.048209727 -0.344337 0.005641324 -0.052728742
-0.4526579 -0.34473786 0.2165807 0.02329243 0.3969929 0.33451784 0.3870664 0.038667906
-0.15580408 0.07802002 0.5165919 0.127328 -0.32809097 0.3933486 -0.32673907 -0.018432017
-0.2561071 -0.25525427 0.2722766 0.05037476 -0.011723161 -0.39729208 -0.07013619 -0.08940496
-0.5598657 0.50443995 -0.10853311 -0.0017696704 -0.43128604 0.004070455 0.103523664 0.0707673
-0.65175927 -0.19563971 0.070991255 0.0024657862 -0.06440634 -0.0026332615 0.0052992525 0.14118548
-0.41516864 -0.59111357 -0.025289144 -0.044833224 -0.09047198 -0.046620294 0.001568454 -0.25406557
00000000: 0087 2b3e 34e0 14bf cea8 8d3e 1cb8 3e3d
00000010: b98d 49be 9aab 1c3f 18ca 193e ecf7 663d
00000020: 6b4c ccbe e5b5 653f 239e e2be e2ba 68bd
00000030: 5ad4 623d 2d02 c03f 8b90 b5bd 324a bfbb
00000040: 5a1a b6be 2d5b 83bf fa50 a13c 9531 dd3b
00000050: a44c fabe 69e5 913f eb99 a73c b914 fb39
00000060: a680 883e 49c9 ee3e f93c 11bf 7fbf 3cbd
00000070: f597 d9bd 2ff1 9dbf 222a cc3e 1cdc 303d
00000080: d810 d43e 813d 15bf 3f33 d43d 7b21 a4bd
00000090: d090 d8bd d51c b3be c1b6 f03e f220 dfbb
000000a0: 416a b23e 7dc5 493e 3193 a6be 97fd 05bd
000000b0: ca7c a7bd 519e 163e 2073 e8bc aa5d 04bc
000000c0: 0c47 f63c 6b2c 53bf 3944 e43e 7ccb 363d
000000d0: b99b 5ebe eeef efbf 6572 65bd 7311 80bc
000000e0: 884d a93e c528 7cbf ded3 c5be 8982 48bd
000000f0: dcfe 9e3e 7b79 84bf 97af 8cbd c8fe d33d
00000100: da78 84be 680a 29bf f79b babd 4632 1bbc
00000110: 49c3 413e 8180 f43e 54a7 cc3e f081 81bd
00000120: f133 183f 6f36 863f 8d5c 903e 7e97 203d
00000130: 41d5 40bd 6097 7cbe 28fa 6b3e fe43 dd3c
00000140: 355f b73e 0713 babe d654 3cbe d63d dd39
00000150: 19be 3abe adb0 e33d 2499 81bc e3d8 023b
00000160: 9d42 433f 61da 6abf 4313 a1be 4430 c0bc
00000170: 2b39 04bf f937 823f fd83 e23d b542 cf3c
00000180: fabd 7e3e 6a76 ac3e 5e59 3a3e 5f7e 783e
00000190: 3446 dcbe 4ed8 b8bf f535 dcbc 2562 3939
000001a0: af2f 54bd 6bdb fdbe cf59 1c3f 9331 1f3d
000001b0: d74b a3bd 9f89 78bf 36c5 d73d 7062 4dbd
000001c0: f78a c23d 690d 823f cdc4 4bbd fede 613d
000001d0: 749f 05be 8cb5 913f 3145 893e bd56 383d
000001e0: 8baf 173d c8ae 803d 1ff6 1c3e 0c8b 12bd
000001f0: ee28 f33e 4fae 833e a07a e03e aa16 273d
00000200: 9443 cdbe 876d ae3d 131f 893d 825c 123c
00000210: 9470 d8bd 8380 21bf 7a9a 62be 2b6d 71bc
00000220: 0408 cfbd b8ef 913f 3813 4e3d ef5f 1abb
00000230: 40db dbbe 682a 6bbf a436 4e3e f4c1 833d
00000240: 5543 8abe af52 27bf 775e c33e f4dc e4bb
00000250: 504a b6bd cdbb 06bf fbd6 1dbd ee80 a7bc
00000260: 1630 e93d 5d4d 77bf a79a 1fbe 522a 72bc
00000270: 0d0d 83bc d980 5e3f 7f3e c23e fed6 a73c
00000280: fade 483d 6963 16be d4b3 393c a472 33be
00000290: dcd5 22bf c6a5 8a3d 9b04 6e3d fbd2 c53a
000002a0: 029f 1a3d 5d49 57bd 3ae7 d2bc 46a5 ff3b
000002b0: 283d 663e c328 60bd ad1c 2c3f 1542 663d
000002c0: 2a4d 06bf aae8 c43e ae11 763d 1735 8a3b
000002d0: 801a 023e 3b16 433f 3924 92be ef2d ddbd
000002e0: d02f 06bf fa7c 57be 4dbe 913e 7e1d 603d
000002f0: d549 eebd 8239 ae3f 9f2c aabe 63cc a8bc
00000300: 039e 20bf f69a 323e 8476 a53e 5475 4bbc
00000310: 2b86 873e 9a91 9c3e 5d7c c03e de1a f1bd
00000320: e6b8 38bf 8067 26bf cea8 66bc 5df4 b5bc
00000330: 9077 45bd f04c b0be dbda b83b 18fa 57bd
00000340: c7c2 e7be 7b81 b0be 55c7 5d3e c4cf be3c
00000350: a742 cb3e ec45 ab3e 912d c63e 3d62 1e3d
00000360: 1b8b 1fbe f6c8 9f3d 5e3f 043f 4562 023e
00000370: 8afb a7be fd64 c93e 584a a7be befe 96bc
00000380: 7820 83be b0b0 82be d767 8b3e c455 4e3d
00000390: 8012 40bc de69 cbbe 90a3 8fbd f319 b7bd
000003a0: 5c53 0fbf fa22 013f 9b46 debd 49f4 e7ba
000003b0: 86d1 dcbe 7461 853b 3704 d43d 72ee 903d
000003c0: b2d9 26bf c755 48be dd63 913d 0799 213b
000003d0: 79e7 83bd cc92 2cbb 5aa5 ad3b ed92 103e
000003e0: fc90 d4be 3853 17bf 2e2b cfbc 0ba3 37bd
000003f0: 6049 b9bd ecf4 3ebd 9594 cd3a e214 82be

fc1.bias f4 [256]
-0.19792478 0.022484038 0.40594584 0.003928148 0.002402721 0.52596045 -0.41020578 0.11008896
-0.37380356 0.059681382 -0.38841027 0.011478134 0.03556048 0.31478092 -0.32018912 0.07708203
0.30036318 -0.72312796 -0.030706732 0.17180757 -0.116933286 0.12447975 -0.3193863 0.5234812
-0.36299047 0.41971284 0.07597997 0.1915301 0.05161378 0.48116142 0.03166866 -0.9437166
0.07862505 -0.22890915 -0.033831153 0.37063903 0.085483275 -0.2866603 -0.13625109 0.36474654
-0.65755975 0.5994841 -0.23594418 -0.29902646 -0.33604348 -0.23056701 0.29661158 0.08739411
0.35202256 -0.41027746 0.43527585 -0.49214467 0.17677286 -0.79022723 0.041451346 0.31464052
-0.6427851 0.06948215 0.45783362 0.1988432 0.24595183 -0.41703635 -0.06894635 -0.6194263
-0.34817016 -0.36227417 0.25710368 -0.42610824 -0.58669454 0.105420604 -0.89443755 0.005041059
-0.69142324 -0.46980566 -0.3449446 -0.058731776 -0.07584463 0.2218012 -0.38048375 0.2019223
-0.38922715 0.38767096 -0.3070508 -0.39120018 -0.46264282 -0.0008380049 -0.46638203 -0.0024746861
-0.23378801 -0.24657017 -0.4443887 -0.19599944 0.44601437 -0.7602408 -0.21176897 -0.39292923
-0.04717357 -0.639975 -0.32764527 0.15938978 -0.010172951 0.44198564 -0.1301359 0.5475367
0.21991456 0.011931705 -0.37979373 -0.5610573 -0.20993358 0.14342813 -0.16605175 0.28593507
-0.05612107 0.08442645 0.13160336 0.3131521 -0.24334152 0.22162051 -0.211221 -0.19769986
-0.18512134 0.301775 0.39403602 -0.4873221 -0.26315022 -0.46164757 -0.27516794 -0.392038
0.022630265 0.34464306 -0.20950386 -0.54334766 0.16294329 -0.018720297 -0.2676059 0.10431707
0.6673035 -0.072594464 -0.06303205 -0.71410775 0.08326051 0.120732404 -0.61088675 0.27177334
-0.72872615 0.20578963 -0.17650779 0.30181056 -0.12624441 -0.5143877 -0.5734738 0.41292605
-0.21672276 0.21130511 0.2556097 -0.35978463 0.18130459 -0.2798814 0.16164275 -0.53404665
-0.055888005 0.22321513 -0.7463542 -0.56842226 -0.38070238 0.05717882 -0.55749875 -0.25013125
-0.052578196 -0.56390023 0.22760826 -0.40037018 -0.49102944 0.4034164 -0.012431592 -0.15095028
-0.74931395 -0.00822398 -0.6496742 -0.74820817 -0.56605315 -0.50347704 -0.0691942 -0.08624422
0.059002127 -0.4951274 0.32932144 0.1029865 -0.62671125 0.20810324 0.07873018 0.21524394
0.060789574 -0.08632749 -0.28333363 0.12670988 0.071125135 -0.3767222 0.15389265 0.123688675
0.15751694 0.010000508 0.48378715 -0.06032292 0.38769692 -0.48997915 0.2285005 -0.41399145
-0.015566157 -0.02958283 -0.32821956 -0.10090042 -0.20626143 -0.056463223 -0.4571085 -0.5406199
-0.57583576 0.38977975 -0.19370626 0.060652353 -0.27932888 0.11473335 -0.24496122 -0.24568951
-0.25815675 0.5259566 0.26775885 0.41794518 -0.052763637 -0.43279907 -0.24987485 -0.08113991
-0.4386235 -0.049145564 0.5058494 0.48788697 -0.3115417 0.36194372 -0.4302442 -0.28520533
0.18730256 -0.49667466 -0.26305497 -0.2869444 0.2546064 -0.1570502 -0.10256816 -0.3681732
-0.5216549 -0.23250541 -0.26778677 -0.29903337 -0.1904309 -0.26653087 -0.17778489 -0.14545235
00000000: cbac 4abe 7230 b83c 22d8 cf3e b2b7 803b
00000010: f876 1d3b 58a5 063f 7e06 d2be 5276 e13d
00000020: 2e63 bfbe 7774 743d b6dd c6be c90e 3c3c
00000030: dea7 113d f72a a13e d4ef a3be 2fdd 9d3d
00000040: 34c9 993e ea1e 39bf af8c fbbc 53ee 2f3e
00000050: b87a efbd 3def fe3d 9a86 a3be dd02 063f
00000060: e3d9 b9be 9ae4 d63e 639b 9b3d 7720 443e
00000070: f968 533d ca5a f63e ffb6 013d 6997 71bf
00000080: 2c06 a13d 2967 6abe 8992 0abd 66c4 bd3e
00000090: db11 af3d 24c5 92be 6885 0bbe 0fc0 ba3e
000000a0: d655 28bf ca77 193f 5a9b 71be ff19 99be
000000b0: e40d acbe c219 6cbe 79dd 973e affb b23d
000000c0: 4d3c b43e e30f d2be 7adc de3e 63fa fbbe
000000d0: f203 353e 554c 4abf e3c8 293d 9018 a13e
000000e0: 908d 24bf a84c 8e3d 2b69 ea3e 8d9d 4b3e
000000f0: ccda 7b3e ca85 d5be be33 8dbd b992 1ebf
00000100: 5c43 b2be 007c b9be 18a3 833e dc2a dabe
00000110: 9d31 16bf c2e6 d73d dcf9 64bf 782f a53b
00000120: 1d01 31bf 5e8a f0be 949c b0be bb90 70bd
00000130: 6e54 9bbd db1f 633e c4ce c2be b8c4 4e3e
00000140: c848 c7be cf7c c63e c335 9dbe 644b c8be
00000150: 85df ecbe 8fad 5bba a0c9 eebe 582e 22bb
00000160: 2066 6fbe e47c 7cbe ea86 e3be 14b4 48be
00000170: ff5b e43e 249f 42bf f7d9 58be 052e c9be
00000180: 1339 41bd 67d5 23bf 1fc1 a7be 1337 233e
00000190: 73ac 26bc f14b e23e 5842 05be 5d2b 0c3f
000001a0: 4831 613e 337d 433c 5374 c2be 74a1 0fbf
000001b0: d4f8 56be d3de 123e 7809 2abe 1566 923e
000001c0: 35df 65bd c6e7 ac3d 08c3 063e 7955 a03e
000001d0: 852e 79be 7df0 623e 514a 58be d571 4abe
000001e0: 7390 3dbe 4182 9a3e 17bf c93e 4882 f9be
000001f0: a0bb 86be 125d ecbe d0e2 8cbe 34b9 c8be
00000200: 1b63 b93c 0e75 b03e 2e88 56be d518 0bbf
00000210: 9bda 263e 4f5b 99bc a403 89be 30a4 d53d
00000220: 67d4 2a3f 68ac 94bd f316 81bd c4cf 36bf
00000230: 7c84 aa3d 8d42 f73d 1363 1cbf e025 8b3e
00000240: cc8d 3abf 84ba 523e 75be 34be ea86 9a3e
00000250: 3746 01be eaae 03bf 2ecf 12bf 0b6b d33e
00000260: 92ec 5dbe 5e60 583e 46df 823e b135 b8be
00000270: e9a7 393e 9d4c 8fbe ad85 253e 48b7 08bf
00000280: d2ea 64bd 8292 643e 1211 3fbf 1f84 11bf
00000290: 6ceb c2be 5734 6a3d 3db8 0ebf 3411 80be
000002a0: 3c5c 57bd c45b 10bf 2412 693e 52fd ccbe
000002b0: 3668 fbbe 988c ce3e e0ad 4bbc b692 1abe
000002c0: 0ad3 3fbf dfbd 06bc 0c51 26bf 928a 3fbf
000002d0: dce8 10bf dfe3 00bf b0b5 8dbd cfa0 b0bd
000002e0: 37ac 713d 5781 fdbe d29c a83e 96ea d23d
000002f0: 2670 20bf 0419 553e 4a3d a13d e868 5c3e
00000300: 7dfe 783d 78cc b0bd 1b11 91be 3cc0 013e
00000310: 0eaa 913d bbe1 c0be 0996 1d3e 7d50 fd3d
00000320: 1f4c 213e 2cd9 233c f3b2 f73e 2b15 77bd
00000330: 3680 c63e 8cde fabe 09fc 693e b0f6 d3be
00000340: 3209 7fbc b157 f2bc 650c a8be e1a4 cebd
00000350: 3236 53be fb45 67bd 200a eabe 1166 0abf
00000360: f969 13bf 3691 c73e ef5a 46be 9a6e 783d
00000370: 3204 8fbe 52f9 ea3d 1dd7 7abe 0896 7bbe
00000380: 1f2d 84be 17a5 063f b017 893e e9fc d53e
00000390: af1e 58bd d797 ddbe 31df 7fbe ae2c a6bd
000003a0: 4293 e0be dc4c 49bd 597f 013f 52cc f93e
000003b0: 6582 9fbe b050 b93e f848 dcbe 6f06 92be
000003c0: 3ecc 3f3e 244c febe 24af 86be 60ea 92be
000003d0: c55b 823e c5d1 20be 410f d2bd 3381 bcbe
000003e0: 2d8b 05bf e615 6ebe 591b 89be e71a 99be
000003f0: 5100 43be bc76 88be 3e0d 36be 76f1 14be

fc2.weight f4 [256, 256]
0.037164867 -0.025918657 -0.08513776 0.0025397597 -0.059356835 -0.124306045 0.0268004 0.031149384
-0.055901673 -0.013046418 0.0053706905 0.03882797 -0.018010983 -0.1356957 -0.09617253 0.01624259
-0.0630228 0.05070789 0.030053157 -0.0032207943 0.02180441 -0.006775196 0.023656212 -0.008887635
-0.002538494 -0.020920884 0.005879224 -0.019432407 -0.028120937 0.023840917 0.056361493 -0.009788872
0.009287559 -0.039566334 -0.032042254 -0.020694757 -0.03990073 -0.007827733 -0.030151743 0.04919998
-0.03108321 -0.10656205 -0.017158853 0.09171658 -0.0471909 0.021454606 0.03452386 -0.09105998
-0.015590075 0.0058961506 -0.031897295 -0.03194482 -0.026777426 0.040736508 -0.04002406 0.02768473
0.05498841 -0.02097978 -0.04394869 0.028743755 -0.017451564 0.052543964 0.0047845794 -0.03292593
0.025922555 0.020775434 -0.02574606 -0.07609924 -0.026140073 -0.0035523118 0.05104222 -0.0451662
-0.009022503 0.056888815 -0.03299342 -0.05249988 0.052509263 0.032090582 -0.0022286137 0.034263838
0.00016007724 -0.062460914 0.011086108 0.0077633727 0.0042170333 0.009971386 -0.047153883 -0.032991532
0.048300877 0.04856386 0.013931272 0.05106214 0.004653593 -0.046641305 0.014466392 0.03717635
-0.017287543 0.001629243 0.036918633 -0.057381775 0.005684026 -0.060671505 0.025433997 -0.081533305
0.0031582895 -0.041212905 -0.062223487 0.057401676 -0.017542452 -0.010102846 -0.010713606 0.021617975
0.0070887073 -0.04587768 -0.05547447 0.005173599 0.011932021 -0.0045190337 -0.032263145 -0.043583337
-0.0532437 -0.0013052279 -0.0028430454 -0.014604113 0.0068348767 0.025736189 -0.020660521 -0.009524486
-0.08890351 -0.0378295 0.013339838 -0.0022937516 -0.049521748 0.00750488 0.07803223 -0.023576546
-0.0042764554 -0.06439728 -0.004355702 0.010650554 0.05417346 0.023752674 0.015455743 0.030541925
0.00019243055 0.030118216 0.048873857 -0.053597357 -0.00342028 0.028133662 0.008643045 -0.00867599
0.04304103 0.03743699 -0.046297967 0.039154157 0.006439851 -0.008472476 -0.045599863 0.0073147886
-0.041856315 -0.06849882 0.07470051 0.0034608832 -0.011485535 -0.047242805 -0.017361395 -0.007707035
-0.031677395 -0.053592723 -0.029004537 0.072311774 0.02911692 -0.11030055 0.0059377304 0.023707388
-0.038622003 -0.028592695 0.06076959 0.01913717 -0.39890698 -0.05162911 0.07307689 0.03353999
0.02721405 -0.0229435 0.046268865 0.072810754 -0.046011955 -0.0046154256 -0.018152773 0.0030516852
0.0017699806 0.030414086 -0.114916794 0.026752062 0.028658237 -0.035926327 0.013129044 -0.07783719
-0.013075457 -0.029328894 -0.030129423 -0.02465256 -0.045399502 -0.021192832 -0.04685789 -0.046417654
-8.823229e-05 -0.032600302 0.006644421 0.060115356 0.009524365 -0.01860144 -0.021493968 0.029431887
-0.03984554 0.10165839 -0.017446024 0.06215648 0.033885475 0.006639846 -0.04112564 0.0135064
0.013561332 -0.07761567 0.036984056 -0.04240565 0.053760726 -0.0076460484 -0.08679434 -0.03176546
0.023672065 -0.05796767 0.03953135 0.002199598 0.022736518 -0.070296615 0.024832897 0.044470634
0.02813184 -0.009700488 0.035845134 -0.10976166 0.010868399 -0.07169837 -0.024012715 -0.06821694
-0.0063905446 0.009724864 0.019618852 -0.034965917 -0.022891184 -0.070947014 0.026107868 0.020226128
00000000: 303a 183d 5d53 d4bc b55c aebd 1972 263b
00000010: 2720 73bd 2b94 febd 838c db3c fe2c ff3c
00000020: 27f9 64bd a5c0 55bc 9efc af3b 140a 1f3d
00000030: c58b 93bc d0f3 0abe 1af6 c4bd 2e0f 853c
00000040: 1912 81bd 14b3 4f3d 0a32 f63c f613 53bb
00000050: 299f b23c 7702 debb acca c13c 719d 11bc
00000060: dd5c 26bb 4662 abbc 81a6 c03b b630 9fbc
00000070: e15d e6bc 074e c33c 4fdb 663d 8161 20bc
00000080: d92a 183c 4f10 22bd bd3e 03bd 0d88 a9bc
00000090: f36e 23bd e43f 00bc ca00 f7bc eb85 493d
000000a0: 37a2 febc 343d dabd b990 8cbc e7d5 bb3d
000000b0: 3f4b 41bd 92c1 af3c e468 0d3d a87d babd
000000c0: 846d 7fbc 7f34 c13b bda6 02bd 92d8 02bd
000000d0: 555c dbbc 53db 263d 45f0 23bd 16cb e23c
000000e0: 873b 613d cadd abbc 8b03 34bd 0678 eb3c
000000f0: 95f6 8ebc 5738 573d f6c7 9c3b 57dd 06bd
00000100: 8a5b d43c 3e31 aa3c 67e9 d2bc ebd9 9bbd
00000110: b523 d6bc e7cd 68bb a611 513d 3100 39bd
00000120: 1fd3 13bc 3f04 693d 1c24 07bd 1d0a 57bd
00000130: f413 573d 6a71 033d ef0d 12bb 3d58 0c3d
00000140: 68da 2739 04d7 7fbd 82a2 353c e463 fe3b
00000150: 0a2f 8a3b 065f 233c 6e24 41bd 2122 07bd
00000160: 24d7 453d e6ea 463d fd3f 643c 8926 513d
00000170: 2b7d 983b f40a 3fbd 7204 6d3c 3a46 183d
00000180: 9b9e 8dbc 538c d53a fe37 173d 2709 6bbd
00000190: 1141 ba3b af82 78bd f55a d03c effa a6bd
000001a0: 4efb 4e3b ddce 28bd 0ede 7ebd 051e 6b3d
000001b0: 30b5 8fbc 6886 25bc 1f88 2fbc 2e18 b13c
000001c0: 6348 e83b 3cea 3bbd 3339 63bd 4b87 a93b
000001d0: 867e 433c 6714 94bb 5c26 04bd 7184 32bd
000001e0: 1116 5abd 2e14 abba 6352 3abb 1746 6fbc
000001f0: 1af7 df3b b3d4 d23c 4140 a9bc 970c 1cbc
00000200: 0b13 b6bd 1bf3 1abd 568f 5a3c c452 16bb
00000210: 51d7 4abd 7feb f53b 5dcf 9f3d 9a23 c1bc
00000220: 8221 8cbb b9e2 83bd 47ba 8ebb a97f 2e3c
00000230: fde4 5d3d f894 c23c 163a 7d3c 0f33 fa3c
00000240: 2fc7 4939 7aba f63c f42f 483d e788 5bbd
00000250: c726 60bb 9178 e63c 8f9b 0d3c bd25 0ebc
00000260: cb4b 303d 8757 193d f0a2 3dbd 1c60 203d
00000270: 6305 d33b 24d0 0abc ecc6 3abd e5b0 ef3b
00000280: 8771 2bbd 1c49 8cbd 95fc 983d fccf 623b
00000290: d32d 3cbc ac81 41bd 7c39 8ebc 4c8b fcbb
000002a0: 28c0 01bd 0b84 5bbd ec9a edbc 3218 943d
000002b0: 9b86 ee3c 41e5 e1bd 4b91 c23b ff35 c23c
000002c0: 1b32 1ebd 3a3b eabc 89e9 783d 8ec5 9c3c
000002d0: 893d ccbe 0c79 53bd 56a9 953d 3b61 093d
000002e0: 00f0 de3c 02f4 bbbc 6c84 3d3d ce1d 953d
000002f0: 0877 3cbd ff3c 97bb 20b5 94bc c8fe 473b
00000300: b2fe e73a f626 f93c 7f59 ebbd 2427 db3c
00000310: aec4 ea3c 7c27 13bd 341b 573c 1b69 9fbd
00000320: 713a 56bc 2643 f0bc fbd1 f6bc 2af4 c9bc
00000330: d4f4 39bd 979c adbc 0fee 3fbd 7020 3ebd
00000340: 5a09 b9b8 e587 05bd 71b9 d93b 853b 763d
00000350: 150c 1c3c 0c62 98bc 1e14 b0bc 241b f13c
00000360: 1435 23bd 4632 d03d f7ea 8ebc cb97 7e3d
00000370: 7fcb 0a3d 1193 d93b 5c73 28bd f349 5d3c
00000380: 5930 5e3c f7f4 9ebd 987c 173d 8cb1 2dbd
00000390: 3534 5c3d b48b fabb 3bc1 b1bd 801c 02bd
000003a0: ebeb c13c 826f 6dbd a0eb 213d 2127 103b
000003b0: ef41 ba3c acf7 8fbd 5c6e cb3c d726 363d
000003c0: bf74 e63c ccee 1ebc 59d2 123d b9ca e0bd
000003d0: 5f11 323c 98d6 92bd 50b6 c4bc 53b5 8bbd
000003e0: c667 d1bb 0955 1f3c b7b7 a03c 6c38 0fbd
000003f0: 4b86 bbbc ab4c 91bd 2be0 d53c 44b1 a53c

fc2.bias f4 [256]
-0.12428886 -0.31326935 0.056595366 0.03346584 -0.05273008 -0.013565034 -0.022774046 -0.051649783
-0.05411435 -0.026034007 -0.058012817 0.029441409 -0.07483559 0.023851488 -0.024195738 0.0483943
-0.1865368 0.011753156 -0.012540997 0.07147742 0.010086744 -0.06972328 -0.11006406 -0.103910744
0.2156736 0.05338711 0.067495175 -0.040722128 -0.06408085 -0.11451624 0.0063077807 -0.07529567
-0.113121815 -0.07137914 -0.0457819 0.029817183 0.10695951 -0.01031278 -0.034135487 -0.04191218
-0.03522045 -0.04289866 -0.026283782 -0.11314539 -0.052216444 -0.24734299 -0.04838264 -0.060407344
-0.031705055 0.18150227 -0.29156607 -0.003554779 -0.05631747 0.04944083 -0.037059583 -0.09521034
-0.104157425 -0.061955363 -0.38384467 0.01357258 -0.08971455 -0.004035716 0.009143123 -0.068334095
-0.07515812 -0.044296015 0.00023471881 -0.07652367 -0.030315034 -0.0030421799 -0.0021898828 -0.089230806
-0.018706435 0.21392156 -0.3302619 -0.020915756 0.037298243 0.02295852 -0.021368187 -0.025888495
-0.022727692 0.012325909 0.01776737 -0.10113073 0.07083531 -0.09716164 -0.06482282 0.008510624
0.013624486 -0.005800775 -0.088454485 -0.074203305 0.03441296 -0.08813548 -0.050732482 0.013034977
0.023340302 0.021669758 0.029962854 -0.020311953 -0.27437162 0.009045745 0.040714394 -0.051735632
-0.028741889 -0.011682921 -0.16650121 -0.029910844 -0.043226965 -0.11782836 -0.051710244 -0.048725646
-0.062263925 0.007374972 -0.004409219 -0.083454214 0.029639045 -0.061631706 -0.07114475 -0.04736779
-0.053379096 0.023001766 0.019642554 -0.0440919 0.016373822 -0.03355124 -0.025332946 -0.035264783
-0.036399197 -0.022248086 -0.01984123 -0.0018291811 -0.047485333 -0.04961419 -0.034021415 0.088067494
-0.045088697 -0.04574798 0.09291894 0.04534205 -0.052514724 -0.07661881 -0.0335968 0.29966775
-0.04965714 0.073597744 -0.0343066 -0.021043418 -0.026808364 -0.066258036 -0.049085952 -0.030983943
-0.054086108 -0.05976621 -0.020077389 -0.11660151 0.11376353 0.068697535 -0.106308706 -0.07015621
-0.076537065 -0.016173068 -0.107439905 -0.010792479 -0.02428573 -0.00048937515 0.048269387 0.024698643
-0.059417028 0.09056719 -0.23130313 0.017551951 -0.0027861015 -0.21389276 0.02871435 -0.20329198
-0.042104244 -0.03292402 -0.058935735 -0.05139954 -0.15966563 -0.034933012 0.0058245617 -0.026146296
-0.12181598 0.018911717 0.03026762 -0.060119588 0.26010513 -0.02569243 -0.22165093 -0.044745542
0.16778843 0.05286742 -0.049697258 0.040335912 0.004053891 -0.093597084 0.028579526 -0.061623707
0.09751862 -0.02493146 -0.0055126613 -0.026013456 -0.088565044 -0.029706404 0.063540466 -0.050292008
0.011647967 -0.02753008 -0.022934776 -0.03392276 -0.020972531 -0.06364625 -0.08777695 0.013905731
-0.02932714 -0.18696739 -0.037694566 -0.039666746 -0.010697254 0.35717964 0.0069326083 -0.08880379
0.008348728 -0.042593643 -0.031441472 -0.00074591703 -0.019116774 -0.06361859 0.011420863 -0.02523539
-0.04854789 -0.07674275 -0.00022171615 -0.065270685 0.048752863 0.039872013 -0.06891164 -0.034285482
-0.0127616115 -0.07289218 -0.043844383 -0.016404347 -0.09776127 0.018633395 -0.024146007 -0.11021646
-0.0036639841 -0.0015550774 -0.077991836 -0.029504513 -0.14325191 -0.0030560065 -0.054735746 0.2065382
00000000: 288b febd d764 a0be 8bd0 673d 7a13 093d
00000010: 7ffb 57bd e03f 5ebc a390 babc b98e 53bd
00000020: 02a7 5dbd 4545 d5bc d99e 6dbd 1c2f f13c
00000030: 6743 99bd 3264 c33c 2436 c6bc 1a39 463d
00000040: 8103 3fbe 4f90 403c c178 4dbc c162 923d
00000050: df42 253c 14cb 8ebd 4469 e1bd 28cf d4bd
00000060: 8ad9 5c3e 71ac 5a3d e93a 8a3d 3fcc 26bd
00000070: d23c 83bd 7e87 eabd 80b1 ce3b 9e34 9abd
00000080: 69ac e7bd 3a2f 92bd cd85 3bbd 2a43 f43c
00000090: 960d db3d eff6 28bc a7d1 0bbd 1bac 2bbd
000000a0: 5243 10bd 81b6 2fbd 1651 d7bc c5b8 e7bd
000000b0: e9e0 55bd 7b47 7dbe e02c 46bd b16d 77bd
000000c0: 29dd 01bd bbdb 393e 2648 95be 4cf7 68bb
000000d0: 26ad 66bd 7882 4a3d cacb 17bd a4fd c2bd
000000e0: 7d50 d5bd e8c4 7dbd 4a87 c4be 875f 5e3c
000000f0: 43bc b7bd 0a3e 84bb 0acd 153c bff2 8bbd
00000100: 80ec 99bd bd6f 35bd da1e 7639 71b8 9cbd
00000110: 3c57 f8bc 4f5f 47bb 2384 0fbb a4be b6bd
00000120: 3d3e 99bc 410e 5b3e 1618 a9be 8557 abbc
00000130: 0bc6 183d 8213 bc3c 560c afbc 1c14 d4bc
00000140: 6d2f babc 9cf2 493c e08c 913c a11d cfbd
00000150: 1a12 913d affc c6bd d4c1 84bd 2570 0b3c
00000160: 3c39 5f3c 6d14 bebb a027 b5bd e7f7 97bd
00000170: 9bf4 0c3d 6080 b4bd ddcc 4fbd a890 553c
00000180: 2934 bf3c c784 b13c a974 f53c 4165 a6bc
00000190: 707a 8cbe 9b34 143c 23c4 263d bee8 53bd
000001a0: 1c74 ebbc b969 3fbc 4b7f 2abe 9607 f5bc
000001b0: c20e 31bd ff4f f1bd 1fce 53bd 8b94 47bd
000001c0: 7508 7fbd c0a9 f13b 367b 90bb 0bea aabd
000001d0: 95cd f23c 8771 7cbd 57b4 91bd ba04 42bd
000001e0: 0aa4 5abd 336e bc3c 6ce9 a03c b599 34bd
000001f0: 6522 863c 066d 09bd 0a87 cfbc ce71 10bd
00000200: 5317 15bd 9e41 b6bc 138a a2bc 22c1 efba
00000210: fb7f 42bd 4038 4bbd 0a5a 0bbd bb5c b43d
00000220: edae 38bd 3c62 3bbd 494c be3d 96b8 393d
00000230: ae19 57bd 53ea 9cbd cc9c 09bd 0d6e 993e
00000240: 4965 4bbd 6aba 963d 1485 0cbd 3f63 acbc
00000250: 379d dbbc 4bb2 87bd 5a0e 49bd 0ad2 fdbc
00000260: 6589 5dbd 6acd 74bd 5679 a4bc c6cc eebd
00000270: dbfc e83d 4bb1 8c3d 61b8 d9bd 0fae 8fbd
00000280: 77bf 9cbd 627d 84bc 7409 dcbd f0d2 30bc
00000290: def2 c6bc 6949 00ba 1fb6 453d cf54 ca3c
000002a0: 455f 73bd 4a7b b93d bada 6cbe 1cc9 8f3c
000002b0: 0797 36bb b406 5bbe 5b3a eb3c c62b 50be
000002c0: 8075 2cbd 56db 06bd 9966 71bd 5388 52bd
000002d0: 637f 23be eb15 0fbd f7db be3b c230 d6bc
000002e0: a87a f9bd bfec 9a3c cdf3 f73c f53f 76bd
000002f0: 802c 853e ee78 d2bc 76f8 62be 1a47 37bd
00000300: bbd0 2b3e 828b 583d 5a8f 4bbd 4537 253d
00000310: 81d6 843b d4af bfbd 9c1f ea3c 2469 7cbd
00000320: d8b7 c73d 103d ccbc 8ea3 b4bb 2c1a d5bc
00000330: 9761 b5bd d85a f3bc 8121 823d fefe 4dbd
00000340: 1dd7 3e3c c386 e1bc b6e1 bbbc 98f2 0abd
00000350: 96ce abbc f758 82bd 67c4 b3bd ddd4 633c
00000360: 783f f0bc 6174 3fbe 9e65 1abd 9979 22bd
00000370: 8943 2fbc 40e0 b63e ef2a e33b c3de b5bd
00000380: 1ac9 083c ac76 2ebd c6c8 00bd a589 43ba
00000390: c89a 9cbc 774a 82bd 921e 3b3c 73ba cebc
000003a0: 27da 46bd 4e2b 9dbd 7a7c 68b9 a3ac 85bd
000003b0: 15b1 473d d650 233d 8c21 8dbd ef6e 0cbd
000003c0: 1416 51bc 7f48 95bd 2b96 33bd 6962 86bc
000003d0: 1037 c8bd 10a5 983c d9cd c5bc 2bb9 e1bd
000003e0: 741f 70bb bdd3 cbba 2fba 9fbd 73b3 f1bc
000003f0: a1b0 12be 4847 48bb 9732 60bd c07e 533e

q.weight f4 [1, 256]
0.00054223795 -0.006067631 0.07207453 -0.0002752871 -0.0017921934 0.050195195 0.0022121517 -4.580277e-05
0.03740195 0.00043685146 -0.0008995907 0.00030352385 0.009189013 0.0011344312 -0.00778374 -0.06294471
0.3219721 -0.0019519662 0.0045409943 -0.007260837 0.0072782426 -0.004294795 -0.0012127879 0.00021178945
0.36636114 0.036203545 -0.0072460193 -0.00025454749 -0.00025548157 -0.008433713 -0.00064233795 0.036073633
0.008783326 0.0069735083 0.0010715058 -0.0023433194 0.05000122 0.9387182 0.008884158 0.003135397
0.011422874 -0.0020843858 0.0012667839 -0.00021302677 0.00053309294 -0.05077779 0.061145235 -0.0013070225
-0.0014753483 0.6348272 0.0030460358 0.0015827018 -0.00040130457 -0.0009007791 -0.003914937 0.0021473598
0.00862822 0.013229461 -0.029365053 0.003370918 -0.008848672 0.001889892 -0.0038176188 -0.01110213
-0.007969106 0.028545564 0.0012326061 0.0020688216 0.0011595957 0.0018734616 0.0074332366 0.053043
-0.007874876 0.013289878 -0.017431801 -0.005395673 0.028527092 -0.0070615886 -0.050581027 0.05843377
-0.042090196 0.19732973 -0.0040454017 -0.003580111 0.14021939 -1.9680701e-05 -0.02679163 0.009195661
-0.09675348 -0.015504915 0.00846872 -0.02317435 -0.026013216 -0.052611463 -0.037432957 0.016513566
0.0032352468 0.009384614 0.00074083917 -0.002565847 -0.025595892 0.00055804173 -0.007898234 0.0016401628
-0.004162073 0.014713074 -0.00063476915 0.00017388971 -0.05116699 -0.16561952 -0.00023034224 -0.025911162
-0.017910667 0.0006571883 -0.003673106 0.0023497746 0.025680812 0.0013207662 0.0007072552 -0.008584481
-0.009269427 0.010551335 0.008535058 0.00020116843 0.008085761 -0.0060038646 -0.009395096 0.010302802
-0.002860913 0.010699723 0.011906406 -0.0099059325 -0.008727545 0.004482893 0.00023094221 -0.027586065
-0.003913286 -0.0015891346 0.21108197 0.00083962106 0.12333088 0.0025864304 0.0013348925 0.4684443
0.14368911 -0.024823654 0.041078553 -0.002110366 0.019420754 0.013389562 0.0020850017 0.030995963
-0.006777867 0.0172351 0.029931134 -0.0024416684 -0.020091997 -0.01014473 0.5101352 -0.008776854
-0.0014333786 -0.0019797676 -0.007515431 -0.0012231611 -0.03086036 -0.008764455 -0.002756098 -0.0047071576
0.00048157308 0.16234694 -0.014894625 0.024466284 0.009238381 -0.068237066 0.077443264 0.6715335
0.027335823 0.0010446628 0.000790474 0.0014093313 -0.0004682737 -0.020286568 0.009731045 -0.018816669
0.0027859572 -0.06594706 -0.009489058 -0.00013689502 0.05167987 0.0012112424 0.001136536 -0.0003551632
0.4118189 0.0068541025 -0.012530121 -0.0035562355 -0.014857152 -0.00812768 0.026645169 -0.007530214
0.06343213 -0.0012364006 -0.03899682 0.0018994199 0.0003949764 0.06266558 0.026991736 0.0019458823
0.0033655942 0.11806422 -0.0031278955 0.00019608623 0.03556505 -0.16457851 0.0032477935 -0.005373966
0.120255716 -0.015142479 -0.03083342 -0.007458034 0.009568813 -0.07584576 0.0029817743 0.024087647
-0.2274325 -0.32216537 0.00419657 -0.0049443548 -0.005070179 -0.0070030126 0.0038143836 0.008300447
-0.0030936662 -0.0004787655 -0.0064075585 -0.013337037 0.06647291 0.052592937 -0.00095823954 -0.00577963
-0.025228187 -3.4679702e-05 -0.014441132 -0.002218904 -0.00043643068 0.005504638 0.0016644022 0.0006413321
0.0015012163 -0.0006198094 0.5644276 -0.018978806 0.0076744016 -0.0030517054 1.1481667e-05 -0.045633078
00000000: f924 0e3a fad2 c6bb d09b 933d 6954 90b9
00000010: 08e8 eaba 7a99 4d3d bff9 103b 5a1c 40b8
00000020: ca32 193d 3609 e539 83d2 6bba 4822 9f39
00000030: 848d 163c 32b1 943a be0e ffbb 28e9 80bd
00000040: 87d9 a43e 1ed9 ffba 9fcc 943b 51ec edbb
00000050: 537e ee3b 5abb 8cbb 69f6 9eba cc13 5e39
00000060: b093 bb3e 2b4a 143d 0470 edbb c974 85b9
00000070: 28f2 85b9 8e2d 0abc 9262 28ba f2c1 133d
00000080: f0e7 0f3c 0782 e43b c571 8c3a 6092 19bb
00000090: 14ce 4c3d d64f 703f dc8e 113c 3c7b 4d3b
000000a0: 0227 3b3c 319a 08bb 370a a63a f05f 5fb9
000000b0: 43bf 0b3a 5ffc 4fbd 6d73 7a3d 6650 abba
000000c0: 7960 c1ba 0984 223f 00a0 473b a972 cf3a
000000d0: 3066 d2b9 4322 6cba df48 80bb b8ba 0c3b
000000e0: 615d 0d3c 62c0 583c fb8e f0bc 9fea 5c3b
000000f0: 05fa 10bc 41b6 f73a 0431 7abb b5e5 35bc
00000100: da90 02bc 63d8 e93c 668f a13a 1195 073b
00000110: 93fd 973a f18e f53a 8292 f33b 9e43 593d
00000120: a005 01bc cabd 593c 23cd 8ebc 30ce b0bb
00000130: a6b1 e93c e664 e7bb 0d2e 4fbd 4058 6f3d
00000140: c566 2cbd ce10 4a3e 4a8f 84bb 4ca0 6abb
00000150: ac95 0f3e fc17 a5b7 1f7a dbbc 66a9 163c
00000160: b026 c6bd 5408 7ebc 63c0 0a3c 22d8 bdbc
00000170: ab19 d5bc 1e7f 57bd 4d53 19bd 7547 873c
00000180: 6f06 543b edc1 193c e034 423a c527 28bb
00000190: 7aae d1bc 8c49 123a 9867 01bc bbfa d63a
000001a0: 0062 88bb 1b0f 713c a366 26ba 2a56 3639
000001b0: 7a94 51bd 2a98 29be 0688 71b9 a543 d4bc
000001c0: 64b9 92bc 2947 2c3a 7eb8 70bb adfe 193b
000001d0: 9160 d23c 8f1d ad3a 1867 393a eca5 0cbc
000001e0: cbde 17bc 82df 2c3c a1d6 0b3c bdf0 5239
000001f0: 247a 043c 11bc c4bb e4ed 19bc 15cd 283c
00000200: 287e 3bbb e44d 2f3c 1613 433c 7e4c 22bc
00000210: fafd 0ebc 3be5 923b 1429 7239 2cfc e1bc
00000220: 063b 80bb 824a d0ba df25 583e 041a 5c3a
00000230: e794 fc3d 1a81 293b 8ff7 ae3a eed7 ef3e
00000240: 3d23 133e fa5a cbbc fc41 283d 114e 0abb
00000250: 4618 9f3c e55f 5b3c 86a4 083b 3feb fd3c
00000260: df18 debb a030 8d3c 2332 f53c 6604 20bb
00000270: f997 a4bc 1536 26bc 3898 023f cbcc 0fbc
00000280: 34e0 bbba fdbe 01bb 0144 f6bb 7a52 a0ba
00000290: dece fcbc ca98 0fbc a79f 34bb 803e 9abb
000002a0: a57b fc39 473e 263e 9608 74bc 846d c83c
000002b0: 945c 173c e0bf 8bbd 939a 9e3d 9fe9 2b3f
000002c0: 60ef df3c 11ed 883a d037 4f3a 50b9 b83a
000002d0: a282 f5b9 0430 a6bc f66e 1f3c 6a25 9abc
000002e0: 9b94 363b 410f 87bd fe77 1bbc 7a8b 0fb9
000002f0: 45ae 533d 8dc2 9e3a d2f7 943a 3335 bab9
00000300: edd9 d23e 6198 e03b 234b 4dbc bb0f 69bb
00000310: 696b 73bc f629 05bc f846 da3c 03c0 f6bb
00000320: b4e8 813d b80e a2ba 21bb 1fbd f5f5 f83a
00000330: d614 cf39 d056 803d c61d dd3c fa0c ff3a
00000340: 4d91 5c3b a7cb f13d 61fd 4cbb 7f9c 4d39
00000350: a8ac 113d 4587 28be efd8 543b 1818 b0bb
00000360: a148 f63d 2918 78bc 5e96 fcbc 8662 f4bb
00000370: 83c6 1c3c 0655 9bbd df69 433b 7553 c53c
00000380: 11e4 68be dcf2 a4be 6183 893b 4104 a2bb
00000390: be23 a6bb 8779 e5bb bdfa 793b 99fe 073c
000003a0: 1bbf 4abb d102 fbb9 7ff6 d1bb 9683 5abc
000003b0: f322 883d b16b 573d 5e32 7bba 0d63 bdbb
000003c0: 58ab cebc 0c75 11b8 7f9a 6cbc 086b 11bb
000003d0: bcd0 e4b9 4060 b43b 1228 da3a 121f 283a
000003e0: 76c4 c43a b47a 22ba 547e 103f 7179 9bbc
000003f0: 8c79 fb3b 1fff 47bb 62a1 4037 c0e9 3abd
