data/pendulum/models/lsac-pendulum-l.pth (torch, 272024 bytes, 5 tensors)

fc1.weight f4 [256, 4]
00000000: 7909 95be 3aaa e03e 5ddf 47be 6c4f d23d
00000010: c9b3 83be cfce 19bd 8647 aabe 5f7b 3dbd
00000020: e5e4 c6be 921f f73e 1179 453d 4c07 4c3c
00000030: 758e 52be a75f 473f 4dd2 1d3e 845b 0ebe
00000040: 6334 91be bcb3 863e 270e 09bd 8224 cd3c
00000050: 889a 893c eb30 6dbf f911 6a3e 5869 d13c
00000060: 3b7f fbbe 01f8 38bd 3740 9dbd 4940 27bb
00000070: eead a7be 0454 04bf 1a2b cabe 6979 9bbd
00000080: c44f a6bc 839b b43e 1e47 4dbe 0e79 61bd
00000090: b464 023f d719 933f 444a 9e3e 861e c43c
000000a0: 21fe 55be 5ae4 b13e 783e 25bd 98a4 0d3c
000000b0: c3c3 19be 62a0 4a3f cc8b 673e dafd b43c
000000c0: 990f 49be 0f81 ed3e 23c5 ad3e 2f56 fa3c
000000d0: dd26 09bf 4121 7fbd 11fe 8c3d f2b1 d6bd
000000e0: c791 a3be 7819 9bbe 1ae3 cbbe 8622 eebd
000000f0: f0c4 fb3e 706e 493e 12e9 843e d53c 503c
00000100: b795 433d d6c7 933e 93fc 1e3d 8214 ad3b
00000110: ca52 d23c 30fd f9bc f6b1 c1bd abab 97bb
00000120: c109 e7bc dffb 86bb a2ca 303a 41eb 63b9
00000130: ad48 b73d f01e a9be 3e21 0bbe 22a4 083d
00000140: f45c c63d a98f 4ebf 5077 623e 34dd 8f3b
00000150: 337d 1fbf f558 023f a761 50be fdee 293b
00000160: c991 c8be 7a82 cdbe 8b54 b83d 5c6e 333c
00000170: b918 0e3e e5a4 90bf c821 643e ab2b fa3c
00000180: 96e4 01bf 8a31 333e 244f ec3c a74b 05bd
00000190: 6379 20bd 8f08 95bf 4723 5f3e d141 3a3d
000001a0: bd65 40bc 4e38 08bf d178 a23c 425a 2cbc
000001b0: d92e 0ebe 6719 0fbf c057 043e 5eeb 133d
000001c0: f918 72be 4ff6 0dbf 3955 623e 68c4 7a3b
000001d0: 97aa 46be 9717 56be abe8 d7be 8262 9abc
000001e0: a105 193e 63f0 92bd 3931 17bb b31e 81bd
000001f0: 63e5 273e 8ad9 19bf 2834 c53e 0c1d d2bd
00000200: ca75 1ebf a344 08be bc78 3f3c 928a bc3b
00000210: d9b2 3b3d 9b76 563f ecd4 4cbe d179 8e3d
00000220: 5910 db3d 6d65 393f 0db4 4ebe 6399 d1bc
00000230: 6f2a c8bd 5b93 d03d eac2 b3bd f453 113c
00000240: 3940 1c3f 5e46 f43e fec5 6b3e 6f80 bd3c
00000250: 7271 0abf 8619 7b3e 47b8 eabd b2c6 e9bc
00000260: b1ae ea3b 7da3 403e b5bc a2bc 1363 c23d
00000270: a18b 113e 7ddf 213c 8234 133e cbf6 37bd
00000280: aea2 02be 9dfd 07bd 31f0 10bd 4c3d 4c3e
00000290: 681e e23d fc6e 143f c497 4a3d f9f6 d33c
000002a0: a763 d83e a7fa 653f 9e67 713e 98c4 eebb
000002b0: 1a4c ae3b da41 4fbf 13a1 d0bd 375f efbc
000002c0: 2059 1a3e 684f 23bf 0127 01be bea8 f2bb
000002d0: 1455 6c3c 525e 893d 3434 193c 58f1 6dbd
000002e0: 5b30 97be 1019 bb3e dc96 0b3d 7878 4a3b
000002f0: 3c8a 133d 6bb6 4abd 3d25 393b 272c 5ebe
00000300: fef3 f1bb e0cd db3e 872d 3fbe f518 f23d
00000310: 1712 e9be a275 083e adfb 70bd f1ea 42bc
00000320: 8856 34be 42c5 51bf f39e 9bbe f7a6 33bd
00000330: 9f2f 973e d164 903f c5a2 23be d24f 133c
00000340: 509d ddbd 2c3c c63e f4c8 46bd 50df e33a
00000350: d2f2 c83d ea58 0f3f 3cd4 36bd 1275 c4bd
00000360: bb09 a93d 032c 283d ae8b bc3e 1e53 7abb
00000370: 95f6 b2be c8e2 393f cc53 143e 32c7 39bc
00000380: e2ec 203e d8a6 763e 42c8 8f3e 9c53 cc3c
00000390: 4ce2 8c3d 0157 2fbd 4898 99be c9eb 053d
000003a0: d076 483e 057b 8ebf 1833 9abe 9f3f babc
000003b0: bbba 28be 6251 d03b f3d6 023f d6cc bc3d
000003c0: 0bb0 833e 88f8 3b3e c796 abbd 52cc b9bd
000003d0: df62 b7be 1b23 fbbe 4724 923d 96e8 58be
000003e0: 3d92 5cbd 202f bd3f aff9 7c3b dc27 ac3c
000003f0: 3b17 be3e 26f1 96bf ffad 90be c7dc 06bc
-0.2910879 0.43879873 -0.195188 0.10269055 -0.25723103 -0.037550744 -0.33257693 -0.046260234
-0.38846508 0.48266274 0.04821116 0.012452912 -0.20562156 0.7788033 0.15412255 -0.13902098
-0.2836028 0.26309 -0.033460762 0.025041822 0.016797319 -0.9265277 0.22858419 0.025562927
-0.49120507 -0.04515839 -0.07678264 -0.0025520495 -0.32749885 -0.516907 -0.3948601 -0.075915165
-0.020301707 0.35274896 -0.2004666 -0.055047087 0.5093491 1.1492261 0.30916035 0.023940336
-0.20897724 0.3474453 -0.040342778 0.008645199 -0.15016083 0.79150975 0.22611922 0.022093702
-0.19634856 0.46387526 0.33939466 0.030558674 -0.53574926 -0.062287573 0.06884397 -0.10483159
-0.31947157 -0.3029287 -0.39821702 -0.116276786 0.4917369 0.19671035 0.2595907 0.012709816
0.0477502 0.288634 0.038815092 0.0052819857 0.025674243 -0.030516237 -0.094577715 -0.0046286187
-0.028202893 -0.004119381 0.0006744062 -0.00021736046 0.08949409 -0.33031416 -0.135869 0.033359654
0.09685698 -0.8068796 0.22115827 0.004390383 -0.62300414 0.5091699 -0.20349751 0.0025929802
-0.39173725 -0.40138608 0.090005 0.010951605 0.13876618 -1.1300322 0.22278512 0.0305384
-0.5073942 0.17499366 0.028846331 -0.03254285 -0.039178263 -1.1643237 0.21790801 0.045472924
-0.011743006 -0.53210914 0.019833 -0.010519566 -0.13885058 -0.55898136 0.12924099 0.036113136
-0.23642339 -0.5545396 0.22102822 0.003826404 -0.19401012 -0.20907436 -0.421697 -0.0188458
0.14943554 -0.071747564 -0.002307011 -0.063046835 0.16396098 -0.60097563 0.38516355 -0.102594465
-0.6189848 -0.13307433 0.0116865 0.0057538236 0.04582486 0.8377473 -0.20003098 0.069568284
0.106964774 0.7242039 -0.20185871 -0.025585836 -0.097737186 0.10184356 -0.08777411 0.008870114
0.61035496 0.47709936 0.23024747 0.023132531 -0.54079354 0.24521455 -0.11460929 -0.028537128
0.007161938 0.18812366 -0.019865373 0.09491553 0.1421342 0.009879944 0.14375499 -0.044913094
-0.1275737 -0.03320085 -0.035385314 0.19945258 0.11040956 0.5798185 0.04946114 0.025874602
0.4226353 0.8983559 0.23574683 -0.0072866194 0.0053191306 -0.80959857 -0.101869725 -0.029220207
0.15073061 -0.6379304 -0.12612535 -0.0074053695 0.014424581 0.06707443 0.009350825 -0.05809149
-0.2952908 0.3654256 0.034079418 0.003089456 0.036020502 -0.049490374 0.0028250956 -0.2169653
-0.0073838225 0.42930508 -0.18669711 0.118211664 -0.45521614 0.13326123 -0.058833767 -0.011896835
-0.17611134 -0.81941617 -0.30394706 -0.043860402 0.2952852 1.1280767 -0.1598006 0.008991199
-0.108210206 0.38717782 -0.048531488 0.0017385278 0.09811939 0.5599505 -0.044635996 -0.09592642
0.08253809 0.041057598 0.36825317 -0.0038196514 -0.34953752 0.72611666 0.14485091 -0.011338996
0.15715364 0.24087083 0.28082472 0.024942212 0.068791 -0.042807583 -0.29998994 0.032695565
0.19576573 -1.1131293 -0.30117106 -0.022735415 -0.16477482 0.006357358 0.51109236 0.09218757
0.25720248 0.18356526 -0.08378368 -0.09072174 -0.3581762 -0.4905022 0.071358256 -0.21182474
-0.0538504 1.4780006 0.0038600971 0.0210151 0.37127098 -1.1792343 -0.28257748 -0.008231348

fc1.bias f4 [256]
00000000: 28b7 313e da12 03bf fde4 c33d af2a c1be
00000010: 1490 d93d 5cea 3a3d 5c8b cf3e c8f2 edbe
00000020: abe3 27bd c2a2 373a 6841 403e c39b 5f3e
00000030: 0012 3b3b 96bc 813d cd44 5a3d 669d 80be
00000040: 0eb2 d03d 2b0f b3be df8b 5bbd 3ded 68be
00000050: c80e 813e e308 5cbd 3476 493d a15c a4bd
00000060: b5de 0ebe c166 b03c 2d62 d2bc eebd 97be
00000070: 817a ee3d 4571 0dbf de90 95be bd10 c7be
00000080: f20d 88be e5bb 04bd 4277 57be ae3c 3bbe
00000090: cf61 c6be fb43 e93e 547a 06bf feab febe
000000a0: d5ee c6be 1f69 d3be 9b40 d53c 6acb a5be
000000b0: 4d4e f53d 8bb5 8abe 2bbc 94bd 89a5 01bf
000000c0: 3be2 4dbe fcf2 ce3e 0e9b 0dbe 467b 5abd
000000d0: 15e0 933d 59a4 bdbe c9de 21be 478a 45be
000000e0: b54c 5dbe f90d 03bf dea6 683e bd3d 913d
000000f0: 91ba 03bf 5269 93be 1e11 a73c 77bf b83d
00000100: e0fd cfbe 629a 10bf 7e2e f4bd 26c3 e4be
00000110: d38f 1bbf 7887 12be 30d9 803e 311e 9dbe
00000120: 84db 823d a78b b53e a687 89be 5fd4 12bc
00000130: bc5f 1fbf 498f 97be a543 fdbd 4d8f babe
00000140: e430 b9be eb37 113c 0d90 d0be 426c f1be
00000150: f38a 1ebe 45f4 fabd 0009 09be 53c5 423e
00000160: ceac 29bf 7f38 43bf fffb 9dbe de10 4b3d
00000170: a66d 683e b9de 0ebe 8575 d4be 87bd 4fbf
00000180: d48f e03c ef3e 6abe 54d8 34be e7ee 48bf
00000190: af33 d3be 0cf8 843e 6beb 73be c540 28bf
000001a0: 1d45 abbe 6cdd 5f3e ca6d 59bf 18c3 6c3d
000001b0: e2a8 0dbf 26c6 0ebf 2578 1abd 2c4b 0bbe
000001c0: 8725 f73e ffc8 b3be 9cc4 07bd 93a4 adbe
000001d0: 0442 debe dff6 54be fe56 d63d 29ad 9fbe
000001e0: 91b8 72bd 2b5b f63d 6d13 acbe 9891 c13d
000001f0: 596b edbe a043 d6be e40a 02bf c028 afbe
00000200: 7116 2c3e 29d4 f6bd f962 2bbf cde5 1fbf
00000210: 618a 77be f8b7 29bf b408 87bc 7055 34bf
00000220: 82d3 c93d cec8 edbd 672c 84be 12b2 7e3e
00000230: 3e8c 513d 671d e23e 726f f83d eee0 29be
00000240: 88c6 14be 4cae 5ebf c9dc 2cbe 7792 14be
00000250: 2e8e 36be acda 5fbf da2b 2cbc 2600 4c3e
00000260: 6c5f 1fbf e8fe c7be ca10 04bc c495 7cbe
00000270: 54a2 77be e8a2 9cbe 972c a6be 4620 54be
00000280: fcd6 55bf e287 b43c f3a0 a1be 5b63 df3e
00000290: b86d 1c3e c384 04bf 2582 03bf bb02 65be
000002a0: b156 943e dd20 c3be 23e8 f2bd 2238 0ebf
000002b0: b79d d5be 34e6 c7be 9a0e 18bf 0f62 b8be
000002c0: 44d6 243e 8c4c 0b3e 94ac 3dbf c5c7 723e
000002d0: ec28 11be 6327 6f3e 5db3 debe 8834 833d
000002e0: a8b0 59be a742 65be 122a 363e 8f09 bbbd
000002f0: b660 783e 7f18 e2be 0aca cfbe d291 c6be
00000300: 65f6 633e 2a6b 0bbe a9df ae3c b4e4 93be
00000310: 1b06 3b3e 712f 29bf bafc 5d3d 5037 b6be
00000320: 4389 cdbe 3936 bdbe b50c 5e3e e291 a53e
00000330: 80f9 923e da00 f1be 4844 94be 9d7d 85be
00000340: 8f8d e8be 536b a2bd 2f5c 37bd fc08 aabe
00000350: e280 823e da1b 4b3e 3fa3 733c bd04 82be
00000360: b7a3 67be bc7c d9be 8b13 c63e a3c0 81bd
00000370: ae26 a2be c532 303e 2eee 77be 4114 e1bc
00000380: 858a 8d3d f289 7abd c70c 293c 112c 1ebf
00000390: 991e cd3d eea8 8f3c b29c e6be 9e08 bfbe
000003a0: cf88 b63e f517 8b3e 54a3 b33d 6d36 8a3e
000003b0: be53 f6be 03a5 673e 4936 9a3c a754 4e3e
000003c0: 121d 24be 05f2 eb3d 8f40 7fbe 6a36 ba3d
000003d0: 5df8 85be 995e df3d fb91 ef3c d31c 37bd
000003e0: ff30 07be 1aa9 fd3e 0822 b6be af72 9dbe
000003f0: cb0d 3c3d b9d0 cdbe effc 493e c922 8c3e
0.17355025 -0.5120064 0.095651604 -0.37727877 0.10623184 0.04563366 0.4053601 -0.4647429
-0.040988605 0.0007005149 0.1877495 0.21836762 0.0028544664 0.06334798 0.05328827 -0.25120085
0.10190211 -0.3497251 -0.05360019 -0.22746749 0.2520659 -0.053719413 0.049184993 -0.0802548
-0.13952143 0.021533372 -0.02568158 -0.29637092 0.116444595 -0.5525096 -0.29212087 -0.38879958
-0.2657314 -0.032405753 -0.21041587 -0.18284866 -0.38746497 0.45559677 -0.5253041 -0.49740595
-0.3885409 -0.4129114 0.026031783 -0.32381755 0.11977825 -0.2709163 -0.07262453 -0.5064321
-0.20105831 0.40419757 -0.1382868 -0.05334022 0.07220475 -0.3703945 -0.15807642 -0.1929103
-0.21611293 -0.51193196 0.22719905 0.07091854 -0.5145655 -0.2879129 0.020393904 0.09020894
-0.4062338 -0.5648557 -0.1192293 -0.44680136 -0.60766333 -0.1430949 0.251657 -0.30687097
0.063895255 0.3545811 -0.26861304 -0.008961766 -0.62255454 -0.29601505 -0.12366418 -0.36437455
-0.36170113 0.00886343 -0.40734902 -0.47152907 -0.15482692 -0.12253622 -0.1338234 0.19020586
-0.66279304 -0.7625808 -0.3085632 0.049576633 0.22698078 -0.1395215 -0.4149591 -0.8114857
0.027412333 -0.2287557 -0.17660648 -0.78489536 -0.4125037 0.25970495 -0.23820274 -0.6572383
-0.33451167 0.2186181 -0.8493315 0.057803243 -0.5533582 -0.557711 -0.037712235 -0.13602895
0.4827082 -0.35114285 -0.033146486 -0.33914623 -0.4340974 -0.20797299 0.10465811 -0.31186798
-0.059258047 0.12029108 -0.3360857 0.09451598 -0.46370962 -0.4184847 -0.5079787 -0.34210777
0.16805436 -0.12052185 -0.66947895 -0.62460023 -0.24173881 -0.6629634 -0.016483642 -0.7044287
0.09854795 -0.11610566 -0.25815126 0.24872616 0.051159136 0.44163057 0.121306315 -0.1658971
-0.14528859 -0.86984706 -0.16881098 -0.14508997 -0.17827675 -0.8744304 -0.010508502 0.19921932
-0.6225498 -0.39061666 -0.008060643 -0.24666506 -0.24183017 -0.30593038 -0.32455894 -0.20715436
-0.83531165 0.02203745 -0.31568107 0.4363049 0.1527623 -0.5176508 -0.5137046 -0.22364323
0.2897239 -0.3811101 -0.11860683 -0.555544 -0.4172189 -0.3904282 -0.5939728 -0.36012313
0.16097361 0.13603419 -0.7409146 0.23709019 -0.14175767 0.23354869 -0.43496218 0.06406504
-0.21258795 -0.22388707 0.17789486 -0.091326825 0.24255642 -0.44159314 -0.4058383 -0.38783127
0.22261961 -0.13615099 0.021346884 -0.28885424 0.18264048 -0.66088015 0.054196097 -0.35589075
-0.40143785 -0.3695543 0.21684535 0.32337862 0.28705978 -0.47070962 -0.28958344 -0.26072398
-0.454205 -0.07930627 -0.044765648 -0.3320998 0.25488955 0.19834843 0.014870464 -0.2539424
-0.22621046 -0.42477977 0.38686785 -0.06335571 -0.31670135 0.17206867 -0.24211952 -0.027475478
0.06911186 -0.06116671 0.010317988 -0.6178599 0.10015602 0.017536607 -0.45041424 -0.37311262
0.35651252 0.27166715 0.08771387 0.2699465 -0.48110765 0.2262154 0.018824713 0.2014948
-0.16026714 0.11520771 -0.24926971 0.0909241 -0.2616605 0.10906715 0.029244414 -0.044705223
-0.13202284 0.49543077 -0.3557284 -0.3075156 0.04591159 -0.40198305 0.19725393 0.2737029

fc2.weight f4 [256, 256]
00000000: 25d1 43bd 9b4e a639 19e2 82bd 42ef 82bd
00000010: 24ca 59bb c529 c2bd 40dc b1bd 2083 8ebd
00000020: 44d1 e0bd 8cdb f5bb 329b 26bd 8b05 983c
00000030: 2d7f e5bb d160 aa3c 71e1 073a a838 a9bd
00000040: a9df 5b3c e8a0 a33c 14e1 293c db3b 20bd
00000050: 2d60 04bd 2c22 2abd 7844 23bd 816c bfbd
00000060: 77c9 04bc 7e87 1e3c 0f6f 2dbd 26a8 473d
00000070: db93 2c3c b5ad e33c ad22 7a3c 9f75 65bd
00000080: 2a4c 17bd 9dfb 3dbd f2de 1e3c 9387 383b
00000090: 7b0e 343c 7ec7 6dbd f7d4 82bd 4056 1e3c
000000a0: 2c39 ddbc b0ca 233c 4498 ebbc 42fc 87bc
000000b0: 3cd7 a5bd 326c 493d f590 a9bc a55a a1bc
000000c0: f08b 8ebd 715d 81bd 95f0 333c 7feb ea3c
000000d0: 74e5 77bd 34bd 453c 1486 06bd 0a7d 833c
000000e0: 96d9 50bd 0f3a cdbb 73c8 a8bd 9113 86bb
000000f0: a840 bfbc 80dd 65bd d5d6 8f3d 47a2 0a3d
00000100: 6044 74bd 4fdd 303d cd8b 043d 8558 7fbd
00000110: ee69 cb3c 8aca fa3c 8bce a0bd c4f5 2fbd
00000120: 6194 96bd b2e5 aabd 91a5 973c 8c82 06bd
00000130: 69ec fbbc 5213 213e 717d 513d 726a 3f3d
00000140: 2a38 78bd 19c4 c63c 82dd 81bc 0e12 e4bb
00000150: 2360 563a a0e2 d93b 4cb1 16bd cbe9 9bbd
00000160: 4d2b 56bd 2e56 eebc 557f 393c 1d84 833d
00000170: 1bbe 74bd d028 a2bd 9e44 05bd 4e5c 85bb
00000180: 9d5b 82bd 2f39 e1bb 0955 d9bc a33a 613d
00000190: e202 18bd bfb9 9dbd 0ab7 b8bc 5e4d c7bc
000001a0: 156f 4a3c 564b dabc 66ff e0bc 251c 36bc
000001b0: ec1e 3e3d c78d d8bb 6c17 95bd 3efc 14bd
000001c0: 8b73 cdbc abef 493d 7205 42bd 14b1 36bc
000001d0: 8457 3cbb 8afa c3bc 8a70 76bd 291a c6bd
000001e0: 6d78 0c3c ebb3 e7bc 2bf6 953c 3cbf 85bc
000001f0: 08d1 38bd 865e ca3b 2a51 ae3c 5a49 233c
00000200: 5105 14bd 7828 443d 1432 4abd d3f4 6bbc
00000210: d9d7 78bd 44fc b1bc 6c5f 7dbd 15ca 53bd
00000220: a229 0d3c 972a 87bc 8459 353d e413 efbc
00000230: c8b8 d8bc d291 433d 677c 103c ce17 183d
00000240: b1fd 0c3b 9182 553a 64b6 bb3c dfff 893a
00000250: 8c82 8bbd 7bc2 4abd 950b 0dbd ddff 8cbd
00000260: 8fe8 993c de54 1d3c d08a 7b3c a18f ae3c
00000270: e4da 6ebd fd17 263c bdda 15bd f28c 34bd
00000280: 5bcd f53c da67 15bd 1d32 8d3c 9403 34bc
00000290: aba6 92bd 5aa5 5dbd 4248 593c 0047 343d
000002a0: 36db 323c 56b6 5ebd f0fc c13c eb7e afbc
000002b0: ab49 0e3d 18f8 f1bc 7809 78bc 0dc5 8abd
000002c0: 6c37 a33c 08cd 73bd 2e3b debc 244c 32bd
000002d0: 43f1 e1bc e806 1c3c 9e66 8a3c 8c1b 2cbc
000002e0: 048a 17bd 4ca0 b83c 7e97 3c3d c9f2 8dbd
000002f0: b7e5 2cbb bf29 25bd 709f 59bd 00b1 4eba
00000300: a257 aa3c 1b5e 45bc 9526 09bc a8ef a0bd
00000310: dddf 17bb 5094 b73b a852 91bd d9a2 bebc
00000320: e72f 8c3d 8645 2fbd 7d09 3b3d 707f 49bd
00000330: f1ad b9bb f5d3 f6bb ae02 30bd e08f 41bd
00000340: b697 0e3c 98ef d8bd 67db 6c3d b50a c8bb
00000350: 510d 3abd 4e5b 53bd a95d 29bd dcd3 693b
00000360: c179 95bc f510 abbc 547f 97bc 26fa 80bd
00000370: 5111 b9bc b44f 76bc d914 e63c 5eb2 ddbc
00000380: 78d5 04bd f064 94bd e2a8 31bd 6c1d b03c
00000390: 2d40 273d b0be 4dbd c04e a0bd 6464 64bd
000003a0: d0d6 6fbd c7f2 f8bc 5fae 5fbd 29d6 1cbd
000003b0: d0e6 28bd fcc4 0fbc 4fdc 46bd e856 10bc
000003c0: cf0a 1fbd 16f6 173d 9cfc 9cbd b5a1 503c
000003d0: 6c90 8fbd c3d4 13bb fdf8 9fbd 8ca8 c4bc
000003e0: 62bf 0a3d 6151 60bd 5dff b6bb 2f32 323d
000003f0: 9275 14bd 5f37 2fbd e405 553d 5408 df3c
-0.047806878 0.00031720553 -0.06390781 -0.06393291 -0.0033232057 -0.09480623 -0.086845875 -0.06958604
-0.10977414 -0.0075029787 -0.04067535 0.01855733 -0.007003686 0.020798119 0.00051834347 -0.082627594
0.013420024 0.019974187 0.010368604 -0.039119583 -0.032318283 -0.041536495 -0.03986022 -0.09346867
-0.008104674 0.009675859 -0.04234224 0.048744343 0.010533298 0.02779279 0.015267056 -0.056020375
-0.03693787 -0.046382535 0.009696709 0.002815698 0.010989781 -0.05805158 -0.06388276 0.009664118
-0.0270048 0.009997055 -0.02875913 -0.016599778 -0.08097693 0.04917545 -0.020699004 -0.019696543
-0.06960285 -0.06316651 0.010982652 0.028676746 -0.060521558 0.012069035 -0.03284271 0.016050834
-0.050988756 -0.0062630246 -0.08241358 -0.004091688 -0.02334626 -0.056119442 0.07023398 0.033846166
-0.05963552 0.043179806 0.032359887 -0.06234028 0.024830785 0.030614156 -0.07851895 -0.04295899
-0.0735252 -0.08344592 0.018511565 -0.032839343 -0.030752378 0.15730026 0.05114502 0.046732374
-0.060600437 0.024263429 -0.015852693 -0.00696016 0.00081777776 0.0066493303 -0.036790177 -0.07612952
-0.05228739 -0.029093828 0.011321862 0.06421683 -0.05975161 -0.079179406 -0.03253614 -0.0040698415
-0.0636513 -0.006873272 -0.026529806 0.05498756 -0.037112124 -0.07701444 -0.022548217 -0.024328884
0.012355586 -0.026647251 -0.027465533 -0.011115109 0.04641621 -0.006608698 -0.07279858 -0.03637337
-0.02507951 0.04930083 -0.047368474 -0.011150617 -0.0028738687 -0.023923177 -0.06016592 -0.096729584
0.008573634 -0.028284034 0.018305859 -0.01632654 -0.045121223 0.006175819 0.021278936 0.009966219
-0.036137883 0.047890157 -0.049364164 -0.014401632 -0.060752723 -0.021726735 -0.06185858 -0.051706392
0.008615883 -0.0164998 0.044274822 -0.02918429 -0.026455298 0.047746487 0.008818722 0.037132077
0.0021513517 0.0008144761 0.022914119 0.0010528526 -0.06812009 -0.049501877 -0.034434874 -0.068847395
0.01878765 0.009602753 0.01535292 0.021308722 -0.05831422 0.010137555 -0.03658556 -0.04407973
0.030005148 -0.036475994 0.01723581 -0.010987181 -0.07160696 -0.05411277 0.0132618565 0.044013023
0.010916522 -0.054373108 0.02368018 -0.021422824 0.034738224 -0.029537246 -0.015138976 -0.06775866
0.019923888 -0.059521705 -0.027127828 -0.043529645 -0.027580863 0.009523131 0.016894635 -0.010504615
-0.036996856 0.022537373 0.04604291 -0.06931073 -0.0026382038 -0.040323015 -0.053130567 -0.00078846514
0.02079374 -0.012046362 -0.008371015 -0.07858211 -0.0023174204 0.005602397 -0.070958436 -0.023271011
0.06845074 -0.042790912 0.045663346 -0.0491938 -0.0056664874 -0.0075325915 -0.042971306 -0.04725635
0.008703163 -0.10592574 0.057826426 -0.006104792 -0.045422856 -0.051600747 -0.041349087 0.0035679257
-0.018246533 -0.02088211 -0.018493332 -0.06297712 -0.022591265 -0.015033651 0.028086113 -0.027062591
-0.032430142 -0.07245815 -0.04337395 0.021498404 0.040832687 -0.050230682 -0.0782752 -0.055759802
-0.05855447 -0.030389203 -0.054609653 -0.038290177 -0.041235745 -0.008774992 -0.048549946 -0.008809783
-0.038828667 0.03709992 -0.07665369 0.012733866 -0.07009968 -0.0022557236 -0.078111626 -0.02400615
0.033873923 -0.05476511 -0.005584641 0.04350489 -0.036244936 -0.042777415 0.05200757 0.02722565

fc2.bias f4 [256]
00000000: 3560 07bd dc57 003d 88f8 6cbd 592b a7bc
00000010: 7e64 e13d 9977 e2bc c702 523c 0257 1fbd
00000020: a222 14bd a59b 7d36 bf68 7fba 6641 9bbd
00000030: f31a 67bd 43c6 1d3d b6eb 51bb 58b6 70bc
00000040: 52b7 82bd 6366 e93c 15a2 563d 968e 483c
00000050: cecc 0abd ec4b ce3e aede 68bc 8b75 a0bc
00000060: ca61 1cbd 707f 663c 57bf 37bd 205e 1cbe
00000070: ff44 dd3c 34cf 843d 8d95 f03b ef98 023c
00000080: 7f76 73bd f51e 91bd e166 533b cab4 8bbc
00000090: cba0 08bd c3ee b1bc 2752 123b 009b 6cbc
000000a0: d33e 09bd a061 38bc db25 7abd f3ff f0bc
000000b0: 0116 f5bc df95 6c3c 9b68 183d c17d 3aba
000000c0: 7150 89bd 86f5 34bd d8c8 f53c 504c 903b
000000d0: fddf c0bd 7275 66bd da22 f6bd 8c30 6dbd
000000e0: d52b 76bc 5467 48bc a393 a93c 2aec 613c
000000f0: d555 76bd 8def a9bc 8226 1b3d 5039 77bc
00000100: 8f8b b0bc fdc7 50bd 4144 91bd 252e 8a3b
00000110: d3f0 313b 44c1 e4bb ce42 81bd 6e3d 8dbc
00000120: 401e 953a 1cb0 8c3c 5ef1 c73a 69a0 a23c
00000130: 85f6 90bc 4979 3c3d 1962 96bd 3cab 69bd
00000140: 8fd3 47be 215f bd3c b3eb 0ebd 5b4a a1bd
00000150: a94f eb3b ab7a 56bc def0 83bd 5c75 0a3f
00000160: 546b 3abc e3d0 943c 895f ecbc 47e9 c7b9
00000170: 0ad1 843b 0ce6 8ebb 6753 6cbc f6c8 d5bc
00000180: d99c c4bc a7dc 2bbc 0135 aebd bc9f 08be
00000190: c318 03bd dc00 7fbc 69aa afbc 2f4e babc
000001a0: 7e4f bcbc 2eff 37bd f747 15bd baba 91bd
000001b0: 3886 3f3a 83d0 03be 610f 3bbd 28b1 adbd
000001c0: 7496 83bc 8ecb 7fbd 7329 b9bd 3fb3 67bc
000001d0: 1144 88bc 8d70 b83c 3a73 3cbd cc03 293d
000001e0: 7e36 bdbd 2f3d bfbc 5b3b 6c3c cbe8 2abd
000001f0: ad45 cc3c 83ec 39bc bf16 073c 6465 5abd
00000200: 0e78 e23b c7e1 a0bd d910 cd3c 7f16 59bd
00000210: b256 28bc 93b1 8dbd 8fc6 ecbc c713 a8bc
00000220: f803 c73c e15f 61bd 704c afbc f885 a03b
00000230: 7ca7 493e 7f2d 0abd d9a4 24bd a3be 7ebc
00000240: 54e0 703d f3f1 42bd 31be b6bc ecf6 8bbd
00000250: ceaf 0abd e556 1a3b 372d 3bbd 8173 7cbd
00000260: 238f 363c cc45 06bd c6c6 5cbd ccd4 03bd
00000270: fb21 523c 45be df3a 1048 0d3d b0e4 d8bd
00000280: c43d 49bc 5e78 0cbd 91a5 9fbd 0934 f53c
00000290: d0d4 32bd e0bb 8abd 580f a1bd 4312 b5bd
000002a0: 73b2 1d3c 86e0 0d3e 7e60 c2bb a81e 5d3c
000002b0: 9791 73bc f7cb 9fbb 5191 df3c 8463 87bd
000002c0: b148 853c c4b7 2d3d 3fae 56bd 9714 49bd
000002d0: 151f 4bbd eac0 c53c fd9e 9cbd 8ea0 683c
000002e0: ca3a 83bd 2383 673b 3909 ae3b 74e8 223d
000002f0: 4d62 0d3e 1a02 87bd 6cf2 9ebd 9cdd b93b
00000300: d5b7 0abd 532f 82bd a3cc fcbc f3eb 3a3d
00000310: dd24 92bb cf90 503c 5a70 87bc 9b7f 50bd
00000320: d07b 2dbb 42ee 47bd 8b40 29bd 16cc d6bb
00000330: 7914 8dbd 2ef1 333d 476b cfbc 67ad 3bbe
00000340: d578 8abd dcd6 55bc b3f0 75bd 7fb3 b7ba
00000350: 041b 3dbd dd9b d63c 0d56 9a3e 3f56 40bd
00000360: 2913 31bd 6b21 173c 7174 3dbc 97eb ecbc
00000370: 8017 9fbc 9fec 3abe 1757 6dbd f388 81bd
00000380: 2fe7 50bc 9488 16bd c980 a9bc e943 8ebd
00000390: e8dd 19bd 1a98 ee3c 4651 8a3b 9869 543c
000003a0: 986d dd3b a29c 07bd 95a5 efbd 8095 6dbc
000003b0: 7e0a bcbb 46e0 26bd e2a0 6bbd ce7d 84bc
000003c0: 3edd afbd a515 cabb c565 823c 4ee4 163b
000003d0: 72b4 efbc 849d b4bc fa97 ce3c bdf5 b83b
000003e0: 716c 47bc 8160 55bc 3998 cebd 0563 373d
000003f0: ffc8 c5bd ba11 a4bd 0175 9abc c439 93bd
-0.033050735 0.03133379 -0.057854205 -0.020406412 0.110054955 -0.02764492 0.012818045 -0.038901336
-0.03616584 3.7790535e-06 -0.00097430864 -0.07580833 -0.056422185 0.038519155 -0.0032031364 -0.014691912
-0.06382622 0.028491205 0.052400667 0.012241026 -0.033886723 0.402923 -0.014213247 -0.019587299
-0.038179196 0.014068469 -0.04486021 -0.15270281 0.027010439 0.06484833 0.0073420466 0.0079710325
-0.05943918 -0.07085983 0.0032257366 -0.01705398 -0.03335647 -0.021720296 0.0022326799 -0.014441252
-0.03350718 -0.011253744 -0.061071258 -0.029418921 -0.029917719 0.014440029 0.037209135 -0.00071140757
-0.06704796 -0.044179462 0.030002996 0.0044036284 -0.094177224 -0.05626435 -0.12018366 -0.057907626
-0.015025099 -0.012231667 0.020700281 0.013789216 -0.06014045 -0.02074411 0.03787852 -0.015089348
-0.021550922 -0.050971974 -0.070930965 0.0042169266 0.00271516 -0.006981047 -0.0631157 -0.017241206
0.0011376813 0.01717382 0.0015254428 0.01985188 -0.017695675 0.046014104 -0.073429294 -0.057048067
-0.19514297 0.02311665 -0.03489275 -0.0787551 0.007181127 -0.01309077 -0.06442426 0.54085326
-0.011378128 0.018166011 -0.028854148 -0.00038130043 0.0040532397 -0.00436092 -0.014424182 -0.026096802
-0.024000572 -0.010489619 -0.085062034 -0.13342184 -0.032006036 -0.01556417 -0.021443563 -0.022742359
-0.022987124 -0.044921093 -0.036445584 -0.071156934 0.0007306072 -0.1287251 -0.045668963 -0.084810555
-0.016062953 -0.062449984 -0.09041109 -0.014141857 -0.01663402 0.022514606 -0.046008326 0.041263387
-0.09238909 -0.023344604 0.014418448 -0.041725915 0.024935568 -0.011347893 0.008245169 -0.05331935
0.0069112843 -0.078555636 0.025032448 -0.05299997 -0.010274576 -0.06918635 -0.028903274 -0.020517243
0.024293885 -0.055023078 -0.021398753 0.004898783 0.19692796 -0.033734795 -0.040196273 -0.015548381
0.058807686 -0.047594022 -0.022307487 -0.06834206 -0.033859067 0.0023550328 -0.045697417 -0.06163359
0.011142525 -0.032781407 -0.053900503 -0.03218536 0.012825484 0.0017070255 0.034492552 -0.10590494
-0.0122827925 -0.03429448 -0.07795251 0.029932039 -0.043659985 -0.067741156 -0.07864255 -0.08841374
0.009625065 0.1385518 -0.005931913 0.013496079 -0.014866254 -0.0048766094 0.027290972 -0.06610778
0.016270014 0.04241158 -0.052412268 -0.0490919 -0.04959019 0.02413984 -0.07647512 0.0141984355
-0.064076975 0.0035325966 0.005311158 0.039772466 0.1380703 -0.06592198 -0.07761082 0.00567217
-0.033866722 -0.06356683 -0.030859297 0.045635175 -0.004459961 0.012729838 -0.016533066 -0.050902944
-0.0026471503 -0.048811205 -0.04132132 -0.0065550907 -0.068886705 0.04393118 -0.025319709 -0.18327866
-0.06761328 -0.013051715 -0.060044 -0.0014015286 -0.046168342 0.026197368 0.30143777 -0.04695725
-0.043231163 0.009224276 -0.011563406 -0.028920932 -0.019420385 -0.18254326 -0.057944383 -0.06324949
-0.012750431 -0.036751345 -0.020691292 -0.069465466 -0.037565142 0.029125262 0.0042211143 0.012964629
0.0067574494 -0.03310836 -0.11701504 -0.014500976 -0.0057385555 -0.040741228 -0.057526477 -0.01617327
-0.085871205 -0.006167131 0.015917668 0.0023024264 -0.029260848 -0.022047766 0.025218952 0.0056445287
-0.012171851 -0.013023497 -0.10087628 0.044772167 -0.096574776 -0.080111936 -0.01885462 -0.07188752

q.weight f4 [1, 256]
00000000: 4999 02bc f29f 36ba d18f 0abd c1b5 45ba
00000010: 3221 d33d 23f6 40bc 1664 6d3c 1592 53ba
00000020: e03f 15ba 8161 2b3b 3683 f53b ccdc f1bb
00000030: ba54 053b 0f8b 973a 11a6 003c 97f5 b23b
00000040: 6c1c 18bb f5b7 d4b9 9b35 5a3a 013c e6bc
00000050: 863a 133a 83bc fe3d 87a2 35bb 53e9 e8bb
00000060: 79ab 3fba 3baf 143c 4922 0f3b e596 15bc
00000070: fcf2 5138 ae5d de3b 6570 3a3b 3b16 03bc
00000080: 178b a93a 5bb4 143c 5e2d d1bb 6f4e f53b
00000090: b993 e8bb 7903 173b 0b53 303b d246 123b
000000a0: e475 40bb b6d2 2cba a5aa c439 9998 183c
000000b0: cbbb 193d 3668 023c 6480 fb3a c844 9d3b
000000c0: bf8f b93b 8263 b03b 64dd 113c b09e 95bb
000000d0: d043 e9bb aeab 8fb9 b4d7 33b9 57a8 8cba
000000e0: a60f b03c 2542 27bb 3ac4 1bbc 8560 6f3a
000000f0: 8841 cdbb 2257 ecb9 96fd 8ebb 2fb2 8b39
00000100: 5d66 1bbc 00af 8db9 88f1 06bc 5a58 8438
00000110: b84f b23a 2c95 463c 5535 b83a 5012 083b
00000120: c778 b6b9 ac73 fcba a1f2 f8bb c77c b33c
00000130: 840a 903b 0237 443b 972b 0cbc fa72 313c
00000140: 5cc1 4e3b a8a3 adbc 6426 19bc 9301 80ba
00000150: 3d93 afb9 d7a3 8bba 5599 edba dbf2 97bb
00000160: 5331 f5bb cb90 1bbb a79d 66bc 4360 bfbc
00000170: 59c2 0c3c e694 7bbb 104c 443c 48f7 833a
00000180: e248 ee38 bfe6 523a ed90 05bc 8b44 043e
00000190: 8cb8 1bbb d603 da37 dc92 053c b1e7 ceba
000001a0: 1de2 0e3c e6ad 08bc f689 4bbb b5d7 513c
000001b0: 76c2 0fbd 658d ca3b db48 8bbb 65fa e4bb
000001c0: 0059 49bc 534b b73b 5d7b d93a 4b56 0dbc
000001d0: 079e b53b 4762 04bc 61d3 223b 0214 d03b
000001e0: 628a f03b 3158 daba 8eaa b13b 9da8 0bb7
000001f0: 4b91 933b 69eb 183a 7232 ce3b cfe4 0a3c
00000200: 7e41 62b9 32ad dcbb 1ed3 febc a017 3d3b
00000210: 81e3 8e3c 698e fa3a 218e aa3c 3bc2 013c
00000220: 292e bdba 4a04 bbba 959a 65ba f444 163c
00000230: 8ad2 053d 1128 163c a774 a33b 0b97 233b
00000240: 0a5f 6a3d 6947 a63b bd9d b7bb a61b 41bd
00000250: 148d 1cb8 f2c6 18bc aece 0d3d f314 98bb
00000260: 3322 853a bb51 9dba 8047 afbb 3bae 08bc
00000270: 5fb0 db3b 56b7 6d3a 8552 d3bb 0674 8b3a
00000280: b02f fa3b 90fe 44bb 25fe f33b 7a9a a43a
00000290: 1744 04bc d1ba dfbb a69a 0abc 1985 c7bb
000002a0: 5fb8 183c b6ab 313c f869 ffb9 219e 173c
000002b0: 5e06 853b 4443 513c 99f9 913a b882 1f3b
000002c0: 5b41 b0bb 5d89 c53a d30a cf39 ac28 91ba
000002d0: b889 00bc f332 69bc 8d77 97ba 968d b9b9
000002e0: 6889 80bd de01 1cbc 0c09 263c f909 9bba
000002f0: 3d3e 533d 72cb 1abc c79e e33b e067 bc3b
00000300: 04ef 2e3b 221e c13b 2b71 3ebb cc2f 903b
00000310: 7ace 14ba 7062 153c a308 133c 7b67 743a
00000320: 70b6 bdbb 97ff fc39 abcc bcba 3f89 383a
00000330: dce1 35bd 2642 ca39 1718 15ba deea 9db9
00000340: 3f64 0f3c 7167 f23c 8339 f03a b73c c43b
00000350: ce40 213a 63a7 783b 0e3a b43d a89f df3c
00000360: 9224 6d3d 1021 1a3c 8686 023a c924 c83b
00000370: 26df 133a bf29 d3bc 248d 1bbb 92c9 bd3b
00000380: 396f 0f3c 9678 093c c2cb eabb e79c cbba
00000390: 8491 283b e4f6 34ba e984 123c 36f5 433a
000003a0: f954 c53a ddd4 b13c 4e3e 0e3c 77d6 353a
000003b0: 0b02 76b9 b08f 22ba f89a f737 c84d 50ba
000003c0: 63ae 873b bdac 7e38 8ada a639 09a5 ce3a
000003d0: 1f90 13bc fc85 dd3c 63d1 e4bb b6ac 003b
000003e0: 0773 b13a 1ced f2bb d5ce 6e3b 37ee f6bb
000003f0: ac4f 18bc 6385 1b3c 11b2 52bb 9c75 84bc
-0.007971116 -0.0006966583 -0.03382856 -0.0007542037 0.10309066 -0.011777434 0.014489194 -0.0008070779
-0.0005693417 0.0026150646 0.007492448 -0.0073810574 0.002034469 0.0011561828 0.007852093 0.0054614055
-0.00232103 -0.0004057285 0.0008324028 -0.028104784 0.00056163257 0.124382995 -0.0027715282 -0.0071078925
-0.0007311623 0.009074981 0.0021840504 -0.009130214 5.005578e-05 0.00678607 0.002844834 -0.008000906
0.0012935129 0.009076203 -0.006383582 0.0074861567 -0.007097688 0.0023042841 0.0026904966 0.0022320044
-0.0029367143 -0.00065926777 0.00037511173 0.009313726 0.03753261 0.007959416 0.0019188044 0.004799459
0.005662888 0.005382956 0.008902881 -0.004566036 -0.0071186796 -0.00027402997 -0.00017151126 -0.0010731322
0.021491837 -0.0025521603 -0.009507233 0.0009131509 -0.0062639154 -0.00045078347 -0.004363726 0.00026644903
-0.0094848545 -0.00027024 -0.0082362965 6.310707e-05 0.001360408 0.012120526 0.001405398 0.0020762868
-0.0003480373 -0.0019260547 -0.007597283 0.021910084 0.004395785 0.0029940014 -0.0085553145 0.010830635
0.0031548357 -0.021196201 -0.009347532 -0.0009766094 -0.00033488302 -0.0010653686 -0.0018127362 -0.004637105
-0.0074826865 -0.0023737426 -0.014075673 -0.02336133 0.008591258 -0.003838831 0.011981025 0.0010068202
0.000113623 0.0008045248 -0.008152229 0.12916772 -0.0023761122 2.5989411e-05 0.00815269 -0.0015785602
0.008720902 -0.008342242 -0.0031057573 0.012807776 -0.03509756 0.0061814063 -0.0042506284 -0.006987857
-0.012289286 0.005593696 0.0016592551 -0.008626531 0.00554252 -0.008080072 0.002484523 0.0063500414
0.0073407153 -0.0016658363 0.005421943 -8.324304e-06 0.0045034043 0.00058334187 0.0062926346 0.008477404
-0.00021577437 -0.0067345137 -0.031106528 0.0028853193 0.017442467 0.0019115928 0.020819725 0.007919843
-0.0014433312 -0.0014268246 -0.0008758691 0.009171713 0.03267149 0.009164826 0.0049882713 0.0024961855
0.057219543 0.0050744307 -0.0056035207 -0.04714551 -3.7324688e-05 -0.009324776 0.034620933 -0.004641169
0.0010157287 -0.0012002507 -0.0053490996 -0.008342321 0.0067043747 0.00090681517 -0.006449046 0.0010639436
0.0076350793 -0.0030058958 0.007446068 0.0012558245 -0.0080728745 -0.00682769 -0.008459723 -0.0060888645
0.009321301 0.010844162 -0.00048716343 0.009254009 0.004059597 0.012772385 0.0011137008 0.002433939
-0.0053788847 0.0015070845 0.0003949018 -0.0011074743 -0.007845335 -0.014233339 -0.0011556015 -0.0003539144
-0.06276208 -0.00952193 0.010133993 -0.0011828534 0.051573027 -0.009447919 0.006946418 0.0057496876
0.0026692757 0.0058934847 -0.0029059153 0.004400229 -0.00056765194 0.009117708 0.008974227 0.0009323281
-0.0057895705 0.00048255615 -0.0014404258 0.0007039494 -0.04440485 0.00038577727 -0.00056874886 -0.00030120363
0.008751928 0.02959034 0.0018327687 0.005988683 0.0006151319 0.0037941567 0.088001356 0.02729781
0.057896204 0.009407297 0.0004979152 0.0061079008 0.00056408567 -0.025776742 -0.002373525 0.0057918513
0.008754545 0.008390566 -0.007165403 -0.0015534431 0.00257215 -0.00069032446 0.008942821 0.0007475199
0.0015055231 0.021707946 0.008681847 0.000693656 -0.00023461149 -0.00062012207 2.9516857e-05 -0.00079461606
0.0041406616 6.0719194e-05 0.00031824812 0.0015765737 -0.009006529 0.027041428 -0.0069829687 0.0019634194
0.0013538309 -0.0074135195 0.00364392 -0.0075357216 -0.009296339 0.009492251 -0.0032149593 -0.016169362
